figures/TS_global_5/theta=0.1_s=0.1_step=1/best_model.pth (torch, 249061 bytes, 6 tensors)

bias f4 [200]
0	0xbe9c790c	-0.305611
1	0x3e39d264	0.18146664
2	0x3ea1d0fe	0.3160476
3	0xbee7e2b3	-0.45290145
4	0x3e41fe57	0.18944679
5	0x3f012754	0.50450635
6	0x3db26e7b	0.08712479
7	0xbf1119f3	-0.5668022
8	0xbf069e0b	-0.52584904
9	0xbf103404	-0.5632937
10	0xbeea0fc3	-0.4571515
11	0x3eb3934b	0.35073313
12	0xbe447286	-0.19184312
13	0xbe513518	-0.2043041
14	0x3e9bb628	0.30412412
15	0xbe5df199	-0.21674193
16	0xbeef6a1e	-0.46760648
17	0xbe074104	-0.13208395
18	0x3ea4e81a	0.3220833
19	0x3eb54742	0.35405928
20	0x3d8d47b0	0.06898439
21	0xbd85fb50	-0.06542075
22	0xbf104915	-0.56361514
23	0x3f2933c6	0.66094625
24	0x3df7df28	0.121031106
25	0x3ec17066	0.37781066
26	0x3f20ba62	0.627844
27	0xbf134af3	-0.5753624
28	0xbe825e16	-0.25462407
29	0x3f2761b0	0.65383434
30	0xbdc13a0d	-0.094349004
31	0x3ed117b4	0.40838397
32	0x3ed80f9d	0.42199412
33	0xbea06a31	-0.31331018
34	0x3efdaeee	0.49547523
35	0xbeaec8de	-0.34137625
36	0xbf059677	-0.52182716
37	0x3f0be200	0.54641724
38	0xbf169028	-0.58813715
39	0x3ed4f04a	0.41589576
40	0xbe2a3a8a	-0.16623893
41	0xbe7e67df	-0.24844311
42	0x3eabe91a	0.3357628
43	0xbe5ded93	-0.21672659
44	0x3f34b16f	0.7058324
45	0x3e21a057	0.15783821
46	0xbecdd6a5	-0.40202823
47	0x3e05b2fa	0.13056555
48	0x3e415d8c	0.18883342
49	0xbe64af2b	-0.22332446
50	0x3f281958	0.6566367
51	0x3db7819c	0.08960268
52	0xbeec460e	-0.46147197
53	0xbec87687	-0.3915293
54	0x3f0fe10f	0.5620279
55	0xbf2ab634	-0.6668427
56	0xbe42e4ad	-0.19032545
57	0x3de8c2ca	0.11365278
58	0xbe254619	-0.16140021
59	0x3e558dd8	0.2085489
60	0xbea0dd10	-0.31418657
61	0xbe68b0b1	-0.22723652
62	0x3ec93775	0.39300123
63	0x3f28dc6c	0.6596134
64	0xbeb9bf04	-0.36278546
65	0x3e8cc0a1	0.27490714
66	0x3e109134	0.1411789
67	0x3f37e48b	0.71833104
68	0xbe901bc7	-0.28146192
69	0xbf0886f2	-0.5333091
70	0xbdb44c46	-0.088036105
71	0x3eace56d	0.33768788
72	0xbe5f7a7a	-0.21824065
73	0xbee40243	-0.44532976
74	0x3f10a6c6	0.56504476
75	0xbe370cca	-0.17875972
76	0x3e5e8a27	0.21732388
77	0xbdbe8991	-0.093035825
78	0x3ebf9f5f	0.37426278
79	0xbdd4b341	-0.103857525
80	0x3eb83d59	0.35984305
81	0x3f186ba7	0.59539264
82	0x3e12bb43	0.14329247
83	0xbf050ac9	-0.5196958
84	0x3f312b02	0.6920625
85	0x3ede76c8	0.43449998
86	0x3e995cad	0.29953519
87	0x3f35eaec	0.7106159
88	0xbeb5c16a	-0.35499126
89	0xbe6b6d7e	-0.22990987
90	0xbd914272	-0.070927516
91	0x3e691ea7	0.22765599
92	0xbd78fd46	-0.060788415
93	0xbd6cf259	-0.05784831
94	0xbeac5458	-0.336581
95	0x3e9a0761	0.30083755
96	0x3f156fc1	0.5837365
97	0x3e40a2a3	0.18812041
98	0x3ebe6cd5	0.37192407
99	0xbdc55bcd	-0.0963665
100	0xbd67911e	-0.05653488
101	0x3edd63a8	0.43240094
102	0xbe82adc2	-0.25523192
103	0xbf2d914b	-0.67799824
104	0xbea76cc3	-0.32700166
105	0xbdc4814b	-0.09594973
106	0xbd851b8a	-0.06499393
107	0xbe35d1f9	-0.1775588
108	0xbd4d99c6	-0.050195478
109	0x3ea9a1ac	0.33131158
110	0x3e3ef7fb	0.18649285
111	0xbe67f75d	-0.22652955
112	0x3e12cc1b	0.14335673
113	0xbdadb6a3	-0.08482101
114	0xbef7c35e	-0.4839124
115	0xbf29a38b	-0.6626517
116	0x3f30a229	0.68997437
117	0xbeb8b375	-0.36074415
118	0x3f0a35e2	0.5398847
119	0xbf0cc073	-0.54981154
120	0xbe0296ab	-0.12752788
121	0xbe7eea94	-0.24894172
122	0x3ea3803f	0.31933782
123	0x3f0c9e7c	0.5492933
124	0xbdc4f9e7	-0.096179776
125	0x3ef5d86d	0.48016682
126	0xbe2785c5	-0.16359623
127	0x3ef785ef	0.4834437
128	0xbf04fce6	-0.5194839
129	0x3ef2ce8f	0.47423217
130	0x3eaf5ae8	0.34249043
131	0x3ea6b03c	0.3255633
132	0xbd756f4a	-0.059920587
133	0x3f09c40b	0.5381476
134	0xbd97f5b3	-0.0741991
135	0x3f20720a	0.6267401
136	0xbd3da270	-0.04629749
137	0x3e697111	0.22797038
138	0x3f1f83b3	0.6231033
139	0xbf256a40	-0.6461525
140	0xbec55d44	-0.3854772
141	0xbd5b1d66	-0.053494833
142	0xbe8174c9	-0.25284413
143	0xbdca05e4	-0.09864405
144	0xbe942be2	-0.2893973
145	0x3ea0a973	0.3137928
146	0xbef9aeda	-0.48766214
147	0xbeccfc58	-0.40036273
148	0xbd5ecf7a	-0.054397084
149	0xbec9228f	-0.3928418
150	0x3eb85b6b	0.36007246
151	0xbe5f3ea1	-0.21801235
152	0xbea56536	-0.3230378
153	0xbf062850	-0.5240526
154	0xbe69af54	-0.22820789
155	0x3e9ce8de	0.30646414
156	0x3f09f5a7	0.5389046
157	0xbe3f21cc	-0.18665236
158	0xbf042422	-0.51617634
159	0xbe9e9439	-0.3097246
160	0x3f290f12	0.6603862
161	0xbe54f3ad	-0.2079608
162	0x3ebb341c	0.36563194
163	0xbf04e9c5	-0.51919204
164	0xbf2f92f4	-0.6858361
165	0xbf03d0a6	-0.5149025
166	0x3e050e6c	0.12993783
167	0xbed5a36f	-0.41726252
168	0x3f18a032	0.5961944
169	0xbdd7019f	-0.10498356
170	0x3f2c186f	0.6722478
171	0xbf027ed5	-0.5097478
172	0x3e6143a5	0.2199846
173	0xbf0dd9fe	-0.55410755
174	0xbdb0bf03	-0.086301826
175	0xbf07387a	-0.5282055
176	0xbe04b1d1	-0.12958457
177	0x3f162bd1	0.5866061
178	0x3f168e01	0.5881043
179	0xbf2bd1fe	-0.671173
180	0xbd22dffb	-0.039764386
181	0xbdd42bf3	-0.10359945
182	0x3eec325c	0.4613217
183	0x3edee454	0.43533576
184	0x3e93390a	0.28754455
185	0x3f0e95cd	0.5569733
186	0x3e89d6d8	0.26921725
187	0x3e5123a8	0.20423758
188	0xbd6f5c6f	-0.05843776
189	0x3e8bd05e	0.2730741
190	0x3ed0c9c5	0.40778938
191	0xbda661e2	-0.081241384
192	0xbecb8dc5	-0.397566
193	0xbefc33d5	-0.49258295
194	0xbe94bad2	-0.29048783
195	0x3f149167	0.58034366
196	0xbe86a4f2	-0.26297718
197	0xbe8e7874	-0.27826273
198	0xbdb6d2e8	-0.08926946
199	0x3e72e293	0.23719244

weight f4 [200, 2]
0	0x3d160725	0.036627907
1	0xbf1bbdd4	-0.6083653
2	0x3e871239	0.2638109
3	0xbf062902	-0.5240632
4	0x3e21126c	0.15729684
5	0xbf2d156d	-0.6761082
6	0xbf4ef35c	-0.80840087
7	0x3ee58f56	0.4483592
8	0x3f5f8cc5	0.8732417
9	0xbe722eec	-0.23650712
10	0xbe712ab1	-0.23551442
11	0x3e4885d2	0.19582298
12	0xbf034ffb	-0.51293916
13	0xbe5e26d7	-0.21694504
14	0xbf29a068	-0.66260386
15	0x3f4a8f49	0.79124886
16	0x3eb17232	0.34657437
17	0x3e9124d6	0.28348416
18	0xbd85339b	-0.065039836
19	0xbd77856e	-0.060429983
20	0x3e91caf9	0.28475168
21	0xbe7a13e1	-0.24421646
22	0x3f24f59e	0.6443728
23	0x3f58dc87	0.847115
24	0xbef3e276	-0.47633713
25	0x3e8a7076	0.27038926
26	0xbf226f12	-0.6345073
27	0x3ed65455	0.41861215
28	0x3e89528c	0.2682079
29	0xbf279f2f	-0.6547727
30	0xbf388ac8	-0.72086763
31	0xbb46279e	-0.0030236016
32	0x3f365e96	0.71238077
33	0xbf02584f	-0.50916
34	0x3f4be1ea	0.7964159
35	0x3d942830	0.07234228
36	0xbed3b4e5	-0.4134895
37	0xbf0d22ee	-0.55131423
38	0x3dc94481	0.09827519
39	0x3eb12196	0.34595937
40	0xbe530577	-0.20607553
41	0x3d855769	0.06510813
42	0x3f133275	0.57498866
43	0x3e66f4e9	0.22554363
44	0xbe2088ef	-0.15677236
45	0xbef402d4	-0.47658408
46	0x3f25f931	0.6483336
47	0xbee386d6	-0.4443881
48	0x3f0d884e	0.5528611
49	0x3f7028e3	0.9381239
50	0x3f31f117	0.695085
51	0xbd3adcfc	-0.045620903
52	0xbe8356e2	-0.25652224
53	0x3edb8af0	0.42879438
54	0x3eb3f919	0.35150984
55	0xbee44194	-0.44581282
56	0x3cdbbd11	0.026823552
57	0x3f0347bb	0.51281327
58	0x3f1e2f07	0.6179051
59	0xbe2347fa	-0.15945426
60	0xbd51fe96	-0.051268183
61	0x3c85fc56	0.016355675
62	0x3ea12c22	0.31478983
63	0x3e0d693f	0.1380968
64	0xbf307970	-0.689353
65	0xbe4e7e67	-0.20165406
66	0x3ec47fc9	0.38378742
67	0xbf297205	-0.66189605
68	0x3e967587	0.2938654
69	0xbf042f00	-0.51634216
70	0xbed7165e	-0.42009252
71	0xbefb5dbd	-0.49094954
72	0xbf3c4e3e	-0.7355689
73	0x3f1bbd0c	0.6083534
74	0x3f02ef7d	0.5114668
75	0x3e703957	0.23459373
76	0x3ea06907	0.3133013
77	0x3ea30226	0.31837577
78	0xbe9baf67	-0.3040726
79	0x3f355743	0.70836276
80	0xbe9e887b	-0.309635
81	0x3eb21ae8	0.34786153
82	0x3f087cb3	0.53315276
83	0xbf2a5f24	-0.66551423
84	0x3f4ffd7f	0.8124618
85	0x3d8bbbec	0.06822953
86	0x3e6612e6	0.22468147
87	0x3d9eaf81	0.077483185
88	0x3e14a4aa	0.1451594
89	0xbecb2224	-0.39674485
90	0xbca1dbb9	-0.019758092
91	0x3ebf4aaf	0.37361667
92	0x3ec57866	0.3856842
93	0x3e8f69c2	0.28010374
94	0xbf6a24ef	-0.91462606
95	0xbef6e4c5	-0.48221412
96	0x3e85b35d	0.26113406
97	0xbee043e2	-0.4380179
98	0xbb21ffc3	-0.0024719096
99	0x3ee87390	0.45400667
100	0x3f1eafe7	0.61987156
101	0xbef514cd	-0.47867432
102	0xbdfad18d	-0.12247
103	0x3e2cf016	0.1688846
104	0xbf44e95d	-0.76918584
105	0xbe2aad56	-0.16667685
106	0x3eb328ea	0.34992152
107	0xbe6b61e7	-0.22986566
108	0x3d13afbd	0.03605627
109	0x3f0d5655	0.5520986
110	0xbe15c06a	-0.14624181
111	0x3ebe715e	0.37195867
112	0xbf335975	-0.70058376
113	0x3e27bef2	0.16381434
114	0x3f39b590	0.7254267
115	0x3f2d4c43	0.6769449
116	0x3f24f367	0.644339
117	0xbd6b4c1e	-0.057445638
118	0xbf278775	-0.65441066
119	0xbe568881	-0.2095051
120	0x3f07a7c1	0.5299035
121	0xbf000683	-0.50009936
122	0x3e61cea4	0.22051483
123	0xbef578aa	-0.47943622
124	0xbf16b057	-0.58862823
125	0x3f1ce831	0.61291796
126	0x3f004df2	0.50118935
127	0xbf13f9e1	-0.5780316
128	0xbedbd80a	-0.42938262
129	0x3f46fae9	0.7772661
130	0xbf013bf3	-0.504821
131	0xbcae357d	-0.02126574
132	0xbf71fffb	-0.9453122
133	0xbf5e1e35	-0.8676484
134	0x3f4df5bd	0.8045309
135	0x3ed699bd	0.41914168
136	0xbeaa8320	-0.33303165
137	0x3f19bab2	0.600505
138	0xbd69c5fb	-0.057073575
139	0x3eb52185	0.35377136
140	0xbefeab27	-0.49739954
141	0xbf2ff4c9	-0.6873289
142	0xbec033bd	-0.37539473
143	0xbf528a63	-0.8224241
144	0x3eb68acc	0.3565277
145	0xbf13e645	-0.5777324
146	0xbebc133a	-0.3673342
147	0xbf3d911c	-0.74049544
148	0xbf3584a6	-0.7090553
149	0xbf2003f1	-0.62506014
150	0x3f5c39e0	0.8602581
151	0x3f4127b7	0.75451225
152	0xbf2fa885	-0.68616515
153	0xbf02e043	-0.51123446
154	0x3f3ca3c0	0.7368736
155	0x3ea2aa8c	0.31770742
156	0x3f59e939	0.85121495
157	0x3ee95cd6	0.4557864
158	0xbf3c271d	-0.7349718
159	0xbf04764f	-0.51743025
160	0xbeff3f83	-0.49853143
161	0x3e07da14	0.13266784
162	0x3f42975e	0.7601222
163	0x3e1f4036	0.15551838
164	0x3f1a0f93	0.60180014
165	0x3e9d38f8	0.30707526
166	0x3f070c10	0.5275278
167	0x3e5d5ca4	0.21617371
168	0xbee3c077	-0.44482777
169	0xbf3d2362	-0.73882115
170	0x3e9fa013	0.31176814
171	0xbec48ba0	-0.38387775
172	0xbee027e8	-0.43780446
173	0x3efd572e	0.49480575
174	0x3eda7128	0.42664456
175	0xbed1735b	-0.40908322
176	0x3e515317	0.20441853
177	0xbf3f59d8	-0.74746466
178	0x3f4ee83f	0.8082313
179	0xbe946a8f	-0.28987548
180	0xbe16a644	-0.14711863
181	0xbf3ac41d	-0.72955495
182	0xbb9afd6a	-0.0047299163
183	0x3d92d741	0.07169963
184	0x3e8ba7bd	0.27276412
185	0x3f0561a8	0.52102137
186	0x3e9418c2	0.2892514
187	0x3eef9c27	0.46798822
188	0x3f34885c	0.7052057
189	0xbf208b4a	-0.6271254
190	0xbdc1b4ca	-0.09458311
191	0x3f192b18	0.5983138
192	0x3e30150e	0.17195532
193	0xbf15ab21	-0.58464247
194	0xbe9990bd	-0.2999324
195	0xbd313ae5	-0.043269057
196	0x3f43b3cc	0.76446223
197	0x3c7653be	0.015034614
198	0xbf2837cb	-0.65710133
199	0xbef8461e	-0.48490995
200	0xbee75b16	-0.4518668
201	0xbe961744	-0.29314625
202	0xbe939cf9	-0.28830698
203	0x3ee75ebc	0.45189464
204	0xbf14ad30	-0.58076763
205	0x3ec98818	0.39361644
206	0xbec301d1	-0.38087323
207	0x3e0c9b9a	0.13731232
208	0x3ed87aa6	0.42281073
209	0x3efea5cf	0.49735877
210	0x3e91376e	0.28362602
211	0x3f6b95a9	0.9202524
212	0x3e7df776	0.2480143
213	0x3f15a376	0.58452547
214	0xbf3a6fa7	-0.7282662
215	0x3ea4e8b7	0.32208797
216	0xbf1e0613	-0.6172802
217	0xbe32731c	-0.17426723
218	0xbe2845f7	-0.1643294
219	0x3f2b4023	0.6689474
220	0xbf5e725d	-0.86893255
221	0xbe4160a0	-0.18884516
222	0x3f55875b	0.8340966
223	0x3f552661	0.83261687
224	0xbf38ca12	-0.72183335
225	0xbef580a9	-0.47949722
226	0x3eb824b9	0.35965517
227	0x3f3d3056	0.7390188
228	0xbe210177	-0.15723215
229	0xbf5cb398	-0.8621154
230	0x3e59a091	0.21252657
231	0xbc528a27	-0.012850321
232	0xbf22497f	-0.63393396
233	0x3e0359f7	0.12827288
234	0xbf465e87	-0.7748799
235	0x3f043643	0.51645297
236	0xbf3289c4	-0.69741464
237	0xbea296a4	-0.31755555
238	0x3e33927e	0.17536351
239	0x3ee1582b	0.4401258
240	0xbf460b11	-0.77360636
241	0xbf44c49f	-0.7686252
242	0x3f51c66d	0.819434
243	0xbeaeea5b	-0.34163174
244	0xbf4bae0e	-0.7956246
245	0xbf58909c	-0.84595656
246	0x3f37e923	0.71840113
247	0xbe21f07a	-0.15814391
248	0x3f0ea7b8	0.5572467
249	0xbf3e23bf	-0.74273294
250	0xbea0d16d	-0.3140978
251	0x3f1ace3b	0.6047093
252	0xbf4ab401	-0.79180914
253	0xbe986f8b	-0.297726
254	0x3f01392b	0.50477856
255	0x3f2c8e3b	0.67404526

bias f4 [300]
0	0x3d2c5b26	0.042079113
1	0x3cc5efad	0.024162138
2	0xbd2809a4	-0.04102482
3	0xbd3b1aee	-0.04567998
4	0x3d094458	0.033512443
5	0xbd42d079	-0.047562096
6	0xbc3adfaa	-0.011405865
7	0x3d574991	0.052560393
8	0xbd9cc831	-0.07655371
9	0x3d75abec	0.05997841
10	0x3cac91c9	0.02106561
11	0x3c4bff81	0.012451054
12	0xbd81ce54	-0.06338182
13	0xbd5723dd	-0.052524436
14	0x3c680a14	0.014162559
15	0x3d0a5363	0.03377093
16	0x3d46fc1a	0.048580267
17	0x3c3c2889	0.011484274
18	0x3c4b1d2c	0.012397092
19	0x3cc54473	0.02408049
20	0xbcd6cf6b	-0.026221951
21	0x3d83318d	0.064059354
22	0xbd8b0793	-0.06788554
23	0xbcbf7481	-0.023370983
24	0x3ced55e8	0.028971627
25	0xbd39bffe	-0.045349114
26	0x3d7d351e	0.061818235
27	0x3d7af99a	0.061273195
28	0x3d758dcc	0.05994968
29	0x3d69466d	0.05695193
30	0x3d2e17a5	0.042503018
31	0xbc979570	-0.018503875
32	0x3d7a7752	0.06114895
33	0xbb7e73c9	-0.0038826338
34	0xbbfb4ea3	-0.0076692863
35	0x3d17ad76	0.03703066
36	0xbcf56367	-0.029954625
37	0x3d4acdae	0.049512558
38	0xbd8f57db	-0.06999179
39	0xbd34acf1	-0.044110242
40	0xbd54331a	-0.051806547
41	0x3cc5d6ba	0.024150241
42	0x3d90245b	0.07038184
43	0x3d23267d	0.039831627
44	0xbd1c1408	-0.03810504
45	0x3d86d2ee	0.065832004
46	0xbd5d56fd	-0.054038037
47	0xbd969f20	-0.073545694
48	0xbd5c4eb3	-0.05378599
49	0xbc5f605a	-0.013633812
50	0x3cdecbdf	0.027196823
51	0x3d12e380	0.035861492
52	0x3d7f6d12	0.062359877
53	0xbd9257ac	-0.07145628
54	0xbb840e37	-0.004030015
55	0x3cd65a0a	0.02616598
56	0xbba57476	-0.0050492836
57	0xbc9a861e	-0.01886278
58	0x3d436c19	0.04771051
59	0xbc8f5b53	-0.017499601
60	0xbcaa5ef6	-0.020797234
61	0xba0702f1	-0.00051502796
62	0x3d179f7e	0.037017338
63	0x3d6eb5c9	0.058278833
64	0x3cdf5c47	0.027265681
65	0xbd551dc8	-0.052030355
66	0xbca89530	-0.02057895
67	0xbd340b9e	-0.04395639
68	0x3a43e373	0.0007472552
69	0xbd7e92b2	-0.06215162
70	0x3ccda406	0.025102627
71	0x3be1295a	0.0068713846
72	0x3bd52ace	0.006505347
73	0x3cc9f176	0.02465127
74	0xbc0f80d0	-0.008758739
75	0x3d89b2f5	0.067235865
76	0x3d4b787e	0.049675457
77	0xbcf7511e	-0.030190047
78	0xbd38fc47	-0.045162465
79	0x3cf39257	0.029732866
80	0x3cdeec59	0.027212309
81	0xbcd04385	-0.02542282
82	0xbd9ad48d	-0.07560072
83	0x3ba20773	0.0049447357
84	0xbc6f64e0	-0.014611453
85	0x3d27119b	0.040788274
86	0xbd64de0c	-0.055875823
87	0xbc201e4f	-0.009772851
88	0xbb0a8da7	-0.002114156
89	0xbcb27351	-0.021783503
90	0x3d85f0c6	0.065400645
91	0xbd2e2344	-0.0425141
92	0xbd5e79c6	-0.05431535
93	0x3cd0e2c0	0.025498748
94	0x3d02988f	0.031883772
95	0xbc03cb6d	-0.008044106
96	0xbd97b63e	-0.07407807
97	0x3d6bd0f2	0.057572313
98	0xbcf36bed	-0.029714549
99	0x3d3c4694	0.045965746
100	0x3d701685	0.058615226
101	0xbc9ca438	-0.019121274
102	0xbd8fea2f	-0.07027089
103	0x3c682389	0.0141686285
104	0x3d2434e4	0.040089503
105	0xbc516150	-0.012779549
106	0xbcd922a4	-0.026505776
107	0xbc49e93f	-0.012323677
108	0xbbb05fa2	-0.005382494
109	0x3d46a178	0.048493832
110	0x3c0044ac	0.007828873
111	0xbdb1eb1b	-0.08687421
112	0x3d3a422a	0.045473255
113	0xbd05c728	-0.032660633
114	0x3d13302e	0.03593462
115	0x3d27ca72	0.04096455
116	0x3d0823e9	0.03323737
117	0x3aaf6aa5	0.0013383223
118	0x3d61cef6	0.055129014
119	0x3cd60058	0.02612321
120	0x3b953867	0.004553843
121	0x3d1da43a	0.038486697
122	0xbd8b5f73	-0.06805315
123	0x3d6bb313	0.057543825
124	0xbd0c87f3	-0.03430934
125	0x3b8ab5cf	0.004233099
126	0x3c2d8ef6	0.010593167
127	0x3ce5abc6	0.02803601
128	0xbd2ddc73	-0.042446565
129	0x3d846cd0	0.06466067
130	0xbd3c9877	-0.04604384
131	0xbc7e51b3	-0.015522408
132	0xbd209334	-0.039202884
133	0xbc5b2398	-0.013375185
134	0xbc5650aa	-0.013080755
135	0x3d5f977e	0.054587834
136	0xbd701f8b	-0.05862383
137	0xbd4bc8ee	-0.04975217
138	0xbd5e9cb6	-0.05434867
139	0xbc50ab65	-0.012736176
140	0xbb81196c	-0.003939798
141	0x3cb1bd36	0.021696668
142	0xbd41e3af	-0.047336277
143	0xbd84b8e0	-0.064805746
144	0xbd6a5e32	-0.057218738
145	0x3cf78409	0.030214326
146	0x3d2810e2	0.041031726
147	0x3b99320c	0.0046751555
148	0x3ca03ba8	0.019559696
149	0xbd051fdf	-0.032501098
150	0x3c4bcd86	0.012439137
151	0x3c1d9079	0.0096169645
152	0xbc8b4ce9	-0.017004447
153	0x3d85aacd	0.06526718
154	0xbd55017c	-0.05200337
155	0xbd82a8e3	-0.06379869
156	0x3ceb7176	0.028740626
157	0x3d750325	0.059817452
158	0xbda3c7d1	-0.07997096
159	0x3d90fb16	0.07079141
160	0xbd6aebfc	-0.05735396
161	0x3c59da65	0.013296698
162	0x3cba80e0	0.02276653
163	0x3d8908c0	0.06691122
164	0xbb83f577	-0.0040270644
165	0xbd809e64	-0.062802106
166	0x3cd1b2b5	0.02559791
167	0x3cb95b9b	0.022626689
168	0x3d2dd5fe	0.042440407
169	0xbd3ad037	-0.045608725
170	0xbcd33acd	-0.025784874
171	0x3cf7df43	0.030257827
172	0x3d282972	0.04105515
173	0x3baf03c0	0.005341023
174	0xbdadf084	-0.0849314
175	0x3d4b2d83	0.04960395
176	0x3d816490	0.06318009
177	0x3cba49c8	0.02274026
178	0xbd3421e5	-0.043977637
179	0x3cc9ff0e	0.024657752
180	0xbd55825d	-0.052126277
181	0x3bb53056	0.0055294437
182	0x3c5b1162	0.013370844
183	0x3d9e22e4	0.077214986
184	0x3d906d0b	0.07052048
185	0x3ba1f876	0.004942949
186	0x3d97ac86	0.07405953
187	0xbd1c4e48	-0.038160592
188	0xbd741b6b	-0.05959646
189	0x3d0f411f	0.034974214
190	0xbcd7f385	-0.026361236
191	0xbd40d963	-0.047082316
192	0xbb9f8936	-0.0048686517
193	0x3c522435	0.012826015
194	0xbbe9b9b4	-0.0071327332
195	0xbb97e806	-0.0046358136
196	0x3a971063	0.0011525269
197	0xbd29d2c0	-0.041460752
198	0x3c5320f0	0.012886271
199	0x3c75d439	0.015004211
200	0x3d8fae19	0.07015628
201	0x3bd89281	0.0066092615
202	0x3d714f26	0.058913372
203	0x3d8dbcf5	0.06920806
204	0xbce34f86	-0.02774788
205	0xbd4505ec	-0.04810135
206	0xbc09df6d	-0.008415085
207	0xbd363ccb	-0.04449157
208	0xbd61a718	-0.055090994
209	0x3c23d618	0.009999774
210	0xbd200819	-0.039070223
211	0xbbbad031	-0.005701088
212	0x3cf64a1e	0.030064639
213	0x3b120793	0.0022282347
214	0x3d443b55	0.047908146
215	0xbda5af0a	-0.08090027
216	0x3d271d7d	0.040799607
217	0x3d869a26	0.0657237
218	0x3d9d3ff7	0.07678216
219	0xbd2b4fbc	-0.041824088
220	0x3b1af761	0.0023645984
221	0xbd38c67c	-0.045111164
222	0x3c202ffa	0.0097770635
223	0xbd598c96	-0.05311259
224	0xbd5e3ece	-0.054259114
225	0x3c921ad0	0.01783505
226	0xbca72ba3	-0.02040655
227	0xbd8464b2	-0.064645186
228	0xbd1e22ef	-0.038607534
229	0xbc76b074	-0.015056718
230	0xbd0fda00	-0.03512001
231	0x3c1d60ee	0.009605629
232	0x3d6acb04	0.057322517
233	0xbd486f82	-0.048934467
234	0x3c8b163a	0.016978372
235	0xbd8e2583	-0.069407485
236	0xbcb36dbb	-0.02190291
237	0x3d2a33e8	0.041553408
238	0xbd0e4fd7	-0.03474411
239	0xbdb93163	-0.09042623
240	0xbd3fe4e1	-0.046849135
241	0xbb09a107	-0.002100052
242	0xbb396654	-0.0028289752
243	0xbc88f9db	-0.016720703
244	0xbc827ee1	-0.015929641
245	0x3d19440e	0.037418418
246	0x3d1c35b8	0.038137168
247	0x3afa65c7	0.0019103818
248	0x3b2b1a70	0.0026108287
249	0xbd223ec1	-0.039610628
250	0x3d8372c9	0.06418378
251	0x3d4be8aa	0.049782433
252	0x3d996e2d	0.074917175
253	0x3c32cfc3	0.010913792
254	0xbcdc09e0	-0.026860178
255	0xbcd43f4c	-0.025909089

weight f4 [300, 200]
0	0xbdd06dbe	-0.10177182
1	0x80000000	-0.0
2	0x80000000	-0.0
3	0x3e21872c	0.1577422
4	0x3dddf91f	0.10838532
5	0x3d355096	0.044266306
6	0xbe1b6c55	-0.15178044
7	0x3e097e89	0.13427176
8	0xbcb8c6d0	-0.022555739
9	0x00000000	0.0
10	0x3c907f7f	0.01763892
11	0x3de36519	0.11103267
12	0x3c962af0	0.018331021
13	0x80000000	-0.0
14	0x3cd3f049	0.025871413
15	0x3e0d8040	0.13818455
16	0xbe3a6cf1	-0.1820562
17	0xbd5c7848	-0.053825647
18	0xbde4052c	-0.11133799
19	0x00000000	0.0
20	0xbdd65145	-0.1046472
21	0x00000000	0.0
22	0x3d10d078	0.03535506
23	0x3d70ef33	0.05882187
24	0x3de97aed	0.11400399
25	0x3d9e52e1	0.07730652
26	0x3d60d1f5	0.05488773
27	0x3ce9004c	0.028442524
28	0x3e2609ac	0.16214627
29	0x00000000	0.0
30	0x3d71cf2a	0.059035458
31	0x00000000	0.0
32	0x80000000	-0.0
33	0x00000000	0.0
34	0xbd1b0d79	-0.037854645
35	0xbc4b24a9	-0.012398877
36	0x3e090f06	0.13384637
37	0x00000000	0.0
38	0xbcb8e45e	-0.022569831
39	0x3cf1086d	0.029422963
40	0x00000000	0.0
41	0x3d02aafc	0.031901345
42	0x3dfbb9cd	0.12291298
43	0xbd88f776	-0.066878244
44	0xbd7bc37d	-0.06146573
45	0x3dc321db	0.09527942
46	0x3c7f798c	0.015592944
47	0xbe005790	-0.12533402
48	0x80000000	-0.0
49	0x3e07fff3	0.1328123
50	0x00000000	0.0
51	0xbc1bc33e	-0.009506999
52	0xbc9d1f39	-0.019179927
53	0x3cac0929	0.021000462
54	0x00000000	0.0
55	0xbcb805ee	-0.022463765
56	0x3dae5e40	0.085140705
57	0x3ddc5c92	0.10759844
58	0xbe383b80	-0.17991447
59	0xbe1e2a98	-0.15445936
60	0xbd0ab21b	-0.03386126
61	0x00000000	0.0
62	0xbd8f424e	-0.069950685
63	0x3d351277	0.044207063
64	0x3e0ab162	0.13544229
65	0xbdc716bb	-0.09721132
66	0xbe3fa8bd	-0.18716712
67	0x3de0538f	0.109534375
68	0x3da7412a	0.08166726
69	0x80000000	-0.0
70	0x3db43692	0.08799471
71	0xbd93557b	-0.071940385
72	0xbd8189fc	-0.063251466
73	0xbe08e8a6	-0.13369998
74	0x3c71042d	0.014710468
75	0xbd9f98fb	-0.077928506
76	0xbdfd79f6	-0.12376778
77	0xbdacceb9	-0.08437867
78	0x3de78eef	0.11306559
79	0x3d5bde17	0.0536786
80	0x80000000	-0.0
81	0x00000000	0.0
82	0x3d6393f7	0.055561032
83	0x3d07417e	0.033021443
84	0x3c83968c	0.016062997
85	0x3d87da86	0.06633477
86	0xbda0dee8	-0.07855016
87	0x3d802b36	0.06258242
88	0xbd119870	-0.035545766
89	0xbdc6a9f6	-0.09700386
90	0x3d2286e5	0.039679427
91	0x3d379de1	0.0448283
92	0xbd206d66	-0.03916683
93	0xbdbd34b3	-0.09238567
94	0xbd4cf2da	-0.05003629
95	0x3d9f5068	0.07779008
96	0xbcc3c228	-0.023896292
97	0xbdb9f7b1	-0.090804465
98	0x00000000	0.0
99	0x3e28c527	0.16481458
100	0x3d489cb6	0.048977576
101	0x3ce2c050	0.027679592
102	0x3dcd903f	0.100372784
103	0x3d2155ca	0.039388455
104	0x3e499bca	0.19688335
105	0xbcf13d21	-0.029448094
106	0xbd3547ad	-0.04425781
107	0x3d9ab544	0.07554105
108	0xbde60a28	-0.11232406
109	0x00000000	0.0
110	0xbdd989ff	-0.10622024
111	0xbb992eef	-0.0046747844
112	0xbda8e974	-0.08247653
113	0xbe05261a	-0.13002816
114	0xbe152802	-0.14566043
115	0x3c4a3714	0.012342233
116	0xbcc87b11	-0.024472745
117	0x3d2caf1d	0.04215919
118	0xbdab3850	-0.0836035
119	0x3d15525d	0.0364555
120	0x3d6802a5	0.056643147
121	0x80000000	-0.0
122	0xbe0b7df5	-0.13622268
123	0x3d5639d0	0.052301228
124	0x00000000	0.0
125	0xbc27823e	-0.010223923
126	0x3d018d95	0.031629164
127	0x3dc00d5b	0.09377547
128	0xbd148806	-0.036262535
129	0x3ba6ce7b	0.0050905324
130	0x3dd33484	0.10312751
131	0x3d2b5653	0.041830372
132	0xbe0196a5	-0.12655123
133	0xbc475353	-0.012165862
134	0x3db6c23b	0.08923765
135	0x3c6dbb83	0.014510038
136	0x3d2ea6ff	0.04263973
137	0xbc9b44b5	-0.01895366
138	0x3b6367e2	0.003469937
139	0x3d1f761b	0.038930994
140	0xbc570d64	-0.013125751
141	0xbcbbeb35	-0.022939304
142	0x3e3e3043	0.18573098
143	0xbb9ae790	-0.0047273114
144	0xbd89f2ac	-0.06735739
145	0xbc27ff8e	-0.0102538
146	0x3d065baf	0.03280228
147	0x3d64d2c2	0.055865057
148	0xbd9cfcfc	-0.076654404
149	0x3dfcef19	0.12350292
150	0x3cec7fca	0.028869528
151	0xbe279bdc	-0.1636805
152	0xbd1b44f5	-0.03790756
153	0xbd807619	-0.06272525
154	0x3d612264	0.054964438
155	0x3d9bc5df	0.076061
156	0xbc350aab	-0.011049907
157	0x3c30bd83	0.010787371
158	0x80000000	-0.0
159	0xbd18110b	-0.03712563
160	0xbd30eb94	-0.043193415
161	0x3c4368b4	0.011926819
162	0xbd8cb881	-0.06871129
163	0xbc253421	-0.010083229
164	0x3ccee9ba	0.025257934
165	0x3ce50180	0.027954817
166	0x00000000	0.0
167	0x3e2211b8	0.15827072
168	0x80000000	-0.0
169	0x80000000	-0.0
170	0xbcf990f7	-0.030464632
171	0x3ca4a3d8	0.020097658
172	0x3d72b4e1	0.05925453
173	0xbd4b75ca	-0.04967288
174	0x3de959ab	0.11394056
175	0x3cbb2278	0.022843584
176	0xbdf26e8e	-0.11837493
177	0x3bb9085c	0.0056467485
178	0xbd2bde5b	-0.0419601
179	0x80000000	-0.0
180	0x3dc49418	0.09598559
181	0xbdef8938	-0.11696094
182	0xbd69d8ef	-0.05709165
183	0x00000000	0.0
184	0x3c38d659	0.011281573
185	0x3dae6a5b	0.085163794
186	0x80000000	-0.0
187	0x3d9f9c4d	0.07793484
188	0xbdafb803	-0.08580019
189	0x3d939d9f	0.07207798
190	0xbc206c85	-0.009791498
191	0x3cab90e0	0.020943105
192	0x00000000	0.0
193	0xbd78c656	-0.060736023
194	0xbce215da	-0.02759831
195	0x3b6897df	0.0035490913
196	0x80000000	-0.0
197	0x80000000	-0.0
198	0x3d70b1be	0.05876326
199	0x3da9b922	0.082872644
200	0x3e162cbc	0.14665502
201	0x3d9d3504	0.076761276
202	0xbd116129	-0.03549305
203	0xbe1c8bf1	-0.15287758
204	0x3d715e67	0.05892792
205	0xbdcbadac	-0.09945235
206	0xbc48fd3b	-0.012267406
207	0xbd9d07f2	-0.07667531
208	0x3d61ac51	0.055095974
209	0x00000000	0.0
210	0xbd4dc98b	-0.050241034
211	0x3d7108a2	0.058846124
212	0x80000000	-0.0
213	0xbd2f1a5a	-0.04274974
214	0x3ca1d848	0.019756451
215	0x3e055474	0.13020498
216	0x3e220b6a	0.15824667
217	0x80000000	-0.0
218	0xbda0a8bc	-0.078446835
219	0x80000000	-0.0
220	0x00000000	0.0
221	0x3dc81ca0	0.09771085
222	0xbc8f592a	-0.017498571
223	0x3d43a198	0.04776153
224	0x3d7f189b	0.062279325
225	0xbc5a3289	-0.013317713
226	0x80000000	-0.0
227	0xbc378a39	-0.011202388
228	0xbe1bd166	-0.15216598
229	0x3d04612e	0.03231924
230	0xbcff8eac	-0.031195961
231	0xbbd6a08d	-0.006549901
232	0x3c958d96	0.01825599
233	0x3dc571d0	0.09640849
234	0x3ca9f0f2	0.020744774
235	0x3df8d796	0.12150495
236	0x80000000	-0.0
237	0xbd6b649e	-0.057469003
238	0xbd860bb6	-0.065452024
239	0x3d579220	0.05262959
240	0xbd06e5dd	-0.03293406
241	0x3deac3c9	0.11463124
242	0x3da80536	0.08204119
243	0x3d8df61f	0.069317095
244	0xbd51a6cf	-0.05118447
245	0x3c8dd18f	0.01731184
246	0x3d479a25	0.048730988
247	0x3de21b31	0.110403426
248	0x3d9a187c	0.07524201
249	0xbe1bec78	-0.15226924
250	0x3da02ee0	0.07821441
251	0x3dc2a596	0.09504239
252	0xbd61f2fd	-0.055163372
253	0x00000000	0.0
254	0x3d074b00	0.03303051
255	0xbca0052c	-0.019533716

bias f4 [2]
0	0x3c1135d6	0.008862933
1	0xbc1ce8fc	-0.009577032

weight f4 [2, 300]
0	0x3e1e124c	0.15436667
1	0xbe234925	-0.15945871
2	0x3e11123c	0.14167112
3	0xbd3b10bc	-0.045670256
4	0x3c66fe92	0.01409878
5	0x3e34f8e7	0.17673074
6	0xbccbd870	-0.024883479
7	0x3c916c53	0.017751848
8	0xbe20a831	-0.1568916
9	0x3e3012d2	0.1719468
10	0xbe090d3c	-0.13383955
11	0x3df95fea	0.12176497
12	0xbe07c5da	-0.13259068
13	0xbe131165	-0.14362104
14	0x3e15176e	0.14559719
15	0x00000000	0.0
16	0xbd7daf7d	-0.061934937
17	0x3e1b4b9a	0.15165558
18	0x00000000	0.0
19	0xbd9fca8e	-0.07802306
20	0x3e08b605	0.13350685
21	0x3e05e960	0.13077307
22	0xbd42f02b	-0.047592323
23	0xbc63923e	-0.013889847
24	0x3cdf68d6	0.02727167
25	0x3e21d0db	0.15802328
26	0xbd4d4a07	-0.050119426
27	0x3dc12211	0.09430326
28	0x3e242da6	0.16033038
29	0x3ddba9d2	0.1072575
30	0x3ded1ed6	0.11578147
31	0x3e186d1c	0.14885372
32	0xbda03593	-0.078227185
33	0x3df02645	0.11726049
34	0xbe0ed4e8	-0.13948405
35	0xbe3d0828	-0.18460143
36	0x3dc45ed1	0.09588397
37	0x3e1e920a	0.15485397
38	0x3c37ff5e	0.011230318
39	0xbd284aeb	-0.041087072
40	0xbd96cbfe	-0.07363127
41	0x3e0629eb	0.13101928
42	0x3db59064	0.08865431
43	0xbd81ecca	-0.06343992
44	0x3d514e0b	0.05109982
45	0xbde9b3e9	-0.11411268
46	0x3d2c0bb0	0.042003334
47	0xbd4860c7	-0.04892042
48	0x00000000	0.0
49	0x3cbc4d02	0.022985939
50	0xbc13746e	-0.008999927
51	0x3e097526	0.13423595
52	0x3d310507	0.043217685
53	0x3c811a3e	0.015759584
54	0x3dc5ff4f	0.09667837
55	0xbe16e197	-0.14734493
56	0xbda7caf0	-0.08193004
57	0x3d8883e4	0.06665781
58	0xbd01ddd4	-0.031705692
59	0x3d38b81f	0.045097467
60	0x3e28ccd0	0.1648438
61	0x3ba616a8	0.005068619
62	0x3da1911c	0.078890055
63	0xbdf9c420	-0.12195611
64	0x3c1a7270	0.009426698
65	0x80000000	-0.0
66	0x00000000	0.0
67	0x00000000	0.0
68	0xbd364d7d	-0.044507492
69	0x3ce05234	0.027382948
70	0x00000000	0.0
71	0x3dcbf0d1	0.099580415
72	0xbe01b977	-0.12668405
73	0x3db94cc4	0.09047845
74	0xbdd089e4	-0.101825505
75	0x3e05be75	0.13060935
76	0xbde2d3bc	-0.110755414
77	0xbd036a36	-0.032083713
78	0xbdf5dab6	-0.120046064
79	0xbe2ddfa4	-0.16979843
80	0xbcece71c	-0.028918795
81	0x3e20c5f3	0.15700512
82	0xbe038547	-0.1284381
83	0x3dad16ef	0.0845164
84	0xbdab4290	-0.08362305
85	0xbd83c51a	-0.064340785
86	0x3dd474c0	0.10373831
87	0xbd40928f	-0.04701477
88	0x3dec07a8	0.11524898
89	0xbd558a61	-0.05213392
90	0xbdc302af	-0.09521996
91	0xbceafa3f	-0.02868378
92	0xbd9c9e78	-0.07647413
93	0x80000000	-0.0
94	0x80000000	-0.0
95	0xbc3f6c4e	-0.011683537
96	0xbc12afdc	-0.008953061
97	0xbd66ff85	-0.056396026
98	0xbdc24a3f	-0.094868176
99	0xbd1f492f	-0.038888153
100	0x3daeea42	0.08540775
101	0x3e1bae02	0.15203097
102	0xbe002dbd	-0.12517448
103	0x3e1513a0	0.14558268
104	0x3cf4da5b	0.029889276
105	0xbd237823	-0.039909493
106	0xbd3da98e	-0.046304278
107	0xbe48fef3	-0.19628505
108	0xbe2e4485	-0.17018326
109	0x3dbc9dae	0.092097625
110	0xbcb4b650	-0.02205959
111	0x3e1d5b35	0.15366824
112	0xbcf67cd8	-0.030088827
113	0x3e08007d	0.13281436
114	0xbdaa7f22	-0.0832503
115	0x3d9e57df	0.07731604
116	0x3df0a2c6	0.117497966
117	0xbe48e2cb	-0.19617765
118	0x3db63626	0.08897047
119	0xbe021b25	-0.12705667
120	0x3e1ae356	0.15125784
121	0x3d800364	0.06250647
122	0x3e24622f	0.16053079
123	0xbd964767	-0.07337838
124	0xbe15d630	-0.14632487
125	0xbe0abf21	-0.13549472
126	0xbd46aa05	-0.048501987
127	0xbdad72d2	-0.08469166
128	0xbde04586	-0.109507605
129	0xbd64369e	-0.05571615
130	0xbe23f65f	-0.16011952
131	0x00000000	0.0
132	0xbe33aad8	-0.1754564
133	0xbd1743f1	-0.03693003
134	0xbd3af72c	-0.045645878
135	0xbd3935c5	-0.045217294
136	0xbe29ec46	-0.16594037
137	0x00000000	0.0
138	0x3e0b18ac	0.1358363
139	0x3e0fefc9	0.14056315
140	0x3c984aae	0.018590298
141	0xbdbef356	-0.093237564
142	0x3e1c34a1	0.15254451
143	0xbd39cf6c	-0.04536383
144	0x3c5e7c72	0.013579475
145	0xbd5326b1	-0.05155057
146	0xbd656f2e	-0.056014232
147	0x3cabdb43	0.020978576
148	0x3d4e5145	0.050370473
149	0xbe25c0b3	-0.1618679
150	0x3d421dfd	0.04739188
151	0x00000000	0.0
152	0xbe301f35	-0.17199405
153	0x3db81a7f	0.08989429
154	0xbe22ed24	-0.15910774
155	0x3cc8d76a	0.02451678
156	0xbe521d85	-0.20519073
157	0x3e06dae2	0.13169435
158	0x3e164dfe	0.14678189
159	0xbdc9c6da	-0.09852381
160	0x3d3d497f	0.04621267
161	0xbe0a3c9f	-0.13499688
162	0xbd9024e7	-0.070382886
163	0x3da4376e	0.08018385
164	0xbe0e9f6b	-0.13928
165	0xbdaae175	-0.08343784
166	0x3e1b5cec	0.15172166
167	0xbc8158ab	-0.01578935
168	0xbd9829cd	-0.07429848
169	0xbdb5f5bf	-0.08884763
170	0xbd80de39	-0.062923856
171	0x3e0d7615	0.13814576
172	0x3e022ece	0.12713167
173	0x3db2c062	0.087281
174	0x3d811935	0.06303636
175	0x3d9886ef	0.074476115
176	0xbdeae014	-0.11468521
177	0x3dc7f385	0.097632445
178	0xbdef52f3	-0.11685743
179	0x3e4e0b79	0.20121564
180	0x3e2a21dd	0.1661448
181	0x3ca3f482	0.020014051
182	0xbdc8a0d3	-0.097963
183	0xbe319f40	-0.17345905
184	0xbdda93bc	-0.10672709
185	0xbd2dab9d	-0.04239999
186	0x3dd85e7d	0.10564897
187	0x3df8c364	0.12146643
188	0xbdeddff2	-0.1161498
189	0x3db35c1d	0.087578036
190	0x3c93f5b7	0.018061502
191	0xbe363555	-0.17793782
192	0xbdfeac4c	-0.12435207
193	0x3d139322	0.03602899
194	0xbd771929	-0.06032673
195	0xbd0f28a4	-0.034950867
196	0x3e29d888	0.16586506
197	0xbced28f9	-0.028950201
198	0x3d2d00b6	0.042237006
199	0xbe123027	-0.14276181
200	0xbdd34605	-0.103160895
201	0xbd23c363	-0.039981257
202	0x3e271607	0.16316997
203	0x3c65e515	0.014031668
204	0x3dd624d9	0.10456247
205	0xbcae420d	-0.02127173
206	0x3ce45487	0.027872337
207	0xbe3f54f6	-0.18684754
208	0xbe0c6980	-0.1371212
209	0x3d8b06aa	0.067883804
210	0xbdf5d373	-0.12003221
211	0x3d51c6a9	0.051214848
212	0x3c5a7f48	0.01333601
213	0xbd607ad0	-0.054804623
214	0x3da64eb0	0.08120477
215	0x3e2bd89c	0.16781849
216	0x00000000	0.0
217	0x00000000	0.0
218	0xbdafd034	-0.085846335
219	0x3daaf41a	0.0834734
220	0x3d3643bb	0.044498187
221	0x3de8a3b3	0.11359348
222	0x00000000	0.0
223	0x3d3b7088	0.045761615
224	0x00000000	0.0
225	0xbe0bf6e1	-0.13668396
226	0x3e151910	0.14560342
227	0x3d29db38	0.04146883
228	0xbdd59afc	-0.104299515
229	0xbc717ecf	-0.014739706
230	0x3c1d41ed	0.009598237
231	0xbd006bb6	-0.03135272
232	0x3df90b9e	0.12160419
233	0xbd626872	-0.055275388
234	0xbd919216	-0.07107942
235	0x3e0f12df	0.13972043
236	0xbd42228c	-0.047396228
237	0x3d31dafb	0.043421727
238	0xbcca6369	-0.024705606
239	0x3dd165c1	0.10224486
240	0x3d8806f6	0.06641953
241	0x3dc39e10	0.095516324
242	0xbde2442f	-0.11048161
243	0x3d934f05	0.07192806
244	0x3e079086	0.13238725
245	0x3ddb3f68	0.10705453
246	0xbdf1d7ba	-0.11808725
247	0x3d32f33e	0.043689005
248	0x80000000	-0.0
249	0x80000000	-0.0
250	0xbd9bd145	-0.07608274
251	0xbdbe59e7	-0.09294491
252	0xbdcc62e4	-0.099797994
253	0x3cc7610a	0.024338264
254	0xbdb9b9c9	-0.09068639
255	0xbd04e642	-0.032446153
