figures/Illu_large_global_2/theta=0.1_s=0.2_step=100/best_model.pth (torch, 246949 bytes, 5 tensors)

bias f4 [200]
000000 92 b7 03 3f ae 63 a2 3f 67 18 22 3f 93 9d 97 3e
       0.5145198 1.268667 0.63318485 0.29612407
000010 1b 13 52 3f 55 bf aa be bf 58 94 3f 80 9f ef 3e
       0.820604 -0.333491 1.1589583 0.46801376
000020 82 8e 5a 3e cb e7 d1 3e 48 87 46 3f 8f ec bd bc
       0.21343425 0.40997157 0.7755017 -0.023184089
000030 83 db 0c bf 6e 9b 9c be a5 3b 2b 3f d2 20 4d 3f
       -0.5502245 -0.30587333 0.66887885 0.80128205
000040 88 a9 75 3f 1d 6b 24 bf 38 0a 9f bf c0 68 1f bf
       0.9596181 -0.6422594 -1.2424994 -0.6226921
000050 eb 56 1b bf fe 1a 2e 3f 5f 94 5b 3f 4d d3 3c 3f
       -0.606795 0.68009937 0.8577327 0.7375992
000060 58 90 c4 3f e9 1b 16 3f 30 b0 b6 3e db a5 f1 bb
       1.535655 0.5863634 0.35681295 -0.007374508
000070 ab 55 7c bf 73 47 49 3f aa 83 3b bf 70 50 48 3f
       -0.9856822 0.7862465 -0.7324778 0.7824774
000080 c2 00 a6 3f 13 35 3f 3f 0f 90 7b 3f 78 e1 0e 3f
       1.2968981 0.7469036 0.9826669 0.5581279
000090 a8 f1 bd be d0 ba a6 3f 4f 9d 07 bf a3 f1 82 3f
       -0.37098432 1.3025761 -0.5297441 1.0229992
0000a0 ee 9c 2b bf 2a 1f 95 be ea 99 58 bf 7b a9 2f bf
       -0.6703633 -0.2912534 -0.84609854 -0.6861798
0000b0 a9 cc 3b bf 27 c4 0b 3f 6e 01 e5 bb 2c be 61 bf
       -0.7335916 0.5459618 -0.006988696 -0.88180804
0000c0 24 dd 6f 3f 62 53 8e 3f 32 63 b7 be e0 d1 14 bf
       0.9369681 1.1119196 -0.35817868 -0.58132744
0000d0 eb c6 7f 3f 67 b7 8b be d3 c4 95 3e 33 a1 7b 3f
       0.999129 -0.27288362 0.29251727 0.98292845
0000e0 4b f6 8e bf 7c 42 1d 3f 35 6f 8d 3f 77 57 2e 3f
       -1.1168913 0.6142957 1.1049563 0.6810221
0000f0 66 32 b8 3f 9f ba 48 3f 5f ff 50 bf 1b 88 30 bf
       1.439038 0.7840976 -0.81639665 -0.6895768
000100 be 3c 49 3f 68 33 95 3f 9a 44 be 3f 43 ad 49 3f
       0.7860831 1.1656313 1.4864686 0.7878
000110 dc 21 40 3f 58 21 e4 be e6 27 86 3f 3b 65 63 3f
       0.75051665 -0.4455669 1.0480926 0.8882634
000120 a5 7d f6 3f 9a 2b 52 bf 93 e5 e8 3f 1a 83 40 3f
       1.9257094 -0.8209778 1.819506 0.75200045
000130 53 a6 93 3e 50 d3 f0 be 0c 0e 33 bf c7 cc 14 bf
       0.28837833 -0.4703622 -0.6994331 -0.58124965
000140 92 da b8 3f cc 6e 97 3e a9 71 41 bc 4e d3 9a bf
       1.4441702 0.2957672 -0.011806884 -1.2095735
000150 de e2 69 3f c7 1f e4 be 00 14 bc bd c8 73 2f 3f
       0.91361797 -0.44555494 -0.09183502 0.68536043
000160 e3 4a 10 3f bd c9 d4 be 97 4b 78 3f 52 75 94 3f
       0.5636427 -0.41560164 0.9699034 1.1598303
000170 25 89 88 be 4e 9e 86 bf f4 97 1d 3f ff 54 1b 3f
       -0.26667133 -1.0517061 0.6155999 0.6067657
000180 b8 e6 fc 3e f4 35 b5 3f 0a e8 5e 3f 00 35 4d 40
       0.49394774 1.415709 0.87072814 3.2063599
000190 ce 09 78 3e 7c f9 34 3f 7e 1e cd bf bc c1 0f 3f
       0.2422249 0.7069318 -1.602493 0.5615499
0001a0 ac 25 70 3f a0 b3 1c 3f 0c a7 83 3f f8 8c bb be
       0.9380748 0.61211586 1.0285354 -0.36630988
0001b0 ad 90 86 3f d2 72 4a bf e5 09 bd 3e 1e 05 b9 3f
       1.0512902 -0.7908145 0.3692161 1.4454687
0001c0 8a 49 af 3f f3 5f fc be 08 99 e0 3e 11 14 08 3f
       1.3694317 -0.49291953 0.43866754 0.5315562
0001d0 d5 4f 7a bf f8 46 25 3f b6 ea 3f bf 7c 01 81 3f
       -0.97778064 0.64561415 -0.74967515 1.0078578
0001e0 67 46 24 3f 4d 4a 71 3f ef 58 97 bf fc 85 23 3f
       0.64169925 0.94254 -1.1824015 0.6387632
0001f0 d2 62 81 3f c1 16 93 be a1 28 31 c0 d2 79 03 3f
       1.0108283 -0.28728297 -2.7681048 0.5135776
000200 1d 71 c2 3c bd d4 25 3f cc f0 80 3f f4 e2 56 bf
       0.023735577 0.6477774 1.0073485 -0.83940053
000210 45 fa 76 3f 20 e6 0e bf 57 99 82 bf ef fc 22 3f
       0.9647563 -0.5581989 -1.0203046 0.63667196
000220 8e c7 1e bf e9 9d a1 bf 85 ee 69 3f 52 70 9b 3f
       -0.62023246 -1.2626315 0.91379577 1.2143652
000230 77 08 e2 be 94 1e 20 3f 56 aa a3 bf 7c 18 ed 3e
       -0.44147083 0.6254666 -1.2786357 0.46307743
000240 6d fc 0c bf 04 04 d5 be 73 e5 92 3f d7 87 35 bf
       -0.5507267 -0.41604626 1.1476272 -0.709104
000250 ad 51 97 bf 00 22 66 bf 63 8f 00 3f 26 3a e0 be
       -1.18218 -0.8989563 0.5021879 -0.43794364
000260 41 98 eb be 5b d9 8d bf 0d 85 7e 3d df 59 5b 3f
       -0.46014598 -1.1081957 0.062138606 0.8568401
000270 cc 29 6e bf 42 92 aa 3f 00 39 36 3f 49 85 0c bf
       -0.93032527 1.3325884 0.71180725 -0.54890877
000280 7b a5 5b bf d1 bd 3f 3f 4d 85 4b 3f 70 98 ec 3e
       -0.8579938 0.7489901 0.79500276 0.4621005
000290 30 f9 4d 40 cb eb ae 3f ed 9b 1b bf f0 23 f9 be
       3.2183342 1.3665708 -0.607848 -0.4866023
0002a0 f9 a8 aa bf 86 6a 2c 3f 95 04 0d bf 36 93 20 3f
       -1.3332816 0.6735004 -0.55085117 0.62724626
0002b0 5f a0 38 bf 9b 40 cf be 56 3e 4e bf 52 4d c9 3f
       -0.72119707 -0.40478978 -0.8056387 1.5726721
0002c0 b4 40 25 3f cc ba fc bd ad 5e 86 3f 27 7a 8b 3e
       0.64551854 -0.12340316 1.0497643 0.27241632
0002d0 47 48 45 3f 94 fe a2 3f e6 11 7c 3f 68 aa 06 bf
       0.7706341 1.2733941 0.9846481 -0.5260377
0002e0 85 f6 26 bf c0 eb e7 be 9c 2d 2d 3f af f1 16 bf
       -0.6521991 -0.4529705 0.6764772 -0.5896253
0002f0 06 51 39 3f a8 6c 79 3f 56 40 a1 bf 52 71 99 bf
       0.72389257 0.9743142 -1.2597759 -1.1987708
000300 56 7a 8b 3f 24 42 2e bf 47 a4 9d bf 9e 74 69 3f
       1.0896709 -0.6806967 -1.2315758 0.9119357
000310 f1 0f 34 bf 76 0d 1b 3f 90 9c 8c bf 44 22 e2 be
       -0.70336825 0.60567415 -1.0985279 -0.44166768

weight f4 [200, 1]
000000 71 5d ba be 48 7e 0c 40 c2 26 8c bf 6e e7 98 3f
       -0.36399415 2.1952076 -1.0949328 1.1945627
000010 d2 1a 93 bf c5 6b 60 3f 07 fc fa bf dc 4d 7f bf
       -1.149256 0.87664443 -1.9608163 -0.9972818
000020 d2 24 5c bf fd 91 48 bf 45 54 91 bf d6 49 5b bf
       -0.85993683 -0.7834776 -1.1353842 -0.8565954
000030 70 34 a3 bf d5 a4 56 bf a8 55 98 3f a1 d3 8f bf
       -1.2750378 -0.83845264 1.190114 -1.1236459
000040 f7 17 99 3f b0 be 8d 3f 63 11 9f bf 29 32 96 bf
       1.1960438 1.1073818 -1.2427181 -1.1734058
000050 6f 79 94 bf 00 aa 9c bf ea 17 e7 bf 15 2c 9b 3f
       -1.1599559 -1.223938 -1.8054173 1.2122828
000060 c0 56 a2 3f a4 76 cc bf 3f 7b d7 bf 36 63 7e bf
       1.2682724 -1.5973706 -1.6834487 -0.99370134
000070 a4 b2 95 3f 45 f8 8e bf 08 50 c6 be c5 90 98 3f
       1.1695142 -1.1169516 -0.38732934 1.191918
000080 cc b9 0e 40 7c ca 98 3f 82 25 02 40 d6 c7 78 bf
       2.2300901 1.1936793 2.0335393 -0.97179925
000090 64 67 8e bf 38 fc fa 3f bf 28 08 3f 8c 21 07 40
       -1.1125302 1.9608221 0.53187174 2.1114225
0000a0 d1 44 97 bf 3f 5d 87 bf 7d 05 04 40 9b 0e 09 40
       -1.1817876 -1.0575331 2.062835 2.1415164
0000b0 3c c2 90 3f 1f da 81 bf b0 97 93 bf ad a7 07 40
       1.1309276 -1.014469 -1.1530666 2.119609
0000c0 48 7b 01 40 cf 53 9c 3f 0f 10 e9 3f 8d dd a3 bf
       2.0231495 1.2213076 1.8208026 -1.2801987
0000d0 8b e0 55 bf 8e 6b dd 3f 3f 48 8f 3f 17 d4 91 bf
       -0.8354575 1.7298448 1.1193923 -1.139285
0000e0 d3 17 e6 3e e5 c6 9a 3f af db ee bf 39 34 8e bf
       0.4494005 1.2091948 -1.8660792 -1.1109687
0000f0 1e b4 9b bf 35 d4 e3 3f 73 9c 02 40 f2 8a 90 3f
       -1.2164342 1.7799135 2.040799 1.1292403
000100 ae c7 98 3f 5f ec 0a 40 cf 11 fd be a0 29 d7 bf
       1.1935937 2.170677 -0.4942765 -1.6809578
000110 3d 0b 9a 3f 02 a9 d3 3f 58 60 9c 3f b7 5a f9 3f
       1.203468 1.6535952 1.2216902 1.9480809
000120 da 7c a6 bf 6a 44 08 40 97 56 a7 3f e3 64 ce 3e
       -1.3006852 2.1291757 1.30733 0.40311345
000130 f7 62 a5 3e 5c 83 11 40 a3 48 13 c0 b0 60 a8 bf
       0.32302067 2.2736425 -2.3013084 -1.3154507
000140 aa 69 f5 3e b1 f6 53 3f c9 e3 cb 3f fa e7 13 c0
       0.47932178 0.82798296 1.592889 -2.3110337
000150 d9 01 ea 3f d9 36 88 3f bd cf 8c 3f 94 d1 98 3f
       1.8281814 1.0641738 1.1000897 1.1938958
000160 b8 45 31 40 78 1a a7 3f 30 3c f0 bf ef 4e 00 40
       2.7698803 1.3054953 -1.8768368 2.0048177
000170 b8 27 9d 3f b0 b9 da be 37 67 98 3f 1e 57 aa bf
       1.2277746 -0.42719793 1.1906499 -1.3307836
000180 25 17 83 bf 9c 5f 10 40 6a af 9a 3f b0 0d c8 3f
       -1.0241438 2.2558355 1.2084782 1.5629177
000190 57 a4 97 3f f5 f2 8d bf 44 00 13 40 dd 76 89 bf
       1.1847028 -1.108977 2.2968912 -1.0739399
0001a0 e6 ca 8f bf 89 09 a7 bf fb 2e 9c 3f 38 17 89 bf
       -1.1233795 -1.3049785 1.2201837 -1.0710211
0001b0 86 57 e0 be fc 84 8d 3f 7b 9a 87 3f 7e 09 a2 3f
       -0.43816775 1.1056209 1.0594019 1.2659147
0001c0 85 41 9a bf 3e d8 80 3f d9 d7 82 bf ff 01 ba be
       -1.2051245 1.0065992 -1.0222121 -0.36329648
0001d0 d4 2e 0f c0 dd 2e 98 3f 32 5e 16 c0 d2 48 e1 bf
       -2.2372332 1.1889302 -2.3494992 -1.7600348
0001e0 50 79 9a bf ad 5e 99 3f df 03 14 c0 ac b5 96 bf
       -1.2068272 1.1982018 -2.3127363 -1.1774192
0001f0 34 d8 1f bf 25 2f f3 3f a5 5c bc 3f a1 58 06 c0
       -0.62439275 1.8998762 1.4715773 -2.0991595
000200 0b 26 44 3f e6 95 9c 3f dc d3 99 3f e1 ae 9a bf
       0.7662055 1.2233245 1.2017779 -1.2084619
000210 91 8e 06 40 27 b5 20 c0 6f aa 9b bf 6a fc 98 3f
       2.1024516 -2.5110567 -1.2161387 1.1952031
000220 fe 5d 3a c0 c6 2f 0e 40 ff c1 d2 3e 6b 12 eb be
       -2.9119868 2.2216659 0.41163632 -0.4591249
000230 f6 d2 96 bf 99 1b 90 bf b8 53 0c 40 d3 14 96 3f
       -1.178313 -1.1258422 2.1926098 1.1725105
000240 8b 4d 89 3f 73 96 c8 3f 55 be 9d 3f eb 13 8d 3f
       1.0726789 1.5670913 1.232371 1.1021703
000250 bb bd 13 c0 6a 9f 9a bf d8 a7 3e bf 42 cf 86 3f
       -2.3084552 -1.2079899 -0.7447486 1.0532
000260 54 82 92 bf cc 56 9d bf 61 19 b5 3e bf 70 80 bf
       -1.1446023 -1.2292113 0.35370925 -1.0034407
000270 dd d1 9a bf f0 a5 07 c0 12 3c 99 3f a1 41 03 40
       -1.2095295 -2.119503 1.1971457 2.0508807
000280 46 a0 0f c0 71 e3 09 40 09 14 d3 be 7c e9 80 bf
       -2.2441573 2.154507 -0.41226223 -1.0071254
000290 7d 57 c9 bf 87 49 05 c0 ed fc 2b c0 7d 8d 96 bf
       -1.5729824 -2.0826128 -2.6873124 -1.1761929
0002a0 7b ab 9b 3f 05 7c 9c 3f 67 80 0e 40 d4 38 9b 3f
       1.2161707 1.2225348 2.226587 1.2126718
0002b0 ed 22 19 c0 f9 00 a8 3f f4 94 13 c0 63 bb 14 40
       -2.3927567 1.3125297 -2.3059664 2.3239372
0002c0 3f 3e 96 3f 75 70 c6 3f c2 64 9c 3f ec d3 76 bf
       1.1737746 1.5503069 1.2218249 -0.9641712
0002d0 55 2d 92 bf 0a ad e9 3e fb 26 c3 bf 70 4e 89 3f
       -1.1420084 0.4563983 -1.5246271 1.0727062
0002e0 16 ec 98 bf aa 1a 18 40 52 03 9e 3f 65 4a a4 bf
       -1.1947048 2.3766274 1.2344763 -1.2835203
0002f0 51 bb cb be a0 11 90 bf 04 73 0b 40 18 73 9e bf
       -0.3979135 -1.1255379 2.178895 -1.2378874
000300 ee 12 96 bf fa a5 08 40 4f 99 13 c0 1c 3d d9 be
       -1.1724527 2.1351304 -2.3062322 -0.42429435
000310 f2 6c 3e 3f 36 95 8f bf e0 f9 08 40 39 21 8a 3f
       0.7438499 -1.121741 2.1402512 1.0791389

bias f4 [300]
000000 3c 5a 5a bd 6d b0 e8 bd e4 11 e4 be 50 5d 9e 3d
       -0.05330871 -0.113617755 -0.445449 0.07732642
000010 f7 37 e7 bc db 08 45 bc ce 36 f1 bc 20 5f b7 bc
       -0.028224928 -0.012026037 -0.029445078 -0.022384226
000020 fe 92 9e bd 35 c6 a7 3c 59 cd 0c be 42 b3 8f 3d
       -0.0774288 0.020480255 -0.13750209 0.070166126
000030 8c 6d 03 3d c8 8e 84 3b 5a db 75 bd b1 39 88 bc
       0.032086894 0.004045341 -0.060023643 -0.016629072
000040 57 f2 31 3d dc af d9 bc cd c0 99 3d 44 83 42 bd
       0.043444004 -0.026573114 0.07507477 -0.047488466
000050 4f 38 10 be af 5e 46 bd 5a b7 01 be 58 4c a9 bc
       -0.1408398 -0.04843014 -0.126676 -0.020666286
000060 07 27 1c 3d 0b 8a 46 3d f9 75 0c bd af 27 21 bd
       0.038123157 0.04847149 -0.034292195 -0.039344486
000070 9f 2a 31 bd 8b 1f 91 bd 43 1f 83 bd c2 de ab 3d
       -0.043253537 -0.070860945 -0.06402447 0.08392097
000080 22 b3 ab bd 32 72 7c ba 5d 27 35 bd e8 fe 09 bd
       -0.08383776 -0.00096300535 -0.044226993 -0.033690363
000090 20 b3 13 be 82 48 e9 bc 36 20 03 3b aa 00 e7 ba
       -0.144238 -0.028476957 0.0020008213 -0.0017624099
0000a0 1e cc a9 3c 1f 48 77 3d c0 2b 91 3c 18 d2 08 be
       0.020727213 0.060371514 0.017721057 -0.13361394
0000b0 da 4c 2d bd 15 5d 21 3d 50 da 9d bc 55 d3 12 bc
       -0.04230962 0.03939541 -0.019269139 -0.008961518
0000c0 e1 5d 3f bc 45 82 11 be fb ab 8b 3d e8 8d dc bc
       -0.011680097 -0.1420985 0.06819912 -0.026923135
0000d0 68 53 08 be bf 10 75 bd 9a af 84 bd 3c 65 09 bd
       -0.13313067 -0.059830423 -0.06478806 -0.03354381
0000e0 85 22 c7 bd 77 83 ba bc 6c 65 9d be 72 af 9e bc
       -0.09723381 -0.022767765 -0.3074144 -0.019370768
0000f0 53 69 2f bd 0e 27 2a bc ab 90 fc bc f5 5d 50 bd
       -0.042825054 -0.010385288 -0.030830702 -0.050870854
000100 a2 5a 28 3d c5 2b dc 3c 5e a9 dd bb 92 06 07 be
       0.04110206 0.02687634 -0.006764575 -0.131861
000110 7d 70 93 bd 4c 2f c8 3c 17 ee 45 bd 14 54 f6 3c
       -0.0719919 0.024436615 -0.048322763 0.030069388
000120 63 67 0f be d5 9b 07 3d e1 69 ff bd 3f 42 0a bd
       -0.14004283 0.033107597 -0.12471367 -0.033754583
000130 81 3c 76 bd 08 81 be bd d2 a9 bb bb d7 dd a4 bd
       -0.060116295 -0.093019545 -0.0057270313 -0.08050125
000140 b0 61 23 3d c2 db a7 bd 70 80 a0 3c ba 4b 88 bc
       0.039888084 -0.08196212 0.019592494 -0.016637672
000150 11 b1 98 bd e2 b3 c7 3c 90 ce 09 be 12 c4 88 bd
       -0.07455648 0.024377767 -0.13457704 -0.066780224
000160 af 3c 81 bd 8b 47 90 bd c7 e3 ea 3c b1 10 4e 3d
       -0.063104026 -0.07044896 0.028673066 0.050308887
000170 ec 25 2c 3d 4f df fa bc fc 75 37 3d 3b 34 47 bc
       0.042028353 -0.03062406 0.044790253 -0.012158449
000180 a0 3a 4d bd 5a 63 07 bd 73 49 8c bd 99 46 3d bc
       -0.050104737 -0.033053733 -0.06849947 -0.011552476
000190 a2 43 01 bc b2 29 8c 3c a2 f5 6c bd 0f a7 de 3a
       -0.00788966 0.017109726 -0.05785144 0.0016987043
0001a0 9d f3 92 3d 38 ee 0a be be 5c f2 bc fc 83 8c 3d
       0.07175372 -0.13567436 -0.029585239 0.068611115
0001b0 da 78 b9 3b 8c 9e 8a 3c c0 56 47 3b 8a b6 8d bd
       0.0056601586 0.016921304 0.0030416697 -0.06919582
0001c0 d2 8b 34 3d 4d 0d b8 bd fb 95 c7 bc 62 fb 0d be
       0.044078656 -0.08986912 -0.024363508 -0.13865426
0001d0 d6 30 4a bd ef af 87 3d cf ce 4c 3c 14 b4 93 bd
       -0.04936298 0.066253535 0.012500479 -0.072120816
0001e0 d6 ce 53 bd 1e 7e 95 bd e0 9d b6 bd a2 c6 f2 bc
       -0.051710926 -0.072994456 -0.08916831 -0.029635731
0001f0 f6 2b 94 3d 8c 73 78 bc d9 a0 f4 bc 72 0a ab 3c
       0.072349474 -0.015164267 -0.029861854 0.020879004
000200 af 30 50 bd 2f 9d 60 bc 72 fa b2 bd e9 a2 4d bd
       -0.05082768 -0.0137093505 -0.08739175 -0.05020419
000210 f8 c2 4d bd 19 2e 46 3d f2 f1 5a bb 4e 24 d4 bc
       -0.050234765 0.048383806 -0.003340837 -0.025896218
000220 eb 8d 44 3d 8a 40 45 bc ba d0 8d bd b2 f2 42 bc
       0.047986906 -0.012039313 -0.06924577 -0.011898683
000230 7f 7c 8e bc 6d f5 91 bd 91 f1 9b bd df f3 89 3d
       -0.017393349 -0.071268894 -0.076144345 0.06735968
000240 9b 37 8c 3d 65 80 90 3c 21 63 8d 3d be 10 00 be
       0.068465434 0.017639348 0.06903673 -0.12506387
000250 6c 2b e5 bc 4e d6 88 3d f2 7a 71 bd d5 fd 80 bc
       -0.027974807 0.066815004 -0.05895514 -0.015746037
000260 3e ce 46 bd 43 9a 0f 3d f2 cf 7d bd 56 ca a8 3b
       -0.04853653 0.035059225 -0.06196589 0.0051510734
000270 46 df 04 bd 78 09 ee 3c 3d 68 01 bd b1 d1 91 bd
       -0.032439493 0.02905725 -0.03159355 -0.071200736
000280 dc f1 14 3d 8d aa c3 3b 63 4a e1 3c f8 a9 54 3d
       0.036363468 0.005971259 0.02750129 0.051919907
000290 e2 f5 d1 3b 58 5a 26 3b fc af 8e bc d4 50 22 bc
       0.0064074853 0.002538344 -0.0174179 -0.009906966
0002a0 b5 f3 35 bd eb e0 1b 3d 8a 52 6f 3d d7 c6 89 3d
       -0.04442187 0.038056295 0.058428325 0.06727379
0002b0 3d 8e e6 bd 63 77 32 3d 01 d4 17 3c c3 7e 67 bd
       -0.112575985 0.043570887 0.009266854 -0.056517374
0002c0 f4 47 8d bd bb f7 99 bd 58 76 01 3d 72 59 34 bd
       -0.068984896 -0.07517954 0.031607002 -0.044030614
0002d0 57 90 04 be 2e 72 fc bc ab 1d 2a bc cc 71 be bc
       -0.12945686 -0.030816164 -0.01038305 -0.023247622
0002e0 2d 36 60 3d f0 77 df 3c de 4a 7c bd 5d a3 4b bd
       0.054739166 0.02727887 -0.061594836 -0.049716342
0002f0 fa 85 41 bb bb df 8c 3d 15 bd 4e 3d c3 54 17 3d
       -0.002952932 0.06878611 0.05047329 0.03694607
000300 90 a2 56 bd 77 7d b9 bc 19 5b ab bc bc 2d bf bd
       -0.052401125 -0.022642834 -0.020917462 -0.09334895
000310 ed c0 c8 bb c5 77 7f bd 1b 04 00 be fd 2a 03 3d
       -0.006126514 -0.06237008 -0.12501566 0.03202342
000320 72 1c 80 3d 16 8e 0a be de c2 3f 3d 45 9e cd bc
       0.062554255 -0.13530764 0.0468167 -0.025099883
000330 9e 66 40 bc 7b 82 02 bd 99 72 e7 bb 2e e0 21 3d
       -0.011743216 -0.031862717 -0.0070632217 0.039520435
000340 6d dc 37 3d 7c 41 de bc 7b 3e 5e 3d f9 77 00 be
       0.04488795 -0.027130835 0.054258805 -0.12545766
000350 f1 34 ad bd ba 32 84 bd c2 68 ff 3b d8 50 87 bc
       -0.084573634 -0.06454988 0.0077944705 -0.016518041
000360 82 7d 53 bd 53 e6 76 bd 73 ba 3d 3d eb 2a fb bc
       -0.051633365 -0.060278248 0.04632039 -0.030660113
000370 dd 50 96 bd 72 ef fd bc f2 f5 d5 bb a3 fc 1c 3c
       -0.07339642 -0.030997965 -0.006529563 0.009581718
000380 14 16 19 3d 93 ed 2c 3d 55 c0 21 bd b3 24 05 be
       0.03737457 0.042218756 -0.039490063 -0.13002281
000390 76 9c 76 bd 79 54 9f bc 11 19 8d bd 10 65 b1 bc
       -0.060207807 -0.01944946 -0.06889547 -0.021654636
0003a0 a4 00 37 3d fa 06 e2 bd d9 80 1d bd 74 cd 40 bc
       0.044678345 -0.11036487 -0.038452957 -0.011767734
0003b0 3b e5 31 3d d8 b8 18 bc 88 4c 10 bd 72 8b b6 3c
       0.0434315 -0.009321414 -0.035229236 0.02228329
0003c0 e7 3a 06 3d c7 c8 7b 3d ff ab d4 bc 5c e9 f6 ba
       0.032771017 0.061470773 -0.02596092 -0.0018837857
0003d0 d6 a7 76 3d 15 25 3a bd 4b 4d 75 3b b1 cc 86 bc
       0.060218655 -0.04544552 0.0037430103 -0.016455026
0003e0 ad 31 0e 3d 57 f1 36 3d 00 0b 70 3c ef cb cd bd
       0.034715343 0.044663753 0.01465106 -0.10048663
0003f0 c8 a5 98 bb aa ba e3 bd b5 93 37 3b 79 ab e3 3c
       -0.0046584345 -0.11119588 0.0028011624 0.027791725

weight f4 [300, 200]
000000 62 88 7e be 00 00 00 80 ff 91 8e bf d8 2e 7e 3d
       -0.24856713 -0.0 -1.1138304 0.062056392
000010 17 85 82 bf 2f ac 30 3e d2 22 8c bf 63 df 88 bf
       -1.0196866 0.17253183 -1.0948126 -1.0693172
000020 f5 48 5f bf 50 e5 71 bf b7 d2 93 bf 32 32 65 bf
       -0.872207 -0.9449053 -1.154868 -0.89529717
000030 11 72 4e bf 1c f9 71 bf 81 28 35 3d df d1 8f bf
       -0.806428 -0.94520736 0.04422808 -1.1235923
000040 32 d5 60 3d 6c 7d 28 3e f5 9f 3d bf 94 30 36 bf
       0.05489082 0.16454095 -0.740722 -0.71167874
000050 b6 0c 50 bf af cc 74 bf fe 31 83 bf f7 5e 37 3d
       -0.81269395 -0.9562482 -1.0249631 0.0447683
000060 9d 3c 81 3c 9c 07 56 bf ba e0 39 bf fd cc 6e bf
       0.015775973 -0.8360536 -0.7260853 -0.9328154
000070 14 cc 75 3e 37 6f 90 bf df 7c f6 be 75 08 06 3d
       0.24003631 -1.128394 -0.48142144 0.03272291
000080 7b dd b7 bd 00 00 00 80 9b 67 45 3d 5a c8 85 bf
       -0.08977791 -0.0 0.04819451 -1.0451767
000090 cd fd 53 bf 58 8e a6 3c d0 b1 8f 3e cf 56 72 3d
       -0.82809144 0.020331547 0.28065348 0.05916482
0000a0 d0 6e 45 bf 36 0e 71 bf 10 ac 98 3e 06 6c 62 3e
       -0.7712221 -0.9416231 0.29818773 0.2211152
0000b0 2f 2f 84 3e 71 0d 84 bf 72 be 6b bf e8 95 95 3e
       0.25817248 -1.0316602 -0.9208747 0.29215932
0000c0 c4 fc 22 3d 67 c6 1d bc 36 57 8d 3d 57 37 35 bf
       0.039791837 -0.009629822 0.069014 -0.70787567
0000d0 4b 97 87 bf e0 4f 5e 3d 73 c1 ae 3d fd 2e 96 bf
       -1.0593046 0.054275393 0.08532991 -1.173309
0000e0 0d db 8e 3e 1c 64 4a 3d 42 9c a0 bf 71 b3 5c bf
       0.27901497 0.049411878 -1.2547686 -0.86211306
0000f0 76 4d 94 bf ea c3 45 bd 5d e6 70 3e 70 a2 8a 3e
       -1.1586139 -0.04828254 0.23525377 0.27077055
000100 b9 f0 ff 3d 00 00 00 80 28 8a b2 be 78 f6 8d bf
       0.12497086 -0.0 -0.3487103 -1.1090841
000110 39 eb 0c 3e 40 22 d6 bc 25 8e 40 3d 9d b1 c3 bc
       0.13761605 -0.026139379 0.04701056 -0.023888404
000120 bf c9 a3 bf 68 a8 1b 3e 68 ea 80 bc 34 6b 07 3d
       -1.2795943 0.1520096 -0.015736774 0.03306122
000130 e9 21 97 3d 18 c2 49 3e c3 86 0a bf 4a 57 2b bf
       0.07379515 0.19702947 -0.5411188 -0.6693007
000140 a8 b3 2e 3d 74 0c 0e 3e 19 db d4 3d a9 e9 9a be
       0.042651802 0.13871938 0.10393352 -0.30256394
000150 20 9e 63 3c 17 c1 4d 3e 34 5a 7b 3d 3f 64 2b 3d
       0.01389268 0.20093189 0.06136532 0.04184365
000160 0e 91 36 bd 3f 79 84 3d 1f a7 94 bf 00 00 00 80
       -0.04457193 0.06468438 -1.1613501 -0.0
000170 a1 34 20 3e 42 bd db be 1c af c2 3d 9f e1 70 bf
       0.15645076 -0.4291783 0.09506056 -0.9409427
000180 03 a5 72 bf 00 00 00 80 1e ed 10 bc c8 9e 83 3d
       -0.9478304 -0.0 -0.008845596 0.064267695
000190 0c 35 c1 3d 70 4e 65 bf b3 0a df 3e b3 ac 3f bf
       0.09433946 -0.8957281 0.4356285 -0.74872893
0001a0 01 c8 83 bf a2 98 79 bf 1c 6e 1f bd 51 9f 5b bf
       -1.0295411 -0.97498524 -0.038923368 -0.8578997
0001b0 29 b8 0a be 17 4b 62 3e 85 f5 0d 3e 37 1b 11 3d
       -0.13546814 0.22098957 0.1386319 0.035426345
0001c0 71 f8 89 bf 64 5e 87 3e 5f a9 82 bf 58 72 cc be
       -1.0778943 0.26439202 -1.0207938 -0.39930987
0001d0 bc 4d ab be c2 c4 87 3d c8 33 c0 be f5 83 80 bf
       -0.33457744 0.066293254 -0.37539506 -1.004027
0001e0 ac 1f 7f bf 21 1f 6e 3d 7d 8a 65 be 88 2a 8a bf
       -0.996577 0.058135156 -0.2241611 -1.079423
0001f0 e2 06 83 bf 09 28 f5 3d 58 5a fd 3e 84 4a 16 bf
       -1.0236475 0.11970527 0.4948299 -0.5870745
000200 f6 5f 39 3e 19 99 22 3e 4b 55 d8 3d ea b7 40 bf
       0.18103012 0.15878715 0.10563143 -0.7528063
000210 e8 7e 6c bd 80 2b 2b bf 8a e7 44 bf 02 a2 00 3e
       -0.057738215 -0.6686325 -0.769158 0.12561801
000220 3c 65 8c be 0c 29 68 3e 11 c6 a2 3d 92 a8 ba be
       -0.27420986 0.22671908 0.079479344 -0.36456734
000230 0b 2b 60 bf 6b c9 91 bf c5 49 a6 3e 70 b2 6b 3d
       -0.8756568 -1.1389593 0.32478157 0.057543218
000240 d0 b1 4e 3e de 4b db 3c c3 b9 7d bc 8e 4c 9c 3e
       0.20185018 0.026769575 -0.015486184 0.30527157
000250 33 c9 ac be dd 0d 31 bf 85 40 71 bf 05 e1 31 3e
       -0.33747253 -0.6916178 -0.94239074 0.17370994
000260 81 94 38 bf fc c3 32 bf e9 6d 08 3e c8 12 87 bf
       -0.721016 -0.698303 0.13323177 -1.0552607
000270 07 69 45 bf b4 05 8a bf 95 fc 39 3d 15 e2 71 3e
       -0.77113384 -1.078299 0.045406897 0.236214
000280 7f 6e eb be 92 40 07 bd 1a bd ea be c1 be 80 bf
       -0.4598274 -0.033020563 -0.45847398 -1.0058213
000290 c5 88 c6 bf db 83 91 bf 02 05 e7 be 59 d2 70 bf
       -1.5510489 -1.1368364 -0.45121008 -0.94070965
0002a0 29 68 a6 3e 45 30 c7 3c fa 9c 50 3e 98 a2 b4 3d
       0.32501343 0.024315009 0.20372382 0.08820075
0002b0 87 fb f5 be 83 63 8d 3d 96 f2 dc be 00 00 00 80
       -0.48043463 0.06903746 -0.43153828 -0.0
0002c0 05 28 18 3e f0 ab b2 3d 83 3e e9 bc 8d de 7d bf
       0.14859016 0.08724201 -0.02847219 -0.9916771
0002d0 22 b8 86 bf d1 bd 95 3d af 16 7a bf b5 5b 13 3e
       -1.0524943 0.07311595 -0.9769086 0.14390452
0002e0 27 74 69 bf a8 b7 6a bd a5 c4 fb 3d d7 39 4c bf
       -0.9119286 -0.057304054 0.12293366 -0.79775757
0002f0 28 97 db be b4 02 88 bf 07 2e b5 3e 25 49 2e bf
       -0.4288876 -1.0625825 0.3538668 -0.6808036
000300 b1 14 93 bf 13 90 55 3e 46 b0 42 be 43 1e a6 be
       -1.149069 0.20855741 -0.19012555 -0.32444963
000310 44 8d 58 3e 93 04 8f bf de af a4 3e b7 4d 7e 3e
       0.21147639 -1.1173271 0.32165426 0.24834333
000320 62 ce e3 bd 6e 47 07 be 00 00 00 80 d1 69 f7 bd
       -0.11123349 -0.13210842 -0.0 -0.1208073
000330 00 00 00 80 e6 2a fe bc 8d af 17 be f2 3e a1 bd
       -0.0 -0.031026315 -0.14813061 -0.07873334
000340 c5 f4 14 be 71 0b d4 bd 00 00 00 80 1a 90 a6 bd
       -0.14546497 -0.10353745 -0.0 -0.08132954
000350 e1 c6 95 bd fa c3 89 bc 15 d6 cd bd 00 00 00 80
       -0.07313324 -0.016817082 -0.100505985 -0.0
000360 4d 83 d9 bd 00 00 00 80 b7 d8 ae bd e3 0a 0a be
       -0.10620747 -0.0 -0.08537429 -0.13480715
000370 ce 37 a7 bd 00 00 00 80 5c 58 1b be 00 00 00 80
       -0.08164941 -0.0 -0.15170425 -0.0
000380 00 00 00 80 fb 1a b8 bd 20 b6 08 be 71 0a a7 bd
       -0.0 -0.08989521 -0.13350725 -0.081562884
000390 df b9 ed bc 00 00 00 80 a8 f0 91 bd 02 ce 8f bb
       -0.029019294 -0.0 -0.0712598 -0.0043885717
0003a0 ac a9 03 be 00 00 00 80 3a a5 dc bc fc 7b b1 bc
       -0.12857693 -0.0 -0.026934255 -0.021665566
0003b0 3b 5e a5 bd 5f e4 09 be 82 f2 d2 bd 00 00 00 80
       -0.08074614 -0.13466023 -0.10300161 -0.0
0003c0 dd 8a dd bd 1e 15 cd bd 84 1f 01 be b8 79 04 bc
       -0.10817502 -0.100137934 -0.12609679 -0.008085661
0003d0 2d e7 10 bd 25 91 af bd 32 4b 17 be d0 4a 14 bd
       -0.035376716 -0.08572606 -0.14774778 -0.03620416
0003e0 00 00 00 80 b0 85 10 be d7 95 1a be 8a e5 27 be
       -0.0 -0.14113498 -0.15096222 -0.16396156
0003f0 07 59 52 bd d3 be f1 bd 00 00 00 80 b3 d7 b6 bd
       -0.051354434 -0.11803975 -0.0 -0.0892786

weight f4 [1, 300]
000000 3d ee e7 3e 00 00 00 00 9c 86 93 be 36 af 6d bd
       0.4529895 0.0 -0.28813636 -0.058028422
000010 00 00 00 80 00 00 00 00 6e ce d5 bd 00 00 00 00
       -0.0 0.0 -0.10439764 0.0
000020 00 00 00 00 27 82 20 bd 00 00 00 00 b4 47 ab 3d
       0.0 -0.039186623 0.0 0.08363286
000030 14 82 80 3d 33 eb 85 3d 24 e1 e1 3d 1e ad 78 bd
       0.062748104 0.06539001 0.1102927 -0.060711972
000040 a8 0f 05 3e 0d 62 ca 3d 0b 0e 87 bd cf 45 5d 3d
       0.12994254 0.09881983 -0.06594475 0.054021653
000050 00 00 00 00 d8 d8 c3 3d 00 00 00 80 00 00 00 80
       0.0 0.09562844 -0.0 -0.0
000060 17 41 6f bd f3 9d 44 bd af f0 52 bd 00 00 00 00
       -0.058411684 -0.048002195 -0.051499065 0.0
000070 7e 1b 78 bd 21 08 ac bd 00 00 00 00 ee e3 e7 3e
       -0.060573094 -0.08399988 0.0 0.45291084
000080 00 00 00 80 d6 a5 99 bd a5 81 a6 3d 5b 16 02 3e
       -0.0 -0.07502334 0.081301965 0.1270384
000090 00 00 00 00 05 ea 75 bd 17 b6 9f bd cb c7 2b 3e
       0.0 -0.06003763 -0.07798403 0.16775434
0000a0 8a 30 7c bd 26 16 82 bd 3e e8 88 bd 00 00 00 80
       -0.061569728 -0.06351881 -0.06684922 -0.0
0000b0 00 00 00 00 da c9 fd bd eb da b3 bd 3c d9 9a 3d
       0.0 -0.12392016 -0.0878199 0.075609654
0000c0 4f 5f bf 3d 00 00 00 00 fc 6a d5 3d 41 48 2c be
       0.093443505 0.0 0.10420796 -0.16824438
0000d0 00 00 00 00 b5 7b a0 bd a5 35 99 bd 9b 62 e6 3d
       0.0 -0.07836095 -0.07480935 0.11249276
0000e0 00 00 00 00 70 0f 3d 3d 13 31 a8 be 00 00 00 00
       0.0 0.0461573 -0.3284994 0.0
0000f0 cb 18 59 bd 80 a3 67 bd 2c 85 66 bd e4 19 d3 3d
       -0.05300216 -0.05655241 -0.056279346 0.103076726
000100 b1 29 8e bd 7e de 33 bd 67 63 2c 3e 00 00 00 80
       -0.06941546 -0.043913357 0.16834794 -0.0
000110 e6 fb ce 3d 1c 95 0b 3e 00 00 00 00 5f ba 7c bd
       0.101066396 0.136311 0.0 -0.061701175
000120 00 00 00 00 50 64 95 bd 00 00 00 00 3b 1a 70 3d
       0.0 -0.07294524 0.0 0.058618765
000130 53 5f 4b 3d bd 97 0b bd 3e b1 22 3e 97 b1 8d 3d
       0.049651455 -0.034080256 0.15887925 0.06918638
000140 9a 7c 41 3d 00 00 00 00 9e c9 52 3e 93 29 f0 3d
       0.04723797 0.0 0.20584723 0.1172668
000150 86 6a 0d 3e 60 e6 0f 3e 00 00 00 80 00 00 00 80
       0.13810167 0.14052725 -0.0 -0.0
000160 89 e9 8a 3d 48 f8 9e bd b0 8a 7b 3d 31 b5 b1 bd
       0.067828245 -0.077622 0.06141156 -0.08677138
000170 06 ef 8d 3d 2a 09 96 3d e4 fe b5 bd 00 00 00 00
       0.06930356 0.07325967 -0.08886507 0.0
000180 46 11 9c bd b4 dc ac bd da d7 fb bd 15 22 98 3d
       -0.07620482 -0.08440533 -0.1229703 0.07428376
000190 00 00 00 00 cb b4 87 bd 75 f3 b6 bd 51 ab 78 3d
       0.0 -0.066262804 -0.089331545 0.060710255
0001a0 1e b2 96 3e 00 00 00 00 37 73 5a 3d 61 9c 84 3d
       0.29432768 0.0 0.053332534 0.064751394
0001b0 e7 66 ba 3d f6 10 89 3d 89 99 91 bd 2b 07 ab 3e
       0.09101658 0.06692688 -0.07109363 0.33403906
0001c0 76 1f 9d 3d 00 00 00 00 0c 49 95 bd 00 00 00 00
       0.07672016 0.0 -0.07289323 0.0
0001d0 00 00 00 00 fe 5d a0 3d 6e 98 d3 bd 53 e5 87 bd
       0.0 0.078304276 -0.10331808 -0.06635537
0001e0 dc 85 8c bd 95 84 92 bd 00 00 00 80 12 73 b3 bd
       -0.06861469 -0.07154194 -0.0 -0.08762182
0001f0 dd 5b b5 3d 65 cf a6 3d 13 01 c8 bd de 08 a1 3d
       0.08855412 0.08145026 -0.0976583 0.078630194
000200 dc ca b0 3d 00 00 00 80 00 00 00 80 03 ba d1 3e
       0.08632442 -0.0 -0.0 0.40962228
000210 47 69 b8 bd 62 a9 8e bd 9d be 97 3d 10 94 a5 3d
       -0.09004455 -0.06965901 0.074094035 0.08084881
000220 5d 26 b6 3d 80 f4 49 3e 28 92 cb bd 83 e5 98 bd
       0.08894036 0.19722176 -0.099399865 -0.07465651
000230 f9 10 a0 bd 5b 5f b5 bd 8c 6e 68 bd fc fc 96 bd
       -0.07815737 -0.08856078 -0.05674605 -0.07372472
000240 1f 8d 9f bd 45 61 c5 bd fd 86 b1 3d 00 00 00 80
       -0.077905886 -0.09637693 0.08668325 -0.0
000250 62 0a 97 bd 84 56 54 bd ff 4c d7 3d 00 00 00 00
       -0.07375027 -0.05184032 0.10512733 0.0
000260 bb 88 df 3d a2 2d a8 bd 5d 22 7b bd 2a 60 c5 bd
       0.10914751 -0.08211829 -0.06131207 -0.096374825
000270 00 00 00 80 b0 8a 94 bd 95 fb ba bd 00 00 00 00
       -0.0 -0.07253015 -0.09130017 0.0
000280 f4 c3 6f 3e a2 d1 8d 3d 5f 5a ea be 3a 01 c0 3d
       0.23414594 0.0692475 -0.45772073 0.09375234
000290 b6 87 82 bd e5 2d a4 3d b3 99 89 3d e3 d2 b2 3d
       -0.06373541 0.08016566 0.06718769 0.0873163
0002a0 00 00 00 00 c2 ab 97 bd 50 c4 35 bd 9e 20 90 bd
       0.0 -0.07405807 -0.04437667 -0.07037471
0002b0 00 00 00 00 40 b9 8f 3d aa e2 2c 3e f5 3a 9a bd
       0.0 0.070177555 0.1688334 -0.075307764
0002c0 00 00 00 80 2b 43 b4 bd f0 95 8d 3d c9 6f b7 3d
       -0.0 -0.08801874 0.06913364 0.08956868
0002d0 00 00 00 00 6a 2b a4 be 77 6c 5d 3e 4c 23 8d 3d
       0.0 -0.32064372 0.21623407 0.06891498
0002e0 8e 55 b6 bd a3 8c c6 bd 53 99 83 3d f1 4e a1 3d
       -0.08903037 -0.09694793 0.06425729 0.07876385
0002f0 58 4c 87 bd c0 18 93 3d 4b 4a 99 3d b5 e7 b0 3d
       -0.06606358 0.07182455 0.074848734 0.086379446
000300 00 00 00 80 00 00 00 00 14 a8 ed 3d 00 00 00 00
       -0.0 0.0 0.11604324 0.0
000310 ad 09 a0 3d b3 b2 7a 3d 00 00 00 00 40 69 a0 bd
       0.078143455 0.061205577 0.0 -0.07832575
000320 f6 2c ba bd 00 00 00 80 e1 95 56 bd 93 32 83 3e
       -0.09090607 -0.0 -0.05238903 0.25624523
000330 ac f0 e7 3d 00 00 00 00 f7 d7 1b 3e 20 ca 9a 3d
       0.113252014 0.0 0.15219103 0.075580835
000340 90 96 8b 3d 10 38 ba 3d e2 bc 86 3d 00 00 00 00
       0.06815827 0.09092724 0.06578995 0.0
000350 00 00 00 00 eb 9d d0 3d 41 b9 a2 bd 2d 19 85 3d
       0.0 0.101863705 -0.07945491 0.064989425
000360 a2 3b 67 bd fd 68 ad bd 98 db 70 bd 3e ee 9d 3d
       -0.056453355 -0.084672906 -0.05880317 0.07711457
000370 00 00 00 00 e6 5f ab bd 9f 44 ca bd be c0 92 3d
       0.0 -0.083679006 -0.0987637 0.07165669
000380 50 84 a7 bd d0 06 c0 3d 00 00 00 00 00 00 00 00
       -0.081795335 0.093762994 0.0 0.0
000390 00 00 00 00 00 00 00 00 27 1f bf 3d 47 4c b3 3d
       0.0 0.0 0.09332114 0.08754783
0003a0 df e7 88 3d 00 00 00 00 2f c2 6a 3d 84 71 8e bd
       0.06684851 0.0 0.057314094 -0.06955245
0003b0 d4 c3 d5 3d d1 6c b7 bd 00 00 00 80 6d c6 93 3d
       0.10437742 -0.08956302 -0.0 0.07215581
0003c0 82 fb 86 bd c3 e9 a5 bd 64 c3 c0 bd 39 f7 61 bd
       -0.0659094 -0.08101227 -0.09412268 -0.05516741
0003d0 8b 5f 79 bd 00 00 00 00 b1 90 9d 3d c4 38 a3 3d
       -0.060882133 0.0 0.07693613 0.079698116
0003e0 90 f2 b7 3d 2e b3 a9 3d ff 71 ca 3d 00 00 00 80
       0.08981812 0.08286129 0.09885024 -0.0
0003f0 54 b6 8e bd 00 00 00 00 ee 7c a0 bd af 0b 6d bd
       -0.0696837 0.0 -0.078363284 -0.05787247
