figures/Illu_large_partial_4/theta=0.1_s=0.6_step=100/best_model.pth (torch, 246949 bytes, 5 tensors)

weight f4 [200, 1]
00000000: 3f1e ac3f 5e3a 8a3f b765 67bf dcdf 83bf
00000010: 2799 bbbf e422 97bf 6a3e 8c3f b33d a73f
00000020: dab3 993f b8e8 af3f d160 75bf abe6 34bf
00000030: 9169 873f 1baa f4be b5f2 ce3e 9180 a43f
00000040: 42f9 a93f 56bf 46bf b9a4 e0be 9307 87bf
00000050: 2145 8fbf 8aad f6bf a90b 9a3f a7a0 c93e
00000060: 5c41 a03f f796 b7bf 1b01 e43e ea44 683f
00000070: d884 8f3f f7e7 4dbf 2079 843f 2996 633f
00000080: 0912 97bf 4b3b ae3f 78f1 f03e b868 52bf
00000090: c931 ddbe 6e37 853f ad78 7c3f b0dd a73f
000000a0: 637c a13f 730a a93f 5774 8f3f c68f 72bf
000000b0: f2d5 85bf 14f2 a93f 4377 7d3f e4e0 e2be
000000c0: 3bfd 52bf deae a63f 5c04 bcbf b15e 9d3f
000000d0: 6e44 833f f6e1 bcbf e3e4 b1bf 7cca 853f
000000e0: 6063 a93f 1a7a a13f 9b53 563f baec 723f
000000f0: 364f 87bf 58bb b53f 1f14 92bf 5b8c af3f
00000100: fdf4 3e3d 290c 9b3f 8c90 a13f 16c0 a4bf
00000110: 98ef 843f b650 ad3f cb79 c43e 59ba 75bf
00000120: 53f6 84bf 5afe 4fbf def8 35bf aaf1 813f
00000130: 439e a83f 227d af3f cb24 8fbf 2dae 89bf
00000140: 6517 4e3f 4ac1 ae3f 38ba e73f 482d 71bf
00000150: e17f 6cbf 903d fd3e 7abc 8c3f 866e d83e
00000160: 12ec 82bf 7426 84bf dd87 773f 90d8 af3f
00000170: f274 673f 524c a93f 02a7 ab3f 7145 6abf
00000180: c675 b8bf d8c2 ea3f 6bf5 ac3f d532 b1bf
00000190: 4321 86bf 4511 ae3f ba4d a43f c29d 5cbf
000001a0: 5d31 fcbe ce8b fe3e 0fea d5bf 18f7 2ebf
000001b0: ad29 d7be 9ce5 d5bf 07ba 893f cdea eb3e
000001c0: 82c8 b5bf af85 81bf 1df6 883f 6bd1 a43f
000001d0: 404b 913f ca84 e1be 2db3 ac3f d0aa 1c40
000001e0: 72da ae3f f26d 73bf d764 813f 2aa8 e43e
000001f0: b2ca ff3f 9ab0 90bf 4671 71bf 1dc4 833f
00000200: bb79 e1be bf3b 9a3f 4c82 2cbf 8fa3 ac3f
00000210: 6f0d 91bf 646c 7bbf 1c10 1a3f de8a 7fbf
00000220: 5d26 803f 6678 c3bf 0714 753f df39 7cbf
00000230: 41c2 d4be 3ad6 a83f 4c93 b4bf 773d 913f
00000240: bfce 453f cdae a93f 4910 b6bf 045b 8bbf
00000250: 6614 ad3f 77ec b23f bb59 8ebf e75d 803f
00000260: 1121 74bf 0cd6 8c3f d5d0 ecbf 6eab b9bf
00000270: 4e42 7fbf 3835 853f 8243 f5be 9b78 6c3f
00000280: 0a53 f5be 5135 febe 0555 b3bf 4c45 8e3f
00000290: 4c87 71bf d898 93bf fd78 ac3f 890e ab3f
000002a0: 622a acbf 4fc6 b4bf 1026 ad3f aa01 ae3f
000002b0: 1816 aa3f b83d 76bf abfd 66bf 0ebb 813f
000002c0: b009 a83f 275d e4be 3494 b7bf 7f94 9b3f
000002d0: be8e 0d3f 3495 c9be da54 87bf df88 e7be
000002e0: e2d2 ecbe 6e0e 72bf d5fa c23e 3f20 dfbe
000002f0: d576 d33e acde 8dbf 85a2 e6be c32d de3e
00000300: 94c9 9c3f b625 5fbf be29 9ebe 6159 6d3f
00000310: 89df c7bf 34b1 3f3f 66ed 763f fd2e 89bf
1.344673 1.0799062 -0.9038958 -1.0302691 -1.4656113 -1.1807523 1.0956547 1.3065704
1.2008011 1.3742895 -0.95850855 -0.7066447 1.0579091 -0.4778603 0.40419546 1.2851735
1.3279192 -0.77635705 -0.43875673 -1.0549186 -1.1192971 -1.927171 1.2034808 0.3938038
1.2519946 -1.4342946 0.44532093 0.90730155 1.1212416 -0.80432075 1.0349464 0.88901
-1.1802379 1.3611845 0.47059226 -0.8219104 -0.43202046 1.0407541 0.98621637 1.3114529
1.2616085 1.3206314 1.1207379 -0.9475063 -1.0455916 1.3277001 0.99010104 -0.44312203
-0.8241765 1.3022115 -1.468883 1.2294523 1.0255258 -1.4756458 -1.3897976 1.0452418
1.3233452 1.2615387 0.8372132 0.94892466 -1.0571048 1.4197798 -1.141239 1.3714708
0.046620358 1.2113086 1.2622237 -1.287112 1.0385618 1.3540256 0.3837417 -0.9598747
-1.0387672 -0.81247485 -0.71082866 1.0151875 1.3173298 1.3710063 -1.1183103 -1.0756279
0.8050445 1.3652737 1.8103704 -0.9420972 -0.9238263 0.4946103 1.0995018 0.42271823
-1.0228293 -1.0324235 0.96691686 1.3737965 0.9041282 1.3226416 1.3410342 -0.9151221
-1.4410942 1.8340712 1.3512396 -1.3843638 -1.0478901 1.359902 1.283622 -0.8617822
-0.4925641 0.49716038 -1.6712054 -0.68345785 -0.42023984 -1.6710696 1.0759896 0.46077576
-1.4201815 -1.0118922 1.0700108 1.2876409 1.135109 -0.44046623 1.349218 2.4479256
1.3660414 -0.9508964 1.0108899 0.4465955 1.9983733 -1.1303895 -0.94313467 1.0294224
-0.44038185 1.2049483 -0.6738632 1.3487414 -1.1332225 -0.98212266 0.6018083 -0.9982127
1.0011708 -1.5271118 0.95733684 -0.98525804 -0.41554454 1.3190377 -1.4107451 1.1346883
0.77268595 1.325647 -1.422372 -1.0887151 1.352185 1.3978413 -1.1121134 1.0028657
-0.95362955 1.1002822 -1.850123 -1.4505441 -0.9971055 1.0406866 -0.47903067 0.9237153
-0.47914916 -0.49650052 -1.4010321 1.1114898 -0.9434707 -1.1531019 1.3474423 1.3363811
-1.3450434 -1.4123019 1.3527241 1.3594258 1.3287992 -0.96187925 -0.90230817 1.013521
1.3127956 -0.4460232 -1.4342103 1.2154692 0.5529593 -0.39371645 -1.057277 -0.45221612
-0.4625464 -0.9455327 0.38081995 -0.4357929 0.413016 -1.1083579 -0.45045868 0.43394288
1.2249017 -0.8716692 -0.30891222 0.92714506 -1.5615093 0.74879766 0.9645599 -1.0717465

bias f4 [200]
00000000: 8d25 aa3f 82a5 acbf 8cdd fa3e d84e 863f
00000010: 96ee 2abf 4fd3 9d3d c038 5ebf e784 c83f
00000020: a8ea a73f 7e84 543f 06f7 2d3f e932 b73f
00000030: f218 17bf f8c8 b83f 3fd9 103f 409f 9b3f
00000040: 76f3 8b3f efef f0bb fb2b 23bf d2f4 863f
00000050: a268 d33f 9c8e 6abf a300 d4bf 77b7 77bf
00000060: 2d25 3a3f 6d2b 46bf 2862 cb3f e245 b2bf
00000070: 9220 233f dbb8 953f 971e 01bf 520a a2be
00000080: 907d fc3f 6978 c23f 1800 8b3f ab1f b63e
00000090: c2b1 09bf 277d 76bf fef7 15bf da84 903f
000000a0: fc3c 2ebf 59ca 653f 6cc5 00bf 7c06 783f
000000b0: 1d0a 9e3f 1e3f 863f b661 41bf 39c4 28bf
000000c0: c4b0 30bf 7800 343f 3191 1ebf 2c7a 0d3f
000000d0: 71c5 74bf fc9c 03bf 0ada 5fbf 7eb3 9abf
000000e0: 0aa9 6a3f ecd7 2c3f 991b 7bbe 8a97 0fbf
000000f0: c14a 953f e4b0 ba3e 8cd4 0a3f 1f67 e63f
00000100: 377f 623f 6df3 343f fd84 ce3f 922b 803c
00000110: a676 90bf 74a4 893f 099f b33e c8a8 0e3f
00000120: 730a 9b3f c0d7 863f 0b77 243f 197c 82be
00000130: 7822 973f f552 f73f d657 c73f 17cb a03f
00000140: ecb6 89be f311 813f 4c9e 50bf 9f54 0e3f
00000150: 7fca 113f 1de6 d5bf 7dd8 a0bf 7d92 1fbf
00000160: 572d dbbd df4e 573f 2c78 33bf 30a4 ad3f
00000170: 3f80 e4be 8cc6 c93f 214d 863f e251 d13f
00000180: 47ac 1ebf 167a 443f a4f4 2c3f 3526 6abf
00000190: a8b9 973f 78d1 973f 1ffb 033f cfdb 983f
000001a0: b16e 62be fdd1 e63d 385d edbe 2471 a23f
000001b0: dfcc 813f 134e 4bbf 9ce6 f0be 1f2a b8bf
000001c0: 1d19 b5be c3f5 6e3f 7e37 96bf 759b ff3e
000001d0: f5c2 aebf ec05 543f 755a 823f b9b3 5ebf
000001e0: f6c1 8d3f 411a 973f 6dad 7fbf aa95 9dbf
000001f0: 9403 53bf 99ca de3f d469 283f fdd1 68bf
00000200: 5ec0 35bf 4305 823f be09 9e3e 6364 623f
00000210: d0ee c93f 2bc9 5e3f 952b a13f 29bb 6a3f
00000220: 5f2b 19bf d632 febe 1cbd 12bf 558a 603f
00000230: a526 563f 612b 893f a83b 4bbf 3568 6dbf
00000240: 5211 5bbe 9c00 b83f 354d afbf d3c2 af3f
00000250: ac9c c53f 8404 15bf f2cb d23f c297 1dbf
00000260: cd2d 3f3f 9829 d5bb 6b83 4bbf 369f bebe
00000270: 7dd8 503f db95 63bf f623 b63f 8751 5ebf
00000280: e948 80bf 3e8f 86bf 40d9 73bf b85f a7bf
00000290: 1fa2 473f 6454 e83f adac 303f 7d46 933f
000002a0: e287 0fbf 0c0f 5cbf 6358 8c3f c75e b33e
000002b0: 9e54 803f d1b1 5c3f d54d 033f 142e 3cbf
000002c0: 257d bf3f e401 51bf afc5 8ebf 150e 653f
000002d0: 35bd 6dbf e1a8 82be 9c34 8a3f 6680 49bf
000002e0: a8ce 26bf 8761 473d 4060 10bf fd9e fdbe
000002f0: 589b f63e 8507 c13f 69ea 933f a4fd 3d3f
00000300: 18f4 bdbe 5dae ee3e 93e6 0a3f 0ee3 2abf
00000310: 19ce eebe 27ed 2c40 ec25 f4be e38c 363f
1.329271 -1.3488009 0.48997152 1.0492811 -0.66770303 0.077063195 -0.86805344 1.5665559
1.3118486 0.8301467 0.6795505 1.4312412 -0.5902244 1.4436331 0.5658149 1.2157974
1.0933673 -0.007352821 -0.63738984 1.0543463 1.6516306 -0.91623855 -1.6562694 -0.9676432
0.72712976 -0.7741001 1.588933 -1.3927577 0.63721573 1.1697038 -0.504373 -0.316485
1.9725819 1.5192996 1.0859404 0.35571036 -0.5378686 -0.9628472 -0.5858153 1.1290543
-0.68061805 0.89761883 -0.5030124 0.96884894 1.2346836 1.0488012 -0.7553972 -0.6592441
-0.6901972 0.70313215 -0.61940295 0.55264544 -0.9561377 -0.51411414 -0.87442076 -1.2086027
0.91664183 0.6751697 -0.24522246 -0.56090605 1.1663438 0.36463082 0.5423057 1.800022
0.88475364 0.7068394 1.6134335 0.015645776 -1.1286209 1.0753312 0.35082272 0.5572629
1.2112564 1.0534592 0.64244145 -0.25485304 1.1807394 1.9322191 1.557368 1.2561978
-0.2689737 1.0083603 -0.8149154 0.5559787 0.5694961 -1.671085 -1.2566067 -0.623329
-0.10702007 0.8410472 -0.7010524 1.3565731 -0.44629094 1.5763717 1.0492288 1.6353114
-0.61981624 0.7674879 0.6756079 -0.9146455 1.1853533 1.18608 0.51555055 1.194208
-0.22112538 0.11270521 -0.46360183 1.2690778 1.0140647 -0.79416007 -0.4705094 -1.4387854
-0.35370722 0.9334375 -1.1735685 0.49923292 -1.3653246 0.82821536 1.0183855 -0.86992985
1.1074817 1.1804887 -0.99874 -1.2311299 -0.82427335 1.7405578 0.6578648 -0.90945417
-0.70996654 1.0157856 0.30866808 0.8843443 1.5776005 0.8702571 1.2591425 0.91691834
-0.59831804 -0.4964816 -0.5731981 0.8771108 0.83652717 1.0716363 -0.79387903 -0.9273713
-0.21393326 1.4375186 -1.3695437 1.3731331 1.5438437 -0.58210015 1.6468489 -0.6155969
0.7467926 -0.0065052025 -0.794974 -0.37230843 0.81580335 -0.88900536 1.4229724 -0.8684315
-1.002225 -1.0512464 -0.9525337 -1.3076086 0.7798175 1.8150754 0.6901348 1.1505886
-0.56066716 -0.8596046 1.0964473 0.35033247 1.0025823 0.86208826 0.5129064 -0.7350781
1.4960066 -0.8164351 -1.1154078 0.8947461 -0.9286683 -0.2551947 1.0797305 -0.78711545
-0.6515908 0.048676994 -0.56396866 -0.4953536 0.48165393 1.508042 1.1555911 0.7421515
-0.3710029 0.46617404 0.5425808 -0.6675271 -0.46641615 2.7019746 -0.47685182 0.71308726

bias f4 [300]
00000000: e342 51bc 8574 3f3d 5c90 4a3d 474a 12bc
00000010: cc0e 0abd b50c a5bc a3f8 8cbd 0d31 16bd
00000020: dc23 92bd 689d 88bc b639 613d 71e4 f93b
00000030: 7e5f a4bc 8fe0 983c 95d1 383d 9208 0a3d
00000040: b745 183c b2dd 97bc 974a 713c 19ee 7a3b
00000050: fd04 5abd 2f24 88bd b8f5 16bc aa45 b03c
00000060: cc9b 1ebd 40f9 16bd b1df c5bc 088c 553d
00000070: bd47 773c de10 dfbc 5780 d63a e1aa 43bb
00000080: 77c8 3bbd 807b 533d cf2c 92bd 3ec8 35ba
00000090: c575 58bd c44a 28bd dd56 16bd ae1b b33c
000000a0: c005 293d 3efb aabd 99c1 303d 3f6b f63c
000000b0: 3da6 9abd 446c 3c3d 93fd 04bd 1534 cebd
000000c0: b0e3 09bd d93b 6abd d1c2 b8bd ee4b 2e3d
000000d0: ddbd d83c 6f15 83bd e510 483d ea84 79bc
000000e0: 7b8c 403c 9fc5 5ebd 02f6 3dbc 3f69 5e3d
000000f0: dd79 583d 56f8 19bd 1354 f2bc ea18 813d
00000100: ad52 3a3d 8f5e 3abd 6a55 b73d 0b4b bb3b
00000110: 4f89 6d3b 51f6 cdbb f6ce 103c 1025 003d
00000120: f47c 8c3c 9a92 88bb e719 843d b230 d7bc
00000130: 8b74 a33b 93d2 763b 5730 39bb 8e0c 77bd
00000140: 67b9 833d 548c 63bd 00f5 fd3b 58b0 33bd
00000150: 7203 7db9 19db edbc 864d 6fbd 078b 893c
00000160: 1c49 4b3d 52a6 bd3c b2e1 13bd 9a91 94bd
00000170: 295b 183c 2bcf d5bc 8471 d1bd 4259 a03d
00000180: 79a6 52be 9c3a 97bc 666f c7bc 9c12 8b3c
00000190: 2bb5 843d a8c3 3e3c 0716 09bc 8391 8abd
000001a0: e9a1 46bd 5fc5 82bd 8a77 d8bc 0f00 8dbc
000001b0: bc28 bb3c 21f9 debc 17ce 7dbd b852 9c3c
000001c0: f792 80bd dd17 1cbd 98d6 42bd b3cc a9bc
000001d0: bbd6 203c d9c4 35bd ef29 f3bc 0610 e6bd
000001e0: ac4a acbd 9260 bf3b f69c 72bb dce7 00bb
000001f0: 751b 283d 00dc 013c 7cbb 12bd 4234 3abd
00000200: d79b 8bbd dd0d a7bb 64a2 22ba 7d87 503d
00000210: 3bab 88bd 01e7 393c 6633 65bd de4b 10bd
00000220: e014 553d 9bc0 98bc c855 18bd 579c 2bbb
00000230: 0cfb 83bd 29ad 1a3d 166f 82bc ffed 09bc
00000240: 5600 99bd 30bb 543d 3799 1a3d c953 79bc
00000250: f5b4 1c3d 36e7 933c 567e 69bd 6b03 91bd
00000260: 1f7d 5d3d ff66 363d 4d97 86bc 0511 4f3c
00000270: c6ed 93bc fb7b 8fbd 2dd0 833c 4106 a9bc
00000280: 23de 88bd d50f 40bd cd2c 073c 89bf 97bd
00000290: 159d a6bc 1fff 31bc 6051 debc a8b8 8e3c
000002a0: ca0d a43c cb8e 29bd dccd 88bc 780f 2a3d
000002b0: bfbe f2bc 1d03 493d f141 6ebd ef32 bfbc
000002c0: 092d 8abc 2c17 d03a cf2a 243d b990 c6bc
000002d0: 1418 29bd d263 12bc 7e6e 48bd cddf 023c
000002e0: 0a79 f5ba 9a5a a0bd 6b7c b63c 64d3 0abc
000002f0: e190 8dbd dcb0 ebbc 5fc2 9dbd 60c4 423d
00000300: 610a 97bd fd63 673c f8fe 51bd 708b 4b3c
00000310: 7f9c 14be a814 e83c 15a1 7a3d c666 953c
00000320: 31ad 5d3c 5406 75bd d979 4abd 7a71 b6bd
00000330: e6ac be3c e32a 76bb 593f 413d 7be7 ef3c
00000340: b76d 9bbd 549e d0bb b923 3f3d da31 863d
00000350: 6dc0 a23c e6c1 7abd 2c52 203d a763 4f3d
00000360: 2722 29bd a56e 553d 29d0 c9bd 0e71 1abd
00000370: c4dd 9bbc 721d 983c f9d4 733c eaf2 853a
00000380: c81d fcbb 215e 6cbd e04a 59bd 6b88 adbc
00000390: 9a39 9cbd 02ba 733d a053 293d f9a3 9abc
000003a0: 720f 84bd 9d91 67bd d5cb 47bd 7183 69bd
000003b0: 0b96 6cbd ce75 6ebd 0c13 84bd 5123 d83a
000003c0: cf1b 8dbd d814 fcbc b590 573d d214 e53b
000003d0: 2e33 c23c 129f 54bc 16a7 193b 7db2 4c3d
000003e0: 4eeb 82bd 5773 72bd b30a cf3c 72ff 213d
000003f0: eb44 d3bc 46ad 73bd 4059 253d f2b8 76bb
-0.012772295 0.04674198 0.049454078 -0.008928842 -0.033705518 -0.02014766 -0.06883361 -0.036667872
-0.07135746 -0.01667662 0.054986678 0.0076261093 -0.020065065 0.018661765 0.045121748 0.03369958
0.009293965 -0.01853833 0.014727256 0.003828889 -0.053227413 -0.066475265 -0.009213857 0.021517593
-0.0387228 -0.036858797 -0.024154516 0.052135497 0.015092787 -0.027229723 0.0016365153 -0.002985649
-0.045845475 0.05163145 -0.07137453 -0.00069344405 -0.05284669 -0.041086927 -0.036703933 0.021863785
0.04126525 -0.08348702 0.04315338 0.030080436 -0.07551239 0.046001688 -0.03246839 -0.100685276
-0.033664405 -0.05718598 -0.09021533 0.04255288 0.026457721 -0.064005725 0.048844237 -0.015229443
0.011752243 -0.054387685 -0.011594297 0.05429959 0.052850593 -0.037590347 -0.029581105 0.0630358
0.045489002 -0.045500334 0.08951838 0.005715733 0.0036245172 -0.0062854667 0.008838406 0.031285346
0.017149426 -0.004167867 0.06450253 -0.026268337 0.0049882582 0.0037662133 -0.0028257573 -0.060314707
0.06431847 -0.05555375 0.0077501535 -0.043869346 -0.00024129244 -0.029035138 -0.05842354 0.016789926
0.04963027 0.023150597 -0.03610391 -0.07254334 0.009299078 -0.026099762 -0.102267295 0.078295246
-0.20571317 -0.018460564 -0.024345111 0.016976647 0.064798675 0.011643328 -0.008367068 -0.067660354
-0.048494253 -0.06385302 -0.026424188 -0.017211942 0.022846572 -0.027218403 -0.06196412 0.019082412
-0.06278031 -0.038108695 -0.047567934 -0.020727491 0.009816821 -0.04437718 -0.029683081 -0.11233525
-0.0841268 0.0058403695 -0.0037019826 -0.001966945 0.04104181 0.007925987 -0.03582333 -0.045459993
-0.068168335 -0.005098088 -0.00062040077 0.05091046 -0.066732846 0.0113465795 -0.05595722 -0.035228603
0.05202186 -0.018646529 -0.037191182 -0.0026185715 -0.06444368 0.037762795 -0.01592211 -0.008418559
-0.07470767 0.05193633 0.037743773 -0.01521773 0.03825851 0.018054586 -0.05700525 -0.0708073
0.054074403 0.04453182 -0.016429568 0.012638335 -0.018057715 -0.07006069 0.016090477 -0.020632865
-0.06682994 -0.0468901 0.008250427 -0.07409579 -0.020338574 -0.010864048 -0.027138412 0.017422035
0.020026106 -0.041395944 -0.016699724 0.04151866 -0.02963197 0.049075235 -0.058168355 -0.023339717
-0.016867178 0.0015876046 0.040079888 -0.024238931 -0.04128273 -0.008934932 -0.0489335 0.007987929
-0.0018728089 -0.07829781 0.022276124 -0.008473251 -0.06912399 -0.028770857 -0.07703089 0.04755056
-0.073750265 0.01412296 -0.051268548 0.012423381 -0.14512824 0.028330162 0.061188776 0.018237483
0.013530062 -0.059820488 -0.04943261 -0.08908363 0.023275804 -0.0037562184 0.047179554 0.029285183
-0.07589286 -0.0063665304 0.046664927 0.06552477 0.019867146 -0.061220072 0.039140865 0.050632145
-0.041292336 0.052107472 -0.098541565 -0.037705474 -0.019026645 0.018568728 0.01488232 0.0010219489
-0.00769398 -0.057706956 -0.053049922 -0.021183213 -0.07628174 0.059503563 0.041339517 -0.018877016
-0.064482585 -0.056535352 -0.048778374 -0.057010118 -0.05776028 -0.058217816 -0.064489454 0.0016490017
-0.0689007 -0.030771658 0.052628238 0.0069910074 0.023706045 -0.012977378 0.0023445538 0.049974907
-0.06392537 -0.059192028 0.025273656 0.039550252 -0.025789699 -0.05949142 0.04036832 -0.0037646857

weight f4 [300, 200]
00000000: 789e e5bc 0000 0080 0000 0000 ab1f 2ebc
00000010: 0000 0000 0000 0000 583e 6abd 0000 0000
00000020: 0000 0000 0000 0000 0000 0000 0000 0000
00000030: 0000 0080 0000 0000 ea01 183c 0f80 5ebd
00000040: 297b 14bd 0000 0000 0000 0000 0000 0000
00000050: 4a8a 133e 7d3b 023d 0000 0080 e467 273e
00000060: 0000 0000 8805 c53c 83e6 70bd dd05 eebd
00000070: 0000 0000 0000 0000 0000 0080 0000 0080
00000080: 0000 0000 badc 47bc 0000 0080 4481 e4bc
00000090: 0000 0000 0000 0080 0000 0080 d573 983d
000000a0: 0000 0080 a194 8c3d 0000 0080 0000 0000
000000b0: 8ac6 dc3d 7a5b cb3d 0000 0080 0000 0000
000000c0: 0000 0000 0000 0000 0000 0000 0000 0000
000000d0: 0000 0080 948a 6c3d 0000 0000 0000 0080
000000e0: 377e 58bd 0000 0000 2695 b33c b1c0 2c3c
000000f0: 0000 0000 0000 0000 0000 0000 0000 0000
00000100: 0000 0000 d2ce 8e3d 0000 0000 0000 0000
00000110: 0000 0080 0000 0000 6d7b 013d c40c 2abd
00000120: d0a0 d83d c598 23bc 0000 0000 aa30 92bd
00000130: 5f0f ad3d 0000 0000 0000 0000 6adc 163e
00000140: 0000 0080 0000 0000 0000 0000 0000 0000
00000150: 59e4 b73d 60e4 9f3e 5db1 19be 0000 0080
00000160: 3332 02bd a5cc 073e 2ef3 bfbd 0000 0000
00000170: 0000 0080 0000 0000 0000 0000 2ce0 b9bc
00000180: 0000 0000 0000 0000 9107 50bd 0000 0000
00000190: 0000 0000 deab b23d 0000 0000 df9e b53d
000001a0: 0000 0000 0000 0080 0000 0000 0000 0000
000001b0: 0000 0000 d411 173d 0000 0080 12f3 273e
000001c0: 7396 65bd ed33 35bc 0000 0080 0000 0000
000001d0: 0000 0080 0000 0000 4b0e 8ebc 0000 0000
000001e0: 0000 0000 ac10 7fbc 4fcd d8bd 0000 0080
000001f0: 0000 0000 130d 033e 0000 0000 0000 0080
00000200: 0000 0000 0000 0000 9d3a 19bd 0000 0000
00000210: 0000 0000 0000 0000 eddd 553d ca2c e33d
00000220: 0000 0080 0000 0000 c469 0b3c 0000 0000
00000230: 0000 0000 407f 8b3d 0000 0000 d1df f23c
00000240: 0000 0080 d18f b63d 0000 0000 0000 0000
00000250: 78ad b3bc 9570 e73c e331 fd3d 0000 0080
00000260: 6dcb d73d a5d3 76bd 0000 0000 0000 0000
00000270: 0000 0000 0000 0080 0000 0000 0000 0080
00000280: a0ae 913d 0000 0000 0000 0000 0000 0080
00000290: 0000 0000 fce0 203e 0000 0000 0000 0000
000002a0: 0000 0000 0000 0000 0000 0000 0000 0000
000002b0: 0000 0000 9544 c83d 7b2f c53d 4ac2 c6bd
000002c0: 0000 0000 0000 0000 0000 0000 0000 0000
000002d0: 0000 0080 0000 0000 0000 0000 0000 0000
000002e0: 5a93 fb3d e31c ccbc 0000 0080 0000 0000
000002f0: 0000 0080 0000 0000 0000 0000 732f 0f3c
00000300: 0000 0000 0000 0000 0000 0000 bd88 cabd
00000310: 0000 0000 4325 473d 0000 0080 0000 0000
00000320: 0000 0080 0000 0000 0000 0080 0000 0080
00000330: 0000 0080 ec85 543d aa01 083d 0000 0080
00000340: d43d 85bd 0000 0080 0d4c b53c 0000 0080
00000350: 0000 0080 3cc4 0f3e 0000 0000 0000 0080
00000360: 0000 0080 7950 a7bd 0000 0080 0000 0080
00000370: 0000 0080 0000 0080 0000 0000 0000 0000
00000380: f486 c4bd 0000 0080 291c 243d 334f 05bd
00000390: 759b 4f3d 0000 0080 053b 31bd 7a1d 1cbd
000003a0: 0000 0080 0000 0080 f1ce 163e 0000 0080
000003b0: 0000 0080 0000 0000 857c 26bd 0000 0080
000003c0: 0000 0080 0000 0080 0000 0080 0000 0080
000003d0: 0000 0080 0000 0080 0000 0080 0000 0080
000003e0: 28b3 aebd 0000 0080 0000 0080 0000 0080
000003f0: dc81 a0bc 12fa 60bd 0000 0080 9f38 9d3d
-0.028029665 -0.0 0.0 -0.010627667 0.0 0.0 -0.057188362 0.0
0.0 0.0 0.0 0.0 -0.0 0.0 0.0092778 -0.054321345
-0.036250267 0.0 0.0 0.0 0.14408222 0.031795014 -0.0 0.16348225
0.0 0.024050489 -0.058813583 -0.11622212 0.0 0.0 -0.0 -0.0
0.0 -0.012198621 -0.0 -0.02789367 0.0 -0.0 -0.0 0.07443968
-0.0 0.06864286 -0.0 0.0 0.10780056 0.09929557 -0.0 0.0
0.0 0.0 0.0 0.0 -0.0 0.057749346 0.0 -0.0
-0.052854743 0.0 0.021921705 0.010543988 0.0 0.0 0.0 0.0
0.0 0.069730416 0.0 0.0 -0.0 0.0 0.03161185 -0.04151608
0.105775476 -0.009985154 0.0 -0.07138188 0.084501974 0.0 0.0 0.14732519
-0.0 0.0 0.0 0.0 0.08979101 0.31228924 -0.15009065 -0.0
-0.031786155 0.1326166 -0.09372555 0.0 -0.0 0.0 0.0 -0.022689901
0.0 0.0 -0.050788466 0.0 0.0 0.08724187 0.0 0.08868193
0.0 -0.0 0.0 0.0 0.0 0.036882237 -0.0 0.16401318
-0.056051683 -0.011059743 -0.0 0.0 -0.0 0.0 -0.0173408 0.0
0.0 -0.01556794 -0.105860345 -0.0 0.0 0.12797956 0.0 -0.0
0.0 0.0 -0.037409414 0.0 0.0 0.0 0.052213598 0.11092527
-0.0 0.0 0.008509103 0.0 0.0 0.068113804 0.0 0.02964774
-0.0 0.089141496 0.0 0.0 -0.021933302 0.028251925 0.12363031 -0.0
0.10536847 -0.060260434 0.0 0.0 0.0 -0.0 0.0 -0.0
0.07113385 0.0 0.0 -0.0 0.0 0.15710825 0.0 0.0
0.0 0.0 0.0 0.0 0.0 0.09778706 0.09628197 -0.097050264
0.0 0.0 0.0 0.0 -0.0 0.0 0.0 0.0
0.122839645 -0.024916118 -0.0 0.0 -0.0 0.0 0.0 0.00873934
0.0 0.0 0.0 -0.09889362 0.0 0.04861952 -0.0 0.0
-0.0 0.0 -0.0 -0.0 -0.0 0.05188553 0.033204712 -0.0
-0.065059334 -0.0 0.02213099 -0.0 -0.0 0.14039701 0.0 -0.0
-0.0 -0.08169646 -0.0 -0.0 -0.0 -0.0 0.0 0.0
-0.09596053 -0.0 0.040065918 -0.032546233 0.050685365 -0.0 -0.043269176 -0.03811405
-0.0 -0.0 0.1472738 -0.0 -0.0 0.0 -0.040646095 -0.0
-0.0 -0.0 -0.0 -0.0 -0.0 -0.0 -0.0 -0.0
-0.08530265 -0.0 -0.0 -0.0 -0.019593172 -0.054925986 -0.0 0.07676815

weight f4 [1, 300]
00000000: ccfd 523d fb16 13bd d40a 34bd 5e80 fabd
00000010: c78a 323d b44e 693d 9260 563d a198 57bd
00000020: 7ba1 f1b9 29ea 5d3d 7b6e 6f3d ff46 253d
00000030: ca42 b9bd bde8 493d 8f2e 583d bf63 4ebd
00000040: c585 2d3d e0ba 823d c814 0d3d c9bc 89bd
00000050: e669 c0bc cf72 a2bd e9e1 903c dcaa 89bd
00000060: 24c9 3d3d da25 b43c 5d6a 833d 03cd fd3c
00000070: 2eeb b43e a73c dbbc 0023 32be 8056 233c
00000080: 50a1 17bd 1d1c d43c 1789 c83d 9a52 843d
00000090: 41d1 29bd 8fe0 87bd 4c38 79bd e277 85bd
000000a0: b186 743d 2f53 b83b 2849 dc3c 5f3f 273d
000000b0: 6dc9 f53c 52e4 5cbd bd44 7c3d cc80 3fbb
000000c0: 5adb fcbc 9602 af3c d00a 9f3c c280 33bd
000000d0: 2fef f83c af17 7bbd fd6b 323d 5695 12bd
000000e0: 103f 8fbd 4466 a2bd 8b62 adbd 06b7 953d
000000f0: 4b42 65bd 5c8c adbd ae1c d23c 1387 6f3d
00000100: c4cf 773d 6f3b 013d 9cfc 333d 98e5 5d3d
00000110: 734f 033d 41af 8abd de66 b4be 9c5f 35bd
00000120: 0002 3d3d 4e0f 8c3d fe17 4a3d ab73 64bd
00000130: 71a1 64bd aa97 cdbc 5923 3e3d 3b25 1bbd
00000140: 1bea 85bd 2432 b83c ac5c a93c 077c 473d
00000150: 1acf 9abd 9457 0abc 78c3 413d f2d6 203d
00000160: 4ffb 1bbd 57f1 9cbd b0b5 593d 026e 953c
00000170: 6a03 a3bd 1abe 4dbd fecd 9c39 c205 c1bd
00000180: 776c a2be e8f6 96bd fd64 3b3d a182 703d
00000190: 1c7b 8cbd d2dc 9abd 6be3 f23c 501f 3a3d
000001a0: 010c 9e3c a800 8dbd 6ff7 db3c aa71 50bd
000001b0: 7b7a 613d f437 703d 1dff acbd 20e4 01bd
000001c0: 0164 a6bd b2aa 5d3d 55fa 5a3d 67f6 36bd
000001d0: 557d 003d d427 88bd 7caa 5abd 999f 303c
000001e0: 1d68 573c a2d2 8c3c 5947 403b 068e 0abe
000001f0: ad4a 1ebe 6d74 933d 3aba 37bd bf2f 49bd
00000200: 8aec f93b 9607 dfbd 0541 d03c a846 41bd
00000210: 8de3 1abd c197 26bd 89b0 82bd e31a cf3b
00000220: 7d57 3fbd d227 0e3d ebce 38bd 5e36 243d
00000230: bd30 cb3c a85b 8fbd 2247 6b3d e25e 93be
00000240: 0bf8 35bd 0a48 59bd ad29 3b3d 0f46 77bd
00000250: efa7 773d 6302 f6bc adb4 a43c e9ad 7abd
00000260: 8f8a 5fbd 30ee 71bd ce91 863d dafe 06be
00000270: 6244 263d 7f46 12bd a760 6f3d df87 683d
00000280: b6a9 243d 8e94 b5bd 6360 703b aa65 2abd
00000290: 4134 a1bd e197 783d 3d82 113d d63c 0abd
000002a0: 275e 65be 37ab 343d 4243 77bd 3588 60bd
000002b0: 3815 3ebd 7afb 43bd 6579 40bd c26b 1a3d
000002c0: 0984 93be 956b 70bd 472c a6bd 41e8 6d3d
000002d0: cb5d 51bd e0fb 213d 17fb 7c3d a54e 093d
000002e0: 12b9 773d aace c63a a656 953e 3a81 0abd
000002f0: e5ee 2f3d 413f 8ebd ac15 48bd 16dc 57bd
00000300: f1a0 18bd 2960 3cbd 63f7 8b3d 642d 4c3d
00000310: a25e de3e 6b5f 69bd 6da4 54bd eb99 a3bd
00000320: e05c 823c 9282 8fbd 6847 683d d6ce 413c
00000330: 1779 44bd a1d0 6d3c 3df0 f2bc 720b 71bc
00000340: 31c0 1a3d b67e b139 1532 033d 5ded 8abd
00000350: 41f2 97bd 4a87 cc3c 9695 643d 1230 afbd
00000360: 7d7d 423d 2929 db3c c585 0e3f dec7 ec3c
00000370: b3fb e33c 28ce 1abd 15e6 1b3b 1e68 183d
00000380: da86 4d3d e6ed 3d3d c2a7 c4bc bb56 743c
00000390: 012a a0be 36b5 653d 8fce 3a3d 879c 2f3d
000003a0: f397 bb3e fd74 99bd a6ff 583d 5b94 11bd
000003b0: b862 04bd 1eea 7ebd 77dc b5bd ffb3 47bd
000003c0: eb72 8ebd 73e5 acbd cd0c b9bd 6570 983c
000003d0: 6dbc 8e3c e113 123c 7e53 8cbe 3686 5fbd
000003e0: 6051 86bd 01b9 593d 1a50 2c3d 4662 35bd
000003f0: 507e 8dbd b284 653d 253c 44bd 192f a2bd
0.05151157 -0.035910588 -0.04395564 -0.12231515 0.04358938 0.056959823 0.05233819 -0.052635793
-0.00046087414 0.05417839 0.05845497 0.04035091 -0.09045942 0.049294222 0.052778777 -0.050388094
0.0423639 0.063833 0.034443647 -0.06725461 -0.023487996 -0.07932054 0.017685847 -0.06722042
0.0463344 0.021990705 0.064167716 0.030981546 0.35335678 -0.02676232 -0.17396164 0.009969354
-0.037019074 0.025892312 0.09791773 0.064610675 -0.041459326 -0.06634628 -0.060844705 -0.065170065
0.059698764 0.0056251506 0.026890352 0.04083192 0.030003274 -0.05392868 0.06158899 -0.0029221056
-0.030866314 0.021363538 0.019414335 -0.043823965 0.03038749 -0.061301883 0.043560017 -0.03578695
-0.0699445 -0.07929662 -0.08466061 0.073102996 -0.055971425 -0.08474037 0.025648441 0.058478426
0.060500875 0.03155082 0.04394208 0.054174036 0.03205819 -0.06771708 -0.3523473 -0.044280633
0.046144485 0.06838857 0.049339287 -0.055774372 -0.055818025 -0.025096733 0.04642043 -0.037877303
-0.06538793 0.022484846 0.020674072 0.048702266 -0.07559033 -0.008443732 0.047305554 0.039267488
-0.038081463 -0.076632194 0.053151786 0.018240932 -0.079596356 -0.050230123 0.00029908115 -0.09424926
-0.31723377 -0.073713124 0.045750607 0.058718327 -0.06859419 -0.075616494 0.029649457 0.04544002
0.019292833 -0.06884891 0.026851384 -0.05088965 0.055048447 0.05864711 -0.084470965 -0.031711698
-0.08124543 0.054117866 0.05346139 -0.04466858 0.031369526 -0.066482216 -0.053385243 0.010780239
0.013147381 0.017190281 0.0029339402 -0.1353074 -0.15458174 0.07199941 -0.044855334 -0.0491178
0.0076270746 -0.10890119 0.025421629 -0.047186524 -0.037814666 -0.040672068 -0.06381328 0.006320344
-0.046714295 0.034705944 -0.045119207 0.04009091 0.024803514 -0.06999904 0.057440884 -0.28783327
-0.044426005 -0.053047217 0.045694042 -0.060369547 0.06046289 -0.030030435 0.020105684 -0.06120101
-0.0545755 -0.059065044 0.06570779 -0.13183156 0.04059256 -0.03571176 0.058441784 0.0567702
0.04020091 -0.08866225 0.0036678545 -0.04160086 -0.07871295 0.060691718 0.035524596 -0.033749424
-0.22399198 0.044108596 -0.060366876 -0.054817397 -0.046406955 -0.04784725 -0.04699077 0.037700422
-0.28811672 -0.05869635 -0.08113914 0.058082823 -0.05111484 0.039546847 0.061762895 0.033522267
0.06047923 0.0015167792 0.2916767 -0.033814646 0.042952437 -0.069456585 -0.048848793 -0.052700125
-0.03726286 -0.045990143 0.06834295 0.049847975 0.43431574 -0.056975763 -0.05191462 -0.07988342
0.015913427 -0.07007326 0.056708723 0.011829099 -0.047967043 0.014515073 -0.02965557 -0.014712201
0.037780944 0.00033854478 0.032030184 -0.06783555 -0.07419253 0.024966855 0.05580672 -0.085540906
0.047482956 0.026753025 0.55672866 0.028903898 0.02782998 -0.037794262 0.0023788263 0.03720867
0.050177433 0.046369456 -0.024005774 0.014913256 -0.31282046 0.05608102 0.045607146 0.042873885
0.36639366 -0.07493017 0.05297818 -0.035541873 -0.032320708 -0.06223499 -0.08879941 -0.048755642
-0.069555126 -0.084422015 -0.09035645 0.018608281 0.017423833 0.008915872 -0.2740745 -0.054571353
-0.0655849 0.05315495 0.04206858 -0.044283174 -0.06908858 0.05603475 -0.04790892 -0.079191394
