figures/Illu_large_partial_2/theta=0.1_s=0.05_step=100/best_model.pth (torch, 246949 bytes, 5 tensors)

weight f4 [200, 1]
-1.1816553 0.3046702 -1.707097 -0.36836788 1.1611595 2.094593 -1.3192772 -1.1849985
0.6293474 2.0842938 -1.4181734 1.5761532 1.1981158 -0.3166867 1.2671463 -0.77691144
-1.8690622 1.1485146 -1.1046139 0.4048953 1.2344116 -1.5246296 -1.3766321 -1.5965048
-0.7355163 1.7033738 -1.3181504 -0.7175926 -1.227777 -1.6070869 -0.3112839 -0.86290383
1.2446272 -1.7037638 2.1028223 -1.6599659 -1.2026294 1.203428 -0.8259493 -1.4127651
-1.2889884 -1.6369053 -1.6830463 0.57374275 -0.524878 -0.56225127 2.0692484 -1.1193151
-1.2229443 -1.6265815 1.8132105 -0.61555505 -1.0991995 1.4460104 0.7046768 1.1737283
1.2066361 -0.74640006 -0.3638774 2.0202682 0.65639895 -1.6117846 -1.2431246 -1.8577472
2.1937087 -0.9378573 -0.78887343 -1.5276377 0.644391 -1.1118596 1.194137 -1.1125075
-1.2016135 1.344979 1.6433649 1.1640188 -1.3192943 0.7846855 -1.2410066 1.9607017
1.319059 0.2886388 1.5120413 0.37706634 -1.4806901 -0.8907044 0.9990329 2.112892
-1.8922876 0.6179815 -0.868168 -1.0975859 1.5583584 0.7336117 0.5233015 0.5917219
-0.32788935 1.2522452 -1.0558778 0.74600464 0.6383265 1.5782351 1.5194012 -1.6939242
1.1922365 1.2294173 -0.6259752 -1.1447031 -1.1766031 1.2315338 -0.6061902 0.8865115
0.4555059 0.50840247 1.2574149 1.5877688 2.063701 -1.2491928 1.9146997 0.642445
-1.3579314 1.2472738 -1.4130617 -1.1976482 0.63436246 -1.1930654 -1.1797496 0.5992162
0.6543319 -1.2108756 1.5616004 -0.65154576 1.5803288 -1.1412711 -0.64178073 0.6324951
2.1639338 -0.544641 1.4034699 1.2351657 -0.58453 -1.5961437 -0.6822219 -1.0483222
-1.0254725 0.2927832 0.63678885 0.57663774 -0.6984214 -0.85252035 -0.7226138 -1.1630921
-1.826367 0.6813086 0.6275297 -1.5481195 -0.8630873 1.1871743 -0.9716459 -1.182538
-1.2711613 -1.2032428 1.3988168 -1.8169563 1.3078265 -1.8077807 -1.3700933 0.78863513
0.6146689 1.1409438 1.7655209 -0.61950874 1.5851458 2.0489566 -1.5703192 0.6115609
-0.40509033 1.4598434 1.187657 0.437384 1.1971043 1.2474757 -1.0702611 1.2255489
1.543361 -1.6249379 -1.1839308 -0.7637377 -1.0329385 0.4181638 0.6374303 -1.1580839
-1.2124273 1.1171947 -1.0158604 1.2233179 -1.8657037 1.5150445 0.63658607 -1.4245628
00000000: 7b40 97bf bcfd 9b3e 2882 dabf b79a bcbe
00000010: e0a0 943f d00d 0640 13de a8bf 08ae 97bf
00000020: e91c 213f 1265 0540 b586 b5bf 63bf c93f
00000030: dc5b 993f c224 a2be da31 a23f abe3 46bf
00000040: 6e3d efbf 8702 933f fd63 8dbf 704e cf3e
00000050: 3301 9e3f 1027 c3bf 7b35 b0bf 455a ccbf
00000060: cc4a 3cbf 2708 da3f 27b9 a8bf 26b4 37bf
00000070: cc27 9dbf 06b5 cdbf 9a60 9fbe 44e7 5cbf
00000080: f24f 9f3f ef14 dabf a494 0640 c379 d4bf
00000090: c3ef 99bf ee09 9a3f 6a71 53bf 7dd5 b4bf
000000a0: 92fd a4bf 1d86 d1bf 106e d7bf cee0 123f
000000b0: 685e 06bf b3ef 0fbf 916e 0440 b845 8fbf
000000c0: 7089 9cbf d333 d0bf 4817 e83f 0495 1dbf
000000d0: 92b2 8cbf de16 b93f b365 343f bb3c 963f
000000e0: 0d73 9a3f 1314 3fbf 234e babe 134c 0140
000000f0: c309 283f f54e cebf b51e 9fbf a9ca edbf
00000100: b965 0c40 6a17 70bf 9cf3 49bf a289 c3bf
00000110: cff6 243f 6a51 8ebf 7bd9 983f a566 8ebf
00000120: 79ce 99bf 4628 ac3f c859 d23f 91fe 943f
00000130: a3de a8bf 26e1 483f 4ed9 9ebf 46f8 fa3f
00000140: edd6 a83f 77c8 933e 928a c13f d70e c13e
00000150: 4187 bdbf 3405 64bf 9fc0 7f3f 9f39 0740
00000160: 7b36 f2bf 0934 1e3f 4240 5ebf b27d 8cbf
00000170: 4a78 c73f facd 3b3f 16f7 053f 167b 173f
00000180: 1de1 a7be 9249 a03f 0127 87bf 29fa 3e3f
00000190: 5e69 233f 9c03 ca3f bd7b c23f 82d2 d8bf
000001a0: 359b 983f 8c5d 9d3f e93f 20bf a285 92bf
000001b0: ee9a 96bf e6a2 9d3f 482f 1bbf 6bf2 623f
000001c0: 1238 e93e aa26 023f f9f2 a03f 023c cb3f
000001d0: ad13 0440 8de5 9fbf e114 f53f 4777 243f
000001e0: b2d0 adbf aba6 9f3f 35df b4bf 894c 99bf
000001f0: 9465 223f 5eb6 98bf 0902 97bf 3c66 193f
00000200: 4c82 273f f9fd 9abf 86e2 c73f b4cb 26bf
00000210: 3748 ca3f 2c15 92bf be4b 24bf 33eb 213f
00000220: e47d 0a40 986d 0bbf e7a4 b33f e919 9e3f
00000230: c2a3 15bf 704e ccbf 18a6 2ebf 6c2f 86bf
00000240: af42 83bf aee7 953e 9804 233f 889e 133f
00000250: bfcb 32bf c63e 5abf 38fd 38bf 34e0 94bf
00000260: 65c6 e9bf 3e6a 2e3f c9a5 203f c828 c6bf
00000270: 4af3 5cbf 54f5 973f c9bd 78bf 685d 97bf
00000280: 6ab5 a2bf dc03 9abf 6e0c b33f 0692 e8bf
00000290: dc66 a73f 5c65 e7bf 385f afbf fee3 493f
000002a0: f15a 1d3f 720a 923f 97fc e13f 2098 1ebf
000002b0: 0fe6 ca3f 1b22 0340 3800 c9bf 418f 1c3f
000002c0: 0068 cfbe 26dc ba3f 2505 983f ccf0 df3e
000002d0: b73a 993f 49ad 9f3f 51fe 88bf c9de 9c3f
000002e0: da8c c53f f7fd cfbf 0b8b 97bf 5084 43bf
000002f0: 5437 84bf 9119 d63e a22e 233f 183c 94bf
00000300: d130 9bbf 3c00 8f3f b707 82bf ae95 9c3f
00000310: 61cf eebf faec c13f 4ef7 223f 1358 b6bf

bias f4 [200]
0.6428663 0.08148528 -0.38410592 0.448232 -0.329708 -0.43287656 -0.44075966 0.7663297
0.6022496 -0.685965 -1.6364836 0.14417456 -0.7701621 0.11831668 0.16992374 0.48213816
0.45634487 -0.6470652 2.197619 -0.8388157 -0.9963954 -0.62970084 -1.3885696 0.8906186
-0.8427775 0.2611398 -1.0582378 -1.0644677 -0.22319575 -0.61597407 -0.03690394 0.052263375
-0.414964 -0.49620703 -1.0084326 0.7280458 1.146042 -0.06545862 -0.863119 -0.95577574
-0.015113261 -0.59911174 -0.7058959 0.769316 0.29067856 0.42337245 -0.9076634 -0.0032161523
1.1369702 -0.5454194 -0.23780356 -0.7357757 0.4187276 0.7106851 0.6795609 -0.55979115
0.63433915 -1.0121576 -0.013824298 -0.8260996 1.3064952 -0.6066559 0.66692346 -0.570611
-0.5458362 0.3105437 -0.7554208 -0.31433913 1.0618169 0.631352 -0.44342053 0.6016281
-0.9212239 0.49393553 0.57193834 -0.1844021 -0.9815444 0.4804751 1.299575 -0.1356351
0.50855094 0.37790513 -0.8778711 -0.6243914 -0.17009246 0.6709573 1.0549972 -0.5902082
0.699559 1.2128735 -0.80681664 0.81487215 0.73133695 0.75255847 0.64919215 0.94684917
-0.07845578 -1.0535468 -0.6811859 1.1216488 1.030583 0.29793596 -0.0047682803 -0.7013274
-0.23715994 -0.47699094 -0.8001383 0.69991624 2.3607323 0.5898161 -0.99218386 0.71609664
0.887651 0.94230425 -1.167379 -0.51608413 -0.96218115 1.5272318 0.62900144 0.86744565
-0.12848964 -1.1139094 -0.91544133 1.4246397 1.24918 -0.98141414 0.68575805 1.1788137
1.4711684 1.0808631 0.6271669 -0.28027388 0.4182446 0.6674823 -1.0960362 1.2631977
-0.22598882 -0.558815 0.42961165 -0.95548797 -0.8094394 -0.603452 -0.71271914 -0.7406001
0.29227966 0.14059974 1.2541053 0.8463267 -0.71505857 -0.954769 -0.9657584 0.78904927
-0.6058012 0.83106035 0.57844764 -0.6072801 -0.45674956 -0.48089558 0.73615724 -0.15721323
-0.964373 0.6917929 0.70542705 -0.6034581 -0.53540033 0.5880835 -0.15001944 0.57682127
1.2878462 -0.50590473 0.24406637 -1.1093978 0.74500066 -0.7304232 -0.65632427 0.48186445
0.86314905 0.4982968 -0.7264955 -1.0778269 -0.49951223 -1.0404493 0.66396934 -0.92025006
0.6517395 -0.7100769 0.8407971 -1.050349 -0.58129525 -0.9499775 1.2397147 0.67835826
1.133086 0.35480613 0.99556327 -0.5525263 -0.66909146 0.5999538 1.2267067 2.7693083
00000000: e392 243f c1e1 a63d 88a9 c4be aa7e e53e
00000010: 7dcf a8be ffa1 ddbe 40ab e1be 2f2e 443f
00000020: 082d 1a3f 679b 2fbf 4b78 d1bf 7fa2 133e
00000030: 5829 45bf 0450 f23d 7d00 2e3e d0da f63e
00000040: 09a6 e93e 11a6 25bf caa5 0c40 a0bc 56bf
00000050: c513 7fbf 1334 21bf a6bc b1bf 95ff 633f
00000060: 44c0 57bf 1eb4 853e 5674 87bf 7a40 88bf
00000070: 6d8d 64be 7ab0 1dbf 9628 17bd 1f12 563d
00000080: 2976 d4be d90e febe 5214 81bf 3661 3a3f
00000090: 81b1 923f 2b0f 86bd 5ef5 5cbf b8ad 74bf
000000a0: 9c9d 77bc 635f 19bf 98b5 34bf e5f1 443f
000000b0: d2d3 943e 46c4 d83e a15c 68bf 15c6 52bb
000000c0: 3d88 913f 9ba0 0bbf c782 73be cc5b 3cbf
000000d0: 7763 d63e 75ef 353f b4f7 2d3f 794e 0fbf
000000e0: 0d64 223f 618e 81bf 4f7f 62bc 437b 53bf
000000f0: 3c3b a73f cd4d 1bbf 7fbb 2a3f 9013 12bf
00000100: ecbb 0bbf 95ff 9e3e 4263 41bf 0ff1 a0be
00000110: 9ee9 873f 49a0 213f 0408 e3be 4d04 1a3f
00000120: 54d5 6bbf 1ee5 fc3e 8d6a 123f e7d3 3cbe
00000130: 7e46 7bbf d500 f63e 7958 a63f ede3 0abe
00000140: 6530 023f c87c c13e 29bc 60bf 1dd8 1fbf
00000150: b82c 2ebe dcc3 2b3f 260a 873f e217 17bf
00000160: 4c16 333f 703f 9b3f 898b 4ebf 769b 503f
00000170: e638 3b3f aca7 403f 7531 263f b564 723f
00000180: 6dad a0bd 9fda 86bf 3362 2ebf 3092 8f3f
00000190: 25ea 833f 108b 983e 3c3f 9cbb 318a 33bf
000001a0: 0eda 72be 2838 f4be ddd5 4cbf b62d 333f
000001b0: 3d16 1740 30fe 163f c3ff 7dbf 1c52 373f
000001c0: 193d 633f da3a 713f ad6c 95bf 171e 04bf
000001d0: 8151 76bf 557c c33f 3d06 213f eb10 5e3f
000001e0: ca92 03be 9594 8ebf 5d5a 6abf 985a b63f
000001f0: 21e5 9f3f f53d 7bbf d78d 2f3f 5ee3 963f
00000200: 3f4f bc3f b959 8a3f 038e 203f 0f80 8fbe
00000210: 2824 d63e 1fe0 2a3f ea4a 8cbf 76b0 a13f
00000220: 9d69 67be 800e 0fbf 0ff6 db3e dc9a 74bf
00000230: 6c37 4fbf d57b 1abf c374 36bf f897 3dbf
00000240: aea5 953e 61f9 0f3e 8686 a03f dea8 583f
00000250: 140e 37bf be6b 74bf f13b 77bf 22ff 493f
00000260: ca15 1bbf 5fc0 543f 2515 143f b576 1bbf
00000270: 14db e9be f237 f6be cd74 3c3f 81fc 20be
00000280: 26e1 76bf 5719 313f de96 343f 3b7c 1abf
00000290: ff0f 09bf a48c 163f b29e 19be 8faa 133f
000002a0: 25d8 a43f f982 01bf 89ec 793e bf00 8ebf
000002b0: 5db8 3e3f 04fd 3abf de04 28bf f0b6 f63e
000002c0: 56f7 5c3f c220 ff3e 9cfb 39bf 3bf6 89bf
000002d0: 11c0 ffbe 712d 85bf e5f9 293f 8295 6bbf
000002e0: 66d8 263f 9ac7 35bf 7b3e 573f d671 86bf
000002f0: c4cf 14bf ba31 73bf f9ae 9e3f e3a8 2d3f
00000300: f608 913f 26a9 b53e 3cdd 7e3f 5d72 0dbf
00000310: 9449 2bbf 9296 193f ba04 9d3f 593c 3140

bias f4 [300]
-0.01010865 -0.014199178 -0.009729138 -0.08139097 0.0157545 -0.061905023 -0.027666893 0.035606552
-0.019565716 0.05424447 -0.05106726 0.036788866 -0.08757681 -0.058498852 -0.080774456 -0.011183222
0.032102432 0.031465426 0.010621592 -0.02971844 0.014606497 0.27235875 -0.03664845 0.039596725
0.022918167 -0.05634545 -0.06618142 -0.06397639 0.015287385 0.007680097 -0.019828858 0.036270875
-0.0027437212 0.026072573 0.049922835 -0.0250611 0.058809448 -0.018748065 0.004140156 -0.07247026
0.028913956 -0.008188812 0.04727154 0.04931955 -0.05025977 -0.080431476 0.106993884 0.067199744
-0.03341524 0.0143924905 0.010033618 -0.07720715 0.015193093 0.0570998 -0.078497514 -0.07132929
-0.009494342 -0.002805688 0.01496984 -0.063676246 -0.0040691495 -0.058042686 0.0146863125 0.05654299
0.038475845 0.020184567 -0.068715766 -0.08472115 0.007959772 -0.060910724 0.01615216 0.02953256
0.012176365 -0.0381935 -0.031434063 -0.05463722 0.047351755 0.039017737 -0.06357642 -0.065281175
0.021656146 -0.0312416 -0.09561246 0.04851666 -0.006776598 -0.06412296 -0.04089215 0.048762344
0.047729895 0.02181381 -0.025467018 0.025598489 -0.09722393 -0.008714689 -0.030781733 0.0017014882
-0.0014450547 -0.026602488 -0.024696812 0.011731439 0.027893825 -0.07076173 -0.08582459 -0.06716265
0.04170658 -0.025092382 -0.08322013 0.021188935 0.02013287 0.011950149 -0.039429396 -0.018067773
-0.008050603 -0.025189906 -0.01769695 -0.013139635 -0.05598731 -0.0032089013 0.053624317 -0.07472335
-0.07461156 0.033509333 0.021593431 -0.060410205 0.014294552 -0.077083625 -0.056607407 -0.029323978
0.017468035 -0.025504434 0.039348144 -0.07566162 -0.034802247 -0.01693461 -0.06596842 0.45012262
0.11907653 0.04499287 0.0020751995 0.038960714 0.028118638 0.002284777 -0.0048199235 -0.027712641
-0.0024960134 -0.010734217 -0.024678614 0.042947527 -0.017039765 -0.051320318 0.035389557 -0.08225889
0.0049559395 -0.006820371 0.00034539707 -0.06645651 0.017687395 0.056679025 -0.09994825 -0.060873285
-0.005013526 -0.0441631 0.038059164 -0.053557873 -0.053771038 -0.059237484 -0.0032403283 -0.01458784
-0.024348825 -0.0817809 -0.030088173 0.047167778 -0.06790275 -0.056010824 -0.0019479507 -0.025516411
-0.088467196 -0.0038809879 -0.23136151 0.013680996 -0.015508862 -0.016081855 -0.065314144 -0.029468928
0.050660457 -0.08487495 -0.008215818 -0.04177906 -0.016334422 -0.059107926 -0.04597183 0.024291394
0.0036319848 0.055269387 -0.009106145 -0.018076796 0.025973856 -0.34058473 -0.07184817 0.05166285
-0.03998502 -0.009131682 -0.04043084 0.14650065 -0.056091234 -0.0033558155 -0.014926016 -0.0276832
-0.00063202146 0.06621911 0.021113515 0.012806163 -0.056900863 0.08588782 0.031993214 -0.028071864
-0.00037736289 -0.06771071 -0.03998163 0.0025300842 -0.051719595 0.04506995 0.015233206 0.046720788
-0.03914299 0.0025842318 -6.995332e-05 0.07074952 0.023003437 0.06697674 -0.025296303 0.011981476
0.05873699 -0.02542561 0.02871442 -0.07936336 -0.082277395 -0.05614198 -0.10217642 -0.010290105
-0.04564332 0.043419022 0.010012181 0.06285663 0.05215182 -0.074571766 -0.09403366 0.021545192
-0.083663054 -0.005627466 0.03151247 -0.023332627 -0.03312186 -0.08408257 0.04550595 -0.0023585192
00000000: c09e 25bc aba3 68bc f666 1fbc 4fb0 a6bd
00000010: 950f 813c 1f90 7dbd aea5 e2bc 2dd8 113d
00000020: 4848 a0bc 732f 5e3d e72b 51bd ecaf 163d
00000030: 785b b3bd 7e9c 6fbd 146d a5bd d539 37bc
00000040: d77d 033d e4e1 003d 3006 2e3c 1674 f3bc
00000050: 1750 6f3c 9b72 8b3e af1c 16bd 2d30 223d
00000060: e1be bb3c 7dca 66bd 208a 87bd 0e06 83bd
00000070: f177 7a3c 53a9 fb3b 2170 a2bc c590 143d
00000080: 01d0 33bb 2696 d53c e37b 4c3d f04c cdbc
00000090: 2de2 703d 8b95 99bc 25aa 873b 4a6b 94bd
000000a0: f6dc ec3c 5e2a 06bc cd9f 413d 4c03 4a3d
000000b0: 30dd 4dbd 42b9 a4bd 9c1f db3d 05a0 893d
000000c0: 6bde 08bd 7bce 6b3c 0b64 243c c81e 9ebd
000000d0: 73ec 783c 7be1 693d 4ec3 a0bd 1715 92bd
000000e0: 288e 1bbc a2df 37bb 0f44 753c b168 82bd
000000f0: 8056 85bb 2bbe 6dbd dc9e 703c 9f99 673d
00000100: d998 1d3d 1b5a a53c daba 8cbd 4882 adbd
00000110: b469 023c 867d 79bd 8951 843c 44ee f13c
00000120: 607f 473c ca70 1cbd 01c1 00bd 47cb 5fbd
00000130: eaf3 413d 10d1 1f3d 5b34 82bd 23b2 85bd
00000140: 3b68 b13c 62ee ffbc 77d0 c3bd 68b9 463d
00000150: 390e debb e652 83bd 877e 27bd 06bb 473d
00000160: 6c80 433d e0b2 b23c 35a0 d0bc ecb3 d13c
00000170: 571d c7bd 0ec8 0ebc f929 fcbc 7804 df3a
00000180: fd67 bdba 76ed d9bc f850 cabc 3935 403c
00000190: 9781 e43c 87eb 90bd cdc4 afbd 928c 89bd
000001a0: 85d4 2a3d 8a8e cdbc 516f aabd 6b94 ad3c
000001b0: b0ed a43c 8fca 433c b880 21bd de02 94bc
000001c0: ade6 03bc 105b cebc 32f9 90bc a047 57bc
000001d0: f352 65bd 6e4c 52bb 2ca5 5b3d 8e08 99bd
000001e0: f2cd 98bd 1541 093d b5e4 b03c b170 77bd
000001f0: b233 6a3c 05de 9dbd 2bdd 67bd d738 f0bc
00000200: 2019 8f3c adee d0bc 852b 213d 7bf4 9abd
00000210: cd8c 0ebd 74ba 8abc 731a 87bd 7976 e63e
00000220: 65de f33d 724a 383d 1200 083b 4595 1f3d
00000230: 0f59 e63c 32bc 153b 73f0 9dbb 9f05 e3bc
00000240: 2894 23bb 92de 2fbc ce2a cabc bfe9 2f3d
00000250: fa96 8bbc 4135 52bd a4f4 103d 5977 a8bd
00000260: 6f65 a23b 6b7d dfbb 6916 b539 5a1a 88bd
00000270: 28e5 903c 4428 683d abb1 ccbd 4456 79bd
00000280: 8148 a4bb 5ee4 34bd ede3 1b3d 805f 5bbd
00000290: 053f 5cbd 01a3 72bd b05b 54bb d601 6fbc
000002a0: 3077 c7bc bf7c a7bd 797b f6bc 0033 413d
000002b0: 9910 8bbd 9b6b 65bd 6152 ffba cb07 d1bc
000002c0: 4a2e b5bd 2c58 7ebb 08ea 6cbe 4226 603c
000002d0: e218 7ebc 18be 83bc 6cc3 85bd d268 f1bc
000002e0: 5781 4f3d ebd2 adbd a39b 06bc 8520 2bbd
000002f0: c4cf 85bc 271b 72bd f54c 3cbd bffe c63c
00000300: 9806 6e3b 2762 623d f131 15bc ca15 94bc
00000310: 20c7 d43c 1f61 aebe 2225 93bd 6d9c 533d
00000320: 55c7 23bd 0d9d 15bc cf9a 25bd 4404 163e
00000330: ecbf 65bd 3eed 5bbb 408c 74bc e1c7 e2bc
00000340: 3eae 25ba e29d 873d 40f6 ac3c f1d0 513c
00000350: e110 69bd f4e5 af3d 510b 033d f7f6 e5bc
00000360: cad8 c5b9 eaab 8abd c7c3 23bd c5cf 253b
00000370: edd7 53bd 459b 383d b294 793c 4c5e 3f3d
00000380: 6654 20bd 375c 293b e7b3 92b8 20e5 903d
00000390: b471 bc3c 1a2b 893d 313a cfbc f44d 443c
000003a0: 3396 703d 5e49 d0bc 813a eb3c 4289 a2bd
000003b0: 0d81 a8bd 22f5 65bd df41 d1bd d497 28bc
000003c0: 7df4 3abd 25d8 313d 210a 243c faba 803d
000003d0: 269d 553d 15b9 98bd b894 c0bd 8b7f b03c
000003e0: 8957 abbd 9b66 b8bb 3813 013d 1124 bfbc
000003f0: caaa 07bd 7c33 acbd 7264 3a3d 6391 1abb

weight f4 [300, 200]
-0.10176701 -0.09287416 0.0045447117 0.011912902 -0.05381716 0.0013120379 0.032831002 -0.0028501584
0.031005241 -0.071883164 0.04296811 0.028148586 0.023769742 0.04336276 0.0043078223 -0.03337113
-0.015393629 0.057236288 -0.036328845 -0.23611638 0.061620608 0.063984156 0.051762976 -0.037471734
0.027694346 0.007972005 -0.021265818 -0.0106207905 -0.0035814233 0.06820617 0.07403989 -0.080087654
0.08501099 -0.06917742 -0.03949653 -0.026806654 -0.05747196 -0.016575731 -0.089271024 -0.074855916
-0.056512825 0.03905483 -0.0023433047 0.0 0.0029837925 0.009174325 0.0 -0.050105706
-0.12501478 0.03247213 0.056526326 -0.0012027776 0.0021307706 0.0129263215 -0.030139072 -0.01787806
0.039889038 -0.0785511 0.06507068 -0.03553229 -0.017297829 -0.033622865 -0.12088462 0.016638152
-0.013806516 -0.039643135 -0.00206767 -0.024586027 0.035955667 0.0053239316 0.03509251 -0.017618114
-0.044604164 -0.06686243 -0.027873063 0.064129606 -0.0045980257 -0.06494611 -0.035147414 -0.07427094
-0.041096803 -0.07925497 -0.05141535 -0.14199346 0.033559326 0.01665125 0.03683023 -0.05722525
0.047600407 -0.019993262 -0.002864987 0.041049056 -0.037026048 -0.069656864 -0.0665813 -0.06753502
0.0 0.053837787 -0.08720697 0.044673182 0.0026434471 0.053359807 -0.043378837 -0.03729971
0.0 0.0065516033 -0.04247295 -0.059041023 0.044291433 -0.030121159 -0.105122395 -0.02860597
0.010476959 -0.0807445 0.12045649 -0.04461431 -0.092321314 -0.07168918 -0.034183554 0.040136646
-0.052511826 0.12826155 -0.077627614 -0.036223777 0.0 0.00586085 -0.05645076 0.056096874
0.07102233 -0.03098161 0.0 0.02028005 -0.04386199 -0.023482554 -0.021662667 0.038096372
0.03703498 -0.07643957 0.0 -0.016941974 0.034706444 0.058892068 -0.026278842 -0.062666155
-0.003185541 -0.018755985 0.0 -0.071368404 -0.060375508 -0.06823193 -0.04049051 -0.11960158
0.049452975 0.054362956 -0.08360431 -0.0034869893 0.022000784 0.02031294 -0.06742956 -0.059409853
-0.031680007 -0.087004274 0.0 0.01377036 0.09200548 0.05848227 -0.084963985 0.006278061
0.0 -0.029750653 0.0005463711 -0.047623787 -0.04878853 0.0 0.034728605 -0.05732425
0.09724766 -0.024194878 0.059139803 -0.23280993 0.03054456 0.02278767 -0.00921419 0.03577753
-0.032165356 0.08715287 0.0069793584 -0.06275242 0.022475727 -0.19403507 0.029560085 -0.118605
-0.08699548 0.042985257 0.03302305 0.11274712 -0.076937266 0.025308965 0.0 -0.052832965
-0.036368314 -0.0031319521 0.0 0.06393171 -0.045645345 -0.08804294 -0.06001097 -0.05998095
0.031994294 -0.018866071 0.08316495 0.009235369 0.07080971 -0.02286678 0.0056320834 -0.07134168
-0.021595135 0.008555288 0.03027097 -0.22859931 0.07013162 0.083424374 -0.05336161 0.0523754
0.0 0.028714761 0.02448477 0.024902424 -0.038249318 0.10562245 0.09015681 0.0
0.058908142 -0.03277021 -0.066938326 0.0 0.018752994 0.054883644 -0.057148896 -0.04346426
-0.073442884 0.016668811 -0.019626342 0.057218388 0.0502168 0.0489052 -0.054185495 0.0
-0.08975428 0.004765602 -0.043493103 -0.04487641 0.017318444 0.0 -0.028448675 0.046690304
00000000: 396b d0bd cf34 bebd ceeb 943b 552e 433c
00000010: 626f 5cbd b0f8 ab3a cd79 063d b9c9 3abb
00000020: b4fe fd3c 7b37 93bd 54ff 2f3d dd97 e63c
00000030: c3b8 c23c 269d 313d a228 8d3b 2ab0 08bd
00000040: 8f35 7cbc 9970 6a3d 8ecd 14bd 7ec8 71be
00000050: e465 7c3d 200a 833d 6a05 543d f67b 19bd
00000060: 41df e23c 039d 023c a735 aebc d302 2ebc
00000070: 50b6 6abb adaf 8b3d 3aa2 973d ff04 a4bd
00000080: 3e1a ae3d e4ac 8dbd 1dc7 21bd a199 dbbc
00000090: b867 6bbd d4c9 87bc bad3 b6bd 0f4e 99bd
000000a0: fe79 67bd f5f7 1f3d 2192 19bb 0000 0000
000000b0: bb8b 433b e84f 163c 0000 0000 a43b 4dbd
000000c0: e003 00be 7f01 053d 2688 673d 85a6 9dba
000000d0: 66a4 0b3b ecc8 533c 37e6 f6bc 0275 92bc
000000e0: b062 233d 66df a0bd c743 853d 4e8a 11bd
000000f0: 2db4 8dbc 21b8 09bd 5b92 f7bd bc4c 883c
00000100: ba34 62bc d760 22bd bf81 07bb a368 c9bc
00000110: 4046 133d 6074 ae3b 2abd 0f3d dd53 90bc
00000120: dbb2 36bd 2bef 88bd 0d56 e4bc 6256 833d
00000130: 09ab 96bb 7702 85bd bcf6 0fbd 5d1b 98bd
00000140: 1f55 28bd 6e50 a2bd e798 52bd bc66 11be
00000150: 8175 093d 3468 883c 4cdb 163d 0665 6abd
00000160: a5f8 423d e9c8 a3bc 81c2 3bbb 0e23 283d
00000170: a0a8 17bd 42a8 8ebd c75b 88bd cd4f 8abd
00000180: 0000 0000 0385 5c3d 9199 b2bd 3afb 363d
00000190: af3d 2d3b d08f 5a3d 02ae 31bd 95c7 18bd
000001a0: 0000 0000 d5ae d63b 1ef8 2dbd 00d5 71bd
000001b0: ef6a 353d a6c0 f6bc 694a d7bd 1157 eabc
000001c0: 8da7 2b3c 5f5d a5bd e4b1 f63d 7fbd 36bd
000001d0: f512 bdbd c7d1 92bd 0e04 0cbd 5366 243d
000001e0: a416 57bd ff56 033e 3afb 9ebd 625f 14bd
000001f0: 0000 0000 600c c03b ea38 67bd d6c5 653d
00000200: 2874 913d 25cd fdbc 0000 0000 5922 a63c
00000210: a1a8 33bd 7c5e c0bc e875 b1bc f10a 1c3d
00000220: feb1 173d 598c 9cbd 0000 0000 e5c9 8abc
00000230: 5828 0e3d cf38 713d ba46 d7bc 1d57 80bd
00000240: 82c4 50bb 27a6 99bc 0000 0000 9929 92bd
00000250: 4f4c 77bd 2fbd 8bbd 61d9 25bd acf1 f4bd
00000260: 348f 4a3d b1ab 5e3d bd38 abbd f985 64bb
00000270: fd3a b43c 5367 a63c 8218 8abd bf57 73bd
00000280: e5c2 01bd 4c2f b2bd 0000 0000 139d 613c
00000290: 5e6d bc3d 1b8b 6f3d 9901 aebd 31b8 cd3b
000002a0: 0000 0000 a4b7 f3bc 583a 0f3a 2911 43bd
000002b0: 7bd6 47bd 0000 0000 953f 0e3d d5cc 6abd
000002c0: c829 c73d 5634 c6bc 943c 723d ba65 6ebe
000002d0: 9638 fa3c 35ad ba3c 1df7 16bc 768b 123d
000002e0: d2bf 03bd 347d b23d 1ab3 e43b 5784 80bd
000002f0: 041f b83c 21b1 46be fe27 f23c 2ee7 f2bd
00000300: b02a b2bd 4f11 303d 2d43 073d f6e7 e63d
00000310: 4991 9dbd bf54 cf3c 0000 0000 6167 58bd
00000320: f1f6 14bd 7041 4dbb 0000 0000 a1ee 823d
00000330: 9df6 3abd db4f b4bd 10ce 75bd 96ae 75bd
00000340: 730c 033d 058d 9abc 6352 aa3d f24f 173c
00000350: ae04 913d 1d53 bbbc 578d b83b 961b 92bd
00000360: 48e8 b0bc 7b2b 0c3c d3fa f73c f015 6abe
00000370: 2ba1 8f3d 66da aa3d b491 5abd 9687 563d
00000380: 0000 0000 383b eb3c 4994 c83c 2b00 cc3c
00000390: 51ab 1cbd 9550 d83d 22a4 b83d 0000 0000
000003a0: aa49 713d 0e3a 06bd f616 89bd 0000 0000
000003b0: e19f 993c accd 603d f614 6abd 9407 32bd
000003c0: 3969 96bd 088d 883c 6cc7 a0bc d45d 6a3d
000003d0: 22b0 4d3d d250 483d 9cf1 5dbd 0000 0000
000003e0: 18d1 b7bd c428 9c3b d325 32bd 54d0 37bd
000003f0: 69df 8d3c 0000 0000 320d e9bc 553e 3f3d

weight f4 [1, 300]
-0.05291715 -0.052704226 -0.04284604 -0.06692071 -0.040959124 0.067239046 -0.0670138 0.07723313
-0.083093345 -0.071483895 -0.084253564 0.0443974 0.012047399 -0.025102902 -0.0041466355 0.047369134
0.088810876 0.06805725 -0.020590488 0.07179582 -0.06543856 0.13765436 0.037290983 0.05679233
-0.071286745 -0.055220433 0.017219802 -0.035911545 -0.048914246 -0.06412322 0.05854958 0.06465236
0.049046755 -0.02284842 -0.04714868 0.03738322 0.04433894 -0.05772905 0.05082094 0.048976164
-0.053142715 -0.011175682 -0.055265296 0.062408105 -0.037623107 -0.0029093942 0.17461163 -0.050664175
-0.0535488 0.03340901 0.049406923 0.04590864 -0.06055684 0.068420716 -0.049136546 -0.036681987
-0.049783457 0.02421593 -0.04631472 -0.029191839 -0.06739513 0.037866365 0.03302531 -0.14292486
0.022470718 -0.028082937 -0.038479257 -0.02728936 -0.031932577 0.054912683 0.035939272 -0.037675638
-0.03518984 -0.17370318 -0.054053005 0.017672554 0.056008734 0.039362658 -0.033252873 0.04553157
-0.032962114 -0.07181931 0.0904587 -0.04979206 0.067752235 -0.0687746 0.043014526 -0.057984203
-0.02902559 -0.042127986 -0.050481066 -0.04964062 -0.02130558 -0.059402436 0.05423079 0.07140938
0.040188596 0.015830178 0.03563009 -0.020700758 0.0818019 0.046999928 -0.04600894 0.0764512
0.046554703 0.13114122 0.050697673 0.06964608 0.0932833 0.05474844 0.032307368 0.036536008
0.054890946 0.034045868 -0.025085328 0.07460076 0.05611502 -0.053446844 -0.044855528 -0.021016337
-0.04368782 -0.044630095 -0.20787239 -0.03637447 -0.03669476 0.05844789 -0.027202023 -0.08295817
0.050492514 -0.036058974 0.035127044 -0.06886529 0.05532798 0.034408167 0.035698716 -0.46829253
0.15455443 0.05670845 -0.12108574 -0.017158788 0.052401904 0.108432725 0.023945931 0.041956704
0.027646767 -0.0237138 -0.0055357683 -0.049614396 -0.04789991 0.064553834 -0.061457835 -0.028569346
0.03984564 0.081117906 -0.06619605 0.05309381 -0.043363433 -0.04224411 0.055449393 -0.030537736
0.06834099 -0.033441786 -0.022471417 0.056428 -0.065665886 0.05725695 0.071116604 0.072607286
-0.0481209 -0.07341515 0.07664833 -0.07141724 0.04594994 0.20760347 -0.03374906 0.029680181
1.7265906e-05 0.044276845 -0.1649095 -0.06346293 0.055746604 0.031678952 -0.03927351 0.04079058
-0.034096785 0.029977353 0.060871914 0.07131689 0.41923484 -0.030478673 -0.049618676 -0.030023579
-0.05209088 -0.03815585 0.045129716 -0.08976423 0.067458585 -0.2597261 0.08215742 -0.06601207
-0.028026344 0.023530934 -0.069239676 0.17632034 0.05925064 -0.022071417 -0.07140879 0.07124635
0.06312797 -0.0490128 -0.062464762 -0.062110547 0.02522788 0.16214646 0.14789894 0.04856347
-0.021149736 0.0773193 -0.12630306 0.07454822 0.2933798 -0.11511019 -0.038597997 0.032074068
0.0067138565 -0.06853567 -0.037057728 -0.044149674 -0.33696142 -0.04409329 0.0390338 -0.037498455
0.066803046 0.033590823 0.081013545 0.05831966 0.082614824 -0.06683727 0.07681551 0.046070833
0.046263255 -0.08064481 -0.027430924 0.048732318 0.06364837 0.03663137 -0.01549262 0.076252654
0.049930453 0.014133637 -0.03155065 -0.03907365 0.05488359 0.08078755 0.04952212 -0.03171051
00000000: a7bf 58bd 63e0 57bd 547f 2fbd ba0d 89bd
00000010: c1c4 27bd a0b4 893d 883e 89bd 672c 9e3d
00000020: d82c aabd 2666 92bd 228d acbd 0cda 353d
00000030: 7462 453c 9aa4 cdbc 80e0 87bb 2306 423d
00000040: 7ae2 b53d 9961 8b3d 62ad a8bc b009 933d
00000050: a704 86bd 44f5 0c3e 6ebe 183d 139f 683d
00000060: c9fe 91bd d22e 62bd 8b10 8d3c fc17 13bd
00000070: 4e5a 48bd 0953 83bd afd1 6f3d 7568 843d
00000080: 40e5 483d 9c2c bbbc f91e 41bd 261f 193d
00000090: c09c 353d 4c75 6cbd 9e29 503d 3b9b 483d
000000a0: 2dac 59bd 351a 37bc dd5d 62bd a49f 7f3d
000000b0: b01a 1abd 89ab 3ebb 64cd 323e 3d85 4fbd
000000c0: fd55 5bbd e3d7 083d ea5e 4a3d b30a 3c3d
000000d0: 730a 78bd 2920 8c3d 6743 49bd da3f 16bd
000000e0: bde9 4bbd 7c60 c63c 81b4 3dbd b923 efbc
000000f0: 7506 8abd c319 1b3d 8c45 073d e55a 12be
00000100: 8314 b83c 300e e6bc 6d9c 1dbd f08d dfbc
00000110: bccb 02bd 1fec 603d 0f35 133d c551 1abd
00000120: 3923 10bd 3fdf 31be af66 5dbd 08c6 903c
00000130: 6a69 653d bd3a 213d 2a34 08bd 507f 3a3d
00000140: 4803 07bd 0116 93bd 6942 b93d c2f2 4bbd
00000150: afc1 8a3d b3d9 8cbd 0030 303d d880 6dbd
00000160: 13c7 edbc 658e 2cbd 3cc5 4ebd f653 4bbd
00000170: 0a89 aebc f84f 73bd 1b21 5e3d 153f 923d
00000180: cc9c 243d 4aae 813c dbf0 113d a394 a9bc
00000190: c187 a73d ff82 403d df73 3cbd 7292 9c3d
000001a0: 25b0 3e3d e249 063e 5da8 4f3d 9ba2 8e3d
000001b0: 510b bf3d e63f 603d bb54 043d c8a6 153d
000001c0: 54d5 603d ae73 0b3d bf7f cdbc 49c8 983d
000001d0: ddd8 653d 14eb 5abd 6eba 37bd 742a acbc
000001e0: 00f2 32bd 0cce 36bd 80dc 54be 65fd 14bd
000001f0: 3f4d 16bd 0e67 6f3d c7d6 debc f9e5 a9bd
00000200: 3dd1 4e3d 93b2 13bd 60e1 0f3d 3f09 8dbd
00000210: 989f 623d 94ef 0c3d d138 123d 0ac4 efbe
00000220: 8443 1e3e 1f47 683d cdfb f7bd 9690 8cbc
00000230: 61a3 563d fa11 de3d 422a c43c cbda 2b3d
00000240: 797b e23c 7143 c2bc 6465 b5bb 7738 4bbd
00000250: b232 44bd cd34 843d 36bb 7bbd 430a eabc
00000260: 2f35 233d 2521 a63d cb91 87bd e578 593d
00000270: db9d 31bd 2908 2dbd e71e 633d 462a fabc
00000280: 5cf6 8b3d 41fa 08bd fa15 b8bc 0c21 673d
00000290: d67b 86bd 4386 6a3d 95a5 913d 21b3 943d
000002a0: 6c1a 45bd af5a 96bd cdf9 9c3d 3443 92bd
000002b0: 0136 3c3d 0196 543e 743c 0abd da23 f33c
000002c0: 40d6 9037 a35b 353d 09de 28be daf8 81bd
000002d0: 8d56 643d cac1 013d 43dd 20bd 0614 273d
000002e0: 12a9 0bbd 1193 f53c d454 793d 970e 923d
000002f0: f3a5 d63e 69ae f9bc f43c 4bbd 02f4 f5bc
00000300: 3f5d 55bd 4f49 1cbd f0d9 383d 4fd6 b7bd
00000310: ba27 8a3d d2fa 84be 2642 a83d 5631 87bd
00000320: 8197 e5bc f2c3 c03c 88cd 8dbd 528d 343e
00000330: cdb0 723d 1ecf b4bc c63e 92bd 9be9 913d
00000340: 3d49 813d a5c1 48bd 0ddb 7fbd a167 7ebd
00000350: b3aa ce3c b909 263e d272 173e 7dea 463d
00000360: 3642 adbc 9559 9e3d 9755 01be bdac 983d
00000370: e135 963e e4be ebbd ef18 1ebd 1960 033d
00000380: e9ff db3b 6e5c 8cbd d8c9 17bd 4ad6 34bd
00000390: 3586 acbe 2a9b 34bd e8e1 1f3d fb97 19bd
000003a0: 09d0 883d 8896 093d 6eea a53d 99e0 6e3d
000003b0: f631 a93d fbe1 88bd 7351 9d3d c5b4 3c3d
000003c0: 8a7e 3d3d 1b29 a5bd d1b6 e0bc 8a9b 473d
000003d0: 145a 823d c70a 163d c2d4 7dbc 5a2a 9c3d
000003e0: e083 4c3d c590 673c 413b 01bd b10b 20bd
000003f0: 9ecd 603d f173 a53d b5d7 4a3d e1e2 01bd
