figures/Illu_large_global_3/theta=0.1_s=0.8_step=100/best_model.pth (torch, 246949 bytes, 5 tensors)

bias f4 [200]
-1.4293945 1.3883001 1.4946842 1.7000014 0.9626426 -1.1258692 1.3287568 -1.2046185
2.1243894 -1.487245 -1.0849292 -1.0871354 1.6645354 0.33733097 -1.3996263 -2.644656
0.08394786 -0.8427445 1.8689383 1.4295313 -1.1906953 -1.3540797 1.1678075 1.4210693
1.2848691 -0.9180491 -2.540463 0.3919792 1.3098295 -1.5285306 -1.1626153 1.3880277
1.3236245 1.6032301 1.4186856 1.4630541 -1.2082394 0.9908118 0.16740088 1.9166144
0.21085104 0.81898457 -1.6486112 -0.21066988 1.4177161 0.9894697 1.0084138 1.0038704
-0.48780507 -1.0572804 1.4813433 1.9597416 1.3882824 -1.6634253 -0.79031193 -1.2062513
1.4355464 1.4930888 1.4163259 -0.93243843 -1.3521476 -1.8129665 1.128777 1.9669997
-1.7759182 -1.635296 -0.26320523 1.1417043 0.2738796 1.2896367 0.3260117 -1.1406648
-1.1760374 0.48171046 -0.91079557 -1.036964 -0.491531 -1.5133586 0.07540126 -1.187028
-1.2209332 0.8717766 -0.5138986 -1.3557596 1.3065144 -1.4975544 -0.15490675 1.5274894
1.3698405 1.1192728 -0.52147806 0.66580325 -1.2933228 -1.0482696 1.9821982 -1.5532737
-1.450652 1.4626417 0.5543063 1.5838137 -0.7916692 -1.1241821 -0.13678564 -0.39333102
0.26503384 -0.88432926 -1.0106869 -1.0517279 -0.9857236 -1.3450567 0.54924023 1.3451002
1.5498017 1.1494278 -1.5684633 -0.46660864 -0.90604573 1.6375959 0.18004112 1.2756689
1.9071593 -0.9757017 -1.585093 -1.1942874 1.5767347 -2.5484276 0.087266065 0.41217476
-0.0055146622 -0.91775215 -1.1316228 0.27474976 -1.2194569 -0.009309998 1.2665724 0.53845656
-1.80347 1.5926257 1.6512108 1.5868206 -1.4859344 -1.0300188 0.1742884 -1.1484988
-0.7050369 -1.510577 -1.3148842 1.5802213 -1.0891252 1.1378238 -1.4960698 -1.5099076
-2.118839 -1.6144658 1.7278994 2.189985 -0.45259285 -0.11477814 -1.2320293 -1.291596
-1.4726574 -0.22359416 -2.16516 1.3739563 1.6111646 -1.4881208 1.8694179 -0.48318064
-0.5771767 0.98548615 -1.3812152 0.53843987 1.1274339 0.56521785 -0.6949001 1.878337
-1.0924275 -1.2328144 1.6941261 -0.4659801 -1.2622427 -1.1841292 -1.666321 -1.5538988
-0.39617842 -0.98945355 0.6820279 -1.1578271 -1.377816 -0.7666473 1.6851404 -0.9470829
0.63034546 1.4811466 2.3209267 -0.40717503 -0.22659965 -0.7530604 -1.1731853 -1.1675817
00000000: 66f6 b6bf d1b3 b13f d051 bf3f a599 d93f
00000010: bf6f 763f 7b1c 90bf b414 aa3f f030 9abf
00000020: fff5 0740 0b5e bebf f6de 8abf 4127 8bbf
00000030: 7f0f d53f a5b6 ac3e f426 b3bf 0b42 29c0
00000040: dbec ab3d 1bbe 57bf 5f39 ef3f e2fa b63f
00000050: b468 98bf 7c52 adbf b77a 953f 99e5 b53f
00000060: 9776 a43f 4405 6bbf f296 22c0 7fb1 c83e
00000070: 7ea8 a73f e4a6 c3bf 94d0 94bf e4aa b13f
00000080: 876c a93f a536 cd3f 7d97 b53f 5b45 bb3f
00000090: 97a7 9abf d8a5 7d3f 236b 2b3e 9f53 f53f
000000a0: 56e9 573e f9a8 513f b105 d3bf d8b9 57be
000000b0: b977 b53f e34d 7d3f b413 813f d37e 803f
000000c0: 96c1 f9be f754 87bf a89c bd3f d0d8 fa3f
000000d0: 3db3 b13f 1feb d4bf e251 4abf 7166 9abf
000000e0: fcbf b73f 891d bf3f 2b4a b53f 49b4 6ebf
000000f0: 2c13 adbf 490f e8bf c47b 903f a5c6 fb3f
00000100: 4a51 e3bf 6151 d1bf d6c2 86be 5e23 923f
00000110: f239 8c3e d112 a53f 01eb a63e 4e01 92bf
00000120: 6588 96bf c1a2 f63e e629 69bf 3dbb 84bf
00000130: f4a9 fbbe bcb5 c1bf fa6b 9a3d 89f0 97bf
00000140: 8a47 9cbf c02c 5f3f dc8e 03bf 8889 adbf
00000150: dd3b a73f ddaf bfbf e09f 1ebe c684 c33f
00000160: ef56 af3f 5544 8f3f 967f 05bf 1572 2a3f
00000170: 9a8b a5bf b32d 86bf acb8 fd3f acd1 c6bf
00000180: f7ae b9bf d837 bb3f 05e7 0d3f 68ba ca3f
00000190: d5aa 4abf 33e5 8fbf 8911 0cbe af62 c9be
000001a0: 84b2 873e 6763 62bf 305e 81bf 059f 86bf
000001b0: 6258 7cbf d12a acbf 029b 0c3f 3e2c ac3f
000001c0: e75f c63f 7320 933f 68c3 c8bf 54e7 eebe
000001d0: 9df2 67bf be9c d13f b35c 383e 1e49 a33f
000001e0: cc1d f43f 96c7 79bf 54e4 cabf 69de 98bf
000001f0: 71d2 c93f 7019 23c0 8db8 b23d 9208 d33e
00000200: 57b4 b4bb cef1 6abf 04d9 90bf 00ac 8c3e
00000210: 2a17 9cbf f688 18bc 0b1f a23f 4ad8 093f
00000220: 1bd8 e6bf 29db cb3f e05a d33f f01c cb3f
00000230: 1933 bebf a8d7 83bf a978 323e 0202 93bf
00000240: 4c7d 34bf 965a c1bf 204e a8bf b144 ca3f
00000250: 7468 8bbf 36a4 913f 377f bfbf a744 c1bf
00000260: 0f9b 07c0 d1a6 cebf cf2b dd3f b728 0c40
00000270: 40ba e7be cd10 ebbd 23b3 9dbf 0553 a5bf
00000280: 0a80 bcbf def5 64be fb91 0ac0 cddd af3f
00000290: a43a ce3f be7a bebf 1649 ef3f 7463 f7be
000002a0: dac1 13bf d248 7c3f a9cb b0bf 32d7 093f
000002b0: c14f 903f 1eb2 103f f9e4 31bf 596d f03f
000002c0: aad4 8bbf ddcc 9dbf 20d9 d83f f294 eebe
000002d0: 2b91 a1bf 8c91 97bf 024a d5bf 28e6 c6bf
000002e0: e6d7 cabe d44c 7dbf 6199 2e3f ae33 94bf
000002f0: 465c b0bf ff42 44bf aeb2 d73f 0674 72bf
00000300: 525e 213f 3696 bd3f 108a 1440 3f79 d0be
00000310: bd09 68be 91c8 40bf f02a 96bf 5173 95bf

weight f4 [200, 1]
-1.8035125 -1.330593 -1.1103641 -1.5761666 0.49995705 -1.8330213 1.1686847 1.2357731
1.0471137 1.5307703 -1.1282579 1.2884928 -1.429323 -0.38952234 -1.6993557 -1.200023
-0.52734387 1.8929064 1.0178709 1.1998142 1.1041499 -1.3439476 1.8227686 -1.4738257
-1.267552 -0.9587287 -1.1548922 0.08512877 -1.2973406 -1.6060234 -0.90675044 0.96708524
-1.316465 -1.5773307 -1.5579212 -1.1577518 -1.001212 -1.6978282 0.3446147 -1.2006431
0.35188842 -0.9945122 1.1228153 -1.4401248 0.90378684 0.78506637 -1.0931852 -1.0388001
-0.5789168 1.7071462 1.0037626 -1.1833433 -1.0991975 1.9216113 1.9549564 1.1369159
-1.0847603 1.4043888 1.1068939 -1.1076075 1.5206906 1.1787539 -1.3193147 -1.2085418
-0.9349087 -1.7488018 1.072607 -1.0506878 -0.6272325 0.84876287 0.51328444 1.5736359
-1.1376827 -1.0531384 1.292047 1.1289997 0.25712258 1.5873466 -0.4759433 1.7145277
-1.6259849 -1.0658188 -2.4315271 -0.83930695 1.4359807 -1.5592468 0.28953698 -1.401373
-1.2276995 -1.0541198 -0.58609325 0.70316386 -1.5287824 2.2331278 1.016794 1.131231
-1.2738991 1.1895977 -0.9102722 -1.1391164 1.0251988 1.0792708 -0.2900555 -0.5568471
-0.5469588 -1.2942455 -1.1021591 -1.0943087 1.1290985 -1.3864579 -1.001751 0.973642
-1.1335648 -1.2791913 -1.5550245 -0.60055906 2.127468 1.4786853 0.41294423 1.2448313
1.0208476 -2.1332285 -1.8714134 -1.2747389 -1.61101 -1.1482402 0.37797377 0.43320617
-0.31492555 0.8838678 1.8905866 0.4672137 1.4554589 -0.3759455 -1.1023262 0.64806694
1.1388582 1.2973032 -1.638884 0.9264809 -1.632102 -0.7790716 -0.9772907 1.0429804
-0.738091 -0.872376 1.0729946 -1.1208125 1.2042184 0.7919451 -0.91150916 2.2062235
1.2094296 2.0512712 1.5857608 -1.2291815 1.0934267 -0.37630132 1.0961242 -1.0630816
-1.6558627 0.28038687 1.2250856 0.92473453 -1.5466117 -2.0127592 1.0332459 -0.64725
-0.6513623 -0.52097183 1.0948089 0.66040176 -1.0989472 0.6641067 0.23777746 1.0782596
-1.1377357 1.5640408 1.1563643 -0.6910602 1.716628 1.1250215 1.854571 1.7640404
0.9115755 1.0974894 0.6747318 1.4059744 -1.9501843 1.0180173 1.3756976 -0.89123124
-1.0627854 0.88690186 1.1162758 1.0994111 0.4314049 1.0519795 -1.2458987 1.863243
00000000: 7fd9 e6bf df50 aabf 6920 8ebf d4bf c9bf
00000010: 5ffa ff3e 71a0 eabf 7697 953f d02d 9e3f
00000020: d207 863f 48f0 c33f c16a 90bf 55ed a43f
00000030: 0ef4 b6bf 796f c7be 7d84 d9bf 5b9a 99bf
00000040: 0200 07bf c24a f23f 9849 823f 8393 993f
00000050: c954 8d3f 7a06 acbf 7b50 e93f 52a6 bcbf
00000060: 253f a2bf 3e6f 75bf 82d3 93bf fe57 ae3d
00000070: 420f a6bf 2d92 cdbf cc20 68bf e692 773f
00000080: ed81 a8bf f9e5 c9bf f669 c7bf 3631 94bf
00000090: b727 80bf 6f52 d9bf 5771 b03e acae 99bf
000000a0: b82a b43e 5a98 7ebf 69b8 8f3f 0256 b8bf
000000b0: 935e 673f 1cfa 483f 7eed 8bbf 67f7 84bf
000000c0: e433 14bf c483 da3f 4b7b 803f cb77 97bf
000000d0: 81b2 8cbf 5cf7 f53f 033c fa3f 7686 913f
000000e0: 6dd9 8abf 03c3 b33f b3ae 8d3f 15c6 8dbf
000000f0: fda5 c23f 68e1 963f 4edf a8bf 7fb1 9abf
00000100: 2d56 6fbf bdd8 dfbf 304b 893f f07c 86bf
00000110: 4f92 20bf 8648 593f 9c66 033f e76c c93f
00000120: 969f 91bf 3dcd 86bf cc61 a53f 1083 903f
00000130: 92a5 833e 2c2e cb3f d7ae f3be a575 db3f
00000140: 4620 d0bf c06c 88bf 249e 1bc0 d2dc 56bf
00000150: 37ce b73f 6695 c7bf 313e 943e 3160 b3bf
00000160: 4225 9dbf 66ed 86bf 350a 16bf 8c02 343f
00000170: 24af c3bf 91eb 0e40 4e26 823f 2dcc 903f
00000180: 200f a3bf bd44 983f 9907 69bf 91ce 91bf
00000190: b739 833f 8c25 8a3f 2882 94be 888d 0ebf
000001a0: 7e05 0cbf d6a9 a5bf 8d13 8dbf 4f12 8cbf
000001b0: 4d86 903f 7477 b1bf 6039 80bf 9a40 793f
000001c0: a718 91bf 8abc a3bf 0b0b c7bf 3dbe 19bf
000001d0: 7028 0840 8f45 bd3f 6d6d d33e a256 9f3f
000001e0: 22ab 823f d186 08c0 798a efbf a52a a3bf
000001f0: 9335 cebf 89f9 92bf c785 c13e 33cd dd3e
00000200: ec3d a1be 2945 623f befe f13f a236 ef3e
00000210: 7a4c ba3f ee7b c0be 0619 8dbf b7e7 253f
00000220: 1bc6 913f 080e a63f f3c6 d1bf da2d 6d3f
00000230: b8e8 d0bf 3d71 47bf b92f 7abf 6280 853f
00000240: 88f3 3cbf 0954 5fbf e357 893f c976 8fbf
00000250: d423 9a3f eabc 4a3f aa58 69bf c432 0d40
00000260: 97ce 9a3f 0748 0340 36fa ca3f d255 9dbf
00000270: 68f5 8b3f 91aa c0be cc4d 8c3f 0f13 88bf
00000280: 4ff3 d3bf de8e 8f3e 9bcf 9c3f 67bb 6c3f
00000290: 5ff7 c5bf 0cd1 00c0 6741 843f 2db2 25bf
000002a0: aebf 26bf 695e 05bf b322 8c3f 1710 293f
000002b0: 4daa 8cbf e602 2a3f ef7b 733e 6904 8a3f
000002c0: 53a1 91bf 7d32 c83f bf03 943f 52e9 30bf
000002d0: 77ba db3f b400 903f 9562 ed3f 13cc e13f
000002e0: 035d 693f 887a 8c3f 39bb 2c3f f8f6 b33f
000002f0: a49f f9bf 644e 823f dc16 b03f bb27 64bf
00000300: 5a09 88bf 000c 633f 20e2 8e3f 81b9 8c3f
00000310: 1ae1 dc3e 44a7 863f 9c79 9fbf bf7e ee3f

bias f4 [300]
-0.15004928 -0.04316484 0.013115747 -0.07485047 -0.051275246 0.015282307 -0.035906244 -0.018556345
-0.16659725 0.00967666 0.020313032 0.010781465 -0.04401926 -0.025666198 -0.14450221 0.005997388
-0.034052726 -0.032835566 -0.023391826 -0.06429805 -0.011238513 -0.030679232 -0.10784116 -0.07355127
-0.017605688 -0.091071114 -0.08990056 -0.04529378 -0.06128073 -0.012150076 -0.039128806 -0.043598775
-0.038762957 -0.11918313 -0.016749801 0.019091586 0.021773577 -0.07933647 -0.023578512 -0.07133567
0.003330613 -0.104757115 -0.11763512 -0.008953761 -0.090479575 -0.08711988 -0.11261392 -0.03339333
-0.041565936 -0.1012124 -0.09709758 -0.12210774 0.0047594346 -0.030667735 -0.027610682 -0.13319503
-0.025068741 -0.06904841 -0.08749094 -0.030462641 -0.06733921 -0.08870587 -0.05765732 -0.09947383
-0.06492134 -0.053594913 -0.038430404 -0.06526571 -0.006227875 -0.073517084 -0.042108282 -0.08975444
0.00016441038 -0.08482765 -0.10698646 -0.017074045 0.0006786824 -0.05869913 -0.014792886 -0.10837631
0.0053213434 -0.083135255 0.025075905 -0.09320467 -0.04676218 -0.072002314 -0.072137915 -0.061440263
-0.15141433 -0.0040316274 -0.016814994 -0.0724645 0.0012626032 -0.14956675 -0.0791398 -0.044801533
-0.096297085 0.006683944 -0.104671516 -0.06524942 -0.115127325 -0.06096844 -0.058349505 -0.05197458
-0.12645404 -0.0971492 -0.10020233 -0.11226235 -0.11608497 0.027349366 -0.096873544 -0.041901525
-0.101370454 -0.024101645 -0.042869937 -0.043656506 -0.11113877 -0.057247065 -0.08029272 -0.057667103
-0.014215772 -0.12830622 -0.0631317 -0.1682945 -0.061443377 0.02217029 -0.08211693 -0.08275459
-0.055069547 -0.1136451 -0.09483704 -0.080448315 -0.12682901 -0.0117677115 -0.13302329 -0.046655186
-0.020125274 0.007022413 -0.038894113 0.0007055395 -0.14860658 -0.09889289 -0.08768408 -0.07895779
-0.047847774 -0.07209234 -0.065643884 -0.04891907 -0.07587789 -0.013359178 -0.09686304 -0.018790102
0.003763533 -0.018697836 0.024182094 -0.04192304 -0.18448178 -0.1040564 -0.09898874 -0.032533128
-0.12896852 -0.0148159955 -0.1379448 -0.08894965 -0.042939015 0.009228644 -0.024830876 0.023576995
-0.07016544 -0.13675727 -0.11043713 -0.10647654 -0.15444134 -0.030920014 -0.13323413 0.021645002
-0.061380442 -0.031376254 -0.04532127 -0.08881835 -0.038302604 -0.09721152 -0.056787986 -0.0817729
-0.05701129 -0.08396906 -0.06655545 0.025011888 0.014791652 -0.068217434 -0.07442857 0.0010422218
-0.09379814 0.02623614 -0.053919952 -0.07454526 -0.06861992 0.0015689544 -0.08786433 -0.026105935
-0.06676221 -0.056144103 0.000751361 -0.115959406 -0.073617674 -0.033865742 -0.013878834 -0.059810746
-0.102175206 -0.032666456 0.0014237055 -0.099547856 -0.0055272216 0.029494517 -0.032617036 -0.14766055
-0.083347194 -0.045615293 -0.09555116 -0.03518109 -0.037107084 -0.037818026 0.0043076025 0.014091021
0.012686255 -0.18174793 -0.04845857 -0.055113196 -0.1182196 -0.070884235 -0.05917493 -0.08042373
-0.12636882 0.021610081 -0.018220082 -0.043668333 -0.06288491 -0.0593378 0.024448663 0.0064553716
-0.12786125 -0.10546523 -0.009882534 -0.012666805 -0.024203673 0.005636864 -0.06992631 -0.19731583
0.014810912 -0.051166415 -0.047557004 0.00274418 -0.064988054 -0.05856794 -0.03640195 -0.10905815
00000000: 85a6 19be 9ecd 30bd 6ee3 563c 344b 99bd
00000010: fe05 52bd a462 7a3c 6d12 13bd 7a03 98bc
00000020: 7898 2abe db8a 1e3c 8467 a63c bea4 303c
00000030: 8a4d 34bd eb41 d2bc 63f8 13be bd85 c43b
00000040: df7a 0bbd 967e 06bd 37a0 bfbc b2ae 83bd
00000050: bd21 38bc 0353 fbbc d3db dcbd 0ca2 96bd
00000060: ce39 90bc 7e83 babd c91d b8bd f885 39bd
00000070: 8101 7bbd 1d11 47bc 8745 20bd a194 32bd
00000080: e8c5 1ebd 4916 f4bd e136 89bc f565 9c3c
00000090: 805e b23c 297b a2bd b927 c1bc 7018 92bd
000000a0: 6a46 5a3b e68a d6bd afea f0bd ccb2 12bc
000000b0: 5b4d b9bd e86b b2bd 20a2 e6bd 72c7 08bd
000000c0: 0b41 2abd 7248 cfbd 19db c6bd 9f13 fabd
000000d0: 08f5 9b3b e73a fbbc cc2f e2bc 4764 08be
000000e0: f65c cdbc 4169 8dbd 732e b3bd ca8c f9bc
000000f0: 24e9 89bd 6cab b5bd 152a 6cbd efb8 cbbd
00000100: 7bf5 84bd 5786 5bbd 3369 1dbd 07aa 85bd
00000110: 3413 ccbb 2090 96bd bc79 2cbd 2dd1 b7bd
00000120: 9365 2c39 1eba adbd b81b dbbd dede 8bbc
00000130: 9be9 313a 806e 70bd dc5d 72bc 66f4 ddbd
00000140: aa5e ae3b d142 aabd fc6b cd3c 17e2 bebd
00000150: b389 3fbd f375 93bd 0bbd 93bd c9a8 7bbd
00000160: 5c0c 1bbe be1b 84bb 99bf 89bc 4568 94bd
00000170: ef7d a53a 0728 19be 0c14 a2bd d081 37bd
00000180: 6837 c5bd fc04 db3b 055e d6bd 7da1 85bd
00000190: e0c7 ebbd 0bba 79bd e4ff 6ebd 4ce3 54bd
000001a0: 2b7d 01be 29f6 c6bd e136 cdbd cee9 e5bd
000001b0: f5bd edbd c70b e03c a365 c6bd efa0 2bbd
000001c0: 509b cfbd d070 c5bc 6398 2fbd 2ad1 32bd
000001d0: b99c e3bd e67b 6abd 8270 a4bd 5734 6cbd
000001e0: 45e9 68bc b562 03be 314b 81bd 6555 2cbe
000001f0: 0dac 7bbd 789e b53c ec2c a8bd 3d7b a9bd
00000200: 9b90 61bd c3be e8bd ec39 c2bd 16c2 a4bd
00000210: 77df 01be 5ccd 40bc 4237 08be 8219 3fbd
00000220: c2dd a4bc 451c e63b 6f4f 1fbd f4f3 383a
00000230: 532c 18be 5b88 cabd b693 b3bd 9fb4 a1bd
00000240: 07fc 43bd 26a5 93bd 4d70 86bd 5d5f 48bd
00000250: de65 9bbd 74e0 5abc 2160 c6bd b3ed 99bc
00000260: 9ba5 763b 342c 99bc 8719 c63c 7eb7 2bbd
00000270: cbe8 3cbe 861b d5bd 9cba cabd 7541 05bd
00000280: 5310 04be cabe 72bc 6741 0dbe 3c2b b6bd
00000290: d2e0 2fbd bd33 173c 1f6a cbbc 8b24 c13c
000002a0: e6b2 8fbd 190a 0cbe dd2c e2bd 5f10 dabd
000002b0: df25 1ebe f84b fdbc 876e 08be dc50 b13c
000002c0: 0f6a 7bbd 6384 00bd cca2 39bd 65e6 b5bd
000002d0: 31e3 1cbd d516 c7bd 859a 68bd 8d78 a7bd
000002e0: ac84 69bd f8f7 abbd 394e 88bd bbe5 cc3c
000002f0: af58 723c 95b5 8bbd 026e 98bd 299b 883a
00000300: 3d19 c0bd 2ced d63c 2bdb 5cbd 2fab 98bd
00000310: 9a88 8cbd 60a5 cd3a 37f2 b3bd 1ddc d5bc
00000320: a0ba 88bd 5cf7 65bd fcf6 443a 207c edbd
00000330: ddc4 96bd ceb6 0abd 0d64 63bc 1dfc 74bd
00000340: 3c41 d1bd 43cd 05bd a19b ba3a bfdf cbbd
00000350: b21d b5bb 7c9e f13c 7199 05bd 5434 17be
00000360: efb1 aabd 1ad7 3abd 54b0 c3bd 0c1a 10bd
00000370: 99fd 17bd 13e7 1abd ca26 8d3b 07de 663c
00000380: 03da 4f3c 211c 3abe 7e7c 46bd 60be 61bd
00000390: 1e1d f2bd c12b 91bd 6961 72bd 32b5 a4bd
000003a0: d466 01be a007 b13c 4842 95bc 91dd 32bd
000003b0: cec9 80bd 310c 73bd 9048 c83c 9587 d33b
000003c0: 0fee 02be 28fe d7bd 5aea 21bc 6e88 4fbc
000003d0: c846 c6bc 71b5 b83b 8635 8fbd 290d 4abe
000003e0: 78a9 723c e093 51bd 22cb 42bd b3d7 333b
000003f0: 7518 85bd f0e4 6fbd 361a 15bd e159 dfbd

weight f4 [300, 200]
0.0 0.0 0.0 0.0 0.0 0.0 0.0 -0.0
-0.13602163 -0.0 -0.020296283 -0.0 0.0 0.0 0.0 -0.04555854
0.0 -0.0 0.0 0.0 -0.0 -0.0 -0.0 0.0
0.0 -0.15551972 -0.0 0.0 0.0 0.0 -0.0 0.0
0.0 0.0 0.0 0.0 -0.04490582 0.0 0.0 0.0
0.0 0.0 -0.02191244 0.0 0.0 0.0 0.0 0.0
-0.17833917 -0.0 0.0 0.0 -0.13784145 -0.0 -0.0 -0.0
0.0 0.0 0.0 -0.0 -0.0 -0.0 0.0 0.0
-0.0 0.0 -0.0 0.0 0.0 0.0 -0.14546356 -0.0
-0.0 0.0 -0.0 -0.19103254 -0.0 -0.0 0.0 -0.0
0.0 0.0 0.0 -0.0 0.0 0.0 0.0 0.0
0.0 0.0 -0.0 0.0 0.0 -0.17780474 0.0 -0.18083192
-0.0 0.0 0.0 0.0 -0.0 -0.0 -0.0 -0.0
0.0 0.0 -0.0 -0.19817406 -0.0 0.0 0.0 0.0
0.0 0.0 -0.21860817 -0.1695225 0.0 0.0 0.0 0.0
-0.12805972 -0.1618095 0.0 -0.0 0.02520404 -0.0 0.0 0.0
0.0 -0.0 -0.17787918 0.0 -0.18692216 0.0 0.0 0.0
-0.0 0.0 0.0 0.0 0.0 -0.026322639 0.0 -0.0
-0.0 -0.0 -0.0 0.0 -0.20847246 0.0 -0.0 0.0
-0.0 -0.0 0.0 0.0 -0.0 -0.0 -0.0 -0.20128305
0.0 -0.0 -0.0 0.0 0.0 0.0 0.0 -0.0
-0.0 0.0 -0.18344833 -0.14287153 0.0 0.0 -0.0 0.0
-0.0 -0.0 0.0 -0.0 -0.0 -0.0 -0.0 -0.0
-0.0 -0.0 0.0 -0.0 0.0 -0.0 0.0 -0.16044343
0.0 0.0 0.0 -0.0 -0.0 -0.0 -0.0 -0.0
-0.6663689 0.3155966 -0.0 0.46649706 -0.0 -0.41395208 0.23481831 -0.2781767
-0.0 -0.562094 -0.3590603 -0.3495313 0.39242125 -0.0 -0.65336394 -0.0
-0.0 -0.27298436 0.18481928 0.27212033 -0.13997376 -0.51623887 0.373605 0.36657068
0.21333908 -0.1704316 -0.0 -0.0 0.27701962 -0.70865774 -0.14897895 0.16477561
0.27569523 0.43343377 0.33185133 0.12929285 -0.22034894 0.2230815 0.06364704 -0.0
-0.0 -0.0 -0.0 -0.0 -0.0 -0.0 -0.0 -0.0
-0.0 -0.26516378 0.13420649 -0.0 -0.0 -0.76659864 -0.16670294 -0.16495806
00000000: 0000 0000 0000 0000 0000 0000 0000 0000
00000010: 0000 0000 0000 0000 0000 0000 0000 0080
00000020: 4149 0bbe 0000 0080 6444 a6bc 0000 0080
00000030: 0000 0000 0000 0000 0000 0000 979b 3abd
00000040: 0000 0000 0000 0080 0000 0000 0000 0000
00000050: 0000 0080 0000 0080 0000 0080 0000 0000
00000060: 0000 0000 9040 1fbe 0000 0080 0000 0000
00000070: 0000 0000 0000 0000 0000 0080 0000 0000
00000080: 0000 0000 0000 0000 0000 0000 0000 0000
00000090: 2aef 37bd 0000 0000 0000 0000 0000 0000
000000a0: 0000 0000 0000 0000 b881 b3bc 0000 0000
000000b0: 0000 0000 0000 0000 0000 0000 0000 0000
000000c0: 8b9e 36be 0000 0080 0000 0000 0000 0000
000000d0: 4f26 0dbe 0000 0080 0000 0080 0000 0080
000000e0: 0000 0000 0000 0000 0000 0000 0000 0080
000000f0: 0000 0080 0000 0080 0000 0000 0000 0000
00000100: 0000 0080 0000 0000 0000 0080 0000 0000
00000110: 0000 0000 0000 0000 66f4 14be 0000 0080
00000120: 0000 0080 0000 0000 0000 0080 099e 43be
00000130: 0000 0080 0000 0080 0000 0000 0000 0080
00000140: 0000 0000 0000 0000 0000 0000 0000 0080
00000150: 0000 0000 0000 0000 0000 0000 0000 0000
00000160: 0000 0000 0000 0000 0000 0080 0000 0000
00000170: 0000 0000 7212 36be 0000 0000 012c 39be
00000180: 0000 0080 0000 0000 0000 0000 0000 0000
00000190: 0000 0080 0000 0080 0000 0080 0000 0080
000001a0: 0000 0000 0000 0000 0000 0080 24ee 4abe
000001b0: 0000 0080 0000 0000 0000 0000 0000 0000
000001c0: 0000 0000 0000 0000 d2da 5fbe 4e97 2dbe
000001d0: 0000 0000 0000 0000 0000 0000 0000 0000
000001e0: 1622 03be 64b1 25be 0000 0000 0000 0080
000001f0: b478 ce3c 0000 0080 0000 0000 0000 0000
00000200: 0000 0000 0000 0080 f625 36be 0000 0000
00000210: 8668 3fbe 0000 0000 0000 0000 0000 0000
00000220: 0000 0080 0000 0000 0000 0000 0000 0000
00000230: 0000 0000 93a2 d7bc 0000 0000 0000 0080
00000240: 0000 0080 0000 0080 0000 0080 0000 0000
00000250: ce79 55be 0000 0000 0000 0080 0000 0000
00000260: 0000 0080 0000 0080 0000 0000 0000 0000
00000270: 0000 0080 0000 0080 0000 0080 251d 4ebe
00000280: 0000 0000 0000 0080 0000 0080 0000 0000
00000290: 0000 0000 0000 0000 0000 0000 0000 0080
000002a0: 0000 0080 0000 0000 e1d9 3bbe ea4c 12be
000002b0: 0000 0000 0000 0000 0000 0080 0000 0000
000002c0: 0000 0080 0000 0080 0000 0000 0000 0080
000002d0: 0000 0080 0000 0080 0000 0080 0000 0080
000002e0: 0000 0080 0000 0080 0000 0000 0000 0080
000002f0: 0000 0000 0000 0080 0000 0000 484b 24be
00000300: 0000 0000 0000 0000 0000 0000 0000 0080
00000310: 0000 0080 0000 0080 0000 0080 0000 0080
00000320: 2797 2abf e195 a13e 0000 0080 b4d8 ee3e
00000330: 0000 0080 87f1 d3be 3674 703e 2d6d 8ebe
00000340: 0000 0080 64e5 0fbf c0d6 b7be c4f5 b2be
00000350: 70eb c83e 0000 0080 dc42 27bf 0000 0080
00000360: 0000 0080 9bc4 8bbe 4441 3d3e 5b53 8b3e
00000370: 4855 0fbe 3b28 04bf 2849 bf3e 27af bb3e
00000380: 8f75 5a3e 9f85 2ebe 0000 0080 0000 0080
00000390: 84d5 8d3e 986a 35bf f08d 18be f0ba 283e
000003a0: ed27 8d3e 08eb dd3e 6be8 a93e 5865 043e
000003b0: 27a3 61be 7a6f 643e 6159 823d 0000 0080
000003c0: 0000 0080 0000 0080 0000 0080 0000 0080
000003d0: 0000 0080 0000 0080 0000 0080 0000 0080
000003e0: 0000 0080 8cc3 87be 6d6d 093e 0000 0080
000003f0: 0000 0080 cf3f 44bf 2db4 2abe c4ea 28be

weight f4 [1, 300]
-0.0 0.2697876 0.0 -0.0 0.0 -0.0 0.0 0.0
-0.0 -0.0 -0.0 0.0 -0.0 -0.023194306 -0.0 -0.0
0.0 0.0 -0.0 0.0 0.0 -0.0 -0.0 0.13413821
-0.0 -0.0 0.0 0.0 -0.0 -0.0 -0.0 -0.0
0.0 0.0 -0.0 -0.0 0.0 0.16466981 -0.026757596 -0.0
0.0 -0.0 -0.0 0.0 -0.0 0.0 0.0 0.0
0.0 0.0 0.0 0.0 0.0 0.0 0.0 0.0
0.28579664 -0.0 0.0 0.0 0.0 0.0 0.0 0.0
-0.0 0.0 -0.0 -0.0 -0.0 0.0 0.0 -0.0
0.0 -0.0 0.0 -0.0 -0.0 0.0 0.0 0.0
-0.0 0.0 -0.015868621 0.0 0.0 0.0 -0.0 0.0
-0.0 0.0 0.0 0.0 0.0 0.0 -0.0 -0.0
0.0 -0.0 0.0 -0.0 0.24325693 -0.0 0.0 0.0
0.0 -0.0 -0.0 -0.0 -0.0 0.0 -0.0 0.0
0.29821005 0.0 -0.0 0.0 -0.0 0.0 0.0 0.0
0.0 -0.0 -0.0 -0.0 -0.0 0.0 -0.0 0.0
-0.0 0.0 -0.0 0.0 0.0 0.0 0.23673007 0.0
0.0 -0.0 -0.0 0.0 -0.0 -0.0 0.0 -0.0
0.0 -0.0 -0.0 0.0 -0.0 -0.0 -0.0 -0.0
0.0 0.0 -0.0 0.0 -0.0 0.0 0.0 -0.0
0.0 -0.0 0.0 -0.0 -0.0 0.0 -0.0 -0.0
0.0 -0.0 0.0 0.0 0.0 0.0 0.0 0.0
0.0 0.0 0.0 0.0 0.0 -0.0 -0.0 -0.0
-0.0 0.0 -0.0 0.0 -0.0 -0.0 0.0 0.0
0.0 0.0 0.0 0.0 0.0 -0.0 0.0 0.0
0.0 -0.0 0.0 0.0 -0.0 -0.0 0.0 0.0
0.0 -0.0 -0.0 -0.0 -0.0 -0.0 -0.0 -0.0
-0.0 -0.0 -0.0 -0.0 0.0 -0.0 0.0 0.0
-0.0 -0.0 -0.0 0.0 0.0 -0.0 0.29588282 -0.0
-0.0 0.0 0.0 -0.0 0.0 -0.0 -0.4361945 -0.0
0.0 0.2537713 0.0 -0.0 0.0 0.0 0.0 0.0
-0.0 0.0 -0.0 0.0 -0.0 0.0 0.0 0.0
00000000: 0000 0080 9a21 8a3e 0000 0000 0000 0080
00000010: 0000 0000 0000 0080 0000 0000 0000 0000
00000020: 0000 0080 0000 0080 0000 0080 0000 0000
00000030: 0000 0080 fc01 bebc 0000 0080 0000 0080
00000040: 0000 0000 0000 0000 0000 0080 0000 0000
00000050: 0000 0000 0000 0080 0000 0080 875b 093e
00000060: 0000 0080 0000 0080 0000 0000 0000 0000
00000070: 0000 0080 0000 0080 0000 0080 0000 0080
00000080: 0000 0000 0000 0000 0000 0080 0000 0080
00000090: 0000 0000 349f 283e bf32 dbbc 0000 0080
000000a0: 0000 0000 0000 0080 0000 0080 0000 0000
000000b0: 0000 0080 0000 0000 0000 0000 0000 0000
000000c0: 0000 0000 0000 0000 0000 0000 0000 0000
000000d0: 0000 0000 0000 0000 0000 0000 0000 0000
000000e0: f053 923e 0000 0080 0000 0000 0000 0000
000000f0: 0000 0000 0000 0000 0000 0000 0000 0000
00000100: 0000 0080 0000 0000 0000 0080 0000 0080
00000110: 0000 0080 0000 0000 0000 0000 0000 0080
00000120: 0000 0000 0000 0080 0000 0000 0000 0080
00000130: 0000 0080 0000 0000 0000 0000 0000 0000
00000140: 0000 0080 0000 0000 e9fe 81bc 0000 0000
00000150: 0000 0000 0000 0000 0000 0080 0000 0000
00000160: 0000 0080 0000 0000 0000 0000 0000 0000
00000170: 0000 0000 0000 0000 0000 0080 0000 0080
00000180: 0000 0000 0000 0080 0000 0000 0000 0080
00000190: 5818 793e 0000 0080 0000 0000 0000 0000
000001a0: 0000 0000 0000 0080 0000 0080 0000 0080
000001b0: 0000 0080 0000 0000 0000 0080 0000 0000
000001c0: fdae 983e 0000 0000 0000 0080 0000 0000
000001d0: 0000 0080 0000 0000 0000 0000 0000 0000
000001e0: 0000 0000 0000 0080 0000 0080 0000 0080
000001f0: 0000 0080 0000 0000 0000 0080 0000 0000
00000200: 0000 0080 0000 0000 0000 0080 0000 0000
00000210: 0000 0000 0000 0000 5e69 723e 0000 0000
00000220: 0000 0000 0000 0080 0000 0080 0000 0000
00000230: 0000 0080 0000 0080 0000 0000 0000 0080
00000240: 0000 0000 0000 0080 0000 0080 0000 0000
00000250: 0000 0080 0000 0080 0000 0080 0000 0080
00000260: 0000 0000 0000 0000 0000 0080 0000 0000
00000270: 0000 0080 0000 0000 0000 0000 0000 0080
00000280: 0000 0000 0000 0080 0000 0000 0000 0080
00000290: 0000 0080 0000 0000 0000 0080 0000 0080
000002a0: 0000 0000 0000 0080 0000 0000 0000 0000
000002b0: 0000 0000 0000 0000 0000 0000 0000 0000
000002c0: 0000 0000 0000 0000 0000 0000 0000 0000
000002d0: 0000 0000 0000 0080 0000 0080 0000 0080
000002e0: 0000 0080 0000 0000 0000 0080 0000 0000
000002f0: 0000 0080 0000 0080 0000 0000 0000 0000
00000300: 0000 0000 0000 0000 0000 0000 0000 0000
00000310: 0000 0000 0000 0080 0000 0000 0000 0000
00000320: 0000 0000 0000 0080 0000 0000 0000 0000
00000330: 0000 0080 0000 0080 0000 0000 0000 0000
00000340: 0000 0000 0000 0080 0000 0080 0000 0080
00000350: 0000 0080 0000 0080 0000 0080 0000 0080
00000360: 0000 0080 0000 0080 0000 0080 0000 0080
00000370: 0000 0000 0000 0080 0000 0000 0000 0000
00000380: 0000 0080 0000 0080 0000 0080 0000 0000
00000390: 0000 0000 0000 0080 f47d 973e 0000 0080
000003a0: 0000 0080 0000 0000 0000 0000 0000 0080
000003b0: 0000 0000 0000 0080 e354 dfbe 0000 0080
000003c0: 0000 0000 50ee 813e 0000 0000 0000 0080
000003d0: 0000 0000 0000 0000 0000 0000 0000 0000
000003e0: 0000 0080 0000 0000 0000 0080 0000 0000
000003f0: 0000 0080 0000 0000 0000 0000 0000 0000
