figures/TS_partial_2/theta=0.1_s=0.05_step=1/best_model.pth (torch, 249061 bytes, 6 tensors)

weight f4 [200, 2]
00000000: e5dc 073d dbb1 1bbf fbaa 843e 47a3 06bf
00000010: 0ddb 1e3e 7fb4 2cbf 59c6 4ebf 7049 e53e
00000020: 641a 5f3f 3a93 72be d241 66be ff0f 4f3e
00000030: ee0a 03bf 9ce5 5dbe 94a4 29bf be8f 4a3f
00000040: 3272 b13e d624 913e 9b33 85bd 6e85 77bd
00000050: f9ca 913e e113 7abe 60f2 243f 2786 5b3f
00000060: 93cc f3be ff34 8a3e fec1 22bf c092 d53e
00000070: 0bc6 873e 7850 27bf e369 38bf 6924 99bb
00000080: 87b1 353f bd49 02bf cedb 4a3f 3357 8c3d
00000090: 3911 d5be 5285 0dbf e15d d83d def4 b03e
000000a0: 3a93 4dbe be0d 9b3d f9ad 123f f99c 613e
000000b0: ef88 20be d402 f4be 2d1e 263f 8210 e4be
000000c0: e1f9 0d3f fc1f 6f3f d59b 323f dbbf 40bd
000000d0: 7fb9 7ebe ec90 df3e 19f9 b33e 9441 e4be
000000e0: fe20 fe3c 495a 033f 3b62 1d3f 014a 29be
000000f0: 96fe 51bd 56fc 853c 7465 a73e 18ad 133e
00000100: 7c37 34bf 160b 54be a782 c43e 0071 29bf
00000110: 9feb 973e 05d1 04bf 5c71 d7be 1e8c fabe
00000120: ad4c 3cbf 84ac 1b3f 9ac4 f93e 83ce 613e
00000130: 0769 a03e 2602 a33e 6d3a 9bbe 9751 363f
00000140: c9f3 9dbe 9a60 b23e 753b 083f 670d 2abf
00000150: 5346 4e3f f7d3 7d3d e612 663e 81af 9e3d
00000160: cbfa 0b3e 8ca3 ccbe 4432 66bc 3f80 c33e
00000170: 6678 c53e c269 8f3e 9d4a 69bf e1ac f4be
00000180: 2f87 833e 647a e1be 2d85 cdba c798 e83e
00000190: 51fd 1e3f 99c3 f2be 7fee fabd f94e 313e
000001a0: afac 46bf 0582 31be ab02 b43e b968 6dbe
000001b0: c056 063d 105d 0b3f 6ac0 15be 5e71 be3e
000001c0: 29ab 33bf 9363 253e 3417 393f bfd1 2b3f
000001d0: 2e16 253f e1c8 4bbd 48d0 26bf 0877 51be
000001e0: 9874 073f 71a7 ffbe 3344 613e 8715 f5be
000001f0: d121 16bf 1005 1f3f 715f 003f 8141 14bf
00000200: 7429 dbbe 27e5 463f dbd6 01bf 2a11 f6bc
00000210: 3821 71bf d814 5dbf 3de3 4c3f 0d55 d63e
00000220: 70ee a9be d38a 193f fbc5 69bd 8521 b53e
00000230: d4f7 febe 3b38 2fbf d5f0 bbbe 7aba 4dbf
00000240: f693 b53e 75e5 13bf 743c bcbe 046b 3dbf
00000250: 88ea 37bf 09b7 21bf e873 5b3f e28d 3c3f
00000260: 3056 2ebf e14b 02bf 4425 3c3f fbaf a03e
00000270: 03be 593f d36f e43e 3f84 3cbf fba1 03bf
00000280: 42a3 febe 0a7b 093e 2a0e 423f 440c 1e3e
00000290: 78ca 193f e882 9d3e 100c 073f a45c 5d3e
000002a0: aaec e3be 48f9 3dbf ca6d 9c3e 5948 c8be
000002b0: 6cca debe 86d3 ff3e 66b1 d63e 169a d2be
000002c0: 8e5e 513e 0710 3fbf f306 4e3f f49a 95be
000002d0: b4ff 17be a384 3abf d751 4bb9 f7c6 953d
000002e0: 797a 8a3e 8bf9 033f 8000 923e 008b eb3e
000002f0: fa8f 2b3f ea97 28bf c5db b7bd b996 193f
00000300: 6e6c 253e 59ea 18bf 60b8 95be fcec 8ebc
00000310: 0fb9 433f 0d6e 823c ff8b 28bf 3ec6 f7be
00000320: 3ca0 e7be 98b1 94be c96a 95be dbd0 e53e
00000330: 27ad 14bf 1623 c93e d101 c3be 9a9b 0c3e
00000340: 72f7 d73e 5d76 fe3e 3a3e 903e bc69 6a3f
00000350: 6878 7b3e 417e 143f 8be6 3abf ce41 a63e
00000360: 9375 1dbf 9f9b 33be 224d 28be 677e 2b3f
00000370: 2bf6 5dbf 97d7 3ebe e916 553f cb74 543f
00000380: d8c0 37bf 8804 f4be 907d b63e cf49 3b3f
00000390: 9f38 1bbe 2837 5cbf 91a0 593e 278a 52bc
000003a0: 0e12 20bf f34d 0f3e 0056 46bf 852d 043f
000003b0: 636d 33bf 279f a4be 7e92 333e 2b58 e13e
000003c0: dc30 46bf f4fb 42bf 5b53 513f ced2 afbe
000003d0: b7cc 4dbf a125 58bf 26c7 3a3f e832 1dbe
000003e0: 929a 0d3f 975e 3bbf f30b a0be 34d4 1a3f
000003f0: f398 4abf c2a5 97be 8caf 043f afb0 2d3f
0.033169646 -0.6081826 0.25911698 -0.5259289 0.15513249 -0.67462915 -0.80771405 0.4478259
0.87149644 -0.23688975 -0.22486046 0.20220946 -0.5118855 -0.2166962 -0.6626675 0.79125583
0.34657437 0.28348416 -0.065039836 -0.060429983 0.28475168 -0.24421646 0.64432335 0.85751575
-0.47617015 0.26993558 -0.6357726 0.41713524 0.26518282 -0.6535716 -0.7203657 -0.00467353
0.7097401 -0.50893766 0.79241645 0.068525694 -0.41614702 -0.55281556 0.10564781 0.3456182
-0.20075694 0.075709805 0.5729671 0.22032537 -0.15677236 -0.47658408 0.64889795 -0.44543844
0.5545941 0.9340818 0.6976903 -0.047057968 -0.24875449 0.43665254 0.35150984 -0.44581282
0.031021591 0.5130964 0.6147801 -0.16532136 -0.051268183 0.016355675 0.3269459 0.14421499
-0.7039716 -0.20707354 0.3838093 -0.6618805 0.29671952 -0.5188144 -0.42078674 -0.48935026
-0.735545 0.6081011 0.48782808 0.22051434 0.3133013 0.31837577 -0.30318013 0.71218246
-0.30850056 0.34839326 0.53215724 -0.664267 0.80576056 0.061969724 0.22468147 0.077483185
0.13669889 -0.39968526 -0.01405007 0.38183782 0.3856842 0.28010374 -0.91129476 -0.47788146
0.25689074 -0.4403869 -0.0015679948 0.4542906 0.6210528 -0.47414854 -0.12252521 0.17315282
-0.77607244 -0.17334755 0.35158285 -0.2318448 0.032797575 0.5443888 -0.14624181 0.37195867
-0.70183045 0.16151266 0.7230103 0.6711692 0.6448697 -0.04975212 -0.6516156 -0.20455563
0.5291228 -0.49932435 0.21998672 -0.47867987 -0.5864535 0.621171 0.5014563 -0.5791245
-0.42805064 0.7769341 -0.5071847 -0.030037481 -0.9419131 -0.8635993 0.8003424 0.41861764
-0.33189726 0.59977454 -0.057073575 0.35377136 -0.49798453 -0.68445176 -0.36707178 -0.80362666
0.35464448 -0.57772 -0.36764872 -0.7399142 -0.7184224 -0.63169914 0.85723734 0.73653996
-0.6810026 -0.5089703 0.7349436 0.31384262 0.8505556 0.44616565 -0.7363929 -0.5141904
-0.4973393 0.13425842 0.7580286 0.15434366 0.6007457 0.30763936 0.5275278 0.21617371
-0.44516498 -0.742085 0.30552512 -0.39117697 -0.4351381 0.49966067 0.4193222 -0.41133183
0.20446226 -0.7463383 0.80479354 -0.29219782 -0.14843637 -0.7285864 -0.00019390076 0.0731334
0.27046564 0.5155265 0.28516006 0.46004486 0.67016566 -0.658568 -0.089774646 0.5999561
0.16154644 -0.59732586 -0.2924223 -0.017446987 0.7645425 0.015921617 -0.6583862 -0.48393434
-0.45239437 -0.29041743 -0.29183033 0.44885907 -0.5807671 0.3928458 -0.38087323 0.13731232
0.42180973 0.4969968 0.28172475 0.9156759 0.2455765 0.5800515 -0.7300803 0.3247208
-0.6150753 -0.17539833 -0.16435674 0.6698975 -0.8670375 -0.18636928 0.83238083 0.8299071
-0.7177863 -0.47659707 0.35642672 0.731595 -0.15158318 -0.8602166 0.21252657 -0.012850321
-0.6252755 0.13994579 -0.77474976 0.5163196 -0.70088786 -0.32152674 0.17536351 0.4401258
-0.77418303 -0.761657 0.81767815 -0.3434052 -0.80390495 -0.8443242 0.72960126 -0.1535145
0.5531398 -0.7319121 -0.31259117 0.60480046 -0.7913963 -0.2961865 0.51830363 0.6784772

bias f4 [200]
00000000: 9937 9cbe 17c8 393e 91e8 a13e 4846 e8be
00000010: cddf 403e 8829 013f c85f af3d 9117 11bf
00000020: 0b9e 06bf 0434 10bf c30f eabe fa40 b33e
00000030: 7863 44be 6856 52be 98b7 9b3e dc2a 5ebe
00000040: 191e f0be a7af 06be 1576 a53e 42c5 b43e
00000050: 8f42 8f3d e0f4 84bd 1549 10bf 00da 283f
00000060: a890 f63d 06cc c03e f6e5 203f f34a 13bf
00000070: cc7e 82be 0243 273f 0d3a c1bd 881d d13e
00000080: 4280 d73e 4c18 a0be e62e fd3e b52f afbe
00000090: 61a0 05bf 66d6 0a3f 2890 16bf c8d8 d43e
000000a0: d7bd 29be 03d7 7dbe 5542 ac3e 93ed 5dbe
000000b0: 95e4 333f 1c58 233e a5d6 cdbe 839b 023e
000000c0: 545b 413e eccb 64be 0ef9 273f 9961 ba3d
000000d0: 7657 e9be 198d c7be d24c 0f3f 34b6 2abf
000000e0: 7322 41be b124 e63d d37c 22be 9bac 563e
000000f0: b34e a1be 8146 67be 9de8 c83e 8c95 283f
00000100: d98b b9be 0166 8c3e b364 0f3e 816d 373f
00000110: fb08 90be f286 08bf 3201 b1bd 2a15 b13e
00000120: 83f5 5fbe 350d e4be d6bd 103f 7eb4 3cbe
00000130: 21f9 5f3e 227f bcbd 86df c03e 9427 d1bd
00000140: 7eb3 b73e b812 183f 6559 133e c90a 05bf
00000150: 05f8 303f 410d de3e 513d 993e 28ed 353f
00000160: 2956 b5be 574a 6abe c192 90bd f5ee 673e
00000170: d277 76bd d787 68bd 97bf 9fbe 6d11 9a3e
00000180: 6d07 153f 66de 403e bfa4 bd3e c0d2 c2bd
00000190: 7d47 5fbd bef7 db3e dd01 83be 4b91 2dbf
000001a0: 89da a7be 58fd c1bd 0805 82bd 0a9f 34be
000001b0: 7d8f 56bd 2eaa a93e d768 3f3e 7f9b 69be
000001c0: 6506 143e c7c5 abbd c54f f8be 8ba3 29bf
000001d0: 1e96 303f dccc b8be c1be 093f 73c0 0cbf
000001e0: 4921 01be c6f4 7dbe 937f a23e b9b5 0c3f
000001f0: 68e1 dcbd cc8f f53e a5e6 27be 06b8 f73e
00000200: e6fc 04bf 7d05 f33e 7923 af3e caf8 a53e
00000210: 66de 73bd 89f1 083f 6287 95bd 59e1 203f
00000220: 9ceb 3bbd c8e4 663e 80a8 1f3f 406a 25bf
00000230: 445d c5be 1e3f 56bd 4acd 7fbe 557f c5bd
00000240: 6687 93be 23b1 a03e daae f9be 3004 cdbe
00000250: 3b80 5cbd c0ff c8be f8d2 b63e 9e49 64be
00000260: 7ce6 a4be 5028 06bf 073c 69be ba0a 9b3e
00000270: 8241 093f f027 3ebe 2224 04bf a46d 9ebe
00000280: 2e32 293f 08d4 53be 81df bb3e c5e9 04bf
00000290: f492 2fbf a6d0 03bf c963 043e 69d0 d5be
000002a0: 0191 183f 7b03 dabd 74ea 2b3f d57e 02bf
000002b0: 0eed 603e fed9 0dbf c6a1 adbd 7a38 07bf
000002c0: 78f1 06be b009 163f 401e 163f fed1 2bbf
000002d0: 5ea0 20bd 6859 d0bd 9bdb eb3e 725f de3e
000002e0: bd6f 923e c0b3 0d3f 0964 893e 27e9 503e
000002f0: ddad 69bd 7f86 8b3e 5f7e cf3e 1b9b a3bd
00000300: c58d cbbe d533 fcbe f9a1 94be 22f8 133f
00000310: f2a4 86be ed8a 8ebe 59c3 b1bd def1 6f3e
-0.30511168 0.18142734 0.31622747 -0.4536612 0.18835373 0.50453997 0.08563191 -0.56676584
-0.52584904 -0.5632937 -0.4571515 0.3501051 -0.1917857 -0.20540774 0.30413508 -0.21696037
-0.46897963 -0.13152944 0.32316652 0.35306746 0.06995117 -0.06492019 -0.56361514 0.6595764
0.1203931 0.37655658 0.6285089 -0.5753624 -0.25487363 0.6533662 -0.094349004 0.40842843
0.4209004 -0.31268537 0.49449843 -0.34216085 -0.52197844 0.54233396 -0.58813715 0.4157164
-0.16576324 -0.24789052 0.33644357 -0.21672659 0.70270663 0.1595158 -0.40202823 0.12754636
0.18882495 -0.22343415 0.656144 0.091006465 -0.4557454 -0.38974836 0.55976593 -0.6668427
-0.18860798 0.11237467 -0.15867929 0.20964281 -0.31505355 -0.22585489 0.3923997 0.6585319
-0.36239508 0.27421573 0.14003257 0.71651465 -0.28131852 -0.5333091 -0.08642806 0.3458646
-0.21870999 -0.44541326 0.56539667 -0.18428227 0.21872379 -0.09203936 0.37670535 -0.10212627
0.3587913 0.5940356 0.1438957 -0.5196958 0.6912845 0.43369487 0.29929593 0.71064997
-0.35417297 -0.22879921 -0.07059241 0.22649749 -0.060172863 -0.056770172 -0.3120086 0.3009142
0.58214456 0.18834838 0.37039754 -0.095128536 -0.054511536 0.4296245 -0.2558736 -0.67799824
-0.32783917 -0.094721496 -0.06348616 -0.17638794 -0.052382935 0.3313765 0.18692337 -0.22813223
0.14455564 -0.083873324 -0.4849836 -0.6626517 0.6897906 -0.36093795 0.5380669 -0.54981154
-0.12610354 -0.24800405 0.31737956 0.54964787 -0.1078518 0.4796127 -0.16396578 0.48382586
-0.5194839 0.47465125 0.3420675 0.32416373 -0.059538268 0.53493553 -0.07301213 0.62843853
-0.04587899 0.2254821 0.62366486 -0.6461525 -0.3854772 -0.052306287 -0.24980655 -0.09643427
-0.28814238 0.31385145 -0.48766214 -0.40042257 -0.053833228 -0.39257622 0.3570783 -0.22293708
-0.32207096 -0.5240526 -0.22776805 0.3028162 0.5361558 -0.18569922 -0.51617634 -0.30943024
0.66092193 -0.20686352 0.36693957 -0.51919204 -0.6858361 -0.5149025 0.1292869 -0.41760567
0.5959626 -0.10645195 0.6715462 -0.5097478 0.21965429 -0.55410755 -0.084781215 -0.5282055
-0.1317805 0.5860853 0.5863991 -0.671173 -0.039215438 -0.10173303 0.46065983 0.43432194
0.28600875 0.553524 0.26834133 0.2040144 -0.057050575 0.2725105 0.405261 -0.079885684
-0.397566 -0.49258295 -0.29029825 0.57800496 -0.26297718 -0.27840367 -0.08679838 0.23432109

bias f4 [300]
00000000: 88cb 263d c244 d93c 7892 26bd ee1a 3bbd
00000010: 5844 093d 8b83 42bd aadf 3abc 8476 5b3d
00000020: 2f8d 9bbd a8be 793d e47f af3c 816d 563c
00000030: edb4 79bd f8ea 5ebd b0c6 613c 6353 0a3d
00000040: c789 463d e285 3e3c 2c1d 4b3c d40c bb3c
00000050: b08a cabc 82d9 3e3d 9707 8bbd 8174 bfbc
00000060: e855 ed3c ca9d 39bd 1e35 7d3d 5194 7d3d
00000070: 19bd 703d c47e 6a3d 4abf 2e3d 39e9 95bc
00000080: 6ecc 783d 4758 82bb 999a dabb caa7 0f3d
00000090: 2c9e f3bc 0af4 4d3d 33d2 90bd aca6 36bd
000000a0: 7083 56bd e194 b93c 9319 913d dd23 223d
000000b0: 3ae2 20bd 6d03 833d dd13 5dbd f5d2 93bd
000000c0: 3b9a 6cbd 5a60 5fbc dfcb de3c 2077 123d
000000d0: 126d 7f3d ac57 92bd cdde 6abb 7b1b d73c
000000e0: abe7 adbb 51fe 9abc 196c 433d 1eac 8ebc
000000f0: fce0 a5bc f102 07ba 2287 163d b356 6b3d
00000100: 55ca e03c 075d 55bd 3095 a8bc 819e 32bd
00000110: 73e3 433a b292 7ebd 06a4 cd3c 3d43 f13b
00000120: 94ea d03b 00a4 c73c c829 11bc a212 893d
00000130: 3ffd 493d 1268 f5bc 99b2 38bd 4305 f33c
00000140: 59ec de3c 6084 dabc be33 a6bd 68f0 963b
00000150: ae9c 69bc 0de7 243d 31e4 65bd 4f1e 20bc
00000160: ebf6 14bb 9bc8 bebc a2f0 833d 4423 2ebd
00000170: d1f9 5bbd c0e2 d03c f593 fd3c 6dcb 03bc
00000180: 522a 97bd f2d0 6b3d f0c9 e6bc 9446 3c3d
00000190: 52fb 6f3d acdc 9ebc 4aaf 8fbd 1ff3 813c
000001a0: e434 243d 5061 51bc a422 d9bc d3c0 6fbc
000001b0: c4ee dbbb 5d98 473d ac44 003c ae17 b0bd
000001c0: 416e 383d 06c1 04bd da34 123d aabd 293d
000001d0: 4800 0a3d 27f7 253b e219 623d 5420 ce3c
000001e0: 5f31 9a3b 90a8 1a3d dadf 8ebd 7977 693d
000001f0: ffe1 05bd d101 a53b 650f 463c 8076 e53c
00000200: befe 2fbd f690 843d abaa 3ebd dd7b 7dbc
00000210: 9c23 25bd 9823 5bbc aa50 56bc 7e97 5f3d
00000220: d954 6fbd c9ed 4abd 4db1 5dbd 3b59 64bc
00000230: 6c19 81bb f035 bf3c 5642 43bd e0b8 84bd
00000240: 84be 6abd 0984 f73c 4a71 263d 0c32 993b
00000250: fb33 a33c 076c 02bd 86cd 4b3c 083e 1b3c
00000260: 044e 84bc fa4d 873d 9c9e 53bd e3a8 82bd
00000270: ad88 383d 5393 783d 9067 a4bd 241e 903d
00000280: fceb 6abd 382e 383c 4049 b63c 70e2 893d
00000290: e9ed bebb e7b0 72bd c5e7 c43c 9b5b b93c
000002a0: f1a0 273d e39e 3cbd 0214 ddbc 22f9 013d
000002b0: a3fc 233d 56b6 7a3b 93e1 adbd e0c8 4b3d
000002c0: 3104 823d 48c4 c23c 3171 34bd 4895 d83c
000002d0: af4c 55bd 5630 b53b 4bde 4d3c 6949 9d3d
000002e0: cfda 8f3d 76f8 a13b 1e4e 993d dd22 20bd
000002f0: ae14 74bd 5821 093d 85f3 d7bc 66dc 3dbd
00000300: 46ca a9bb 3524 523c 5f45 12bc 06e8 97bb
00000310: 0385 043b 7f91 26bd c85f 5e3c 49ed 633c
00000320: 3bbd 8b3d c5c6 cc3b fd8a 753d d75a 8e3d
00000330: 6979 04bd ec05 45bd 6ddf 09bc 2728 38bd
00000340: de87 30bd 5ad1 1b3c 8179 22bd 8970 b7bb
00000350: 1e4a f63c 0d3b 593b 99e8 413d 82c3 a4bd
00000360: 0a8c 263d 269a 863d 81be 9c3d 905a 2abd
00000370: 61f7 1a3b 4b73 34bd 1505 253c 5e23 5abd
00000380: c2e0 55bd 8013 8b3c a217 acbc b264 84bd
00000390: e1da 20bd 74b0 76bc 9159 0fbd ee60 1d3c
000003a0: 4406 673d 826f 48bd 2f81 843c 5c0e 8ebd
000003b0: bb6d b3bc e833 2a3d d74f 0ebd 6a0f babd
000003c0: f029 3cbd dce4 17ba bae1 82ba 40f3 85bc
000003d0: bea0 6fbc 429e 183d 7b52 183d c765 fa3a
000003e0: 701a 2b3b 973d 22bd d78b 813d 77f8 493d
000003f0: 017b 993d c3cf 323c 143a d8bc 4c3f d4bc
0.040721446 0.026522044 -0.040667027 -0.04567998 0.033512443 -0.04748873 -0.011405865 0.053579822
-0.07595288 0.06097284 0.021423288 0.013087631 -0.06096356 -0.054423302 0.013780281 0.03377093
0.04847124 0.0116286 0.012397092 0.022833265 -0.024724334 0.04659415 -0.06788557 -0.023370983
0.028971627 -0.045316495 0.061818235 0.061909024 0.058774088 0.0572498 0.042662896 -0.018299686
0.060741834 -0.0039778086 -0.0066712615 0.035072125 -0.029738508 0.050281562 -0.07071342 -0.044592544
-0.052371442 0.022653999 0.07084956 0.039584983 -0.039278246 0.06397138 -0.05397402 -0.07217971
-0.057764273 -0.013633812 0.027196823 0.035758138 0.062359877 -0.07145628 -0.0035838366 0.02625822
-0.005307158 -0.018920096 0.04771051 -0.017416056 -0.020248882 -0.00051502796 0.036749966 0.05745573
0.02744023 -0.05209067 -0.02057895 -0.043608192 0.0007472552 -0.06215162 0.025102627 0.0073627518
0.00637562 0.024370193 -0.008860059 0.06693007 0.04931378 -0.029956851 -0.0450922 0.029665595
0.027212309 -0.02667445 -0.08115338 0.0046062954 -0.014258547 0.04025941 -0.056125823 -0.009772851
-0.0022730182 -0.023289016 0.064423814 -0.0425141 -0.05370504 0.025498748 0.03095434 -0.008044106
-0.07381119 0.057572313 -0.028172463 0.045965746 0.058589287 -0.019392334 -0.070158556 0.015863
0.040089503 -0.012779549 -0.026505776 -0.014633375 -0.0067118127 0.04872929 0.007828873 -0.085982665
0.04502702 -0.032410644 0.035694934 0.041440643 0.033691674 0.0025324316 0.055200465 0.0251619
0.0047055925 0.03775841 -0.0697629 0.056998704 -0.03268623 0.005035617 0.012088631 0.028010607
-0.04296755 0.064729616 -0.04654948 -0.015471426 -0.040317163 -0.013375185 -0.013080755 0.054587834
-0.058430526 -0.049543176 -0.054124165 -0.01393729 -0.003939798 0.02334115 -0.047670685 -0.064805746
-0.057310596 0.030214326 0.040635385 0.0046751555 0.019922247 -0.031841304 0.012439137 0.009475239
-0.016150482 0.0660667 -0.051664934 -0.06379869 0.04505222 0.060687374 -0.080275655 0.07036999
-0.05735396 0.011241488 0.022251725 0.06732643 -0.005826701 -0.05925074 0.024036298 0.022626689
0.04092497 -0.046049964 -0.02698708 0.031731732 0.040035855 0.0038255653 -0.084902905 0.049752116
0.06348456 0.023775235 -0.04405326 0.02643837 -0.052075084 0.0055294437 0.012565206 0.076800175
0.07024156 0.004942949 0.07485603 -0.03909575 -0.059590034 0.033479065 -0.026361236 -0.046352766
-0.0051815836 0.012826015 -0.008927672 -0.0046358136 0.0020220883 -0.0406661 0.013572641 0.013911554
0.06823202 0.006249281 0.059947003 0.0695092 -0.03234235 -0.04810135 -0.008415085 -0.044960167
-0.043098323 0.0095103625 -0.039666656 -0.005598132 0.030064639 0.003314677 0.047340963 -0.08045103
0.040660895 0.0657237 0.07653523 -0.041590273 0.0023645984 -0.044055264 0.010072012 -0.053256385
-0.0522163 0.016977072 -0.021007363 -0.064645186 -0.03927124 -0.015056718 -0.034997527 0.009605629
0.05640246 -0.048934467 0.01617488 -0.069363326 -0.02190291 0.041553408 -0.03474411 -0.09084971
-0.045938432 -0.00057942956 -0.0009985485 -0.016351342 -0.014625726 0.0372603 0.037188035 0.0019103818
0.0026108287 -0.039609518 0.063255005 0.04930922 0.07494164 0.010913792 -0.026394881 -0.025909089

weight f4 [300, 200]
00000000: c0ab cebd 6752 69bb 0000 0080 3e41 223e
00000010: 8052 d83d cc78 323d 9f6b 19be 9c94 083e
00000020: d0c6 b8bc 0000 0000 7f7f 903c 501d de3d
00000030: 3210 913c 0000 0080 5040 c83c d38a 113e
00000040: 7e1e 38be fc5b 5abd d3ca e2bd 0000 0000
00000050: a93a d0bd 0000 0000 78d0 103d 40b0 683d
00000060: 1c06 e33d ab5c 993d 43ef 5c3d 4c00 e93c
00000070: 18ef 253e 0000 0000 2acf 713d a363 dd3c
00000080: 65eb 1dbd 0000 0000 27d6 20bd 24bf 45bc
00000090: f8db 073e 0000 0000 5ee4 b8bc fd48 eb3c
000000a0: d340 733c a0ad 003d bc63 f53d 76f7 88bd
000000b0: 8844 81bd 4940 bf3d 8c79 7f3c 874e efbd
000000c0: 9493 20bc c0f3 073e c840 cb3c 9f7a 24bc
000000d0: 391f 9dbc d007 ac3c 0000 0000 ee05 b8bc
000000e0: 64e7 ac3d 24a0 d33d 85c5 35be 4bfc 1bbe
000000f0: 61e5 07bd 0000 0000 a296 8ebd 8d5f 2d3d
00000100: 5838 0a3e 8969 c6bd 5a92 3cbe 8866 db3d
00000110: 7b27 a63d 0000 0080 b233 a63d 2606 90bd
00000120: aab1 82bd 9d5a 07be 526a 763c bf59 98bd
00000130: 41a5 f8bd b84a abbd fb6d e13d 24f8 513d
00000140: 5e53 bcbc adbb 0e3d fca0 473d 7e41 073d
00000150: ebbb 813c 69bc 833d 5e63 a0bd 299d 783d
00000160: 6339 10bd ac88 c5bd 5bbc 1a3d 884c 333d
00000170: 6737 1dbd ae0e bbbd b404 47bd 943e 9d3d
00000180: 9567 d1bc 0c59 b7bd 28ef 983c a3c6 253e
00000190: 4d11 3d3d 7687 db3c 39a3 cc3d ca55 213d
000001a0: ea23 4a3e 4910 ecbc a847 83bd 7f9f 993d
000001b0: 6ad0 e0bd 524f 823b db62 d4bd 30c4 d5bb
000001c0: 762f a3bd 1d50 04be ab9d 14be 1437 4a3c
000001d0: 360c cabc c805 1d3d 4541 abbd 5d52 153d
000001e0: 0a38 5e3d 0000 0080 0a7b 0abe 20b2 4d3d
000001f0: 0000 0000 8d57 36bc 2ed6 b03c 559b bb3d
00000200: 0688 14bd 6722 903b 00f8 ce3d 3134 273d
00000210: e57d 03be 3f14 55bc 18f4 af3d a85f 5e3c
00000220: e6e2 153d 6587 afbc 7847 6e3b 1b76 1f3d
00000230: 640d 57bc dd0a b6bc 8748 3c3e 4ea0 b9ba
00000240: 8a86 89bd 429c 3ebc af5b 063d e465 623d
00000250: 9594 95bd 3927 fd3d 4ed4 d93c dbfa 2bbe
00000260: 9249 03bd 1976 80bd bd94 5e3d ef7c 973d
00000270: 115d 57bc c729 393c 76b3 b0bb bdc6 02bd
00000280: 7b94 2fbd d44c 513c ee94 8abd 2134 25bc
00000290: bae9 ce3c 8001 e53c c398 e93c 8e19 223e
000002a0: 0000 0080 0000 0080 5466 01bd d8a3 a43c
000002b0: d109 6b3d ca75 4bbd 8351 e43d 7822 bb3c
000002c0: 3428 f1bd 11b3 aa3b d3c9 31bd c6c1 6dbb
000002d0: aeb1 c03d 74b0 eebd 3c5b 71bd fe3c 283d
000002e0: 8905 3d3c 557a a93d d668 42bd c422 9c3d
000002f0: c9bc b3bd 164f 923d c503 4abc bc40 893c
00000300: ac6e a03b 56c6 78bd f81b dfbc 769f 503b
00000310: 0000 0080 0000 0080 07ac 8c3d 4476 a63d
00000320: a31c 163e ee69 a13d 5f6f 03bd 4697 0abe
00000330: a212 703d 0991 c7bd 99c5 dcbb c735 9cbd
00000340: 51ac 613d 4c10 e53b 8bc9 4dbd 138a 623d
00000350: d28a 69bc 774a 30bd bf31 b93c e710 083e
00000360: be03 203e cc85 393d e45f 97bd 0000 0080
00000370: 9443 263c b2f4 c63d 2a59 8fbc 667f 483d
00000380: dc11 843d f0b1 5dbc 0000 0080 398a 37bc
00000390: f9cb 1abe 148b 073d ac8e ffbc ba4f c6bb
000003a0: 2fcf af3c 287c c43d 1c28 bc3c d9c7 f83d
000003b0: 82ab 26bc 933c 6bbd b60b 86bd f52e 503d
000003c0: efe1 09bd a9da ea3d 5f60 a63d 1ff6 8d3d
000003d0: 1190 47bd bad8 643c 259a 473d b7ed eb3d
000003e0: 7a6e 9e3d 133b 1cbe bbf7 a23d 58bd bd3d
000003f0: 742c 4a3c 0000 0000 f436 083d 2c05 a0bc
-0.100913525 -0.0035602094 -0.0 0.158452 0.105626106 0.043572232 -0.1498246 0.1333794
-0.022555739 0.0 0.01763892 0.10845435 0.017707918 -0.0 0.02444473 0.14213113
-0.17980382 -0.05331038 -0.11073842 0.0 -0.101674385 0.0 0.03535506 0.05680871
0.1108515 0.07488378 0.053939115 0.028442524 0.16204488 0.0 0.059035458 0.02702505
-0.038554568 0.0 -0.03926673 -0.012069497 0.13267505 0.0 -0.022569831 0.028721327
0.014846998 0.03141558 0.119819134 -0.066878244 -0.063118994 0.09338433 0.015592944 -0.116849
-0.00980081 0.13276577 0.024811164 -0.010039001 -0.019179927 0.020999819 0.0 -0.022463765
0.08442572 0.10333279 -0.17751129 -0.15232961 -0.033177737 0.0 -0.06962325 0.042327452
0.13498056 -0.09688098 -0.18415204 0.10712916 0.08112999 -0.0 0.08115329 -0.07032423
-0.06381543 -0.1321816 0.015039997 -0.07438993 -0.12140895 -0.08363861 0.11007305 0.051262036
-0.022988971 0.03484695 0.04873751 0.033021443 0.015836677 0.06432421 -0.07831453 0.060696755
-0.03521098 -0.09645209 0.037777286 0.043774158 -0.038382914 -0.09133659 -0.04858847 0.076779515
-0.025562087 -0.08952531 0.018668726 0.16189055 0.046159077 0.026797991 0.0999207 0.039388455
0.19740263 -0.02881636 -0.06410152 0.075011246 -0.10977252 0.003976741 -0.10370418 -0.0065236315
-0.07968037 -0.12921186 -0.1451327 0.012342233 -0.024664026 0.03833559 -0.083620586 0.0364555
0.05425266 -0.0 -0.13523498 0.0502187 0.0 -0.011129272 0.021586504 0.091604866
-0.036262535 0.0043986323 0.10105896 0.040821258 -0.12840994 -0.013005315 0.08591479 0.013572611
0.03659334 -0.021426866 0.0036358517 0.038930994 -0.013125751 -0.022221977 0.18387042 -0.0014162154
-0.067151144 -0.011633934 0.03280228 0.05527295 -0.073037304 0.12360997 0.026590493 -0.16794913
-0.032052584 -0.06272525 0.054341067 0.07396876 -0.013144747 0.011301464 -0.005392487 -0.031927813
-0.04286621 0.012774665 -0.06766687 -0.010083229 0.025257934 0.027954817 0.028515225 0.15830061
-0.0 -0.0 -0.03159173 0.020097658 0.05738241 -0.04967288 0.111483596 0.022843584
-0.11775246 0.0052093347 -0.043405365 -0.0036278828 0.0940889 -0.116547495 -0.0589249 0.04107379
0.011536964 0.08275286 -0.04746326 0.076238185 -0.08776242 0.07143991 -0.01233 0.0167545
0.0048960056 -0.060736023 -0.027235016 0.0031833327 -0.0 -0.0 0.06868749 0.08128026
0.14659362 0.078815326 -0.032088634 -0.13534269 0.05861152 -0.0974446 -0.0067374227 -0.07627445
0.055095974 0.006990468 -0.050241034 0.05530746 -0.014254289 -0.043039765 0.022606729 0.13287698
0.15626428 0.045293614 -0.073913366 -0.0 0.010147948 0.09714641 -0.017498571 0.04894962
0.06448719 -0.013531193 -0.0 -0.011202388 -0.15116872 0.03309162 -0.031195961 -0.0060519846
0.021461098 0.095939934 0.022968344 0.12147493 -0.010172727 -0.057430815 -0.065452024 0.05082603
-0.033662733 0.11467487 0.0812385 0.069317095 -0.048721377 0.013967687 0.048730988 0.1151995
0.077359155 -0.1525691 0.07957407 0.0926463 0.0123397 0.0 0.033255532 -0.019533716

weight f4 [2, 300]
00000000: 0049 1c3e 5766 23be 706c 0e3e bc10 3bbd
00000010: 92fe 663c 6693 343e 70d8 cbbc c9d8 e73c
00000020: 277a 1fbe c6cb 2f3e c4ee 08be b8cd f93d
00000030: f680 07be 8d54 0ebe a18a 143e d4e2 cc3b
00000040: 01d9 88bd 7f9b 1b3e b96b 233b 0d9d 99bd
00000050: e79f 083e 4a65 243e 56f4 45bd 3e92 63bc
00000060: d668 df3c 8277 1e3e 074a 4dbd ba45 bf3d
00000070: 763a 1f3e 80e3 d73d 8d4e eb3d 2bc8 133e
00000080: 796a 9ebd 59c8 ef3d 8139 0cbe f78f 3dbe
00000090: 039f c03d b65b 1e3e 5c96 cb3b ee9f 0cbd
000000a0: df3c 7cbd 97ff 073e e4af b03d 403c 83bd
000000b0: e966 3d3d 8228 f7bd fd0b 2c3d bd3a 3abd
000000c0: f34e f3ba 024d bc3c 6e74 13bc 9797 fe3d
000000d0: 0705 313d 3e1a 813c 7491 c53d ed72 17be
000000e0: 0125 b1bd 2f1a 973d d4dd 01bd 73af 383d
000000f0: 48a1 283e a816 a63b 966b 973d e132 f7bd
00000100: 8881 863d d37c b6bb 8a5f 383b 42f9 513d
00000110: 7d4d 36bd 3452 e03c 674b 2e3c 3993 cb3d
00000120: fd4b fdbd f67e b63d ddb1 d4bd 870e 023e
00000130: 10fb d9bd 60d1 04bd 28b8 efbd 0e38 2dbe
00000140: 1ce7 ecbc d752 1d3e fa32 01be 2070 bd3d
00000150: ecb6 a7bd 919d 81bd cbca cf3d 8f92 40bd
00000160: e67d e93d 0f6f 38bd 6ebf d5bd 3ffa eabc
00000170: 4f30 9cbd 0a14 653b 429e bebc 4e6c 3fbc
00000180: ce08 16bc 85ff 66bd 2cf9 b6bd 2f49 1fbd
00000190: 5cec aa3d 0564 1b3e 641e 00be c324 1a3e
000001a0: 5bda f43c 2378 23bd 8ea9 3dbd 3c3b 48be
000001b0: 35e3 28be 8759 b63d 50b6 b4bc 613d 1d3e
000001c0: 7ff9 e7bc 8b17 0c3e 03a0 a8bd b652 9d3d
000001d0: de36 ef3d a822 49be e233 ad3d ad16 03be
000001e0: 7136 1a3e d727 753d 428d 233e 2815 94bd
000001f0: 1fdf 15be 61c8 0bbe a332 49bd daaa a7bd
00000200: 2bfc dfbd ff81 55bd 834a 20be 98e1 613d
00000210: f327 33be f143 17bd 2cf7 3abd c535 39bd
00000220: 9f4e 29be 99da 883d 607f 073e 81bc 0f3e
00000230: ae4a 983c 5dfb bdbd be6b 1c3e 6ccf 39bd
00000240: bb32 5e3c b126 53bd 1946 46bd 43db ab3c
00000250: 243c 4a3d 5138 25be fd1d 423d a2a3 533d
00000260: a3dd 2ebe c98e b63d 6305 22be 6ad7 c83c
00000270: 210c 58be d672 063e 7c40 163e b8d5 c5bd
00000280: 7f49 3d3d 1829 0cbe e1c3 8dbd 7fa6 9f3d
00000290: 586c 0bbe 6a32 a8bd 4f85 163e ab58 81bc
000002a0: 965b 90bd e8a9 b2bd f96f 65bd 345c 0f3e
000002b0: 1cad ff3d 666d ab3d 86f9 813d d101 953d
000002c0: b09a e2bd 6999 c23d 0db2 e6bd ba2a 493e
000002d0: 888d 263e 82f4 a33c 7301 c0bd f9bf 2bbe
000002e0: c35d d4bd 9dab 2dbd 5087 db3d 34f8 f13d
000002f0: 75d6 e4bd a155 ae3d b7f5 933c e5cf 34be
00000300: 5511 febd 2293 133d 9d5f 94bd a428 0fbd
00000310: 45e9 293e 0b54 f2bc 095d a13d c1c7 14be
00000320: a1e9 c7bd 6421 1abd 74f3 273e b667 673d
00000330: 3700 0ebe 0d42 aebc 8754 e43c 1009 3cbe
00000340: d411 2ebe a84b 883d 96fa eebd dd9f 483d
00000350: 487f 5a3c 72cd 5cbd 2150 a83d 9b1c 2c3e
00000360: f982 023d 480e 053a d6f6 a7bd a245 a23d
00000370: bb43 363d 549b e83d b374 143d 2613 373d
00000380: 56a3 253c c120 0abe db83 0f3e 38db 293d
00000390: 5f7b cdbd cf7e 71bc 1f28 663d b66b 00bd
000003a0: 0cd1 f13d 7268 62bd d293 aebd acec 0e3e
000003b0: 8c22 42bd fbda 313d 6963 cabc b7e4 ca3d
000003c0: 9149 8d3d 1904 b73d c91d ddbd f515 923d
000003d0: 7d66 053e d471 d63d 4d23 ecbd 3ef3 323d
000003e0: f56d a9bb 4d48 0fbc c487 96bd 2cb1 bcbd
000003f0: ced6 c8bd 0a61 c73c cd83 b7bd 42e6 04bd
0.15262222 -0.15957008 0.13908553 -0.045670256 0.01409878 0.17634353 -0.024883479 0.028301613
-0.15573941 0.17167577 -0.13372332 0.12197441 -0.13232788 -0.13899441 0.14506008 0.006252626
-0.06682015 0.15196036 0.0024936034 -0.07500658 0.13342248 0.16054264 -0.04832872 -0.013889847
0.02727167 0.15475276 -0.050119426 0.09339471 0.15549645 0.10541439 0.11489592 0.14431827
-0.07735152 0.11708135 -0.13693811 -0.1851195 0.09405329 0.15464672 0.0062129926 -0.03433221
-0.06158149 0.13281094 0.086272985 -0.06407976 0.04624072 -0.12068273 0.04200362 -0.045466173
-0.0018562957 0.022985939 -0.008999927 0.12431257 0.043217685 0.015759584 0.096468836 -0.14789934
-0.08649636 0.07378041 -0.031705692 0.045089196 0.16467774 0.005068619 0.07393567 -0.12070251
0.06567675 -0.0055690794 0.0028133118 0.0512631 -0.044507492 0.027382948 0.0106380945 0.0994019
-0.12368009 0.089109346 -0.10385487 0.12700854 -0.106435895 -0.032426238 -0.11705047 -0.16915914
-0.028918795 0.15363632 -0.12617102 0.09249902 -0.081891865 -0.063288815 0.101461016 -0.04701477
0.11400966 -0.04502779 -0.10436903 -0.02868378 -0.07626402 0.0034954571 -0.023268823 -0.011683537
-0.009157373 -0.056396026 -0.089342445 -0.038888153 0.08345863 0.15174873 -0.12511593 0.15053086
0.029889276 -0.039909493 -0.046304278 -0.19553846 -0.16492923 0.08903795 -0.02205959 0.15355445
-0.028317211 0.13680856 -0.08233645 0.076817915 0.11680387 -0.19642127 0.084571615 -0.12801619
0.1505983 0.059852447 0.15971854 -0.07230598 -0.14635895 -0.13650657 -0.049120557 -0.08186884
-0.10936769 -0.052125927 -0.15653424 0.055146784 -0.17495708 -0.03693003 -0.045645878 -0.045217294
-0.16533898 0.06682319 0.13232183 0.14036752 0.018590298 -0.09276459 0.15275475 -0.04536383
0.0135619 -0.05155057 -0.048406694 0.020978576 0.04937376 -0.16134764 0.04739188 0.051669724
-0.17076735 0.08913953 -0.15822367 0.02451678 -0.21098377 0.13129744 0.14673036 -0.09659904
0.04621267 -0.13687551 -0.069221266 0.077954285 -0.13615549 -0.08212741 0.1469929 -0.01578935
-0.07048719 -0.08723813 -0.05601499 0.14000016 0.1248419 0.083704755 0.06346421 0.07275737
-0.110646605 0.09501917 -0.11264429 0.19645205 0.16264927 0.020014051 -0.093752764 -0.1677245
-0.10369446 -0.04239999 0.10719168 0.11814919 -0.11173717 0.08512426 0.018061502 -0.1765743
-0.124056496 0.03602899 -0.07244799 -0.034950867 0.16592892 -0.02958109 0.07879073 -0.14529325
-0.09761358 -0.0376295 0.16401464 0.05649539 -0.1386727 -0.02127173 0.027872337 -0.18362832
-0.16998988 0.06655055 -0.11668889 0.048980583 0.01333601 -0.053906865 0.082184084 0.16807787
0.031863187 0.00050756754 -0.08201377 0.07923438 0.044498187 0.113577515 0.036244106 0.044695996
0.010109743 -0.13489057 0.14015143 0.04146883 -0.10033297 -0.014739706 0.056190606 -0.03135272
0.11807451 -0.055275388 -0.08524288 0.1395747 -0.047396228 0.043421727 -0.024705606 0.09906905
0.06898797 0.089363284 -0.10796697 0.07133094 0.13027377 0.1047093 -0.115301706 0.043689005
-0.0051705786 -0.008745265 -0.07350114 -0.0921348 -0.09806596 0.024338264 -0.08960686 -0.032446153

bias f4 [2]
00000000: 9452 153c cd05 21bc
0.009113926 -0.009828043
