figures/Illu_large_partial_3/theta=0.1_s=0.95_step=100/best_model.pth (torch, 247654 bytes, 5 tensors)

weight f4 [200, 1]
0	0xc003e6d2	-2.0609632
1	0xbfdd545e	-1.7291372
2	0xbf4575b6	-0.7713274
3	0xbffbb1ed	-1.9663674
4	0xbf32f54f	-0.6990556
5	0xc004c0fe	-2.0742793
6	0x3f80dac3	1.0066761
7	0x3f906f26	1.128392
8	0x3f0b124e	0.54324806
9	0x3fe14180	1.7598114
10	0xbdb3ee04	-0.08785632
11	0x3f9f8129	1.2461292
12	0xbfbb505f	-1.4633902
13	0xbe77dcb4	-0.24205285
14	0xbff80ffb	-1.9379877
15	0xbd95a99f	-0.07307743
16	0xbf08882c	-0.5333278
17	0x40030f0b	2.0477931
18	0x3f51b1e0	0.8191204
19	0x3fc7ea78	1.5618429
20	0x3f2338b5	0.63758403
21	0xbf9c823b	-1.2227243
22	0x401719eb	2.360957
23	0xbfff5c10	-1.994997
24	0xbfa76a6a	-1.307935
25	0xbf48928e	-0.78348625
26	0xbf399c41	-0.7250405
27	0x3eba3705	0.36370102
28	0xbfb8e120	-1.4443703
29	0xbfd8e0dd	-1.6943623
30	0xbf425366	-0.75908506
31	0x3f52fa5c	0.8241327
32	0xbfc68b67	-1.5511292
33	0xbfeee8b2	-1.8664763
34	0xc0021449	-2.032488
35	0xbf52fead	-0.82419854
36	0xbf0131b9	-0.50466496
37	0xbf8fa899	-1.1223327
38	0xbf099573	-0.53743666
39	0xbf3e43a9	-0.7432199
40	0x3dd73f63	0.10510137
41	0xbf325e43	-0.6967508
42	0xbf4e146e	-0.80499923
43	0xbfc4be67	-1.5370606
44	0x3f4b1f03	0.79344195
45	0xbf395975	-0.72402126
46	0xbfb924a5	-1.4464308
47	0xbf22299d	-0.63344747
48	0xbdb6ef72	-0.08932389
49	0x40148918	2.3208675
50	0x3f3bffd2	0.73437226
51	0xbf47f4de	-0.7810801
52	0xbeddce3c	-0.43321407
53	0x3feb42a8	1.8379717
54	0x3fe4e28b	1.7881635
55	0x3f5f3991	0.87197214
56	0xbf23112d	-0.63698083
57	0x3fdd8179	1.7305137
58	0x3f492d03	0.7858431
59	0xbf4183b8	-0.7559161
60	0x3fd25a61	1.6433831
61	0x3e0307f9	0.1279601
62	0xbfbc7ddb	-1.4725908
63	0xbf37373d	-0.7156866
64	0xbff70735	-1.9299074
65	0xbfe3a274	-1.7783952
66	0x3f47d52b	0.78059644
67	0xbf171f9c	-0.5903261
68	0x3f1b2ae1	0.60612303
69	0x3f2e14df	0.68000597
70	0x3eced3b4	0.40395892
71	0x4000e5ee	2.0140338
72	0xbf566800	-0.8375244
73	0xbcfde2a4	-0.03099186
74	0x3f9ed3d3	1.2408394
75	0x3f52c507	0.8233189
76	0x3e087015	0.13324006
77	0x3fdc984f	1.7233981
78	0x3e3790ec	0.17926377
79	0x3fe413c9	1.7818538
80	0xbffa3a76	-1.9549091
81	0xbf794ccf	-0.97382826
82	0xc0151312	-2.329289
83	0x3eb4bc36	0.35299844
84	0x3fd7925c	1.684154
85	0xbfdff9e8	-1.749814
86	0x3f00dee5	0.5034011
87	0xbfed2ac1	-1.8528672
88	0xbf8d01aa	-1.1016133
89	0xbf381691	-0.71909434
90	0xbf295049	-0.6613813
91	0x3ed605cc	0.41801298
92	0xbfe6cf53	-1.803202
93	0x4017864c	2.3675718
94	0x3eea590e	0.45771068
95	0x3f57342d	0.8406399
96	0xbfbeed3f	-1.4916152
97	0x3f937eaa	1.152303
98	0xbf017ea5	-0.5058387
99	0xbf3b6b83	-0.73210925
100	0x3e97100f	0.2950444
101	0x3f39933b	0.7249028
102	0x3ecc17d3	0.39861926
103	0xbef78056	-0.483401
104	0x3de827a6	0.11335687
105	0xbf32c107	-0.69825786
106	0xbf1799bf	-0.5921897
107	0xbf2a54b8	-0.6653552
108	0x3fa95e55	1.3231913
109	0xbfcd5b41	-1.6043473
110	0x3ef181f2	0.47169453
111	0x3f75c919	0.96009976
112	0xbf60d76e	-0.8782872
113	0xbf3e941a	-0.74444735
114	0xbfc03506	-1.5016181
115	0xc00c2b28	-2.190134
116	0x400a9be7	2.1657655
117	0x3fede4a3	1.8585399
118	0xbecea14c	-0.40357435
119	0x4000720e	2.0069613
120	0x3f08d411	0.5344859
121	0xc016c366	-2.3556762
122	0xbffcd9e0	-1.975399
123	0xbf698287	-0.91214794
124	0xbffde1fd	-1.9834591
125	0xbf6a6e32	-0.91574395
126	0x3e36cda7	0.17851888
127	0xbefe098b	-0.49616656
128	0xbe99ac97	-0.30014488
129	0x3d040e67	0.032240298
130	0x400b9ec7	2.181566
131	0xbed8a2eb	-0.42311797
132	0x3f85ad08	1.044343
133	0xbec34455	-0.3813807
134	0xbfd837d0	-1.6892033
135	0x3ebcd192	0.3687864
136	0x3f69acf7	0.9127955
137	0x3f867190	1.0503407
138	0xbffa1d3a	-1.9540169
139	0xbf22cc4e	-0.63592994
140	0xc001243e	-2.017837
141	0x3c425559	0.011861169
142	0x3e249332	0.16071776
143	0x3f10fcff	0.5663604
144	0xbed462c3	-0.414816
145	0xbe0b497c	-0.13602251
146	0x3f3d80bd	0.74024564
147	0xc014483c	-2.3169088
148	0x3f55295c	0.83266234
149	0x40126384	2.287324
150	0xbfefedf1	-1.8744489
151	0x4008bead	2.136638
152	0x3ed69017	0.41906807
153	0x40063531	2.0969965
154	0x3ff92ac5	1.9466177
155	0xbfae3189	-1.3608867
156	0x3ff41347	1.9068383
157	0xbc94e39b	-0.018174937
158	0x3f3c3208	0.7351384
159	0xbf45d7c1	-0.7728234
160	0xbfe6177d	-1.7975918
161	0x3ecef4ae	0.4042105
162	0x3f2de4e8	0.6792741
163	0x3f307796	0.68932474
164	0xbfe4c0c0	-1.7871323
165	0xc0027011	-2.03809
166	0x3f46092e	0.7735776
167	0xbe03987c	-0.12851137
168	0x3e05fe43	0.13085274
169	0xbf2ca14f	-0.6743364
170	0x3c855c9c	0.016279511
171	0x3e4c5cbe	0.19957253
172	0xbfbe2651	-1.4855443
173	0x3ef70b84	0.48250973
174	0x3e2f4c51	0.17118956
175	0x3f360ca1	0.7111302
176	0xbf81b26a	-1.0132573
177	0x3fdfa546	1.7472312
178	0x3faa4892	1.3303397
179	0xbfc818e3	-1.5632595
180	0x4001755c	2.022788
181	0x3f041e2a	0.51608527
182	0x3fe9bef4	1.8261399
183	0x3ff82719	1.9386932
184	0x3df5e178	0.120058954
185	0x3e64a1d3	0.22327356
186	0x3f04ed3e	0.519245
187	0x3fbf26dd	1.4933735
188	0xbfff0db3	-1.9926056
189	0x3c1c0c69	0.009524443
190	0x3ff04edb	1.8774065
191	0xbf0ce953	-0.55043525
192	0xbf27227a	-0.6528698
193	0x3da1e92c	0.07905802
194	0x3f3b9bef	0.7328481
195	0x3f45ba21	0.77237135
196	0x3c1489e5	0.00906608
197	0x3f45474d	0.7706192
198	0xbf52764f	-0.82211775
199	0x4007f4cf	2.124317

bias f4 [200]
0	0xbf9f537e	-1.2447355
1	0x3f83c467	1.0294312
2	0x3f3af624	0.7303183
3	0x3fa2b542	1.2711565
4	0x3f746384	0.9546435
5	0xbf89b582	-1.0758517
6	0x3f47682b	0.7789332
7	0xbf717073	-0.9431221
8	0x3f36d6b7	0.7142138
9	0xbf857ca4	-1.0428662
10	0xbf33462f	-0.70028967
11	0xbf43d26d	-0.7649296
12	0x3f85f0df	1.0464133
13	0x3e88e36e	0.26736015
14	0xbf954d4c	-1.1664214
15	0xbf473e1a	-0.77829134
16	0x3df34961	0.1187923
17	0xbf67d22e	-0.90555084
18	0x3ea0f9ec	0.31440675
19	0x3f611a48	0.87930727
20	0xbf41f7be	-0.7576865
21	0xbf735177	-0.9504618
22	0x3f8cff55	1.1015421
23	0x3f9fab64	1.2474179
24	0x3f324ac8	0.6964536
25	0xbd770c46	-0.06031444
26	0xbe9c7b71	-0.30562928
27	0x3e9940cb	0.29932246
28	0x3f544f83	0.82933825
29	0xbf8bb629	-1.0914966
30	0xbec09448	-0.3761313
31	0x3f682bb8	0.9069171
32	0x3f7fb3cb	0.9988372
33	0x3f9b5240	1.2134476
34	0x3f931ba6	1.1492813
35	0x3f8275fc	1.0192256
36	0xbf7fe917	-0.9996504
37	0x3e4b1b26	0.19834575
38	0x3e479eb0	0.19494128
39	0x3f4989d4	0.78725934
40	0x3e2da865	0.16958769
41	0x3f34ba15	0.7059644
42	0xbf9895db	-1.1920732
43	0xbea831e7	-0.32850572
44	0x3ee1b0ba	0.44080144
45	0x3f4abfd5	0.7919896
46	0x3ee4e56d	0.44706288
47	0x3f38a1b6	0.7212175
48	0xbea089f2	-0.31355244
49	0xbf956500	-1.1671448
50	0x3f8a21a8	1.0791521
51	0x3f5d14fd	0.8636015
52	0x3f253a9c	0.64542556
53	0xbf98b90e	-1.1931474
54	0xbed81caf	-0.42209384
55	0xbfaaf2df	-1.3355368
56	0x3f7ceff6	0.9880365
57	0x3f90b1a6	1.1304214
58	0x3f3baf97	0.73314804
59	0xbf449404	-0.76788354
60	0xbf70f457	-0.94122833
61	0xbf2fe70d	-0.6871193
62	0x3f155102	0.58326733
63	0x3f766748	0.96251345
64	0xbf39057d	-0.72274
65	0xbf97c80d	-1.1857926
66	0xbeb5a512	-0.354775
67	0x3e17caf7	0.14823519
68	0x3da521e3	0.08063104
69	0x3f263774	0.64928365
70	0x3e99e123	0.30054578
71	0xbf7cfdc9	-0.98824745
72	0xbf620a11	-0.8829661
73	0xbd897438	-0.0671162
74	0xbf139f01	-0.57664496
75	0xbf9464b9	-1.1593238
76	0xbf16e1c1	-0.58938223
77	0xbf982915	-1.1887537
78	0x3ca66993	0.020314014
79	0xbf57f315	-0.8435529
80	0xbf96ee30	-1.1791439
81	0x3e431341	0.19050314
82	0xbf7dc830	-0.99133587
83	0xbf3b3e53	-0.73141974
84	0x3f4e1f08	0.805161
85	0xbf9fc45f	-1.2481803
86	0xbdf968cc	-0.121781915
87	0x3f9c4f68	1.2211733
88	0x3f6fcb13	0.9366924
89	0x3f2e36ba	0.68052256
90	0xbed1681e	-0.40899748
91	0x3e71d221	0.23615314
92	0xbf91b497	-1.1383237
93	0xbf67520f	-0.90359586
94	0x3f5ce2ee	0.8628377
95	0xbf70e01e	-0.94091976
96	0xbf86905e	-1.0512807
97	0x3f51ac06	0.8190311
98	0x3ee7d468	0.4527924
99	0x3f5b8886	0.85755193
100	0xbeb9c1cd	-0.3628067
101	0xbf0eaf6f	-0.5573644
102	0xbe6f7c0d	-0.23387165
103	0xbeb82a54	-0.35969794
104	0x3d9afe2b	0.0756801
105	0xbeba8949	-0.36432865
106	0xbeb5ee8a	-0.35533553
107	0xbf4aea29	-0.7926355
108	0xbf1ee74e	-0.6207169
109	0xbf79cdcd	-0.9757965
110	0x3d65ae9b	0.05607472
111	0x3f393f7b	0.7236249
112	0x3f217cd9	0.6308113
113	0x3e692e22	0.22771505
114	0xbf7bd208	-0.9836736
115	0xbf88d88c	-1.0691085
116	0xbf629bbc	-0.8851888
117	0x3f9adbde	1.2098348
118	0x3e3a020d	0.18164845
119	0x3f9cba2f	1.2244319
120	0x3f5b6b0b	0.8571021
121	0xbf89fa82	-1.0779574
122	0xbfa0f156	-1.257365
123	0xbf696fe8	-0.9118638
124	0x3fa52267	1.2901124
125	0xbf04d039	-0.5188022
126	0x3caeec3c	0.02135288
127	0x3ec9471f	0.39312074
128	0xbd9e8bc2	-0.077415004
129	0xbf741782	-0.9534837
130	0xbf7b9534	-0.9827454
131	0x3e68cc9d	0.22734304
132	0xbf093dae	-0.5360974
133	0x3dc93808	0.0982514
134	0x3f10f1f5	0.566192
135	0x3ec68571	0.38773683
136	0xbf0e66ee	-0.5562581
137	0x3f6889c8	0.9083524
138	0x3fa5add5	1.2943674
139	0x3f2f1cce	0.6840333
140	0xbf9f39b4	-1.2439485
141	0xbf1ae9dd	-0.605131
142	0xb90c0b76	-0.0001335571
143	0xbf123abc	-0.5712087
144	0xbda12cb9	-0.07869858
145	0xbf011c6f	-0.5043401
146	0xbf335715	-0.7005475
147	0x3f8e2b3f	1.1106948
148	0xbf634f5f	-0.88792986
149	0x3f981151	1.1880285
150	0xbf12ce6a	-0.5734621
151	0xbf982a08	-1.1887827
152	0xbf11c3d7	-0.5693945
153	0xbfa19b9e	-1.2625616
154	0x3f9d43d4	1.2286325
155	0xbe0f54da	-0.13997212
156	0xbf5da689	-0.8658224
157	0xbe2cfe3e	-0.1689386
158	0xbf838267	-1.0274171
159	0xbf89ea2c	-1.0774589
160	0xbf97d112	-1.1860678
161	0xbe935fbb	-0.28783974
162	0xbf2caabd	-0.67448026
163	0x3ef3ec1a	0.4764107
164	0x3f8f8aea	1.1214268
165	0xbf9ae9c2	-1.2102587
166	0x3f51dd25	0.81978065
167	0xbe907b50	-0.2821908
168	0xbece18b2	-0.40253216
169	0x3f8482a5	1.035237
170	0xbf2ece86	-0.6828388
171	0x3e5f1ff0	0.21789527
172	0x3eed4316	0.46340245
173	0x3eab7eab	0.33495077
174	0xbf0bf4a5	-0.5467017
175	0x3f7cba8a	0.98722136
176	0xbf4e0227	-0.80472034
177	0xbf5c0c03	-0.8595583
178	0x3f7e9aa8	0.99454737
179	0xbf2b5025	-0.66919166
180	0xbf9577b8	-1.167716
181	0xbf7785a9	-0.96688324
182	0xbf9c1e81	-1.2196809
183	0xbf9a244a	-1.2042325
184	0xbea5088b	-0.3223308
185	0xbf2d9e17	-0.6781935
186	0x3eeb06da	0.45903665
187	0xbf2c15f3	-0.6722099
188	0xbf93d485	-1.1549231
189	0xbf26e419	-0.651918
190	0x3f9d90ae	1.2309778
191	0xbc22f133	-0.009945202
192	0x3e77a788	0.24185002
193	0x3e165215	0.1467975
194	0x3f80fb20	1.0076637
195	0xbed55c32	-0.41671902
196	0xbe98dd38	-0.29856277
197	0xbf2b7124	-0.66969514
198	0xbf7899a0	-0.97109413
199	0xbf815f16	-1.0107143

bias f4 [300]
0	0xbd817ac4	-0.06322244
1	0xbc8f7b2a	-0.017514784
2	0x3d809cfe	0.06279944
3	0xbcfb9227	-0.03070934
4	0x3ceda57b	0.029009571
5	0x3d898d35	0.06716386
6	0xb9d158be	-0.00039929705
7	0x3cc47291	0.02398041
8	0xbd4da7c9	-0.05020884
9	0x3d490aec	0.04908268
10	0x3d7fb874	0.062431768
11	0x3d86fdc3	0.0659137
12	0x3ca0fc20	0.019651473
13	0xbcfd28b1	-0.030903192
14	0xbd212e0b	-0.03935055
15	0x3d56c9b6	0.05243846
16	0x3b5f1657	0.0034040415
17	0x3d117e8f	0.035521086
18	0x3d32ea02	0.0436802
19	0xbcc782d3	-0.024354374
20	0x3cc3ba19	0.02389245
21	0x3ce59cd7	0.028028889
22	0xbd1f536f	-0.038897928
23	0xbd7342ad	-0.05938976
24	0xbcb8d618	-0.022563025
25	0xbd431605	-0.04762842
26	0xbd1f6d96	-0.03892287
27	0xbb1728df	-0.0023065133
28	0xbb304d43	-0.002690152
29	0x3d7a2872	0.061073728
30	0xbc0a4cf9	-0.008441203
31	0x3bd44fbd	0.006479232
32	0xbae09a6e	-0.0017135867
33	0xbd6a380d	-0.05718236
34	0x3ce0d1bc	0.02744376
35	0x3d867485	0.06565193
36	0x3d666129	0.056245003
37	0xbd659de3	-0.056058776
38	0xbbbfa683	-0.005848707
39	0xbce46de9	-0.02788444
40	0x3d3a4b3e	0.045481913
41	0xbd656446	-0.05600383
42	0xbd3377e3	-0.043815505
43	0x3d452cce	0.048138432
44	0xbab9bd8c	-0.0014170869
45	0xbd10a803	-0.03531648
46	0xbc5a089a	-0.013307715
47	0x3d0f2122	0.034943707
48	0x3b9e1541	0.004824311
49	0xbd80270c	-0.062574476
50	0xbac11489	-0.0014730851
51	0xbd8975fd	-0.067119576
52	0x3d755b46	0.0599015
53	0x3cac66dc	0.02104514
54	0x3d3e5f9b	0.046477895
55	0xbd812f02	-0.06307794
56	0x3b86681d	0.0041017667
57	0x3c015c32	0.007895516
58	0xbcdf390a	-0.027248878
59	0x3cfd616b	0.030930242
60	0xbd035e8d	-0.032072593
61	0xbd34b0a0	-0.044113755
62	0xbc6ac801	-0.014329911
63	0xbc544931	-0.012956903
64	0xbca80edc	-0.020514898
65	0xbbdb4cc3	-0.0066925003
66	0x3b493bb1	0.0030705745
67	0xbccadb43	-0.024762755
68	0x3d07b9cf	0.033136185
69	0xbab3b55c	-0.0013710666
70	0x3d64b7f1	0.055839483
71	0xbccca988	-0.024983183
72	0x3d3251fb	0.043535214
73	0xbd357e08	-0.044309646
74	0xbd56112e	-0.052262478
75	0x3d67fdb3	0.05663843
76	0x3d59d59a	0.053182222
77	0xbc9c6fa3	-0.019096201
78	0x3cb2b023	0.021812504
79	0x3ba5e023	0.0050621196
80	0x3d2e889c	0.04261075
81	0x3cb965c6	0.022631537
82	0x3d39d426	0.045368336
83	0xbd44e258	-0.04806742
84	0x3c475a27	0.01216749
85	0xbd132a81	-0.035929207
86	0x3a4b3163	0.00077511946
87	0xbce9f4b9	-0.028559076
88	0xbd989447	-0.07450157
89	0x3d53b6b9	0.05168793
90	0x3d2d10df	0.042252418
91	0xbd039c15	-0.032131273
92	0x3d2d1895	0.04225977
93	0xbd3f770c	-0.04674439
94	0xbd1a7f5c	-0.037719116
95	0x3cf6d47d	0.03013062
96	0xbd2f75e7	-0.04283705
97	0x3bfd1a8e	0.007724113
98	0xbd8a2937	-0.06746142
99	0x3cd83acf	0.02639523
100	0xbd3c5326	-0.045977734
101	0xbd82511a	-0.06363125
102	0xbcb16387	-0.021653904
103	0x3af3da02	0.00186044
104	0xbd4cdc93	-0.050015043
105	0xbc0f2bcd	-0.00873847
106	0x3bc0a47d	0.0058789835
107	0xbcbf52a7	-0.023354841
108	0xbcdcf35e	-0.026971515
109	0x3d7b7f37	0.06140062
110	0xbd38ef11	-0.045149866
111	0x3bec6c32	0.0072150463
112	0xbd159d64	-0.036527053
113	0x3d040dc7	0.0322397
114	0xbd1b09fe	-0.037851326
115	0x3c29c97a	0.010362977
116	0xbd0a5ff5	-0.033782918
117	0xbad1a1fb	-0.0015993709
118	0xbd39dfdc	-0.045379505
119	0x3d02cfe8	0.031936556
120	0x3d4c363e	0.049856417
121	0xbd8eddb2	-0.06975879
122	0x3bef94c1	0.007311434
123	0xbd8af89d	-0.067857005
124	0xbc46acf4	-0.012126196
125	0x3d6d14fc	0.05788134
126	0xbd85927b	-0.065220796
127	0x382dbf3a	4.1424508e-05
128	0x3a207b4c	0.00061218883
129	0xbd758dba	-0.059949614
130	0xbd4033fb	-0.046924572
131	0xbd101e56	-0.03518518
132	0xbd8a3357	-0.067480735
133	0x3ccbf044	0.024894841
134	0xbda3987d	-0.07988069
135	0x3cb36e87	0.02190329
136	0x3d73c9f1	0.05951876
137	0x3d3648bb	0.044502955
138	0x3d14f557	0.036366787
139	0x3d27f5b4	0.041005805
140	0xbd7f7b26	-0.062373303
141	0xbcbbc278	-0.022919878
142	0x3c1276b3	0.008939433
143	0xbd81cd52	-0.0633799
144	0xbc1bb15b	-0.009502734
145	0x3be3afba	0.0069484385
146	0xbca62054	-0.020279087
147	0xbb3640d5	-0.002780964
148	0xbca35044	-0.019935735
149	0x3d243eef	0.04009908
150	0xbd14786e	-0.036247663
151	0x3cd8430a	0.026399154
152	0x3d31b6b9	0.04338715
153	0x3cc3b5fb	0.023890486
154	0x3d731131	0.059342567
155	0xb98014b6	-0.00024429493
156	0xbd928b5d	-0.07155488
157	0xbd30dc8e	-0.043179087
158	0xbd744ebd	-0.059645403
159	0x3d79bbda	0.060970165
160	0xbd241248	-0.040056497
161	0x3cc8a52f	0.024492828
162	0xbd73a043	-0.05947901
163	0xbd2de19f	-0.042451497
164	0xbc02fefc	-0.007995363
165	0x3d5af3f8	0.053455323
166	0x3c7b598b	0.015341173
167	0x3d641b61	0.055690173
168	0xbd213d63	-0.039365184
169	0xbc9a51b2	-0.018837783
170	0xbd653441	-0.055958036
171	0xbd6d83d2	-0.05798704
172	0xbd84be85	-0.06481651
173	0x3d65a7ce	0.056068234
174	0xbd8b9a2c	-0.06816515
175	0x3d7b4e65	0.06135406
176	0xbc8478b3	-0.016170835
177	0x3d18fba1	0.037349347
178	0x3b84dd8c	0.0040547308
179	0xbbd1b43d	-0.00639966
180	0xbc314d5c	-0.010821667
181	0xbcf98290	-0.030457765
182	0xbbc1a0a1	-0.005909041
183	0xbd02bc5c	-0.031917915
184	0x3bcded98	0.006284427
185	0xbd2113e7	-0.03932562
186	0xbd14ed1b	-0.036358934
187	0x3d87b817	0.06626909
188	0x3d7342f1	0.059390012
189	0x3c89bc10	0.016813308
190	0xbcec85c3	-0.028872376
191	0x3d4b9bb4	0.049709037
192	0xbd00d368	-0.031451613
193	0x3d8fb4c2	0.07016899
194	0x3ce78d78	0.0282657
195	0xbccc6703	-0.024951464
196	0x3cbd3c16	0.02309994
197	0x3d1d5b8f	0.038417395
198	0xbd18fc4c	-0.037349984
199	0x3bd17d2c	0.0063930955
200	0xbac0cdc1	-0.0014709757
201	0x3d32afb7	0.043624606
202	0x3d53882b	0.05164353
203	0xbd7368eb	-0.05942623
204	0xbd04793d	-0.032342184
205	0x3d653520	0.055958867
206	0x3ca2c8aa	0.019871075
207	0xbcce565c	-0.025187664
208	0x3d0b742d	0.03404634
209	0x3c9144a0	0.017732918
210	0x3d3881b0	0.045045555
211	0xbd493db4	-0.04913111
212	0x3d3b3a5e	0.04570996
213	0x3d80e492	0.06293596
214	0x3c8c2861	0.017109098
215	0xbd8eb6a9	-0.069684334
216	0xbd31d3a0	-0.043414712
217	0x3ad66f5f	0.0016360095
218	0xbd333558	-0.043752044
219	0x3bbb1128	0.0057088323
220	0xba7d95e5	-0.000967352
221	0x3d5ab783	0.053397667
222	0x3d339d36	0.0438511
223	0x3d83e992	0.064410344
224	0x3d387ae0	0.045039058
225	0xbd433201	-0.04765511
226	0xb9150e3e	-0.00014215053
227	0x3ac5a97b	0.0015080416
228	0xbd650f48	-0.055922776
229	0xbcc627a0	-0.024188817
230	0x3cc76f1a	0.02434497
231	0xbd2494c2	-0.04018093
232	0xbd8fec1b	-0.070274554
233	0x3d84df51	0.06487907
234	0x3ca250e8	0.01981397
235	0x3d4ae809	0.049537692
236	0x3c421d47	0.011847801
237	0xbcbbd76b	-0.022929868
238	0x3c7d7f9c	0.015472319
239	0x3d41bd53	0.047299694
240	0xbd682dd2	-0.056684323
241	0xbd395a0e	-0.0452519
242	0x3cd427db	0.02589791
243	0x3cb9cb7e	0.02268004
244	0x3d0de1cc	0.034639165
245	0x3d74d07d	0.059769142
246	0xbc2c3555	-0.010510762
247	0xbd620cc5	-0.05518796
248	0x3d3b3bf3	0.04571147
249	0xbbd8d34e	-0.0066169864
250	0x3d5a4271	0.05328602
251	0x3d6b2cf1	0.057415906
252	0x3c6a006d	0.014282328
253	0xbc3f0ea0	-0.011661202
254	0x3c8e57f1	0.017375918
255	0xbcaa46b5	-0.020785669

weight f4 [300, 200]
0	0x80000000	-0.0
1	0x00000000	0.0
2	0x00000000	0.0
3	0x00000000	0.0
4	0x00000000	0.0
5	0x00000000	0.0
6	0x00000000	0.0
7	0x80000000	-0.0
8	0x00000000	0.0
9	0x80000000	-0.0
10	0x80000000	-0.0
11	0x3dbbcd34	0.09169999
12	0x00000000	0.0
13	0x00000000	0.0
14	0x80000000	-0.0
15	0x80000000	-0.0
16	0x00000000	0.0
17	0x00000000	0.0
18	0x00000000	0.0
19	0x00000000	0.0
20	0x80000000	-0.0
21	0x80000000	-0.0
22	0x80000000	-0.0
23	0x80000000	-0.0
24	0x00000000	0.0
25	0x80000000	-0.0
26	0x80000000	-0.0
27	0x00000000	0.0
28	0x00000000	0.0
29	0x80000000	-0.0
30	0x80000000	-0.0
31	0x00000000	0.0
32	0x00000000	0.0
33	0x00000000	0.0
34	0x80000000	-0.0
35	0x00000000	0.0
36	0x80000000	-0.0
37	0x00000000	0.0
38	0x00000000	0.0
39	0x00000000	0.0
40	0x80000000	-0.0
41	0x00000000	0.0
42	0x80000000	-0.0
43	0x80000000	-0.0
44	0x00000000	0.0
45	0x00000000	0.0
46	0x00000000	0.0
47	0x00000000	0.0
48	0xbda29e89	-0.079403944
49	0x00000000	0.0
50	0x00000000	0.0
51	0x00000000	0.0
52	0x00000000	0.0
53	0x80000000	-0.0
54	0x80000000	-0.0
55	0x80000000	-0.0
56	0x00000000	0.0
57	0x00000000	0.0
58	0x00000000	0.0
59	0x80000000	-0.0
60	0x80000000	-0.0
61	0x80000000	-0.0
62	0x00000000	0.0
63	0x00000000	0.0
64	0x80000000	-0.0
65	0x80000000	-0.0
66	0x80000000	-0.0
67	0x00000000	0.0
68	0x00000000	0.0
69	0x00000000	0.0
70	0x00000000	0.0
71	0x00000000	0.0
72	0x80000000	-0.0
73	0x80000000	-0.0
74	0x80000000	-0.0
75	0x80000000	-0.0
76	0x80000000	-0.0
77	0x80000000	-0.0
78	0x80000000	-0.0
79	0x80000000	-0.0
80	0x80000000	-0.0
81	0x00000000	0.0
82	0x00000000	0.0
83	0x80000000	-0.0
84	0x00000000	0.0
85	0x80000000	-0.0
86	0x80000000	-0.0
87	0x00000000	0.0
88	0x00000000	0.0
89	0x00000000	0.0
90	0x80000000	-0.0
91	0x00000000	0.0
92	0x80000000	-0.0
93	0x00000000	0.0
94	0x00000000	0.0
95	0xbdec3061	-0.11532665
96	0x80000000	-0.0
97	0x00000000	0.0
98	0x00000000	0.0
99	0x00000000	0.0
100	0x80000000	-0.0
101	0x80000000	-0.0
102	0x80000000	-0.0
103	0x80000000	-0.0
104	0x80000000	-0.0
105	0x80000000	-0.0
106	0x80000000	-0.0
107	0x80000000	-0.0
108	0x80000000	-0.0
109	0x80000000	-0.0
110	0x00000000	0.0
111	0x00000000	0.0
112	0x00000000	0.0
113	0x00000000	0.0
114	0x80000000	-0.0
115	0x00000000	0.0
116	0x00000000	0.0
117	0x00000000	0.0
118	0x00000000	0.0
119	0x00000000	0.0
120	0x00000000	0.0
121	0x00000000	0.0
122	0x80000000	-0.0
123	0x80000000	-0.0
124	0x00000000	0.0
125	0x80000000	-0.0
126	0x80000000	-0.0
127	0x00000000	0.0
128	0x80000000	-0.0
129	0x80000000	-0.0
130	0x00000000	0.0
131	0x3d842db4	0.0645403
132	0x80000000	-0.0
133	0x3d854f3f	0.065092556
134	0x00000000	0.0
135	0x00000000	0.0
136	0x80000000	-0.0
137	0x00000000	0.0
138	0x00000000	0.0
139	0x00000000	0.0
140	0x80000000	-0.0
141	0x80000000	-0.0
142	0x80000000	-0.0
143	0x80000000	-0.0
144	0x80000000	-0.0
145	0x80000000	-0.0
146	0x80000000	-0.0
147	0x80000000	-0.0
148	0xbdc547af	-0.09632813
149	0x80000000	-0.0
150	0x80000000	-0.0
151	0x00000000	0.0
152	0x80000000	-0.0
153	0x3e6cdab0	0.23130298
154	0x00000000	0.0
155	0x80000000	-0.0
156	0x00000000	0.0
157	0x80000000	-0.0
158	0x80000000	-0.0
159	0x80000000	-0.0
160	0x80000000	-0.0
161	0x80000000	-0.0
162	0x80000000	-0.0
163	0x00000000	0.0
164	0x00000000	0.0
165	0x80000000	-0.0
166	0x00000000	0.0
167	0x80000000	-0.0
168	0x80000000	-0.0
169	0x00000000	0.0
170	0x80000000	-0.0
171	0x00000000	0.0
172	0x00000000	0.0
173	0x00000000	0.0
174	0x80000000	-0.0
175	0x00000000	0.0
176	0x80000000	-0.0
177	0x80000000	-0.0
178	0x00000000	0.0
179	0x80000000	-0.0
180	0x00000000	0.0
181	0x00000000	0.0
182	0x80000000	-0.0
183	0x80000000	-0.0
184	0x80000000	-0.0
185	0x80000000	-0.0
186	0x00000000	0.0
187	0x80000000	-0.0
188	0x80000000	-0.0
189	0x80000000	-0.0
190	0x00000000	0.0
191	0x80000000	-0.0
192	0x00000000	0.0
193	0x80000000	-0.0
194	0x00000000	0.0
195	0x80000000	-0.0
196	0x80000000	-0.0
197	0x80000000	-0.0
198	0x80000000	-0.0
199	0x3e30903a	0.17242518
200	0xbf1bb980	-0.60829926
201	0x3e75a08e	0.23987028
202	0x00000000	0.0
203	0x3ed748ce	0.42047733
204	0x00000000	0.0
205	0xbeee7b1c	-0.465783
206	0x00000000	0.0
207	0x80000000	-0.0
208	0x00000000	0.0
209	0xbed4c699	-0.41557768
210	0x00000000	0.0
211	0x80000000	-0.0
212	0x3e48fce2	0.19627717
213	0x00000000	0.0
214	0xbf0e709b	-0.5564057
215	0x00000000	0.0
216	0x00000000	0.0
217	0xbea53284	-0.32265103
218	0x00000000	0.0
219	0x3e2658bc	0.16244787
220	0x80000000	-0.0
221	0xbe7500c0	-0.23926067
222	0x3e82f43d	0.25576964
223	0x3ed14199	0.4087036
224	0x00000000	0.0
225	0x00000000	0.0
226	0x80000000	-0.0
227	0x00000000	0.0
228	0x3ded02fb	0.11572834
229	0xbef2f044	-0.47448933
230	0x80000000	-0.0
231	0x00000000	0.0
232	0x3e52a0ab	0.20569102
233	0x3ec73cf6	0.38913697
234	0x3eb08201	0.34474185
235	0x00000000	0.0
236	0x80000000	-0.0
237	0x00000000	0.0
238	0x00000000	0.0
239	0x00000000	0.0
240	0x00000000	0.0
241	0x00000000	0.0
242	0x80000000	-0.0
243	0x80000000	-0.0
244	0x00000000	0.0
245	0x00000000	0.0
246	0x00000000	0.0
247	0x00000000	0.0
248	0x00000000	0.0
249	0xbea540ce	-0.32276005
250	0x00000000	0.0
251	0x00000000	0.0
252	0x00000000	0.0
253	0xbf07674e	-0.52892005
254	0x80000000	-0.0
255	0x80000000	-0.0

weight f4 [1, 300]
0	0xbcaf8abc	-0.021428458
1	0x3e7dfb72	0.2480295
2	0xbd27ca42	-0.040964372
3	0x3d7eafe1	0.06217945
4	0x3ce0b55b	0.027430227
5	0x3d3bb816	0.045829855
6	0xbd6d4757	-0.057929363
7	0x3d65fef7	0.056151357
8	0x3c205647	0.009786195
9	0xbd366406	-0.044528984
10	0xbd3d6ca2	-0.04624618
11	0xbd19dc9a	-0.037563898
12	0xbceae8ee	-0.028675523
13	0xbd858fca	-0.06521566
14	0x3c7e940f	0.01553823
15	0x3d317fa2	0.04333461
16	0x3d8485c5	0.06470827
17	0x3d1ca8af	0.038246807
18	0xbcc1f521	-0.023676457
19	0xbd509409	-0.050922427
20	0x3d839efc	0.06426808
21	0x3d213938	0.03936121
22	0x3ce93548	0.02846779
23	0x3ca07e3d	0.019591445
24	0x3cbf9b51	0.02338949
25	0xbd2df721	-0.04247201
26	0x3d3770bf	0.044785257
27	0x3d3f0f33	0.046645354
28	0x3d0d34d8	0.034474224
29	0xbcef7461	-0.029230298
30	0xbd72e993	-0.059304785
31	0x3d54e8cf	0.051979836
32	0x3d883c39	0.066521116
33	0x3d1391c3	0.03602768
34	0x3d5c40a6	0.05377259
35	0x3d4ab06f	0.049484666
36	0xbd515411	-0.051105563
37	0x3c95f91c	0.018307261
38	0xbd7f605c	-0.062347755
39	0x3d63575d	0.055503238
40	0x3d826e92	0.06368746
41	0xbd1caea3	-0.038252484
42	0xbce1cde6	-0.027564
43	0x3d1449f7	0.03620335
44	0xbc9909d4	-0.018681444
45	0x3d1f6dd6	0.038923107
46	0x3c7a3451	0.015271262
47	0xbd0c3dc5	-0.034238596
48	0x3d6df84b	0.05809812
49	0x3d854908	0.0650807
50	0x3c876239	0.016526328
51	0x3d1eb9e1	0.038751487
52	0x3d3a0572	0.04541535
53	0xbd1f09d0	-0.038827717
54	0x3cd15b4a	0.025556225
55	0x3d0a9f8d	0.033843566
56	0xbd9a47b1	-0.07533205
57	0x3cbb8d5c	0.022894554
58	0x3d1e8521	0.03870118
59	0x3d08c945	0.03339507
60	0xbd4f305e	-0.050583236
61	0x3d5e42e4	0.05426301
62	0x3d6e86ce	0.05823403
63	0x3caae7b6	0.020862442
64	0x3d732042	0.059356935
65	0x3d5caf0b	0.05387787
66	0x3d8139de	0.063098654
67	0xbd41cb9e	-0.047313325
68	0x3d8226a4	0.06355026
69	0x3cea0adc	0.028569631
70	0xbc2d39ab	-0.010572831
71	0x3d007d69	0.0313696
72	0x3d61fadb	0.055170875
73	0x3d7a48fb	0.061104756
74	0x3d113313	0.0354491
75	0x3d00168b	0.0312715
76	0xbcfb1055	-0.030647436
77	0x3d89103a	0.06692548
78	0xbd3a79dd	-0.045526374
79	0xbab8fba7	-0.0014113084
80	0xbd620c94	-0.055187777
81	0x3c2e1232	0.010624455
82	0xbd800ace	-0.06252061
83	0x3d5bcbb6	0.05366107
84	0x3d2c948e	0.04213386
85	0x3d842496	0.06452291
86	0x3cec1710	0.02881959
87	0xbd6e4c3d	-0.058178175
88	0x3ca4c243	0.020112162
89	0x3d26a419	0.04068384
90	0x3d15d483	0.03657962
91	0xbd4f79c1	-0.050653223
92	0xbd35202a	-0.044220127
93	0x3c986468	0.018602565
94	0x3d55ff5d	0.052245487
95	0xbcd58ef5	-0.026069144
96	0xbd093e37	-0.0335066
97	0x3c91612d	0.017746532
98	0x3d81b651	0.06333602
99	0x3ca619d2	0.020275984
100	0xbc010377	-0.007874361
101	0x3cb2cd74	0.021826483
102	0xbd542f82	-0.05180312
103	0xbd1d5af1	-0.038416807
104	0xbce5523f	-0.02799332
105	0x3c9ddc9b	0.019270232
106	0x3cb742f1	0.022370787
107	0xbc81ce84	-0.015845545
108	0x3ccc5623	0.024943417
109	0xbd512b55	-0.051066715
110	0x3d285297	0.04109439
111	0x3d365167	0.044511225
112	0xbd8d0cb1	-0.06887186
113	0xbbf69a24	-0.007525699
114	0x3cde3a95	0.027127543
115	0x3d117823	0.035514962
116	0x3cbd4f77	0.02310918
117	0xbd14b2c6	-0.036303304
118	0xbd75a4aa	-0.05997149
119	0x3c8f5b1b	0.017499497
120	0x3cfccce2	0.030859414
121	0x3d38f05e	0.045151107
122	0xbcde3e23	-0.027129238
123	0xbcb6223f	-0.022233127
124	0xbd109d21	-0.0353061
125	0xbd53c6ab	-0.051703136
126	0xbc297d2d	-0.010344786
127	0x3cc6ddae	0.024275627
128	0xbcf1f769	-0.02953692
129	0xbd0b62d8	-0.03402981
130	0x3d528d24	0.051404133
131	0x3d8fa7ad	0.070144035
132	0x3d035afd	0.032069195
133	0xbd6e5163	-0.058183085
134	0xbe207cf9	-0.15672673
135	0xbcd122d3	-0.0255293
136	0xbcc7f329	-0.02440794
137	0xbd546433	-0.05185337
138	0xbcc135dd	-0.023585254
139	0x3d820e39	0.06350369
140	0x3cc0f2f2	0.023553345
141	0xbcec2fad	-0.028831327
142	0xbca9c311	-0.020722898
143	0xbc2fda62	-0.010733219
144	0x3d6cb9eb	0.057794493
145	0x3cc635d9	0.024195598
146	0x3d3f70f0	0.046738565
147	0x3d40ccba	0.047070242
148	0xbd0a6090	-0.033783495
149	0x3d41eaea	0.047343172
150	0xbcffe956	-0.031239193
151	0x3d5f1a5e	0.054468505
152	0x3d7c4ae3	0.061594855
153	0xbd390266	-0.045168303
154	0xbd591271	-0.052996103
155	0xbd4b4cf4	-0.049633935
156	0xbc9c0eb6	-0.019049983
157	0xbcd18c42	-0.025579575
158	0x3d5a8c02	0.053356178
159	0xbc93bbd0	-0.018033892
160	0x3d0b1114	0.033951834
161	0x3d848b9e	0.06471942
162	0x3ccf059c	0.02527123
163	0x3d60b95b	0.05486427
164	0xbd764c89	-0.060131583
165	0x3d6bac77	0.057537522
166	0xbd456242	-0.04818941
167	0xbd7d0a77	-0.06177756
168	0xbd833ffa	-0.06408687
169	0x3c82ceb4	0.015967704
170	0x3d37fb9a	0.04491768
171	0x3d405188	0.046952754
172	0x3c89ffb5	0.016845563
173	0xbce3d376	-0.027810793
174	0xbd0570dc	-0.032578334
175	0xbd530779	-0.0515208
176	0xbd2519df	-0.040307876
177	0xbd0d294c	-0.034463212
178	0xbd04c264	-0.032411948
179	0x3ca7de78	0.020491824
180	0xbd84652c	-0.064646095
181	0xbccbc35f	-0.024873434
182	0x3d39d256	0.045366608
183	0x3d392aac	0.04520671
184	0x3cf866da	0.030322481
185	0xbd16f8e0	-0.03685844
186	0xbd708dfa	-0.05872915
187	0x3d98a091	0.074525006
188	0x3d3dc391	0.046329085
189	0xbc801751	-0.015636118
190	0xbcfc475d	-0.030795747
191	0xbd1f12d3	-0.03883631
192	0x3cc983ac	0.024598919
193	0x3d6ac4ed	0.05731671
194	0x3c83814a	0.01605286
195	0xbd19bb72	-0.037532277
196	0x3cd789d0	0.026310831
197	0xbd55487e	-0.052071087
198	0x3d3345b5	0.04376765
199	0xbd78718a	-0.060655154
200	0xbce99ea4	-0.028518029
201	0x3c79ba54	0.015242178
202	0x3d20b142	0.039231546
203	0xbd145c53	-0.03622086
204	0xbd2c80bc	-0.04211496
205	0x3c8ad4cc	0.016947173
206	0x3d8d9a24	0.069141656
207	0xbd4ff04f	-0.050766286
208	0x3c2eb6ed	0.01066373
209	0x3d129671	0.035788003
210	0x3d76ad96	0.06022414
211	0xbd274b31	-0.040843192
212	0x3d5de7d5	0.05417617
213	0xbd72ab96	-0.05924567
214	0x3d39e03f	0.045379873
215	0xbcb09ab2	-0.02155814
216	0x3d87f816	0.066391155
217	0x3d52430c	0.051333472
218	0x3d3cf664	0.046133414
219	0x3d689d10	0.05679041
220	0x3d79c79c	0.060981378
221	0xbc78b5ad	-0.015180034
222	0x3d60dca6	0.054897927
223	0x3d339e3d	0.04385208
224	0xbd686144	-0.056733385
225	0xbc46499a	-0.012102509
226	0x3d434cc5	0.047680635
227	0xbd0e999a	-0.034814455
228	0xbcd194ad	-0.02558359
229	0xbd42e8f1	-0.04758543
230	0x3eb33256	0.3499934
231	0x3d70d4a8	0.058796555
232	0x3d1be2b0	0.038057983
233	0xbd310202	-0.043214805
234	0xbd7038f9	-0.058648083
235	0x3c7ec982	0.015550973
236	0x3cb995c2	0.022654418
237	0xbd5f4b43	-0.054515135
238	0xbe1a9bce	-0.15098497
239	0xbd31ea4f	-0.043436345
240	0x3cc67df9	0.02422999
241	0xbb75e50c	-0.0037520556
242	0x3d8670e0	0.06564498
243	0xbd4bc02c	-0.049743816
244	0xbcfaea47	-0.03062929
245	0x3d27fbfe	0.041011803
246	0xbd1d63f8	-0.038425416
247	0xbd7c060a	-0.061529197
248	0xbd713059	-0.058884
249	0xbd2d456d	-0.042302538
250	0x3cdb6341	0.026780726
251	0x3d412b7e	0.047160618
252	0xbcc15314	-0.023599185
253	0xbd1ab101	-0.03776646
254	0x3d4ad282	0.049517162
255	0xbcb8257e	-0.022478815
