figures/TS_global_3/theta=0.1_s=0.4_step=1/best_model.pth (torch, 249061 bytes, 6 tensors)

bias f4 [200]
0	0xbe9f8c66	-0.31161803
1	0x3e4ac503	0.19801717
2	0x3ea52642	0.3225575
3	0xbed2bb95	-0.4115874
4	0x3e508aa8	0.20365393
5	0x3f06019e	0.5234622
6	0x3dd9eef0	0.10641277
7	0xbf02b033	-0.5105011
8	0xbf069e0b	-0.52584904
9	0xbf103404	-0.5632937
10	0xbeea0fc3	-0.4571515
11	0x3eb6376b	0.35589156
12	0xbe4a09bc	-0.19730276
13	0xbe68452e	-0.2268264
14	0x3e9ffd4f	0.31247947
15	0xbe48c295	-0.19605477
16	0xbed4ec76	-0.41586655
17	0xbe2686bb	-0.16262333
18	0x3ea7284b	0.3264793
19	0x3ebfe30a	0.37477905
20	0x3d9f30aa	0.07772954
21	0xbda3b252	-0.07992996
22	0xbf104915	-0.56361514
23	0x3f2a5c99	0.6654754
24	0x3e00dfeb	0.12585418
25	0x3ec3f53e	0.38273042
26	0x3f21aafc	0.63151526
27	0xbf134af3	-0.5753624
28	0xbe84095c	-0.2578839
29	0x3f2830d7	0.65699524
30	0xbdc13a0d	-0.094349004
31	0x3eccc0f5	0.39990965
32	0x3eddb25f	0.4330015
33	0xbea20c53	-0.31650028
34	0x3f00e4e7	0.5034928
35	0xbeae67fe	-0.34063715
36	0xbef3b788	-0.4760096
37	0x3f0c3116	0.547624
38	0xbf169028	-0.58813715
39	0x3ed896ce	0.42302555
40	0xbe316804	-0.17324835
41	0xbe8e448e	-0.27786678
42	0x3eb20b2b	0.34774145
43	0xbe5ded93	-0.21672659
44	0x3f35efbe	0.7106894
45	0x3e32688e	0.17422697
46	0xbecdd6a5	-0.40202823
47	0x3e18d06e	0.1492326
48	0x3e4bcaf4	0.19901639
49	0xbe6ad50f	-0.22932838
50	0x3f2a321a	0.664827
51	0x3dd0cdb3	0.10195484
52	0xbeeb0b8a	-0.4590724
53	0xbec738e8	-0.38910604
54	0x3f0fa96a	0.5611788
55	0xbf2ab634	-0.6668427
56	0xbe4a9c17	-0.19786106
57	0x3e000d38	0.12505043
58	0xbe22355b	-0.15840666
59	0x3e729aca	0.2369186
60	0xbe9687cb	-0.29400477
61	0xbe713720	-0.23556185
62	0x3ed81393	0.42202434
63	0x3f2b5b49	0.66936165
64	0xbebb0ba9	-0.36532333
65	0x3e8f407c	0.27978885
66	0x3e292550	0.1651814
67	0x3f39ec45	0.72626144
68	0xbe8f42e8	-0.27980733
69	0xbf0886f2	-0.5333091
70	0xbdcddd49	-0.100519724
71	0x3eb6ddf1	0.35716203
72	0xbe7754c3	-0.24153428
73	0xbee415c4	-0.44547856
74	0x3f1204de	0.57038677
75	0xbe28245e	-0.16420123
76	0x3e580abe	0.21097848
77	0xbde22871	-0.1104287
78	0x3ec245ad	0.37943783
79	0xbdef6c65	-0.116905965
80	0x3ec0afa6	0.3763401
81	0x3f193291	0.59842783
82	0x3e1bc590	0.15212083
83	0xbf050ac9	-0.5196958
84	0x3f34396d	0.70400125
85	0x3ee334a2	0.44376093
86	0x3e97c34f	0.29641196
87	0x3f348df2	0.7052909
88	0xbebb74c1	-0.36612514
89	0xbe7cfcfb	-0.2470588
90	0xbd9c58c5	-0.07634119
91	0x3e6c87d9	0.23098697
92	0xbd8a4155	-0.06750742
93	0xbd872d95	-0.06600491
94	0xbeaff6c1	-0.34367946
95	0x3e9d049b	0.30667576
96	0x3f16bb3a	0.58879435
97	0x3e588157	0.21143089
98	0x3eccbe06	0.39988726
99	0xbdd4d1ad	-0.10391555
100	0xbd86bc23	-0.06578853
101	0x3ee71973	0.45136604
102	0xbe84f944	-0.25971425
103	0xbf2d914b	-0.67799824
104	0xbea2c266	-0.3178894
105	0xbdd66f21	-0.10470415
106	0xbd92549b	-0.071450435
107	0xbe4cd982	-0.20004848
108	0xbdae6c80	-0.085167885
109	0x3ead2be7	0.33822557
110	0x3e4b7a5f	0.198709
111	0xbe46bc53	-0.19407777
112	0x3e25925f	0.16169117
113	0xbdc3835e	-0.09546541
114	0xbef256f0	-0.47331953
115	0xbf29a38b	-0.6626517
116	0x3f3182ed	0.693404
117	0xbeb2cb3e	-0.34920686
118	0x3f097da6	0.5370735
119	0xbf0cc073	-0.54981154
120	0xbe0e73f5	-0.13911422
121	0xbe87346b	-0.2640718
122	0x3ea827a8	0.32842755
123	0x3f0db61d	0.5535601
124	0xbe167540	-0.14693165
125	0x3ef4f641	0.47844127
126	0xbe126e8e	-0.14299986
127	0x3ef1606c	0.47143877
128	0xbf04fce6	-0.5194839
129	0x3ef89f9b	0.4855927
130	0x3eb5b8a0	0.3549242
131	0x3ea76d81	0.32700732
132	0xbd8e9972	-0.06962861
133	0x3f0aa20f	0.5415353
134	0xbda9b3c2	-0.08286239
135	0x3f22f740	0.63658524
136	0xbd2bc85c	-0.041939124
137	0x3e5c87ac	0.2153613
138	0x3f232efa	0.63743556
139	0xbf256a40	-0.6461525
140	0xbec55d44	-0.3854772
141	0xbd7761f2	-0.060396142
142	0xbe39bee3	-0.18139224
143	0xbdea9ca1	-0.11455656
144	0xbe9c41e0	-0.3051901
145	0x3ea40fba	0.32043248
146	0xbef9aeda	-0.48766214
147	0xbeccd4cb	-0.40006098
148	0xbd75261e	-0.059850805
149	0xbec6f264	-0.38856804
150	0x3eba057d	0.36332312
151	0xbe393eb3	-0.18090324
152	0xbeac4d22	-0.33652598
153	0xbf062850	-0.5240526
154	0xbe81bb6a	-0.25338298
155	0x3e9e60e3	0.30933294
156	0x3f0be22e	0.54642
157	0xbe52416b	-0.20532767
158	0xbf042422	-0.51617634
159	0xbe97d5de	-0.29655355
160	0x3f2a1da2	0.66451466
161	0xbe5e3326	-0.21699199
162	0x3eb8943f	0.36050603
163	0xbf04e9c5	-0.51919204
164	0xbf2f92f4	-0.6858361
165	0xbf03d0a6	-0.5149025
166	0x3e0c27f4	0.13687116
167	0xbed4a727	-0.41533777
168	0x3f18c6ac	0.5967815
169	0xbdf954e7	-0.12174397
170	0x3f307a44	0.6893656
171	0xbf027ed5	-0.5097478
172	0x3e6a0b8c	0.22855967
173	0xbf0dd9fe	-0.55410755
174	0xbdcc11e9	-0.099643536
175	0xbf07387a	-0.5282055
176	0xbe13e967	-0.14444505
177	0x3f15873d	0.5840948
178	0x3f1be574	0.6089699
179	0xbf2bd1fe	-0.671173
180	0xbd2fef8c	-0.04295306
181	0xbde93a76	-0.11388104
182	0x3eec4f2e	0.4615416
183	0x3ee6e90b	0.45099673
184	0x3e94de15	0.29075685
185	0x3f0e6fcb	0.5563933
186	0x3e8ce87b	0.2752112
187	0x3e663b95	0.22483666
188	0xbd856c6f	-0.06514823
189	0x3e8e0e11	0.27745107
190	0x3ed891cd	0.42298737
191	0xbdb7aee3	-0.08968904
192	0xbecb8dc5	-0.397566
193	0xbefc33d5	-0.49258295
194	0xbe974d23	-0.29551038
195	0x3f1d5820	0.61462593
196	0xbe86a4f2	-0.26297718
197	0xbe8d25bf	-0.2756786
198	0xbdd0c8dc	-0.10194561
199	0x3e7e52c5	0.24836262

weight f4 [200, 2]
0	0x3d1169ac	0.035501167
1	0xbf1f73d0	-0.6228609
2	0x3e9f2b36	0.31087655
3	0xbf03932f	-0.5139646
4	0x3e466b67	0.19376908
5	0xbf2fa092	-0.68604386
6	0xbf591784	-0.84801507
7	0x3ef79174	0.4835316
8	0x3f6d7422	0.9275533
9	0xbe481d35	-0.19542392
10	0xbeac6124	-0.33667862
11	0x3e46d353	0.19416551
12	0xbf03ba24	-0.51455903
13	0xbe4832e3	-0.19550662
14	0xbf2c9484	-0.67414117
15	0x3f5917eb	0.8480212
16	0x3eb17232	0.34657437
17	0x3e9124d6	0.28348416
18	0xbd85339b	-0.065039836
19	0xbd77856e	-0.060429983
20	0x3e91caf9	0.28475168
21	0xbe7a13e1	-0.24421646
22	0x3f27d850	0.6556444
23	0x3f58fb89	0.8475881
24	0xbefd30cd	-0.49451295
25	0x3e90a693	0.28252086
26	0xbf2782ed	-0.6543415
27	0x3ecc8208	0.39942956
28	0x3e9b22d7	0.30300018
29	0xbf2a8e42	-0.6662332
30	0xbf3ff324	-0.7498038
31	0x3d0e227b	0.034700852
32	0x3f44df86	0.7690357
33	0xbf0be8d0	-0.5465212
34	0x3f4f1cdf	0.8090343
35	0x3d2f4f3a	0.042800166
36	0xbec0e7f8	-0.37676978
37	0xbf0ce50a	-0.55036986
38	0x00000000	0.0
39	0x3eb12f68	0.3460648
40	0xbe5aa348	-0.2135135
41	0x3db2bb70	0.08727157
42	0x3f172641	0.59042746
43	0x3e80901e	0.25109953
44	0xbe2088ef	-0.15677236
45	0xbef402d4	-0.47658408
46	0x3f3567bc	0.7086141
47	0xbedeed7d	-0.43540564
48	0x3f1b0050	0.6054735
49	0x3f7b0134	0.9804871
50	0x3f358675	0.7090829
51	0xbd182125	-0.037140984
52	0xbe92cccc	-0.28671873
53	0x3edb95ef	0.42887828
54	0x3eb3f919	0.35150984
55	0xbee44194	-0.44581282
56	0xbc9ab710	-0.01888612
57	0x3f07aeb8	0.53000975
58	0x3f226ae5	0.6344436
59	0xbe18cc5d	-0.14921708
60	0xbd51fe96	-0.051268183
61	0x00000000	0.0
62	0x3e9d128d	0.30678216
63	0x3e0931c1	0.13397886
64	0xbf2b0c97	-0.66816086
65	0xbe3cba3a	-0.18430415
66	0x3ed112d4	0.40834677
67	0xbf2cb13c	-0.6745794
68	0x3ea00b39	0.31258562
69	0xbf00c386	-0.50298345
70	0xbec27bc6	-0.37985057
71	0xbf03b9e0	-0.514555
72	0xbf45cb45	-0.7726329
73	0x3f276d66	0.65401304
74	0x3f03cd46	0.514851
75	0x3e79d9fa	0.24399558
76	0x3ea06907	0.3133013
77	0x3ea30226	0.31837577
78	0xbeacd164	-0.33753502
79	0x3f3b2dcd	0.7311676
80	0xbea00714	-0.312554
81	0x3ec058fa	0.37567884
82	0x3f0648bf	0.5245475
83	0xbf2a843a	-0.6660801
84	0x3f54e537	0.83162254
85	0x3d70cdf3	0.05879016
86	0x3e6612e6	0.22468147
87	0x3d9eaf81	0.077483185
88	0x3e8578f0	0.2606883
89	0xbec15bc4	-0.37765324
90	0xbdc6c49e	-0.097054705
91	0x3eb4d917	0.35321876
92	0x3ec57866	0.3856842
93	0x3e8f69c2	0.28010374
94	0xbf76fc51	-0.96478754
95	0xbf0352c7	-0.51298183
96	0x3e9d3921	0.30707648
97	0xbeea86d7	-0.45806
98	0xbd0e6516	-0.03476437
99	0x3ef3cd2d	0.47617474
100	0x3f2ac883	0.66712207
101	0xbed13616	-0.40861577
102	0xbe3d0c9b	-0.1846184
103	0x3e32bc3a	0.17454615
104	0xbf43ec73	-0.7653267
105	0xbe3c613c	-0.18396467
106	0x3eb45304	0.35219586
107	0xbe6e1b84	-0.23252684
108	0x80000000	-0.0
109	0x3effe4eb	0.49979338
110	0xbe15c06a	-0.14624181
111	0x3ebe715e	0.37195867
112	0xbf367a3b	-0.7128026
113	0x3e39eaa0	0.18155909
114	0x3f464617	0.774507
115	0x3f393d51	0.72359186
116	0x3f2b93d1	0.67022425
117	0xbda190ab	-0.07888921
118	0xbf223824	-0.63366914
119	0xbe166708	-0.14687741
120	0x3f0f0481	0.5586625
121	0xbf07280a	-0.5279547
122	0x3e7e3a96	0.24827036
123	0xbeff9727	-0.49920008
124	0xbf20907f	-0.62720484
125	0x3f0fb289	0.561318
126	0x3f00d509	0.50325066
127	0xbf13b540	-0.5769844
128	0xbee222c1	-0.4416714
129	0x3f4c43e4	0.7979109
130	0xbf142fc6	-0.57885396
131	0xbd62a47f	-0.055332657
132	0xbf80bd88	-1.005784
133	0xbf6adee0	-0.9174633
134	0x3f59dc0f	0.8510141
135	0x3ec9f90e	0.39447826
136	0xbeb06d9e	-0.3445863
137	0x3f1fd668	0.6243653
138	0xbd69c5fb	-0.057073575
139	0x3eb52185	0.35377136
140	0xbeffaba8	-0.4993565
141	0xbf3b7f1b	-0.7324082
142	0xbea96092	-0.3308149
143	0xbf468109	-0.7754064
144	0x3eb94180	0.36182785
145	0xbf12716f	-0.57204336
146	0xbea518da	-0.32245523
147	0xbf41fbfe	-0.75775135
148	0xbf3158ff	-0.6927642
149	0xbf1eee25	-0.6208213
150	0x3f6306f0	0.8868246
151	0x3f4d79db	0.8026406
152	0xbf3a4baf	-0.72771734
153	0xbf0149cf	-0.5050325
154	0x3f407f71	0.7519446
155	0x3ea633d5	0.3246142
156	0x3f571d69	0.8402925
157	0x3ee1c2b3	0.44093856
158	0xbf3d39e8	-0.7391648
159	0xbf0d1a92	-0.5511867
160	0xbf165ff0	-0.5874014
161	0x3dc54f44	0.09634259
162	0x3f37cc56	0.71796167
163	0x3e10c84a	0.14138904
164	0x3f2450d9	0.64185864
165	0x3e941ca8	0.28928113
166	0x3f070c10	0.5275278
167	0x3e5d5ca4	0.21617371
168	0xbed2c872	-0.41168553
169	0xbf3ae80f	-0.73010343
170	0x3e9e3993	0.309033
171	0xbec5e10b	-0.38648257
172	0xbef4ac36	-0.47787637
173	0x3f051dc2	0.5199853
174	0x3ef4a99f	0.4778566
175	0xbed480e9	-0.415046
176	0x3e6c8e1c	0.23101085
177	0xbf46274e	-0.77403724
178	0x3f553441	0.8328286
179	0xbe9f73b0	-0.3114295
180	0xbdfb1fc2	-0.12261917
181	0xbf4ad252	-0.79227173
182	0x00000000	0.0
183	0x3d9293ef	0.07157122
184	0x3e8ee11c	0.2790612
185	0x3f0b9666	0.54526365
186	0x3e9828d7	0.29718658
187	0x3efb6303	0.49098977
188	0x3f372ce6	0.71552885
189	0xbf23afad	-0.63939935
190	0xbe0dedae	-0.13860199
191	0x3f1e57c7	0.6185269
192	0x3e7b0805	0.24514778
193	0xbf0d26f5	-0.5513757
194	0xbeb3662c	-0.35038888
195	0xbd956f41	-0.072966106
196	0x3f495f36	0.78660905
197	0x3c8031f0	0.015648812
198	0xbf2a7974	-0.6659157
199	0xbf0a0b72	-0.53923714
200	0xbeebc241	-0.4604664
201	0xbea8b18a	-0.32947952
202	0xbea2bc4c	-0.31784284
203	0x3edf6afa	0.43636304
204	0xbf15709e	-0.58374965
205	0x3ed45e1f	0.4147806
206	0xbec301d1	-0.38087323
207	0x3e0c9b9a	0.13731232
208	0x3eca33a4	0.39492524
209	0x3f087ab2	0.5331222
210	0x3ea25c70	0.3171115
211	0x3f71f7ae	0.94518554
212	0x3e8223f1	0.25418046
213	0x3f1f6a8d	0.6227196
214	0xbf37122e	-0.71512115
215	0x3eac7453	0.33682498
216	0xbf18e1db	-0.5971963
217	0xbe265cd9	-0.16246356
218	0xbe587ba7	-0.2114092
219	0x3f2b1091	0.66822153
220	0xbf691142	-0.9104196
221	0xbe28decf	-0.16491245
222	0x3f5cb1ec	0.8620899
223	0x3f5f9527	0.87336963
224	0xbf3af7bd	-0.7303427
225	0xbeecf37a	-0.46279508
226	0x3ebfdd13	0.37473354
227	0x3f4197a0	0.75621986
228	0xbdb6dd52	-0.08928932
229	0xbf6123ac	-0.87945056
230	0x3e59a091	0.21252657
231	0x80000000	-0.0
232	0xbf1d3836	-0.61413896
233	0x3e1517a0	0.14559793
234	0xbf4a991c	-0.79139876
235	0x3f0877ac	0.53307605
236	0xbf3d4b3a	-0.7394291
237	0xbe9ac73b	-0.30230126
238	0x3e33927e	0.17536351
239	0x3ee1582b	0.4401258
240	0xbf48cc9d	-0.78437215
241	0xbf55fe95	-0.83591586
242	0x3f5443a1	0.82915694
243	0xbeba6d14	-0.36411345
244	0xbf4818ef	-0.78163046
245	0xbf5779fc	-0.8417051
246	0x3f4384ec	0.763747
247	0xbe0cac83	-0.13737683
248	0x3f1229f0	0.5709524
249	0xbf3bf0a3	-0.7341406
250	0xbeb7fc92	-0.35934883
251	0x3f1fe3a0	0.62456703
252	0xbf50d9b5	-0.81582195
253	0xbea6c46d	-0.32571736
254	0x3f0e3c5a	0.5556084
255	0x3f34a5f2	0.7056571

bias f4 [300]
0	0x3d532591	0.051549498
1	0x3cbbb4af	0.022913305
2	0xbd0b4627	-0.03400245
3	0xbd3b1aee	-0.04567998
4	0x3d094458	0.033512443
5	0xbd64463d	-0.055731047
6	0xbc3adfaa	-0.011405865
7	0x3d8b0839	0.06788678
8	0xbdae0fe9	-0.08499128
9	0x3d825de5	0.06365565
10	0x3c958c00	0.018255234
11	0x3bd8ff32	0.0066222185
12	0xbd8dffe2	-0.069335714
13	0xbd5b30cd	-0.053513337
14	0x3c2e4809	0.010637292
15	0x3d0a5363	0.03377093
16	0x3d2cbdb1	0.04217309
17	0x3b0eddda	0.0021799714
18	0x3b12a07e	0.0022373493
19	0x3cf4abd7	0.029867096
20	0xbd0489c8	-0.03235796
21	0x3d52680f	0.05136877
22	0xbd90b9e5	-0.070667066
23	0xbcdd0941	-0.026981952
24	0x3ced55e8	0.028971627
25	0xbd267378	-0.040637463
26	0x3d7d351e	0.061818235
27	0x3d82b849	0.06382806
28	0x3d661d11	0.056180064
29	0x3d6f2a00	0.058389664
30	0x3d39b6e2	0.045340426
31	0xbc87415b	-0.016510656
32	0x3d7cd559	0.0617269
33	0x3c0b11b6	0.008488109
34	0xbbc9d756	-0.0061597032
35	0x3cec967d	0.028880352
36	0xbcea0532	-0.02856693
37	0x3d3e0251	0.046388928
38	0xbda46708	-0.08027464
39	0xbd1a2d0b	-0.037640613
40	0xbd3ed20a	-0.046587028
41	0x3d0d6b5c	0.034526214
42	0x3d8f3e83	0.06994345
43	0x3d277996	0.040887438
44	0xbd012414	-0.031528547
45	0x3d012c60	0.03153646
46	0xbd5d13dd	-0.05397402
47	0xbd7441c0	-0.059633017
48	0xbd5ccf66	-0.053908728
49	0xbc5f605a	-0.013633812
50	0x3cdecbdf	0.027196823
51	0x3d436177	0.04770037
52	0x3d7f6d12	0.062359877
53	0xbd9257ac	-0.07145628
54	0xbb271004	-0.0025491724
55	0x3caa7028	0.020805433
56	0xbbbb6276	-0.0057185246
57	0xbcd8d01c	-0.026466422
58	0x3d436c19	0.04771051
59	0xbc8dad49	-0.017294543
60	0xbcf948d3	-0.030430233
61	0xba0702f1	-0.00051502796
62	0x3d1e18a2	0.03859771
63	0x3d81ff05	0.06347469
64	0x3cdda73e	0.027057286
65	0xbd539c24	-0.05166258
66	0xbca89530	-0.02057895
67	0xbd2d5ef6	-0.04232689
68	0xbc05b770	-0.008161411
69	0xbd7e92b2	-0.06215162
70	0x3ccda406	0.025102627
71	0x3bdf8a00	0.006821871
72	0x3c3b3a41	0.011427463
73	0x3c956745	0.01823772
74	0xbc0f9a5c	-0.0087648295
75	0x3d9a8c7d	0.07546327
76	0x3d571f01	0.052519802
77	0xbce1aa01	-0.027546884
78	0xbd2f3f1d	-0.0427848
79	0x3ccd8aea	0.025090653
80	0x3cb503be	0.022096511
81	0xbcdc8e12	-0.026923213
82	0xbdb54991	-0.08851922
83	0x3c3d69c5	0.011560862
84	0x380e3c15	3.3911394e-05
85	0x3d2b2608	0.041784316
86	0xbd4b1e44	-0.04958941
87	0xbc201e4f	-0.009772851
88	0x3c1b5435	0.009480526
89	0xbceae762	-0.028674785
90	0x3d4e6b53	0.05039532
91	0xbd2e4072	-0.04254193
92	0xbd79dba2	-0.061000474
93	0x3cd0e2c0	0.025498748
94	0x3d12edbb	0.03587125
95	0xbc03cb6d	-0.008044106
96	0xbd9c6ed9	-0.0763833
97	0x3d6bd0f2	0.057572313
98	0xbce8d6c1	-0.028422715
99	0x3d3b15c9	0.045675073
100	0x3d6bbeeb	0.05755512
101	0xbcd4a8d6	-0.025959413
102	0xbdb5a4f7	-0.08869355
103	0x3c628461	0.013825507
104	0x3d2434e4	0.040089503
105	0xbc516150	-0.012779549
106	0xbcd922a4	-0.026505776
107	0xbc40cb33	-0.0117671965
108	0xbb892dea	-0.0041863816
109	0x3d434714	0.047675207
110	0x3c0044ac	0.007828873
111	0xbdd6fa0e	-0.10496913
112	0x3d3a666c	0.045507833
113	0xbd035e5c	-0.03207241
114	0x3d0f8c2d	0.03504579
115	0x3d24c1b0	0.040223777
116	0x3d1041dd	0.035219062
117	0x3b67f81b	0.0035395685
118	0x3d681f1a	0.056670286
119	0x3b982454	0.0046430025
120	0x3ba1f873	0.0049429475
121	0x3d1174a8	0.035511643
122	0xbd93d855	-0.072189964
123	0x3d753a14	0.05986984
124	0xbd10efb9	-0.035384867
125	0xbb21bc74	-0.0024678977
126	0xb718e6a6	-9.113608e-06
127	0x3d0dc5b9	0.03461239
128	0xbd3ad048	-0.04560879
129	0x3d87e091	0.066346295
130	0xbd808b44	-0.06276563
131	0xbc4151a5	-0.011799251
132	0xbd433f3c	-0.047667727
133	0xbc5b2398	-0.013375185
134	0xbc5650aa	-0.013080755
135	0x3d5f977e	0.054587834
136	0xbd75cbf3	-0.060008954
137	0xbd412741	-0.047156576
138	0xbd537fc1	-0.051635507
139	0xbc81d53e	-0.015848752
140	0xbb81196c	-0.003939798
141	0x3d21d4a3	0.039509427
142	0xbd68886d	-0.05677073
143	0xbd84b8e0	-0.064805746
144	0xbd6d331e	-0.057910077
145	0x3cf78409	0.030214326
146	0x3d2d5d28	0.04232517
147	0x3b99320c	0.0046751555
148	0x3bf55b05	0.007487657
149	0xbcc44c02	-0.023962025
150	0x3c4bcd86	0.012439137
151	0x3c424dfa	0.011859411
152	0xbc948715	-0.018130818
153	0x3d8dcf6e	0.0692433
154	0xbd6df71c	-0.05809699
155	0xbd82a8e3	-0.06379869
156	0x3d3c5d97	0.04598769
157	0x3d4de842	0.050270326
158	0xbdb2f7a1	-0.08738638
159	0x3d964b0b	0.07338532
160	0xbd6aebfc	-0.05735396
161	0xba58371d	-0.00082479586
162	0x3cca12a6	0.024667095
163	0x3d88afe5	0.06674174
164	0xbcb3aa8c	-0.021931909
165	0xbd743898	-0.059624285
166	0x3d0d1d76	0.034451924
167	0x3cb95b9b	0.022626689
168	0x3d414b8c	0.047191188
169	0xbd1e42b5	-0.038637836
170	0xbce6b08a	-0.028160352
171	0x3c95cad9	0.018285202
172	0x3d5435a6	0.051808976
173	0x39dbf4c0	0.00041953288
174	0xbdbaf488	-0.09128672
175	0x3d305976	0.043054067
176	0x3d72f5c3	0.059316408
177	0x3ce3f00c	0.027824424
178	0xbd3b3f5b	-0.045714717
179	0x3c82074d	0.015872622
180	0xbd74f32c	-0.05980222
181	0x3bb53056	0.0055294437
182	0x3c18221f	0.009285479
183	0x3dbe9c1b	0.093071185
184	0x3d78f98f	0.060784873
185	0x3ba1f876	0.004942949
186	0x3d9ce65c	0.07661125
187	0xbd07c81f	-0.033149835
188	0xbd6d1492	-0.057880946
189	0x3d3061e1	0.043062095
190	0xbcd7f385	-0.026361236
191	0xbd51a975	-0.051186997
192	0xbc41e81c	-0.011835124
193	0x3c522435	0.012826015
194	0xbb8398a6	-0.004016
195	0xbb97e806	-0.0046358136
196	0xbb425311	-0.0029651562
197	0xbd2690a1	-0.040665273
198	0x3c27dca1	0.010245473
199	0x3cb5ba4e	0.022183564
200	0x3d9a735b	0.075415336
201	0x39abe950	0.00032789493
202	0x3d46fefa	0.04858301
203	0x3d63d4a9	0.05562273
204	0xbc50f1c4	-0.012752954
205	0xbd4505ec	-0.04810135
206	0xbc09df6d	-0.008415085
207	0xbcd080b5	-0.025451997
208	0xbd3ba9aa	-0.0458161
209	0x3c3b6042	0.011436524
210	0xbc85444e	-0.016267922
211	0xbc54a8f2	-0.012979733
212	0x3cf64a1e	0.030064639
213	0x3c258675	0.010102858
214	0x3d5279f8	0.05138585
215	0xbdad375a	-0.08457823
216	0x3d345e7b	0.044035416
217	0x3d6d9eef	0.0580129
218	0x3d9de7e9	0.07710249
219	0xbd2ebdab	-0.04266135
220	0x3b1af761	0.0023645984
221	0xbd4034d6	-0.04692539
222	0x3c5cdd7e	0.013480542
223	0xbd1e72e8	-0.038683802
224	0xbd549975	-0.05190416
225	0x3c740c3d	0.014895496
226	0xbc7a5edd	-0.015281406
227	0xbd8464b2	-0.064645186
228	0xbd090eaf	-0.03346127
229	0xbc76b074	-0.015056718
230	0xbd3021dc	-0.04300104
231	0x3c1d60ee	0.009605629
232	0x3d8c3fc8	0.06848103
233	0xbd567056	-0.052353226
234	0x3cac410b	0.021027109
235	0xbd8455b4	-0.06461659
236	0xbcb36dbb	-0.02190291
237	0x3d2a33e8	0.041553408
238	0xbd0e4fd7	-0.03474411
239	0xbdaf53f0	-0.08560932
240	0xbd438958	-0.047738403
241	0xbc465a5a	-0.012106502
242	0xbc265903	-0.010153058
243	0xbc83deeb	-0.016097507
244	0xbcecc337	-0.02890168
245	0x3d01fff3	0.031738233
246	0x3d11bc15	0.03557976
247	0x3afa65c7	0.0019103818
248	0x3b2b1a70	0.0026108287
249	0xbd1e80d4	-0.03869708
250	0x3d8de330	0.06928098
251	0x3d4aea8b	0.049540084
252	0x3d9a1ef0	0.07525432
253	0x3c32cfc3	0.010913792
254	0xbc7af1bc	-0.015316423
255	0xbd08c999	-0.033395384

weight f4 [300, 200]
0	0xbdf2560b	-0.11832818
1	0x80000000	-0.0
2	0x80000000	-0.0
3	0x3e2d85e1	0.16945602
4	0x3dc4e88e	0.09614669
5	0x3d31b970	0.043389738
6	0xbe2d6986	-0.16934785
7	0x3e2f90ad	0.17145033
8	0x80000000	-0.0
9	0x00000000	0.0
10	0x00000000	0.0
11	0x3e0b7f96	0.13622889
12	0x3d5000c3	0.050781976
13	0x80000000	-0.0
14	0x80000000	-0.0
15	0x3e10e51f	0.14149903
16	0xbe747a90	-0.23874879
17	0x00000000	0.0
18	0xbde0687a	-0.10957427
19	0x00000000	0.0
20	0xbdeaefd3	-0.11471524
21	0x00000000	0.0
22	0x3d10d078	0.03535506
23	0x3da6b054	0.08139101
24	0x3dc8720d	0.097873785
25	0x00000000	0.0
26	0x3d6dc2cd	0.058047105
27	0x3ce9004c	0.028442524
28	0x3e3d7e60	0.1850524
29	0x00000000	0.0
30	0x3d71cf2a	0.059035458
31	0x00000000	0.0
32	0x80000000	-0.0
33	0x80000000	-0.0
34	0xbca5c0d5	-0.020233551
35	0xbe07e2ef	-0.13270162
36	0x3e35b696	0.17745432
37	0x00000000	0.0
38	0x80000000	-0.0
39	0x00000000	0.0
40	0x00000000	0.0
41	0x3ca22a53	0.019795572
42	0x3e1b4ea4	0.15166718
43	0xbd88f776	-0.066878244
44	0xbd39d0cf	-0.04536515
45	0x3db31e3c	0.08746001
46	0x00000000	0.0
47	0xbe1ddb8b	-0.1541578
48	0x80000000	-0.0
49	0x3e0e7801	0.13912965
50	0x00000000	0.0
51	0x00000000	0.0
52	0xbc696c19	-0.014246964
53	0x80000000	-0.0
54	0x00000000	0.0
55	0x80000000	-0.0
56	0x3d7b0d12	0.06129176
57	0x3e084a43	0.13309579
58	0xbe2e0596	-0.16994318
59	0xbe2934bc	-0.16524023
60	0xbd9fec0c	-0.07808694
61	0x80000000	-0.0
62	0xbda1c2af	-0.07898461
63	0x80000000	-0.0
64	0x3e22d15a	0.15900174
65	0xbde3a80e	-0.11116038
66	0xbe37c98e	-0.17947981
67	0x3e07882b	0.13235538
68	0x00000000	0.0
69	0x80000000	-0.0
70	0x3e129f09	0.1431848
71	0xbd80d8a5	-0.06291322
72	0xbd964326	-0.07337026
73	0xbe36e450	-0.17860532
74	0x3c51c440	0.012803137
75	0x00000000	0.0
76	0xbe1577d1	-0.14596488
77	0x00000000	0.0
78	0x3e0f1a2a	0.13974825
79	0x3e213c1b	0.15745585
80	0x80000000	-0.0
81	0x00000000	0.0
82	0x00000000	0.0
83	0x3d07417e	0.033021443
84	0x3ca50950	0.020146042
85	0x3daae30b	0.08344086
86	0xbdb89be5	-0.090141095
87	0x3da6121d	0.081089236
88	0x80000000	-0.0
89	0xbdea2e3b	-0.11434599
90	0x3dcb68a6	0.099320695
91	0x3d62b20e	0.055345587
92	0x00000000	0.0
93	0x00000000	0.0
94	0x80000000	-0.0
95	0x3d9e33e2	0.077247396
96	0xbbc0b10f	-0.005880482
97	0xbdca49f6	-0.09877388
98	0x00000000	0.0
99	0x3e83f582	0.25773245
100	0x3e02a74d	0.12759133
101	0x00000000	0.0
102	0x3df5b350	0.11997092
103	0x3d2155ca	0.039388455
104	0x3e6df6d1	0.23238684
105	0x00000000	0.0
106	0x00000000	0.0
107	0x3dbbf2f0	0.09177196
108	0xbdb4e54c	-0.088327974
109	0x00000000	0.0
110	0xbdc7b7c9	-0.09751851
111	0x00000000	0.0
112	0x80000000	-0.0
113	0xbe184208	-0.14868939
114	0xbe687343	-0.22700219
115	0x00000000	0.0
116	0x80000000	-0.0
117	0x00000000	0.0
118	0xbdb7a8d0	-0.08967745
119	0x3d15525d	0.0364555
120	0x3e35ccd2	0.17753914
121	0x80000000	-0.0
122	0xbe169c5c	-0.14708084
123	0x00000000	0.0
124	0x00000000	0.0
125	0x00000000	0.0
126	0x3e3b2469	0.18275608
127	0x3dec12ae	0.11527
128	0xbd148806	-0.036262535
129	0x80000000	-0.0
130	0x3e0d28de	0.13785121
131	0x3d228225	0.039674897
132	0xbe113e4d	-0.14183922
133	0x80000000	-0.0
134	0x3e1f3a3e	0.15549561
135	0x80000000	-0.0
136	0x00000000	0.0
137	0xbc2eda42	-0.010672154
138	0x80000000	-0.0
139	0x3d1f761b	0.038930994
140	0x80000000	-0.0
141	0x00000000	0.0
142	0x3e20262c	0.15639561
143	0x3d654995	0.055978376
144	0xbda4aa59	-0.08040304
145	0x00000000	0.0
146	0x3d065baf	0.03280228
147	0x00000000	0.0
148	0xbdca0cba	-0.09865709
149	0x3e28c323	0.16480689
150	0x80000000	-0.0
151	0xbe4585f1	-0.19289376
152	0x80000000	-0.0
153	0xbd807619	-0.06272525
154	0x3d48c776	0.049018346
155	0x00000000	0.0
156	0x00000000	0.0
157	0x80000000	-0.0
158	0x80000000	-0.0
159	0x80000000	-0.0
160	0x80000000	-0.0
161	0x80000000	-0.0
162	0x00000000	0.0
163	0x80000000	-0.0
164	0x00000000	0.0
165	0x00000000	0.0
166	0x00000000	0.0
167	0x3e0142eb	0.12623183
168	0x80000000	-0.0
169	0x80000000	-0.0
170	0xbcc242ca	-0.023713488
171	0x00000000	0.0
172	0x80000000	-0.0
173	0xbd4b75ca	-0.04967288
174	0x3e3b960e	0.1831896
175	0x00000000	0.0
176	0xbe0fe6c8	-0.1405288
177	0x00000000	0.0
178	0xbce714bd	-0.028208131
179	0x80000000	-0.0
180	0x3df24e5e	0.118313536
181	0xbe0c0bf0	-0.13676429
182	0xbd2686a0	-0.040655732
183	0x00000000	0.0
184	0x3c86567c	0.01639866
185	0x3de24ce5	0.11049823
186	0x80000000	-0.0
187	0x3df89963	0.12138631
188	0xbcffb4ac	-0.03121408
189	0x3dc0219a	0.09381409
190	0x00000000	0.0
191	0x3dad9a71	0.08476723
192	0x00000000	0.0
193	0xbd78c656	-0.060736023
194	0x80000000	-0.0
195	0x80000000	-0.0
196	0x80000000	-0.0
197	0x80000000	-0.0
198	0x00000000	0.0
199	0x3dc76c53	0.09737458
200	0x3e2db6d0	0.16964269
201	0x3da8b2de	0.08237241
202	0xbd143c9e	-0.03619062
203	0xbe70a8fc	-0.23501962
204	0x80000000	-0.0
205	0xbddc3782	-0.10752775
206	0x80000000	-0.0
207	0xbdf623c4	-0.120185405
208	0x3d61ac51	0.055095974
209	0x00000000	0.0
210	0xbd4dc98b	-0.050241034
211	0x80000000	-0.0
212	0x80000000	-0.0
213	0xbd3dd4df	-0.046345588
214	0x80000000	-0.0
215	0x3db792b6	0.0896353
216	0x3e518c2d	0.20463629
217	0x80000000	-0.0
218	0xbdb93981	-0.09044171
219	0x80000000	-0.0
220	0x00000000	0.0
221	0x80000000	-0.0
222	0x80000000	-0.0
223	0x3d5b2acc	0.05350761
224	0x80000000	-0.0
225	0xbb869666	-0.0041072844
226	0x80000000	-0.0
227	0x80000000	-0.0
228	0xbe3e970a	-0.18612304
229	0x80000000	-0.0
230	0xbcff8eac	-0.031195961
231	0x80000000	-0.0
232	0x3b9888ad	0.004654965
233	0x00000000	0.0
234	0x80000000	-0.0
235	0x3e108123	0.14111762
236	0x80000000	-0.0
237	0xbd53e226	-0.051729344
238	0xbd860bb6	-0.065452024
239	0x3d8c4bfe	0.06850432
240	0x80000000	-0.0
241	0x3e0bc94d	0.13651009
242	0x3dbd13d7	0.092323
243	0x3d8df61f	0.069317095
244	0xbd49bcf8	-0.04925248
245	0x00000000	0.0
246	0x3d479a25	0.048730988
247	0x3df9be13	0.12194457
248	0x3da40e59	0.08010549
249	0xbe3c639a	-0.1839737
250	0x3daa9c85	0.08330635
251	0x3df36b82	0.1188574
252	0xbc8c7569	-0.01714583
253	0x00000000	0.0
254	0x3d010d3b	0.03150676
255	0x80000000	-0.0

bias f4 [2]
0	0x3c293ae8	0.010328986
1	0xbc34ee0e	-0.011043085

weight f4 [2, 300]
0	0x3e435616	0.19075808
1	0xbe38901a	-0.1802372
2	0x3e2d7bb6	0.16941723
3	0xbd3b10bc	-0.045670256
4	0x80000000	-0.0
5	0x3e4a43ad	0.19752379
6	0x80000000	-0.0
7	0xbe24fdea	-0.16112486
8	0xbe3247c7	-0.17410193
9	0x3e47f280	0.195261
10	0xbe18326c	-0.14862984
11	0x3e151b61	0.14561225
12	0xbe1d0e7d	-0.15337558
13	0xbe19a2fc	-0.1500358
14	0x3e303a67	0.17209779
15	0x00000000	0.0
16	0x00000000	0.0
17	0x3e2cd7d9	0.16879214
18	0x80000000	-0.0
19	0x80000000	-0.0
20	0x00000000	0.0
21	0x80000000	-0.0
22	0xbd3a6a4e	-0.045511536
23	0xbd787d4a	-0.06066636
24	0x00000000	0.0
25	0x3e389997	0.1802734
26	0xbd4d4a07	-0.050119426
27	0x3dc08483	0.094002746
28	0x3e19013f	0.14941882
29	0x3dfd06c8	0.12354809
30	0x3e0c4d4e	0.13701364
31	0x3df96724	0.12177876
32	0xbdd3eaca	-0.10347517
33	0x80000000	-0.0
34	0x80000000	-0.0
35	0xbe5981e0	-0.2124095
36	0x80000000	-0.0
37	0x3e2a2577	0.16615854
38	0x80000000	-0.0
39	0x80000000	-0.0
40	0xbdbc5d28	-0.09197456
41	0x3ddc3373	0.10752001
42	0x3dcba9d5	0.09944502
43	0xbde7228a	-0.11285885
44	0x00000000	0.0
45	0xbe1cf8e7	-0.15329324
46	0x3d2c0bfd	0.04200362
47	0x80000000	-0.0
48	0x80000000	-0.0
49	0x00000000	0.0
50	0x80000000	-0.0
51	0x3e32f36a	0.17475668
52	0x3d310507	0.043217685
53	0x00000000	0.0
54	0x3de0363c	0.109478444
55	0xbe23fc4a	-0.1601421
56	0xbddecf27	-0.10879355
57	0x80000000	-0.0
58	0xbd01ddd4	-0.031705692
59	0x3d3891d6	0.045060955
60	0x3e446f3f	0.19183062
61	0x80000000	-0.0
62	0x00000000	0.0
63	0xbe13f306	-0.14448175
64	0x00000000	0.0
65	0x80000000	-0.0
66	0x00000000	0.0
67	0x00000000	0.0
68	0xbe814a31	-0.25251916
69	0x00000000	0.0
70	0x00000000	0.0
71	0x3e05f509	0.13081755
72	0xbe1e2689	-0.15444387
73	0x3de2e0cc	0.11078033
74	0x80000000	-0.0
75	0x3e1f55bf	0.15560053
76	0xbe16b0e3	-0.14715914
77	0x80000000	-0.0
78	0xbe28b1fb	-0.16474144
79	0xbe42684b	-0.18985097
80	0xbcc30d66	-0.0238101
81	0x3e481b55	0.19541676
82	0x80000000	-0.0
83	0x3e0298c3	0.12753586
84	0x80000000	-0.0
85	0xbdcb6b98	-0.09932631
86	0x3dfb51f9	0.122714944
87	0xbd40928f	-0.04701477
88	0x3e132db0	0.14372897
89	0x80000000	-0.0
90	0x00000000	0.0
91	0x80000000	-0.0
92	0x00000000	0.0
93	0x80000000	-0.0
94	0x80000000	-0.0
95	0x80000000	-0.0
96	0x80000000	-0.0
97	0xbd66ff85	-0.056396026
98	0xbd9c2cad	-0.07625709
99	0xbd1f5726	-0.03890147
100	0x3dafeecb	0.08590468
101	0x3e34e609	0.17665876
102	0xbe123e82	-0.14281657
103	0x3e3d7022	0.18499807
104	0x3cf4da5b	0.029889276
105	0xbd237823	-0.039909493
106	0xbd3da98e	-0.046304278
107	0xbe6b3cd5	-0.22972424
108	0xbe4f7bd8	-0.20262086
109	0x80000000	-0.0
110	0x00000000	0.0
111	0x3e26e40d	0.16297932
112	0x80000000	-0.0
113	0x00000000	0.0
114	0xbdddd849	-0.10832269
115	0x3dae5806	0.08512883
116	0x3e057b87	0.13035403
117	0xbe627020	-0.22113085
118	0x00000000	0.0
119	0x00000000	0.0
120	0x3e2604e2	0.162128
121	0x00000000	0.0
122	0x3e427100	0.18988419
123	0xbde1925f	-0.11014246
124	0xbe279b38	-0.16367805
125	0xbe22bb5f	-0.15891789
126	0x80000000	-0.0
127	0x80000000	-0.0
128	0xbe061cb3	-0.13096885
129	0x80000000	-0.0
130	0xbe5174f0	-0.20454764
131	0x00000000	0.0
132	0xbe4bb22c	-0.19892186
133	0xbd1743f1	-0.03693003
134	0xbd3af72c	-0.045645878
135	0xbd3935c5	-0.045217294
136	0xbe41be45	-0.18920238
137	0x00000000	0.0
138	0x3e298fe6	0.16558799
139	0x3e1e68c9	0.1546966
140	0x80000000	-0.0
141	0x80000000	-0.0
142	0x3de4c264	0.111698896
143	0xbd39cf6c	-0.04536383
144	0x80000000	-0.0
145	0xbd5326b1	-0.05155057
146	0x80000000	-0.0
147	0x80000000	-0.0
148	0x80000000	-0.0
149	0x80000000	-0.0
150	0x3d421dfd	0.04739188
151	0x00000000	0.0
152	0xbe472bde	-0.19450328
153	0x3db1911c	0.086702555
154	0xbe38bb28	-0.18040144
155	0x00000000	0.0
156	0xbd40e54b	-0.04709367
157	0x3ddd4dff	0.10805892
158	0x3e22c433	0.15895157
159	0xbdea38a6	-0.11436586
160	0x3d3d497f	0.04621267
161	0xbe237eff	-0.15966414
162	0x80000000	-0.0
163	0x00000000	0.0
164	0xbe1f725d	-0.1557097
165	0x80000000	-0.0
166	0x3e48bf41	0.19604208
167	0x80000000	-0.0
168	0x3e16f4ab	0.14741771
169	0x3df43361	0.11923862
170	0xbd82ee3b	-0.06393095
171	0x3e0ad992	0.13559559
172	0x3dbdc620	0.09266305
173	0x3e09caff	0.13456343
174	0x3dc68e0b	0.09695061
175	0x80000000	-0.0
176	0x00000000	0.0
177	0x3de3ce4a	0.11123331
178	0xbe0403c7	-0.12892066
179	0x3e2172d4	0.1576646
180	0x3e3c4130	0.18384242
181	0x00000000	0.0
182	0x80000000	-0.0
183	0xbe511f00	-0.20421982
184	0x80000000	-0.0
185	0xbd2dab9d	-0.04239999
186	0x00000000	0.0
187	0x3e0ab743	0.13546471
188	0xbe1cb45b	-0.15303175
189	0x00000000	0.0
190	0x80000000	-0.0
191	0xbe4a8b59	-0.1977972
192	0xbd9e205f	-0.07721018
193	0x3d139322	0.03602899
194	0x80000000	-0.0
195	0xbd0f28a4	-0.034950867
196	0x3e41aca8	0.1891352
197	0xbcf03446	-0.0293218
198	0x80000000	-0.0
199	0xbe2f1aff	-0.17100142
200	0x80000000	-0.0
201	0x00000000	0.0
202	0x3e34a6d7	0.1764177
203	0x80000000	-0.0
204	0xbe37271b	-0.17886011
205	0x80000000	-0.0
206	0x3ce45487	0.027872337
207	0xbe605319	-0.21906699
208	0xbe438efe	-0.19097516
209	0x00000000	0.0
210	0x80000000	-0.0
211	0x80000000	-0.0
212	0x00000000	0.0
213	0xbdb87e59	-0.09008474
214	0x3e052e46	0.13005933
215	0x3e467d41	0.19383718
216	0x00000000	0.0
217	0xbe47038a	-0.19434944
218	0x00000000	0.0
219	0x80000000	-0.0
220	0x3d3643bb	0.044498187
221	0x00000000	0.0
222	0x00000000	0.0
223	0xbe16bdc9	-0.14720835
224	0x00000000	0.0
225	0x80000000	-0.0
226	0x00000000	0.0
227	0x3d29db38	0.04146883
228	0xbe0a8de6	-0.13530692
229	0x80000000	-0.0
230	0x80000000	-0.0
231	0xbd006bb6	-0.03135272
232	0x3e0af417	0.13569675
233	0xbd5b1774	-0.053489164
234	0x80000000	-0.0
235	0x3e2b43e8	0.16725123
236	0xbd42228c	-0.047396228
237	0x3d31dafb	0.043421727
238	0x00000000	0.0
239	0x00000000	0.0
240	0x3dce7d44	0.10082486
241	0x00000000	0.0
242	0xbdb6cc48	-0.08925682
243	0x3db494ba	0.0881743
244	0x3df48fe3	0.11941507
245	0x80000000	-0.0
246	0xbe15e2ff	-0.14637373
247	0x3d32f33e	0.043689005
248	0x80000000	-0.0
249	0x80000000	-0.0
250	0x80000000	-0.0
251	0xbdd528cf	-0.10408174
252	0xbe0c3dba	-0.13695422
253	0x00000000	0.0
254	0xbe1507b3	-0.14553718
255	0xbce36e00	-0.027762413
