figures/Illu_large_global_2/theta=0.1_s=0.3_step=100/best_model.pth (torch, 246949 bytes, 5 tensors)

bias f4 [200]
00000000: 2405 243f c534 6ebf 0fe3 edbe c27e 53bf
00000010: 9cab 523f 40f6 adbe bc1d c6be 1970 6d3f
00000020: 30de 063f 8f1e 0b3e 375c 303f 48ac 6e3f
00000030: 10cf 643f 4535 643f 6db8 b63f 0d96 323f
00000040: 0580 cdbf 78b3 07bf 1065 b73f bda3 86be
00000050: a039 9dbe b21a 0cbf 81af ba3e 1095 1f3f
00000060: e0db d23f e1d8 e9be 66f0 d6be da42 083f
00000070: f99e bc3f 866a 043f eeda 373e c34d fbbe
00000080: 0c33 0c3f 028e 85be a213 2f3f 0d67 1c3f
00000090: 02b8 09be 7a73 debe 6566 a23f 1888 adbe
000000a0: a2d5 4abf 4466 24bf b8fa d3bf c324 2a3f
000000b0: a12a a7bf d1f1 533f 4d1f 413f 4ead 703f
000000c0: 02ee e5be 03fe 383f 9ad3 4840 6d2f 533f
000000d0: b69a a13f 03ba e33f c37b 3140 2da4 08bf
000000e0: 59b8 42bf 0804 0740 046a ff3e fbfc 583f
000000f0: c0a1 0dbf c51f 19bf fa97 98bf 1f58 533f
00000100: 394c 36bf 9a55 ab3f cdd4 963f 4603 8c3f
00000110: 4f3a 53bf c115 a83d af04 653f 1a3c 19bf
00000120: f5d6 053f 57c1 c23f 0baf d03f 0170 05bf
00000130: 5b5a 873f 79c6 9e3f 51df 463f 9d53 413f
00000140: a389 93bf 4d5c cbbe 160c 2b3f 5270 293f
00000150: a3b4 433f d1cf 243f 08ba 8040 b0a0 b7bf
00000160: bbc6 2b3f d96c 8e3e d728 ec3e 40a7 0d40
00000170: 377a 1fbf 8222 be3f 6634 98be 2258 793f
00000180: f70f 9c3f 1f2a c63e 604f fc3f d0a0 72bf
00000190: d7f2 d43e 4573 3cbf 02bc b83f c72e 5fbf
000001a0: 88da 503f 2119 b5bf e506 fcbe 4875 203f
000001b0: c406 bbbe d1dd 083f 1cdf aa3f 562c 57bf
000001c0: c0a5 0fbf 9fbb a3bf 25ca 00bf 89a6 6bbf
000001d0: 384d 2e3f 1fa4 8b3f f6f0 f7bf 43ef dfbf
000001e0: fcac 5dbe 7853 1c3f d22a aa3e 8765 5dbf
000001f0: b827 dfbe f34c c5be db70 96bf b090 b93f
00000200: 1d14 763f 9dc3 b23f b2e6 08bf d43b 6cbf
00000210: f5b3 d73f ca89 a43f 9633 85bf c3d7 b1be
00000220: ab58 96bf 1384 a93f 9bc5 673f 26af adbf
00000230: 4403 a0bf 9384 dc3f 748d cfbe 1b01 0d40
00000240: fb03 7ebe f941 2b3d 519e 373f 5f4c 78be
00000250: f3ec adbe 0ef0 df3e 38bf cebe 8155 7c3f
00000260: dc56 653f 6933 a93f 46da 843f 51de 253f
00000270: 2aff 213f eafb acbe 781c 103f c16a 7c3e
00000280: ef87 833f 00c6 703f 454e 613f 552e 793f
00000290: 42c3 233f 2762 993f c103 ac3f c4d1 493f
000002a0: bad4 63bf d52f cfbf 8163 203f 2bdd d43f
000002b0: 8bd1 953f 8f74 04c0 e57f 193f e483 a8be
000002c0: 5fcd 0440 89b8 463f 8f4b 4a3f 68b6 fdbe
000002d0: c915 583f fa04 16bf c091 e73f 95b0 4ebf
000002e0: 332f 303f 5f06 703f 2375 2d3f 5b1f 5c3f
000002f0: c625 05bf a71f b63f 1dc5 983f 38f8 1e3f
00000300: 7afd 1e3f 5798 03bf 4953 90be 3630 e63f
00000310: 08ba 5d3f 8338 953f ea3f 203f f4ef c23e
0.64070344 -0.9304927 -0.46462294 -0.8261529 0.82293105 -0.33976936 -0.3869456 0.9274917
0.5268278 0.13585876 0.6889071 0.9323163 0.8937845 0.8914378 1.4275032 0.6976021
-1.6054693 -0.5300822 1.4327717 -0.26296797 -0.30708027 -0.54728234 0.36462024 0.62336826
1.647335 -0.45673278 -0.41980284 0.5322701 1.4736015 0.5172504 0.17954609 -0.49082765
0.5476539 -0.26084906 0.6838933 0.61094743 -0.134491 -0.43447477 1.2687498 -0.33892894
-0.7923223 -0.64218545 -1.6560888 0.66462344 -1.3059884 0.8279086 0.75438386 0.9401444
-0.44908148 0.7226259 3.1379151 0.8249424 1.2625339 1.7791141 2.7731788 -0.5337551
-0.7606254 2.109621 0.4988557 0.8476102 -0.55324936 -0.598141 -1.192138 0.8255634
-0.71210057 1.3385499 1.1783692 1.0938499 -0.82510847 0.08207274 0.8946027 -0.5985733
0.52281123 1.5215253 1.6303419 -0.5212403 1.0574449 1.2404319 0.77684504 0.7551821
-1.1526378 -0.39718857 0.66815317 0.6618701 0.76447505 0.643796 4.022709 -1.4345913
0.67100114 0.2781742 0.46124908 2.2133331 -0.6229586 1.4854281 -0.29727477 0.97400105
1.2192372 0.3870401 1.9711723 -0.9477663 0.41591522 -0.7361339 1.4432375 -0.8718075
0.8158345 -1.4148294 -0.4922401 0.62678957 -0.365286 0.53463465 1.3349338 -0.84052026
-0.5611229 -1.2791632 -0.5030845 -0.9205099 0.68086576 1.0909461 -1.937041 -1.7494892
-0.2164802 0.61064863 0.33235794 -0.86483043 -0.4358499 -0.3853527 -1.1753191 1.449728
0.9612444 1.3965946 -0.53477013 -0.9227879 1.6851794 1.285455 -1.0406368 -0.34734926
-1.1745809 1.3243431 0.90535897 -1.3569076 -1.2500997 1.7227958 -0.40537608 2.2031925
-0.24806206 0.041810963 0.71725947 -0.24247883 -0.3396984 0.43737835 -0.40380263 0.9856797
0.8958566 1.3218814 1.0379112 0.6479235 0.63279974 -0.33785945 0.5629344 0.24650098
1.0275859 0.94052124 0.88010055 0.9733632 0.63969815 1.1983079 1.3438646 0.788357
-0.8899647 -1.6186472 0.6265183 1.6629995 1.1704572 -2.0696142 0.59960777 -0.32913125
2.0750349 0.7762533 0.79021543 -0.49553227 0.8440824 -0.58601344 1.8091354 -0.8073819
0.6882202 0.9375972 0.6775686 0.85985345 -0.5201076 1.422841 1.1935154 0.620975
0.62105525 -0.5140433 -0.28188542 1.7983463 0.86611986 1.1657871 0.62597525 0.38073695

weight f4 [200, 1]
00000000: 98ef b3bf 2e14 97bf 14dc 9cbf bdd2 b13f
00000010: 90fd 15bf d842 88bf 1107 a63f e08b 4cbf
00000020: 14fe c1bf 592f a73e 50a7 10bf 5f5a a5bf
00000030: 7cc1 953f a5b6 6abf 10ea 9f3f 9b8a a0bf
00000040: 46c5 17c0 f33a b53f 18cf 0c40 3f3d 8fbf
00000050: cf1d aabe 859c ba3f 6440 b43e 2517 9abf
00000060: d28e 0b40 da56 ba3f f860 c43f d50f 8e3f
00000070: 4b1b 11c0 a16b dabf bff7 9abf 1b33 b13f
00000080: 9d9c c23e 206f 84bf 2e10 8e3f e378 a3bf
00000090: e6b3 bbbf 47f3 c1bf 73aa f43e bd6a c0bf
000000a0: c44b 0f40 61bf e93f 9a35 a5bf 4149 a5bf
000000b0: ab8a 1540 1e08 93bf 242e 9bbf 7ddc a9bf
000000c0: 95b5 b13f 5bcb 993f 7413 38c0 b4f2 a3bf
000000d0: ca6a a6bf 128b 19c0 4710 6ebf f5a1 bc3f
000000e0: 643b 1a40 87fb 20c0 f4e3 893f 090b 983f
000000f0: c63b e63f 0112 8dbf 775d 1240 0e45 f63f
00000100: 542d ac3f 878b 0940 f113 b1bf ab9e b23f
00000110: c38c 09c0 399a 59bf d14a 963f 6f4c 9cbf
00000120: 6737 8e3f 5914 033f 00ad 8fbf e9a8 cb3e
00000130: f165 993f 4976 953f ef7a 993f e612 923f
00000140: c884 1540 0392 9dbf cbe4 a23f f1a0 a6bf
00000150: 4e92 a4bf 2864 f9bf a069 9abf 0428 103f
00000160: e7cd 09c0 a39d b4be 788c 8b3f ad54 1d40
00000170: e00e 03c0 71f1 a03f 32a8 acbf 656d 973f
00000180: a791 b0bf 28b2 993f db0f 1dc0 f1b3 0f40
00000190: e836 8c3f bd73 d1be 67ef 11c0 239f dbbe
000001a0: 1818 953f 6754 13c0 e9d3 cfbf 254f a83f
000001b0: b620 f7bf d847 8e3f 8db9 b2bf 7416 95bf
000001c0: 69d5 02c0 5d2c 9ebf 62f5 97bf 1956 b23f
000001d0: fa49 99bf b5d1 9a3f ac48 1dc0 f57d 1c40
000001e0: bb04 9bbf ad09 95bf 7e9e b6bf 141a b23f
000001f0: ea63 bd3f 049b a6bf c4b8 1840 3864 b6bf
00000200: 271d f6bf ed2b 11c0 809b 8abf c9cd 0bc0
00000210: 4bc2 a43f 063a 0fc0 2239 e7be 9734 b7bf
00000220: cb54 1540 1334 b3bf f874 933f 8e1e 1640
00000230: c5c1 1a40 7b56 1140 80d0 a4bf c5a3 23c0
00000240: cc22 8dbf 8912 ddbf 3c09 9fbf be91 2e3f
00000250: 9b67 b7bf 7a05 9bbf f901 a2bf b073 973f
00000260: 9246 973f a847 9d3f db33 05c0 3254 b2bf
00000270: 0367 e1bf a575 dc3f 25ab 983f a342 843f
00000280: a654 993f 9ba4 12c0 1fa2 a5bf b5df aabf
00000290: fd83 a73f b868 0540 161b 9f3f ea9e 993f
000002a0: bde1 0ac0 798b 17c0 8446 a4bf 21c0 a43f
000002b0: 6098 9b3f 10bf adbf 6604 903f 127e a63f
000002c0: bcc4 ad3f d9d0 a9bf 61d9 983f 7b5b dfbf
000002d0: e2f3 f6be 0872 a73f 76d8 1140 587a 0ac0
000002e0: 73c7 cf3e 875d 973f 5c20 a5bf 17e6 953f
000002f0: 4a78 d83f d6f7 fb3f 0772 b1bf 6305 a43f
00000300: 1f9c 89bf 1655 8dbf 3833 953f 7cfb 40bf
00000310: 929c a8bf 54a7 0740 cdf2 c73e 281c 96bf
-1.4057493 -1.1803033 -1.2254663 1.3892437 -0.5859003 -1.0645399 1.2970906 -0.7990093
-1.5155663 0.3265331 -0.565053 -1.2918204 1.1699672 -0.91684943 1.2493305 -1.2542299
-2.3714156 1.4158615 2.20014 -1.1190566 -0.33225867 1.4579016 0.35205376 -1.2038313
2.180592 1.4557755 1.5342093 1.1098582 -2.2672908 -1.7064096 -1.2106856 1.3843721
0.3801011 -1.0346413 1.1098688 -1.2771267 -1.4664276 -1.5152367 0.47786292 -1.5032574
2.2389994 1.8261529 -1.2906983 -1.291298 2.3365886 -1.1486852 -1.2123456 -1.3270413
1.388354 1.2015184 -2.8761873 -1.2808442 -1.300134 -2.3991132 -0.9299359 1.4736925
2.409875 -2.515352 1.0772691 1.1878368 1.7986991 -1.1021119 2.2869546 1.9239824
1.3451333 2.149141 -1.3834211 1.3954672 -2.1492164 -0.8500095 1.1741582 -1.2210826
1.1110657 0.51202923 -1.122467 0.39777306 1.1984235 1.1676723 1.1990641 1.1412017
2.3362293 -1.2310184 1.2726072 -1.3017865 -1.2857149 -1.948369 -1.2063484 0.5631106
-2.1531923 -0.35276517 1.0902243 2.4582932 -2.047783 1.2573682 -1.3488829 1.183026
-1.379445 1.2007494 -2.4540927 2.2453578 1.0954256 -0.40908614 -2.280237 -0.4289485
1.1647978 -2.3020265 -1.6236545 1.3149153 -1.9306858 1.1115675 -1.3962876 -1.1647477
-2.0442755 -1.2357289 -1.187176 1.3932525 -1.1975701 1.2095248 -2.4575605 2.4451878
-1.2110819 -1.1643578 -1.4267118 1.3914208 1.4796116 -1.3016057 2.3862772 -1.4249334
-1.9227647 -2.268306 -1.0828705 -2.1844351 1.2871794 -2.2379165 -0.45160776 -1.4312924
2.3333004 -1.4000267 1.1520071 2.345615 2.4180768 2.2709033 -1.2876129 -2.5568707
-1.1026244 -1.7271281 -1.2424693 0.68191135 -1.4328493 -1.2111046 -1.2656852 1.183218
1.1818411 1.2287493 -2.08129 -1.3931944 -1.7609562 1.7223402 1.1927229 1.0332836
1.1978958 -2.2912967 -1.29401 -1.334952 1.3087155 2.0845165 1.2430141 1.2001622
-2.170028 -2.3678877 -1.283402 1.2871133 1.2155876 -1.3573933 1.1251342 1.3007224
1.3575664 -1.326686 1.1941339 -1.7449793 -0.48232943 1.3081675 2.2788367 -2.1637173
0.40581855 1.1825417 -1.29005 1.1710843 1.6911709 1.9685009 -1.3862923 1.2814144
-1.0750769 -1.1041591 1.1656256 -0.75383735 -1.3172781 2.119588 0.3905243 -1.1727343

bias f4 [300]
00000000: a428 ee3c a07d b1bc dcf0 aa3c 6cbb 26bd
00000010: 9204 00be 9d96 ebbc a52a 61bd 882f b3bb
00000020: 83ca 0abd 8f85 753d 38a5 86bc 42ed 173c
00000030: 65c3 83bd fbe0 45bd 4bdf 0fbd ecea 15be
00000040: c403 2f3d bfee 8abd 2210 69bd ebba f9ba
00000050: f21c 1e3d 8db3 c4bd 16c2 c0bc d3b6 42bd
00000060: e7f9 95bd 7def 83bd 6866 babd 085c 223d
00000070: af8d 8ebd bf27 0cbe ae41 04be 3d03 4fbc
00000080: 85c3 b23c c469 49bc 9bcc b7bd a68f dcbd
00000090: bdc1 763d f96a 49bd 0f5b d3bd edd7 0a3c
000000a0: bcec f03c 469f 11be ea01 5c3d dd5a 803c
000000b0: 0d12 1abd 62bf 4abd b768 f0bd f88c c4bd
000000c0: c68c d3bd 0b66 00be 091c d0bd ea14 adbd
000000d0: 0785 553d e435 20bd c07b 20be ab32 ffbc
000000e0: 9e2d a5bc 1278 18ba 9850 8c3d eba0 6e3d
000000f0: ff8b 8b3d 7a58 2dbe 624e 083d 604b c6bd
00000100: ab7e c53c 18d7 ebbd e632 7fbd a824 e0bd
00000110: c095 b63c 56f9 9d3c 2847 36bd 7984 34bd
00000120: fa23 873d 8632 b8bb 7b67 e0bd fb84 773c
00000130: af1f fcbd 2c54 793c f6fa 05be d903 c9bd
00000140: 9ca4 2fbd 7f8a 26be 0862 a0be 3f8f 6abd
00000150: c179 b3bd b4cd 95bd 20b1 e0bc e9f9 ac3c
00000160: d3f8 bf3c 3779 5bbd 271c 06bd 11ba 73bd
00000170: 21fe 5f3d 4e0d 40be c3fa 70bc b76b 7bbd
00000180: cd33 16bd 765d 2d3d 64b4 81bd 11fb 6cbd
00000190: 90ff 20be ba5c 2bbd 894c 8bbd 9654 b9bc
000001a0: 55a2 e4bd b3a2 3d3d 8479 1d3c 94a9 04bd
000001b0: 42d5 4bbd 6b78 85bd 0e6d e93c a35e 13bd
000001c0: c1cd 303d 1cfd 6d3d 4774 60bd c8d8 01bd
000001d0: bed6 6fbd 613e 8cbc 96fb 73bd 147b f8bd
000001e0: 8375 9fbd 3c75 e3bc 2590 50bd a6a1 6ebd
000001f0: 1511 dcbc bbf3 2e3d 9277 893d ecb8 5d3d
00000200: c5ba 043d 58fb 1f3d dca4 cc3a 8ad8 49bd
00000210: 1692 653c 65bb 793c fe84 f0bc 328b 033c
00000220: 99ea 81bd 3cd0 483d 4927 7bbd c06b f83c
00000230: abe3 0dbe de01 77bd f066 d13b e3e8 bbbd
00000240: 0f4e 13be 07b4 58bd 417e f6bc 8858 58bd
00000250: cca0 cbbc 399a 0ebe a4d0 22be 5e6e 853d
00000260: fc7a a5bd deaf d9bd ee45 a6bc cd4d 43bd
00000270: 3801 16bd d5d0 98bd 8b78 0abd 42a7 7dbd
00000280: 7152 e03b 6e14 44bd 41e8 8fbd 7007 85bd
00000290: fc8b 0c3d 6e65 97bd f160 0ebe 44aa 95bd
000002a0: 0193 643d cd3d bcbd 2b38 08bd 8135 a8bd
000002b0: b75e ddbc e739 9cbd 78a9 61bd 4910 9abd
000002c0: 434e 31bb 63c4 97bd 79be e2bc ead6 debd
000002d0: efbb 9c3b cce1 74bd 9c5e aebc 1098 29bd
000002e0: dd16 4e3c 3f3c 64bc 7293 25bd 332c cfbd
000002f0: cd17 0abd fab1 eabd 4a05 c6bd 6172 7d3d
00000300: fa6c 9a3d d079 38bd a9ab 9fbd ae2f 5ebe
00000310: 00dd d1bd b637 91bd 1191 2dbd b393 90bd
00000320: b181 333d e57f e5bd 5cb5 68bc c8db b73c
00000330: 0fc1 673c 3479 8fbb 6d8a 813d d767 0dbd
00000340: 03d8 3fbc e8f0 e7ba 739b 573c b2f9 07be
00000350: a4e9 06bd 3d8c b0bc 6247 a0b9 acb9 cd3d
00000360: 3585 9bbc aa23 c1bd b214 2abd 6eb4 373d
00000370: a46a 14be caec 2dbd 05c6 c3bd 5e6a 23bd
00000380: a7bf 25be 8904 e9bc e23d 343d a75b b1bd
00000390: 5180 55bd ea07 28be 2813 9bbd f870 88ba
000003a0: 14d6 3a3d cffb 6cbd d1e8 0cbe 4389 16be
000003b0: 82ee b0bb 13a2 b4bd c123 08be 70ae e039
000003c0: 502b e0bc 5eed b83d 6a95 5dbd 7472 03be
000003d0: f307 b2bd a20d aabd c205 8dbd 3b5b 973a
000003e0: 848c bcbd a7da 17be 7fa7 8fbd f052 bdbc
000003f0: dd1d 9abd 9620 a0bc 0206 113d 91b8 2fbe
0.029072113 -0.021666348 0.020866804 -0.040706083 -0.12501743 -0.028758341 -0.05497231 -0.0054683127
-0.033884536 0.059941825 -0.016436204 0.009272875 -0.06433753 -0.04831026 -0.03512506 -0.14640397
0.0427282 -0.067838185 -0.05690015 -0.0019052898 0.038601823 -0.09604559 -0.023530047 -0.047537636
-0.07323056 -0.06442163 -0.09101564 0.03963855 -0.06960618 -0.13687037 -0.1291568 -0.012635049
0.021821747 -0.012293283 -0.08974572 -0.10769586 0.060243357 -0.049174283 -0.103201024 0.008474332
0.029409759 -0.14220914 0.053712763 0.015668327 -0.03761487 -0.049498923 -0.11738723 -0.095972
-0.10329585 -0.12538926 -0.10161597 -0.08451255 0.052128818 -0.039113894 -0.15672207 -0.03115209
-0.020163354 -0.0005816232 0.068513095 0.058258932 0.068138115 -0.16928282 0.033277877 -0.096823454
0.024108252 -0.11515635 -0.0623044 -0.109444916 0.022288203 0.019283932 -0.044501454 -0.04407165
0.06598659 -0.0056212572 -0.10957237 0.015107389 -0.12310731 0.015217822 -0.13084015 -0.09815187
-0.042881593 -0.1626377 -0.31324792 -0.057265516 -0.08763457 -0.073146254 -0.02742821 0.02111526
0.023434078 -0.053582396 -0.032741692 -0.05950362 0.054685716 -0.18755075 -0.014708224 -0.06138202
-0.036670495 0.04232546 -0.06333235 -0.057856623 -0.1572249 -0.041836478 -0.06801707 -0.022623342
-0.11163775 0.04629774 0.009611491 -0.032388285 -0.049763925 -0.065171085 0.028494384 -0.035978924
0.043164972 0.058102712 -0.05479839 -0.03170088 -0.058554403 -0.017119588 -0.059566103 -0.1213285
-0.077860855 -0.027765863 -0.050918717 -0.05825963 -0.026863614 0.04271291 0.06712259 0.054131433
0.03240468 0.03905806 0.0015613097 -0.049278773 0.01401188 0.015242432 -0.02936029 0.008028792
-0.06343574 0.049026713 -0.061316762 0.030324817 -0.1385638 -0.060304515 0.006390445 -0.09175279
-0.14385246 -0.052906062 -0.0300895 -0.052818805 -0.024856947 -0.13926019 -0.15899903 0.065151915
-0.08080098 -0.10629247 -0.020297017 -0.04768162 -0.036622256 -0.074617065 -0.033806365 -0.061927088
0.0068457653 -0.047871046 -0.07026721 -0.06495559 0.034313187 -0.07392393 -0.13904168 -0.07307866
0.055804256 -0.09191475 -0.03325669 -0.0821333 -0.027022703 -0.076282315 -0.05509326 -0.075226374
-0.0027054704 -0.07410505 -0.027678715 -0.10880835 0.0047831456 -0.05978565 -0.021285348 -0.041404784
0.012578693 -0.013930379 -0.040423818 -0.10115852 -0.033714104 -0.114597276 -0.096689776 0.06187666
0.07540317 -0.045038044 -0.077964135 -0.21697876 -0.102472305 -0.07090704 -0.042374674 -0.070594214
0.043824855 -0.112060346 -0.014203396 0.022443667 0.01414515 -0.004378462 0.06325231 -0.034522858
-0.011709216 -0.0017695697 0.013159621 -0.13278845 -0.03293766 -0.021551246 -0.00030570762 0.1004518
-0.018984416 -0.094306305 -0.041523643 0.044849806 -0.14493805 -0.042462148 -0.095592536 -0.03989636
-0.16186391 -0.028444545 0.04400433 -0.086600594 -0.052124325 -0.16409269 -0.07572013 -0.0010409644
0.045614317 -0.05785733 -0.13760687 -0.14700799 -0.005399526 -0.08819976 -0.13294889 0.00042854575
-0.027364403 0.09029649 -0.05409757 -0.12836629 -0.086929224 -0.083033815 -0.06885864 0.0011547575
-0.09206489 -0.14829503 -0.07014369 -0.023110837 -0.07525227 -0.019546788 0.03540612 -0.1716025

weight f4 [300, 200]
00000000: 0000 0080 9b5c afbd 9a6c fdbc 80e7 8abc
00000010: dd8f 5b3d 2c66 6abd 4818 1d3c 9969 5ebd
00000020: 5edc 8b3d bb51 31bd 5129 6bbd 1936 48bd
00000030: bd21 ffbc 2653 8cbd 01c9 1fbd bd63 463d
00000040: ab46 af3d 4a32 4bbd f02e 8e3b f813 9ebd
00000050: 574f 81bd 0000 0080 cfb2 6b3c 8416 e5bc
00000060: ac11 debd 140b ce3c 0000 0080 ede9 d6bc
00000070: 9191 86bd a50c 583d 3c13 8b3d 0000 0080
00000080: 599c 993c 4046 20bd 423d 0dbd 5a53 823d
00000090: 6764 1dbd c6c6 e5bd 7791 aabd 0000 0080
000000a0: 0000 0080 e011 343d 99eb 80be 4bab 01bd
000000b0: 2f51 ad3d 0000 0080 0000 0080 0000 0080
000000c0: 0000 0080 0c53 1cbd eb12 a2bd 0000 0080
000000d0: 0000 0080 ca64 b4bd a951 41bd 0000 0080
000000e0: 0000 0000 d412 09be 0000 0080 0000 0080
000000f0: 0000 0080 b6de 033d a0ba fd3d 0000 0080
00000100: 94c2 c1bd caf3 aebd 27b9 44bc 5b4d 54bd
00000110: eca1 b1bc 0000 0080 0000 0080 0000 0080
00000120: 0000 0080 6df4 afbd 3dbf 043d 958a 943d
00000130: 0000 0080 f16d 453d 9f1e e7bc 0000 0080
00000140: 0000 0000 0000 0080 a1f0 063d 0000 0080
00000150: 3b09 33bd 5f89 a53d d1b4 f43c 7e7c b23e
00000160: 0000 0080 861a 9abd 0000 0080 311e 87bd
00000170: 45bc 553c 0000 0080 0000 0080 b4e2 00bd
00000180: a9b1 de3d abb6 8c3d 0000 0080 5bbf 933d
00000190: 0000 0080 3e1a bb3c 0000 0080 7569 bd3d
000001a0: 0000 0080 1069 d63d 0000 0080 774b b73d
000001b0: 0000 0080 d7a7 403d 0000 0080 dab1 a9bd
000001c0: 0000 0080 892b 29be 1673 bfbc ef15 d9bc
000001d0: 0000 0080 0000 0080 5b4e 693e e049 073e
000001e0: 0000 0080 ce2a 043d ccc5 823d 4061 88bb
000001f0: 1be6 8bbd 0000 0080 7d27 d63d 0000 0080
00000200: 0000 0080 0000 0080 e5bf d33b 0000 0080
00000210: 0cb7 c23d fde6 bbbd 3d83 f53d 0000 0080
00000220: 8bcf c63d 6e8a ab3d 6bbd 08bd c993 b43d
00000230: 0000 0000 0000 0080 0000 0080 0000 0080
00000240: ef4d 1ebd ad4b ccbc 0000 0080 713b 043d
00000250: ecc4 ed3c 2553 803d ae19 d83c 0273 28bd
00000260: 0000 0080 0000 0080 64fd ac3c 0000 0080
00000270: 0000 0080 ff8f 88bd 0000 0080 0000 0080
00000280: 0000 0080 f0fb 373c 9405 413d 032e bb3d
00000290: b751 b73d 95c7 96bd 0000 0000 0000 0080
000002a0: 38b2 333d 80eb 0c3e 056e 5dbd 4f0b 17bc
000002b0: 0000 0080 a759 adbe 0000 0080 100c 013d
000002c0: b384 d33d 0000 0080 29b2 613d 0000 0080
000002d0: a9da cbbd 0000 0080 9062 ecbd 291b 2dbc
000002e0: a796 03be 0000 0080 14d5 28bd 0000 0080
000002f0: 0000 0080 0000 0080 0000 0080 0000 0080
00000300: 9868 fa3c 7a65 b9bd 0000 0080 a977 253d
00000310: 943d 803d 0000 0080 0000 0080 654f 1b3d
00000320: 926b 3dbd 0000 0080 0000 0080 6ce4 e1bc
00000330: d921 0a3d 4334 7f3c e18b 7c3c 47c7 803d
00000340: 0ca5 593d 1d1d 41bd 0374 afbd 4fbf 993d
00000350: 5ac5 46bd 6b97 063c 0000 0080 f822 42bd
00000360: 15a3 d83d 51f9 9fbd 0000 0080 c8d8 41bd
00000370: 49f6 48bd 88f6 1dbd c9e2 bdbd 2966 883d
00000380: 0000 0080 2658 abbd 0000 0080 548b 4b3d
00000390: d425 c7bd 6cdd 693c d256 a33d eba6 febc
000003a0: ee44 f9bd 090c 693d 8190 76bd f8b9 91bc
000003b0: 8d15 4c3c 7943 15bd 45d8 04be c65e 383d
000003c0: 0000 0080 f62d 7fbd e990 42be 0000 0080
000003d0: 2cdc 0e3e 27c5 76bd 0000 0080 0000 0080
000003e0: 8dd6 97bd 0000 0080 0000 0080 451f 9e3d
000003f0: 0000 0080 a0fc e9bd ba8f 9ebd f14b 35bd
-0.0 -0.08562585 -0.030935574 -0.01695609 0.053603996 -0.057226345 0.009588309 -0.054299925
0.06829141 -0.043290835 -0.05741245 -0.048879717 -0.031144017 -0.06851797 -0.03901005 0.04843496
0.08558401 -0.049608506 0.0043390915 -0.077186525 -0.06313961 -0.0 0.014385893 -0.027964838
-0.108432144 0.025151767 -0.0 -0.026234591 -0.06570733 0.052746434 0.06790778 -0.0
0.01875131 -0.039129496 -0.034482248 0.06363554 -0.03842583 -0.11219554 -0.083285265 -0.0
-0.0 0.04396236 -0.25179747 -0.0316575 0.0846275 -0.0 -0.0 -0.0
-0.0 -0.038165137 -0.079137646 -0.0 -0.0 -0.088082865 -0.047197018 -0.0
0.0 -0.13386089 -0.0 -0.0 -0.0 0.032194816 0.123891115 -0.0
-0.09460941 -0.08542593 -0.012007034 -0.051831584 -0.021683656 -0.0 -0.0 -0.0
-0.0 -0.085915424 0.03240894 0.07252995 -0.0 0.04820055 -0.028212843 -0.0
0.0 -0.0 0.032944325 -0.0 -0.043709975 0.08082842 0.029871376 0.34860605
-0.0 -0.0752459 -0.0 -0.065975554 0.013045375 -0.0 -0.0 -0.0314662
0.1087373 0.06870779 -0.0 0.072142325 -0.0 0.022839662 -0.0 0.0924863
-0.0 0.10469258 -0.0 0.08949941 -0.0 0.047035065 -0.0 -0.082858756
-0.0 -0.16520514 -0.023370307 -0.026499717 -0.0 -0.0 0.22783796 0.13211775
-0.0 0.032267384 0.06385383 -0.0041619837 -0.068309985 -0.0 0.104567505 -0.0
-0.0 -0.0 0.0064620846 -0.0 0.0950757 -0.09174917 0.11987922 -0.0
0.097075544 0.08376013 -0.033383768 0.0881725 0.0 -0.0 -0.0 -0.0
-0.038648542 -0.024938429 -0.0 0.03228325 0.029024564 0.062658586 0.026379433 -0.041125305
-0.0 -0.0 0.02111692 -0.0 -0.0 -0.0666809 -0.0 -0.0
-0.0 0.0112295 0.04712446 0.091396354 0.08951133 -0.07362286 0.0 -0.0
0.043871135 0.13761711 -0.05406 -0.009219005 -0.0 -0.33857462 -0.0 0.031505644
0.10328045 -0.0 0.055101547 -0.0 -0.099538155 -0.0 -0.11542237 -0.0105655575
-0.12850438 -0.0 -0.041218832 -0.0 -0.0 -0.0 -0.0 -0.0
0.030567452 -0.09052558 -0.0 0.04039732 0.06261745 -0.0 -0.0 0.037917513
-0.046245165 -0.0 -0.0 -0.02757474 0.033723686 0.015576425 0.015414209 0.06288009
0.053135917 -0.047146905 -0.08567049 0.07507192 -0.048528053 0.008214812 -0.0 -0.04739663
0.105779804 -0.07811225 -0.0 -0.04732588 -0.049063 -0.03856519 -0.092717715 0.066601105
-0.0 -0.08366422 -0.0 0.04969342 -0.09724012 0.0142739825 0.07975544 -0.031085452
-0.121713504 0.056896243 -0.060196403 -0.017788872 0.01245631 -0.0364413 -0.12973125 0.045012258
-0.0 -0.06229969 -0.19000591 -0.0 0.13951176 -0.060246613 -0.0 -0.0
-0.07413969 -0.0 -0.0 0.07720808 -0.0 -0.114251375 -0.077422574 -0.044261876

weight f4 [1, 300]
00000000: f68c 953d f62c 783d 0dd6 a8bd 6621 913d
00000010: 0000 0000 0000 0000 1845 b13d 9c4a 62bd
00000020: 0000 0000 c95d 96bd 4619 adbd eda5 af3d
00000030: 0000 0000 8b81 e0bd 398b 9e3d 0000 0080
00000040: 9148 883d 1c2c 92bd cf31 b8bd ce28 723d
00000050: 7a55 79be 0000 0000 eed8 9c3e 06ae b63d
00000060: ed29 a6bd 0000 0000 0000 0000 7be4 973d
00000070: 4a30 8b3d 0000 0000 0000 0000 2e32 b9bd
00000080: 5704 86bd 1d4c c2be 0000 0000 0000 0000
00000090: 0343 d53d 3b04 b93d 67e7 5f3e 5e31 c7bd
000000a0: 91e8 b4bd 0000 0000 0dce 833d 3c1f a8bd
000000b0: 0000 0000 6a59 7abd 0000 0000 73b5 cc3d
000000c0: 0000 0000 0000 0080 0000 0000 d43b 1bbe
000000d0: b813 79bd 150c d8bd 0000 0000 bcab 8b3e
000000e0: 0000 0000 53d7 953d 2e3e b43d 62e2 b3bd
000000f0: af49 88bd 0000 0000 3140 afbd 0000 0000
00000100: 73ba 873d 0000 0000 2953 c5bd 0000 0080
00000110: e097 ae3d 9172 6b3e af5b ba3d 0000 0000
00000120: 9fcf abbd 898b b9bd 0000 0000 4d58 5bbe
00000130: 0000 0000 6eb1 c5bd 0000 0000 0000 0000
00000140: 5798 a63d 0000 0000 b28a b1be 0000 0000
00000150: 0000 0000 7a68 173e 42f8 cc3d 3ba8 843d
00000160: dd38 d1bd 0000 0000 32fb 2b3e 8d34 9cbd
00000170: 9e91 9b3d 0000 0000 a3df 7ebd 83be 03be
00000180: 5963 c93d f953 d53d 0000 0000 6a94 8fbe
00000190: 0000 0000 b75d 7cbd 2999 a8bd 0000 0000
000001a0: 0000 0000 c7b5 8fbd af7d 97bd e8d5 af3d
000001b0: 0000 0000 d194 003f 0180 b4bd 3b80 b7bd
000001c0: b33d 87bd 4bac 80bd bcdc a83d 30d5 e3bd
000001d0: 0000 0000 b67c a63d 0000 0000 0000 0000
000001e0: 0000 0000 0000 0000 0000 0080 5072 9ebd
000001f0: 0000 0000 5fca a2bd 5ba7 a93d dfe0 c1bd
00000200: 6222 893d d2be b83d 308c aabd ebd8 163e
00000210: 9cf8 513d 7ff0 bdbd 0221 97bd 7599 21be
00000220: 11b5 8bbd be5e b4bd 0000 0000 a394 1cbe
00000230: 0000 0080 7f70 f8bd 3e9a 283e 0000 0000
00000240: 0000 0000 47f2 943d 0000 0000 6bbb 573e
00000250: ec40 ac3d 0000 0000 0000 0000 a6fc cf3d
00000260: 0000 0000 0000 0000 f26e a6bd 7c2f 99bd
00000270: 0000 0000 0000 0000 1407 aa3d 58aa 61be
00000280: 0df5 4cbe 3cbb f5bd 0000 0000 0000 0000
00000290: 5a92 a5bd 0000 0000 0000 0000 0319 963d
000002a0: c1c4 6cbd 2ae4 0e3e 51fc 853d 0000 0080
000002b0: ddfd a9bd 4e47 b8bd 0000 0000 ee92 5fbd
000002c0: 3fa8 9f3d 1894 3e3e 0000 0000 0000 0000
000002d0: 8877 93bd c7ff a4bd be64 8bbd d245 a3bd
000002e0: ea4b 98bd 08f8 233e 70b2 2fbd 0000 0000
000002f0: 0000 0080 0000 0000 fde3 013e 9568 a43d
00000300: 7945 193e 821f 8ebd 3f31 803e f161 96be
00000310: 51c5 a1be 0000 0000 6c79 9e3d 23e7 013e
00000320: 9f43 afbd 0000 0080 0000 0000 1be2 a9bd
00000330: 51d5 48bd 0386 9c3d c77e 033e d457 cf3d
00000340: 38e3 a2bd dbe3 e7bd 7b8d a8bd 0000 0000
00000350: b0fa 95bd a4bd e53d adc5 aabd 03fd a3bd
00000360: 8c6c 533d 0000 0080 1dbd 9d3d bf63 bebd
00000370: 0000 0000 0000 0000 0000 0000 c1b3 a63d
00000380: 0000 0000 1ca1 963d 01bf 87bd c7c0 6d3e
00000390: 0000 0000 0000 0000 1908 1d3e d5cb 87bd
000003a0: b0f7 fdbd 0000 0000 0000 0000 e692 b4be
000003b0: 0fa9 d63d 0000 0000 0000 0000 3b16 77bd
000003c0: ebf4 2dbe 33db b7bd 8499 bfbd 0000 0000
000003d0: 0000 0000 0000 0000 ae90 353e 346b b93d
000003e0: 0000 0000 0000 0000 0000 0080 bed7 c43d
000003f0: 411a b9bd 9deb e43d 3098 ae3d 0000 0000
0.07302277 0.060589753 -0.08243952 0.07086448 0.0 0.0 0.08655757 -0.055246934
0.0 -0.07342107 -0.08452086 0.0857657 0.0 -0.10962208 0.07741398 -0.0
0.06654466 -0.071373194 -0.08993875 0.059120946 -0.24349013 0.0 0.30634254 0.08919911
-0.081134655 0.0 0.0 0.07416626 0.0679632 0.0 0.0 -0.09042774
-0.065437965 -0.37948695 0.0 0.0 0.10413172 0.0903401 0.21865617 -0.09726213
-0.08833421 0.0 0.064357854 -0.082090825 0.0 -0.06112043 0.0 0.09995546
0.0 -0.0 0.0 -0.15159541 -0.06080982 -0.105491795 0.0 0.2727946
0.0 0.073164605 0.08800922 -0.087834135 -0.06654679 0.0 -0.085571654 0.0
0.06627359 0.0 -0.09635002 -0.0 0.085250616 0.22992922 0.090995185 0.0
-0.0838921 -0.09059817 0.0 -0.21420403 0.0 -0.09652983 0.0 0.0
0.08134525 0.0 -0.3467613 0.0 0.0 0.14785948 0.10008289 0.064774
-0.10215924 0.0 0.16795042 -0.07627211 0.07596134 0.0 -0.062224995 -0.12865643
0.09833402 0.10416407 0.0 -0.28042918 0.0 -0.06161281 -0.08232338 0.0
0.0 -0.07017093 -0.07397019 0.08585721 0.0 0.50227076 -0.08813477 -0.08960005
-0.06603565 -0.06282862 0.08245227 -0.11124647 0.0 0.081292555 0.0 0.0
0.0 0.0 -0.0 -0.07736647 0.0 -0.079487555 0.08283874 -0.09466719
0.06696011 0.09020771 -0.0832752 0.14731185 0.051262483 -0.092743866 -0.073793426 -0.15781195
-0.06821645 -0.08807133 0.0 -0.15291075 -0.0 -0.12130832 0.16465089 0.0
0.0 0.07272773 0.0 0.21067588 0.0841082 0.0 0.0 0.10155611
0.0 0.0 -0.0812663 -0.0747976 0.0 0.0 0.08302131 -0.22037637
-0.20015354 -0.11998603 0.0 0.0 -0.08084555 0.0 0.0 0.07328989
-0.057804827 0.13954225 0.06542266 -0.0 -0.08300374 -0.08997975 0.0 -0.054583482
0.07795762 0.18611181 0.0 0.0 -0.07200533 -0.08056598 -0.068063244 -0.079723015
-0.074363545 0.16012585 -0.04289478 0.0 -0.0 0.0 0.12684627 0.0802776
0.14967908 -0.069396034 0.25037572 -0.29371598 -0.31595853 0.0 0.07738003 0.12685828
-0.085578196 -0.0 0.0 -0.08295079 -0.04903156 0.07642748 0.1284133 0.10124174
-0.07953495 -0.11322757 -0.0823011 0.0 -0.073232055 0.11217812 -0.08338485 -0.080072425
0.05161719 -0.0 0.07702086 -0.09296369 0.0 0.0 0.0 0.08139754
0.0 0.07354948 -0.06628228 0.2321807 0.0 0.0 0.1533512 -0.06630675
-0.12400758 0.0 0.0 -0.35268325 0.10481464 0.0 0.0 -0.060323935
-0.1698796 -0.08977356 -0.09355453 0.0 0.0 0.0 0.17730972 0.090536505
0.0 0.0 -0.0 0.09611462 -0.09038211 0.11177752 0.08525121 0.0
