figures/Illu_large_partial_3/theta=0.1_s=0.7_step=100/best_model.pth (torch, 247654 bytes, 5 tensors)

weight f4 [200, 1]
000000 a5 51 d7 bf aa 74 a2 bf fb da 93 bf 24 6a d8 bf
       -1.6821791 -1.2691853 -1.1551203 -1.6907392
000010 22 af ed be 7a d4 cd bf 51 3b af 3f 25 15 9d 3f
       -0.46422678 -1.6080468 1.3689977 1.2272078
000020 b0 d9 a3 3f 85 41 b1 3f 3b 39 96 bf 33 e7 95 3f
       1.2800808 1.384812 -1.1736215 1.1711181
000030 a6 8c a4 bf 2e f6 29 bf 50 1a ba bf 98 fb 9c bf
       -1.2855422 -0.66391265 -1.453928 -1.226428
000040 08 d1 51 bf e3 a3 d3 3f ac 21 94 3f 91 d4 9e 3f
       -0.8195958 1.6534389 1.1572776 1.240862
000050 7c 8d 98 3f 15 db 9b bf fd 39 b3 3f e3 ea dc bf
       1.1918178 -1.2176234 1.4002072 -1.7259182
000060 06 6d a8 bf 4d fc 56 bf 80 d5 49 bf 3f 83 74 3f
       -1.3158271 -0.8397873 -0.788414 0.95512766
000070 0a d8 a0 bf c2 ee a6 bf 85 bc 4b bf 05 36 9e 3f
       -1.256593 -1.3041613 -0.7958453 1.2360235
000080 19 ff 9c bf ee 2e ba bf f0 f3 e7 bf fb 59 a4 bf
       -1.226535 -1.4545572 -1.8121319 -1.283996
000090 c0 15 9c bf 41 23 01 c0 fd 1d 5b bf 8a 06 85 bf
       -1.2194138 -2.0177767 -0.85592633 -1.039262
0000a0 9f 8c fe 3d 43 23 9a bf 03 51 a3 bf c9 b4 81 bf
       0.12429165 -1.2042011 -1.2759098 -1.0133296
0000b0 68 f3 67 3f 75 97 66 bf af 28 96 bf 03 fc fd be
       0.90605783 -0.90074855 -1.1731166 -0.49606332
0000c0 63 5d 9e bf 1e 24 ea 3f 76 10 2a 3f a5 48 99 bf
       -1.2372249 1.8292272 0.6643137 -1.1975294
0000d0 0c 18 9d bf 02 04 c6 3f c8 bd a3 3f 83 35 aa 3f
       -1.2272964 1.5469973 1.2792292 1.329758
0000e0 09 85 8a bf bb a4 a9 3f 80 d2 ae 3f 96 d7 8f bf
       -1.0821849 1.3253397 1.365799 -1.1237667
0000f0 1c 57 a2 3f 3a a5 d8 3b bf e4 8d bf 41 21 95 bf
       1.2682834 0.0066114934 -1.1085433 -1.1650773
000100 6e 6e aa bf 02 24 b0 bf a3 ae aa 3e 2d 55 4e bf
       -1.331495 -1.3760989 0.33336362 -0.8059872
000110 61 78 4d 3f 1d 8a 36 3f f9 5b 1e 3f 7a 2c e5 3f
       0.8026181 0.71304494 0.6185909 1.7904198
000120 8c e3 a6 bf 00 db 0b bf 1f 59 91 3f fa e0 83 3f
       -1.3038192 -0.5463104 1.1355323 1.0303032
000130 68 f7 95 3f e4 6c b4 3f 05 60 47 3f b0 46 ad 3f
       1.1716127 1.4095731 0.7788089 1.3537197
000140 3c d0 c3 bf 34 e0 5c bf 01 91 8b bf d8 0e 90 3f
       -1.5297923 -0.86279607 -1.0903627 1.125453
000150 0a d1 b8 3f 0c 52 ab bf f9 8e 47 3f 11 33 b3 bf
       1.4438794 -1.3384414 0.77952534 -1.3999959
000160 02 e0 a2 bf 70 09 8e bf d7 c0 50 bf 82 46 3c 3f
       -1.2724612 -1.109663 -0.8154425 0.73545086
000170 16 c5 ae bf 05 26 22 40 c5 bd 97 3f b1 04 87 3f
       -1.3653896 2.5335705 1.1854788 1.0548307
000180 1c fe 9a bf a0 92 a1 3f c9 91 1e bf 0f cb 8a bf
       -1.2108798 1.2622871 -0.619412 -1.0843219
000190 32 80 8b 3f 94 c5 92 3f 0e 9d 4f 3f 06 9d 43 bf
       1.0898497 1.1466546 0.8109902 -0.76411474
0001a0 86 e3 03 3f b1 08 68 bf ab b7 5d bf 2e 71 b6 bf
       0.5151905 -0.9063826 -0.8660838 -1.425329
0001b0 5b 18 8b 3f f5 d9 9c bf 05 a3 6c 3f dc f5 94 3f
       1.0866808 -1.2254015 0.9243625 1.163753
0001c0 79 32 8d bf 94 0e af bf f8 5c 9c bf 32 4f b3 bf
       -1.1031028 -1.3676324 -1.2215872 -1.4008543
0001d0 aa cd da 3f a4 0d b4 3f 09 44 5d bf be 7c b1 3f
       1.7094014 1.4066663 -0.8643194 1.3866193
0001e0 70 6a a2 3f 50 11 09 c0 98 16 c2 bf 4b 02 99 bf
       1.2688732 -2.1416817 -1.5163145 -1.1953825
0001f0 ef 5a de bf 84 f9 8d bf 59 b0 e5 3e 83 6c 9b 3f
       -1.7371501 -1.1091771 0.44861105 1.214249
000200 d8 8f 41 bf 46 f2 a1 3f 01 a9 01 40 22 1f 67 bf
       -0.75610113 1.2652061 2.0259402 -0.9028188
000210 60 60 93 3f 7a ff 2e bf 8e 04 a3 bf f6 1f 02 3f
       1.1513786 -0.68358576 -1.2735765 0.5083002
000220 af 96 8f 3f 72 c5 9f 3f 6c 65 cd bf 37 82 96 bf
       1.121786 1.248213 -1.6046576 -1.1758488
000230 eb 0a cd bf c3 28 7a bc 1b ed 23 bf 1a 02 99 3f
       -1.6018957 -0.015268507 -0.6403367 1.1953766
000240 af c7 50 bf 6b 34 9f bf 39 df 81 3f 2b de 0e c0
       -0.81554693 -1.2437872 1.0146247 -2.23231
000250 30 16 9c 3f 46 46 fd 3f 2e 26 b8 bf da 01 03 40
       1.2194271 1.9787071 -1.4386652 2.046988
000260 fe e5 83 3f 18 81 fb 3f d1 24 b0 3f 84 bf 88 bf
       1.0304563 1.9648771 1.3761235 -1.0683446
000270 24 a4 c5 3f 56 6f bd bd 66 23 9d 3f da 29 9e bf
       1.5440717 -0.09249751 1.2276428 -1.2356522
000280 2b 47 af bf a7 06 22 3f d8 ad 8c 3f b0 b3 76 3f
       -1.3693594 0.632914 1.0990553 0.9636793
000290 b3 c7 9e bf 9e 50 e1 bf 16 6f 91 3f 45 6f 08 bf
       -1.2404693 -1.7602727 1.1362026 -0.53294784
0002a0 1f 2e 82 3f cc 19 93 bf 11 61 93 3f 19 fe 73 3f
       1.0170325 -1.1492248 1.1513997 0.953096
0002b0 a0 b1 6b bf 2c 00 3a 3f 53 2a a0 3f fb 63 a3 3f
       -0.9206791 0.7265651 1.2512916 1.2764887
0002c0 79 20 9a bf 61 95 a7 3f 62 4d 9d 3f d5 38 7a bf
       -1.204116 1.3092462 1.228924 -0.9774297
0002d0 37 4a e5 3f 3d 67 a0 3f fa 25 da 3f 2b 8a cc 3f
       1.7913274 1.2531506 1.704284 1.5979666
0002e0 bf bf 7b 3f 9a 79 9f 3f 25 b2 f2 3e 5d 27 80 3f
       0.98339456 1.2458985 0.47401538 1.0012013
0002f0 ce b1 cf bf cf 69 a7 bc b9 b5 cc 3f df 43 96 bf
       -1.6226137 -0.020436196 1.5992957 -1.1739463
000300 9e 36 88 bf d3 e5 c4 3e e9 26 a1 3f 32 1e 56 3f
       -1.0641668 0.38456592 1.259 0.83639824
000310 3a 69 be bd 71 70 98 3f 50 79 b3 bf bd 70 ef 3f
       -0.09297414 1.1909314 -1.4021397 1.870628

bias f4 [200]
000000 58 16 60 bf ab 57 66 3f e0 39 8a 3f eb b4 4f 3f
       -0.87534094 0.8997752 1.0798912 0.81135434
000010 94 17 86 3f bd ba 29 bf 37 1d 4e 3f 7d c2 8e bf
       1.0475945 -0.66300565 0.8051333 -1.1153103
000020 4d fb 8f 3f 3f ff 2c bf 66 27 47 bf cd a0 55 bf
       1.1248566 -0.67576975 -0.7779449 -0.8344849
000030 f4 ef a7 3f 62 c8 49 3e 7d f4 56 bf fc 2f 74 bf
       1.3120103 0.19705346 -0.8396681 -0.9538572
000040 d6 ea ca 3e 43 09 d8 be 0c 0f d5 3e a0 ac 6d 3f
       0.3963229 -0.42194566 0.41613042 0.9284153
000050 25 08 5a bf ff 46 82 bf 20 cd 11 3f 9d 85 3d 3f
       -0.8516868 -1.0177916 0.5695362 0.74032
000060 12 51 b4 3f e4 b7 7b 3d 2f b8 71 be 76 75 db 3e
       1.4087241 0.06145467 -0.23605417 0.42863053
000070 2e 45 ad 3f bb 11 63 bf 68 2d 5f 3d 5b 8d 90 3f
       1.3536737 -0.8869893 0.054486662 1.1293138
000080 3d c5 a6 3f d4 4d 62 3f 67 10 1c 3f b8 db b9 3f
       1.3028942 0.88400006 0.6096253 1.4520178
000090 c5 20 88 bf f2 99 0e 3f b8 f5 0a 3f 37 cd 52 3f
       -1.0635 0.5570365 0.5428119 0.82344383
0000a0 0e a9 00 3e dd ad 65 3f c4 86 9e bf 34 45 23 be
       0.12564489 0.8971842 -1.2384877 -0.15944368
0000b0 1b e4 e1 3e 77 08 30 3f 11 2a 0f 3f 94 69 4f 3f
       0.44119343 0.68762916 0.55923563 0.81020474
0000c0 48 7a 0b bf 66 71 e6 bc 95 27 7f 3f 0c a8 88 3f
       -0.5448346 -0.028130244 0.9966977 1.0676284
0000d0 36 a5 83 3f f7 07 46 bf de e4 1d be 2f 30 7a bf
       1.0284793 -0.77355903 -0.15419337 -0.9772977
0000e0 80 ee 87 3f 3d a5 74 3f 75 51 3c 3f d7 7f 34 bf
       1.061966 0.95564634 0.73561794 -0.7050757
0000f0 ac db 2c bf 77 d5 28 bf 33 4f 72 3f 9f 7d 81 3f
       -0.6752269 -0.6595072 0.946521 1.0116462
000100 05 1f d0 be cc 4c 73 bf 9a 5a 3b be b2 f5 88 3e
       -0.40648666 -0.9503906 -0.1829628 0.2674995
000110 1a 00 09 3e f1 be 1c 3f f1 02 d5 3e f8 b5 08 bf
       0.13378945 0.61228853 0.41603807 -0.5340266
000120 0e f2 41 bf ff 48 bf bc e0 fe 14 bf 0c 9a 61 bf
       -0.7575997 -0.023350237 -0.5820141 -0.8812568
000130 8c 1d 53 bf 3f c8 48 bf 5a 2a 53 3e 59 e2 ee be
       -0.8246696 -0.7843055 0.20621625 -0.46657065
000140 ef 67 4d bf 44 d9 f2 3e 42 ad 8f 3e e4 e9 58 bf
       -0.80236715 0.47431386 0.28061873 -0.8473189
000150 8c 5a 49 3f 40 33 79 bf d9 8a d7 bd cf 6a 55 3f
       0.7865379 -0.97343826 -0.1052453 0.833661
000160 0e 61 91 3f 75 71 65 3f f1 df 25 be f8 6e b5 3e
       1.1357744 0.89626247 -0.16198708 0.35436225
000170 01 35 45 bf 42 07 0b bf c7 31 7a 3f c3 0c 37 bf
       -0.77034 -0.5430795 0.97732204 -0.7150385
000180 b9 e9 7f bf bd a0 ab 3f 19 5a 13 3f 10 4c 63 3f
       -0.9996601 1.3408428 0.57559353 0.8878794
000190 b9 2f 40 bf 33 34 13 bf 96 97 41 be b4 58 92 be
       -0.7507282 -0.57501525 -0.18905482 -0.285833
0001a0 85 15 7c 3e 74 e0 3a be 50 88 96 be b1 b6 48 bf
       0.24617584 -0.18249685 -0.29400873 -0.78403765
0001b0 8a e6 fc be 77 1a 4c bf 0f 04 83 3e 27 20 87 3f
       -0.49394637 -0.7972788 0.25589034 1.0556687
0001c0 d5 1e 61 3f 47 ff 0a 3f 45 13 5f bf b4 ca f3 be
       0.8793767 0.5429577 -0.8713878 -0.47615588
0001d0 b7 ad 87 be 9c 31 6b 3f 25 77 09 3f f6 36 51 3f
       -0.2649972 0.9187257 0.53697425 0.8172449
0001e0 96 88 8c 3f b1 a6 3f bf 57 cc 6a bf d1 2e 67 bf
       1.0979183 -0.74863726 -0.9171805 -0.9030581
0001f0 13 b0 47 3f ad b7 16 bf 16 29 1e 3e 55 bf 33 3f
       0.7800304 -0.58874017 0.1544536 0.70213825
000200 81 37 70 bc 25 ea 99 bf ef 47 f5 be f8 7c ac 3e
       -0.014661671 -1.202458 -0.47906443 0.33689094
000210 40 45 43 bf 9e 2d 32 3e 63 7a 01 3f 0e 33 fb 3e
       -0.7627754 0.17400214 0.5057737 0.4906239
000220 76 67 3b bf 4c 9a 96 3f e7 63 44 3f 00 8a 41 3f
       -0.73204744 1.1765838 0.7671494 0.75601196
000230 ef 0f 63 bf ea 49 19 bf c6 86 61 3e 86 04 4e bf
       -0.8869619 -0.5987841 0.22024068 -0.8047565
000240 5c bd ee 3d cf fb 5e bf 27 db 19 bf 6d 19 12 3f
       0.11657211 -0.8710298 -0.60100025 0.57070047
000250 55 45 83 bf 20 7c 47 3f ee f9 75 be 86 3c 2e bf
       -1.0255533 0.77923775 -0.24021122 -0.680611
000260 7f e8 38 bf 7e 0b 38 bf 11 07 71 3f 3d c7 bc 3e
       -0.7222976 -0.71892536 0.9415141 0.36870757
000270 90 71 d4 be 8c 7d 1d be f7 2d 82 bf 6d ec 5f bf
       -0.4149289 -0.15379924 -1.0170277 -0.8747013
000280 e3 6f 5e bf fd ed 97 be 87 26 40 bf 8c eb f3 3e
       -0.86889476 -0.29673758 -0.7505879 0.47640646
000290 f0 3c 75 3f 2f 3c 5f bf be 23 81 3f a1 5f 59 be
       0.9579611 -0.8720121 1.0089033 -0.21227886
0002a0 9e bc 21 bf 5d 6a 8f 3f 9f 35 55 bf 71 c4 d7 3e
       -0.6317843 1.1204334 -0.83284944 0.4214206
0002b0 09 01 f3 3e 82 91 e1 3e a6 95 84 bf ba 20 5f 3f
       0.47461727 0.44056326 -1.0358169 0.8715931
0002c0 a7 75 64 bf ea fa 00 bf 18 06 a6 3f d7 f7 81 be
       -0.89242023 -0.50382864 1.297061 -0.253844
0002d0 2b 67 13 bf 3c 43 97 bf a5 3a 39 bf 13 7e 42 bf
       -0.57579297 -1.1817393 -0.7235511 -0.75973624
0002e0 61 f7 c2 be 9d 0a 87 bf 16 0c 12 3f 2e 6b ec be
       -0.3807936 -1.0550114 0.5704969 -0.46175522
0002f0 3c e1 4b bf e6 26 26 bf f5 8b 70 3f 6c 30 2c 3f
       -0.79640555 -0.64903104 0.9396356 0.67261386
000300 b3 76 c8 3e eb 3e aa 3e c8 a1 84 3f 75 07 00 be
       0.3915306 0.33251128 1.0361872 -0.12502845
000310 a8 5b 95 be ca d3 13 bf 35 70 5c bf d1 8d 06 bf
       -0.2917149 -0.5774504 -0.86108714 -0.52560145

bias f4 [300]
000000 ab 3d 84 bd aa 4b fb 3c 2f ec 7e 3d 96 da 15 bd
       -0.06457075 0.030675728 0.06223696 -0.036585413
000010 5e b0 c3 3c f7 2a 79 3d 6c 9d 5b ba 8d 59 97 3c
       0.02388781 0.06083199 -0.00083776447 0.018475318
000020 b6 61 80 bd c1 06 50 3d bf 67 89 3d ba 9e 82 3d
       -0.06268637 0.05078769 0.06709241 0.06377931
000030 d4 53 76 3c 91 7f f5 bc d3 6a 5c bd b8 33 49 3d
       0.015034635 -0.029968055 -0.053812813 0.04912159
000040 d1 60 e1 ba 0d 35 fb 3c 28 b6 2c 3d 92 8b bc bc
       -0.0017194991 0.030664945 0.042165905 -0.023015771
000050 ba 2b c1 3c a5 be bd 3c a4 3f 2d bd 18 5f 3b 3a
       0.02358042 0.023162195 -0.04229702 0.0007147654
000060 e7 fb a1 3c 23 2c 23 bd e3 2f 43 bd fa 6a e5 bb
       0.019773437 -0.039837014 -0.04765309 -0.007001278
000070 d0 36 f8 bb 7d 5a 77 3d b4 0a e9 bb 69 27 88 bb
       -0.0075748935 0.06038903 -0.0071118716 -0.0041550887
000080 5d fc bc bb f5 51 7d bd 35 50 bb 3c 5a 50 76 3d
       -0.0057673887 -0.06184574 0.022865394 0.060135223
000090 59 3b 6f 3d 2d f2 ad 3b 26 e3 de bb 38 1a 0a bd
       0.058406208 0.0053084106 -0.0068019805 -0.03371641
0000a0 58 b2 22 3d 68 a3 4e bd 2c 7e 2d bd 53 e9 2c 3d
       0.039720863 -0.050448805 -0.042356655 0.042214703
0000b0 90 db 52 bb a5 24 21 bd df 90 a7 bc f1 06 07 3d
       -0.0032174326 -0.039341588 -0.020454822 0.032965604
0000c0 7c 23 53 bb 58 31 81 bd a8 6c 15 bc 33 94 90 bd
       -0.0032217195 -0.0630824 -0.009120144 -0.07059517
0000d0 e6 22 67 3d 38 b3 b1 3c 35 6f 24 3d 0b 0c 95 bd
       0.056429766 0.021691903 0.040145118 -0.07277688
0000e0 27 02 0f bd 15 69 8b 38 bd dc 19 bd f8 cc cd 3c
       -0.034914162 6.6476096e-05 -0.037564028 0.02512215
0000f0 b8 f6 f5 bc 8f 91 40 bd 0e 00 a2 bc e1 f6 ac bc
       -0.030024871 -0.047013815 -0.019775417 -0.021113815
000100 a0 58 da bc 68 57 3d bc 63 b5 8c ba b7 f2 c4 bc
       -0.026653588 -0.011556484 -0.001073521 -0.024041517
000110 20 e1 e8 3c 49 7f 0d bc 82 93 46 3d 1b 32 fd bc
       0.02842766 -0.008636304 0.04848052 -0.030907681
000120 73 98 1f 3d a9 22 48 bd 5d 77 66 bd c4 f8 44 3d
       0.038963746 -0.04886118 -0.056266177 0.048088804
000130 4f bf 5e 3d 84 84 bd bc d2 9d f4 3c fd 14 1e be
       0.054381665 -0.023134477 0.02986041 -0.15437694
000140 4a d2 3c 3d da ab 80 3d 01 70 42 3d 01 8b 59 bd
       0.046098985 0.06282778 0.047470096 -0.05311108
000150 11 b5 05 3c 8c ca 2b bd 20 06 ef ba e4 45 e0 bc
       0.008160845 -0.04194121 -0.0018236078 -0.027377076
000160 30 f0 66 bd 84 35 45 3d 53 9a 19 3d 48 1f d3 bc
       -0.056381404 0.04814674 0.03750069 -0.025771752
000170 f1 fe 30 3d 5b 30 8f bd 88 ed 26 bd 45 1b e5 3c
       0.04321188 -0.06991645 -0.04075387 0.027967105
000180 00 27 2d bd 83 e9 00 be 98 ef 94 bd ab 28 8c 3c
       -0.04227352 -0.12589078 -0.072722614 0.017109236
000190 fd 53 59 bd fd 88 d3 bd eb 32 93 bc 3a af 4a 3b
       -0.053058613 -0.10328863 -0.017968616 0.0030927197
0001a0 79 35 51 bd 27 b3 89 bc eb 24 4f b9 5e d0 c3 bc
       -0.051076386 -0.01680906 -0.00019754811 -0.023903068
0001b0 a2 80 0b bd c8 c3 80 3d 75 35 5c bd 2b ac d7 3a
       -0.03405822 0.06287342 -0.053761918 0.0016454508
0001c0 83 9f 33 be 45 5e a9 3d 84 8c 03 bc 10 56 c4 3b
       -0.17541318 0.082699336 -0.008029107 0.0059917048
0001d0 5d 6e 25 bd f3 45 9b 3a 98 89 3b bd a5 b5 b9 3c
       -0.040388454 0.0011846408 -0.045785517 0.022669623
0001e0 a1 bd 37 3d bb 41 97 bd cf 03 09 3c f2 4d af bd
       0.04485858 -0.07385584 0.008362724 -0.08559789
0001f0 5a 08 15 bc 64 8a 6e 3d 97 38 7c bd 20 2b 40 bc
       -0.009096229 0.05823745 -0.061577406 -0.011729032
000200 eb 13 58 3a bf 14 7b bd 87 5b 4b bd 27 27 26 bd
       0.0008242714 -0.061299082 -0.049647834 -0.040564682
000210 5b 44 94 bd 39 73 c5 3c 24 93 c8 bd d8 94 b2 3c
       -0.072396 0.024102794 -0.0979369 0.02179949
000220 71 6a 70 3d 6c ae 41 3d 61 cb 17 3d 04 3d 17 3d
       0.05869526 0.047285482 0.03705919 0.036923423
000230 bd f2 8d bd 69 de 79 bc 20 6d 44 3c 2d f5 d0 bd
       -0.06931064 -0.015250781 0.011988908 -0.102030136
000240 08 43 80 bc c7 83 cb 3a 30 c3 d7 bc 91 df b5 bb
       -0.015656963 0.0015526944 -0.02633819 -0.005550333
000250 c9 81 aa bc f4 b7 f5 3c 22 42 16 bd a1 22 aa 3c
       -0.02081384 0.029994942 -0.036684163 0.020768465
000260 b0 ee 20 3d 06 c2 e9 3c 7f f9 78 3d 57 38 97 b9
       0.03929013 0.0285349 0.060784813 -0.0002884294
000270 77 0b 8a bd 71 3d 33 bd 0c 18 8d bd ab 6b 6f 3d
       -0.06740468 -0.043759767 -0.06889352 0.05845229
000280 76 f1 5b bd 94 9a a0 3c b6 4b 86 bd d9 4d 3e bd
       -0.053697072 0.019604959 -0.065574095 -0.04646096
000290 02 60 9f bb a5 c3 49 3d 4a e3 85 3c 29 18 65 3d
       -0.00486374 0.049258847 0.016343731 0.055931244
0002a0 27 aa 0f bd f9 9c 2b bd b0 18 72 bd d4 bf 77 bd
       -0.03507438 -0.041897748 -0.059105575 -0.060485676
0002b0 bd c6 98 bd db 25 66 3d dc 58 7e bd 11 18 77 3d
       -0.07459781 0.056188446 -0.06209646 0.060325686
0002c0 48 89 55 bc 23 38 0f 3d 23 ab 3d 3c a9 35 77 bc
       -0.013033219 0.034965646 0.011576447 -0.015088477
0002d0 44 32 ca bb 44 f4 d8 bc 69 3b 4a bc 52 99 0c bd
       -0.006170543 -0.026483662 -0.012343266 -0.034325905
0002e0 26 5d 9c ba 4a b8 06 bd 70 e1 19 bd 62 10 7b 3d
       -0.0011929616 -0.032890595 -0.03756851 0.06129492
0002f0 68 2a 65 3d ec 2e 52 3c 14 f4 e1 bc 7b c2 4c 3d
       0.055948645 0.01282857 -0.027582206 0.04999016
000300 82 d6 15 bd a4 70 83 3d 37 13 a9 3c 84 9d d0 bc
       -0.036581524 0.06417969 0.020639045 -0.025465734
000310 4c 43 8d 3c 37 49 2c 3d 7a da 2c bd 23 57 dc 3b
       0.017244004 0.04206201 -0.042200543 0.0067242547
000320 2f 35 ea ba e3 28 0a 3d 3c 02 40 3d 62 bd 84 bd
       -0.0017868633 0.0337304 0.04687713 -0.064814344
000330 08 80 06 bd 8c 1e 3f 3d 7b 46 88 3c e5 7b e6 bc
       -0.032836944 0.04665999 0.01663517 -0.02813525
000340 a2 c0 49 3c 52 ef aa 3c 90 94 1e 3d 70 09 44 bd
       0.012313994 0.02086607 0.0387159 -0.047860563
000350 96 1c 2d 3d 92 1f 87 3d a9 73 88 3c 2c ab 90 bd
       0.04226359 0.065978184 0.016656714 -0.070638984
000360 7e 4f 4a bd 2b 57 c8 bb 18 7a 45 bd b7 58 21 3b
       -0.049392216 -0.006113907 -0.04821214 0.0024619529
000370 ac 56 89 bb 88 7d 50 3d 1f 11 27 3d 0f 2a 77 3d
       -0.0041912403 0.050900966 0.040787812 0.060342845
000380 73 9d 3e 3d c8 80 8a bd ef 83 bd bb bf 83 50 3b
       0.046536874 -0.06762844 -0.00578355 0.0031816808
000390 b2 b3 6a bd b3 d1 d4 bc 8a 74 bb 3d cb 90 35 bd
       -0.057300277 -0.025978899 0.091530874 -0.04432754
0003a0 50 10 9b bd 26 e5 89 3d 0c 18 c7 3c 32 97 23 3d
       -0.07571471 0.0673316 0.024303459 0.039939113
0003b0 18 e2 c4 3b 1b 12 ad bc 59 81 0f be 95 6b 50 3d
       0.006008398 -0.021126797 -0.14014186 0.05088385
0003c0 fa 68 80 bd 2b a8 62 bd 5d 28 b9 3c 9a 59 cc 3c
       -0.06270023 -0.05533616 0.022602255 0.02494507
0003d0 87 9c 13 3d 9c f7 5d 3d 7a 68 9b bb 2a 77 ee bd
       0.036037948 0.054191217 -0.004742679 -0.116438225
0003e0 24 05 41 3d b8 fc c0 ba 0e 83 3c 3d 6e 15 55 3d
       0.047124043 -0.0014723754 0.04602342 0.05202239
0003f0 46 21 6e 3c ee 9f a5 bb 37 0c 2b 3c ac a1 9b bc
       0.0145343 -0.0050544655 0.010439924 -0.01899799

weight f4 [300, 200]
000000 00 00 00 80 00 00 00 80 00 00 00 80 00 00 00 80
       -0.0 -0.0 -0.0 -0.0
000010 ab a8 b6 3d 00 00 00 80 00 00 00 80 00 00 00 00
       0.089188896 -0.0 -0.0 0.0
000020 39 b9 dd bd 00 00 00 00 00 00 00 80 50 83 b1 3d
       -0.10826344 0.0 -0.0 0.08667624
000030 00 00 00 80 63 d1 58 3d 00 00 00 00 00 00 00 00
       -0.0 0.05293406 0.0 0.0
000040 76 62 25 3d 15 b0 10 bd 00 00 00 80 00 00 00 80
       0.040377103 -0.035324175 -0.0 -0.0
000050 00 00 00 00 f3 b8 a2 3d 00 00 00 80 00 00 00 80
       0.0 0.079454325 -0.0 -0.0
000060 00 00 00 80 41 91 91 bd 00 00 00 80 00 00 00 80
       -0.0 -0.07107783 -0.0 -0.0
000070 00 00 00 80 b2 9e c7 3d 00 00 00 80 d0 e1 d2 3c
       -0.0 0.097470656 -0.0 0.025742441
000080 00 00 00 80 00 00 00 80 00 00 00 80 00 00 00 80
       -0.0 -0.0 -0.0 -0.0
000090 00 00 00 00 00 00 00 80 00 00 00 00 4a 4b 88 bd
       0.0 -0.0 0.0 -0.06654985
0000a0 00 00 00 80 96 f8 57 3c 00 00 00 00 00 00 00 80
       -0.0 0.013181826 0.0 -0.0
0000b0 4e ac 58 3d 00 00 00 00 00 00 00 80 00 00 00 00
       0.052898698 0.0 -0.0 0.0
0000c0 bf 5f 5c bd 00 00 00 80 da 1b 3b 3d 0f 50 44 3d
       -0.053802248 -0.0 0.04568086 0.047927912
0000d0 e6 2e 8b bd 00 00 00 00 39 2c 41 3d 00 00 00 00
       -0.067960545 0.0 0.047161315 0.0
0000e0 00 00 00 80 00 00 00 80 00 00 00 80 00 00 00 80
       -0.0 -0.0 -0.0 -0.0
0000f0 00 00 00 00 16 12 24 3d 00 00 00 80 1c 11 94 bd
       0.0 0.04005631 -0.0 -0.07229826
000100 00 00 00 80 00 00 00 00 00 00 00 80 00 00 00 80
       -0.0 0.0 -0.0 -0.0
000110 00 00 00 80 00 00 00 00 c6 67 8e bd 00 00 00 80
       -0.0 0.0 -0.06953387 -0.0
000120 00 00 00 00 5b 5d 82 bd 00 00 00 80 31 42 7b bd
       0.0 -0.063654624 -0.0 -0.061342422
000130 00 00 00 00 00 00 00 00 00 00 00 80 f7 c3 8a 3d
       0.0 0.0 -0.0 0.067756586
000140 00 00 00 00 00 00 00 80 00 00 00 80 00 00 00 00
       0.0 -0.0 -0.0 0.0
000150 00 00 00 80 00 00 00 00 00 00 00 80 00 00 00 80
       -0.0 0.0 -0.0 -0.0
000160 00 05 9c bd 00 00 00 80 9a 18 83 bd 00 00 00 00
       -0.07618141 -0.0 -0.06401177 0.0
000170 00 00 00 00 bf ab de bc 00 00 00 80 b5 be 92 bd
       0.0 -0.027181504 -0.0 -0.07165281
000180 00 00 00 00 00 00 00 80 d1 53 72 3d 00 00 00 80
       0.0 -0.0 0.059161965 -0.0
000190 00 00 00 80 00 00 00 80 00 00 00 80 00 00 00 80
       -0.0 -0.0 -0.0 -0.0
0001a0 00 00 00 00 00 00 00 80 2a f2 5e 3d 66 7b b1 bd
       0.0 -0.0 0.054430164 -0.086661145
0001b0 00 00 00 80 00 00 00 00 00 00 00 80 00 00 00 80
       -0.0 0.0 -0.0 -0.0
0001c0 00 00 00 80 0c af 9c bd 75 9a 0d bd d9 29 8b bd
       -0.0 -0.07650575 -0.03457113 -0.06795091
0001d0 00 00 00 80 00 00 00 80 da f5 57 3d 00 00 00 80
       -0.0 -0.0 0.052724697 -0.0
0001e0 c3 16 ca bd 15 2b 0e bd 00 00 00 00 1b f4 14 bd
       -0.09867623 -0.034709055 0.0 -0.03636561
0001f0 00 00 00 80 00 00 00 80 bd f4 42 3d 00 00 00 80
       -0.0 -0.0 0.047596682 -0.0
000200 00 00 00 80 00 00 00 00 7b 7a 12 bd 8c d4 48 3d
       -0.0 0.0 -0.035761338 0.049030825
000210 60 87 58 bd 98 db 80 3d d4 c3 a7 bd 56 e3 8b 3d
       -0.05286348 0.06291884 -0.08191648 0.0683047
000220 00 00 00 80 00 00 00 80 00 00 00 80 26 f4 25 3d
       -0.0 -0.0 -0.0 0.04051604
000230 00 00 00 00 00 00 00 80 00 00 00 00 1f 96 8b 3d
       0.0 -0.0 0.0 0.06815743
000240 00 00 00 80 76 1d b4 3d 00 00 00 80 00 00 00 80
       -0.0 0.08794682 -0.0 -0.0
000250 24 80 4b bd 00 00 00 80 b5 51 7c bd 00 00 00 80
       -0.04968275 -0.0 -0.06160136 -0.0
000260 00 00 00 80 2a 06 11 3e 06 da ca bd 00 00 00 80
       -0.0 0.14162508 -0.09904866 -0.0
000270 00 00 00 80 00 00 00 80 97 12 ca 3d df 65 96 bd
       -0.0 -0.0 0.09866827 -0.07343649
000280 00 00 00 00 00 00 00 80 00 00 00 80 00 00 00 80
       0.0 -0.0 -0.0 -0.0
000290 00 00 00 80 00 00 00 80 fc 78 33 3d 00 00 00 80
       -0.0 -0.0 0.04381655 -0.0
0002a0 00 00 00 80 00 00 00 80 82 6f 89 bd 7e a2 9e bd
       -0.0 -0.0 -0.067107216 -0.07745837
0002b0 00 00 00 80 00 00 00 00 00 00 00 00 3f 14 83 bd
       -0.0 0.0 0.0 -0.06400346
0002c0 00 00 00 00 00 00 00 80 00 00 00 80 00 00 00 80
       0.0 -0.0 -0.0 -0.0
0002d0 00 00 00 80 e8 18 15 3e 00 00 00 80 00 00 00 80
       -0.0 0.14560282 -0.0 -0.0
0002e0 00 00 00 80 00 00 00 00 00 00 00 00 00 00 00 80
       -0.0 0.0 0.0 -0.0
0002f0 00 00 00 80 00 00 00 80 00 00 00 80 8f 69 b5 bd
       -0.0 -0.0 -0.0 -0.08858024
000300 a2 22 32 3d 00 00 00 00 00 00 00 80 0f d7 85 bd
       0.04349006 0.0 -0.0 -0.0653516
000310 00 00 00 80 00 00 00 80 00 00 00 00 98 ab d5 3d
       -0.0 -0.0 0.0 0.104331195
000320 d4 c1 19 bf 00 00 00 00 2a 25 05 be 7f ba ee 3d
       -0.60061383 0.0 -0.13002458 0.11656665
000330 df c4 08 3d b8 d4 eb be 23 5a 66 3e e5 34 9c 3e
       0.033390876 -0.4606073 0.22495322 0.30509105
000340 a9 bf 0a 3e 1d 75 37 3e a9 94 ca bd 49 1f 95 3e
       0.13549675 0.17915769 -0.09891636 0.2912543
000350 3b 61 41 bd 8a b1 e4 bc ca d2 0e bf b1 32 b7 bc
       -0.047211867 -0.027916688 -0.5579039 -0.022363039
000360 2e 7c 3c be cf 4c 75 3e 82 b0 ab 3e 24 06 a8 3e
       -0.18406746 0.23955081 0.33533102 0.32817185
000370 e0 23 b4 3e a3 e9 b0 be b0 fb e1 3e a5 25 b0 3d
       0.3518362 -0.3455325 0.44137335 0.0860093
000380 a8 9d c4 bd 90 8e 8b be da 6d 95 be 3e 94 3d 3e
       -0.09600383 -0.27257204 -0.29185373 0.18513581
000390 6f fc ae bd 9a 79 01 bf 08 d5 82 be 37 d0 a9 3e
       -0.08544242 -0.50576174 -0.25553155 0.33166668
0003a0 81 e7 32 bd 1d a2 9a 3d 25 65 2e 3d 46 2b 2e be
       -0.04367781 0.07550452 0.042576928 -0.17008695
0003b0 6c 9e 1d be 00 00 00 00 47 cc c9 bd c5 7d b9 bd
       -0.15392464 0.0 -0.09853416 -0.09057192
0003c0 7e dd 35 3e 66 58 11 bd 0e 86 5e bd 5f 95 95 be
       0.17760274 -0.035484694 -0.054327063 -0.29215524
0003d0 c0 b0 5f 3e cc 89 12 bd c8 2c 40 be 45 69 04 be
       0.21844769 -0.035775945 -0.18767083 -0.12930782
0003e0 57 25 16 bd 04 a4 a3 3e 67 3f 32 3e 7d 81 ed bd
       -0.036656704 0.31961071 0.17406999 -0.115969636
0003f0 ba ce cb bd 01 01 c5 3d 8c 93 9c 3e 65 5f a9 3e
       -0.09951539 0.09619332 0.3058132 0.33080593

weight f4 [1, 300]
000000 7f 84 67 bc 39 00 4d 3e eb a4 17 bd ab df 50 3d
       -0.014130711 0.20019616 -0.037022512 0.050994556
000010 0a 0f 5c 3c c9 27 2a 3d 69 d0 54 bd 1e 7e 4c 3d
       0.01343132 0.04154185 -0.051956568 0.049924962
000020 ec 3a 79 3b f3 0c 2d bd 94 54 4a bd ba e7 fc bc
       0.0038029505 -0.042248677 -0.049397066 -0.030872215
000030 62 a6 b9 bc 8d ba 75 bd dc f1 47 3b c2 e4 20 3d
       -0.022662345 -0.05999236 0.003050915 0.03928066
000040 74 5a 5e 3d 10 0a bf 3c be 1d 80 bc ab af 57 bd
       0.05428548 0.023320228 -0.015639182 -0.052657764
000050 b8 9c 7d 3d 79 61 dd 3c 2c 41 aa 3c 16 ae a3 3d
       0.061917037 0.027024018 0.02078303 0.07992189
000060 f2 d6 24 3e 2c 6f 3f bd 12 ad f1 3c 05 13 2c 3d
       0.1609762 -0.04673688 0.029501472 0.042010326
000070 b9 84 f3 3c 0a a6 ce bc 29 75 59 bd 17 2a 45 3d
       0.029726373 -0.025225658 -0.05309025 0.048135843
000080 44 21 79 3d f2 96 cc 3c bf 0f 3f 3d 8e a7 24 3d
       0.06082274 0.02497432 0.046645876 0.040198855
000090 38 ac 5c bd ae 40 84 3d 93 bc 81 bd e5 02 58 3d
       -0.053875178 0.06457649 -0.06334796 0.052737135
0000a0 11 dc 5f 3d b1 ea 35 bd 15 4b c5 bc 1d 45 ea 3c
       0.05465323 -0.044413272 -0.024083653 0.028597409
0000b0 b4 ee 48 bc 39 6e f6 3c f8 da 25 3c f4 54 c9 bc
       -0.0122639425 0.030081855 0.010123007 -0.024576642
0000c0 74 0b 61 3d 23 dc 63 3d 04 37 f4 3b 60 b5 21 3d
       0.054942563 0.05562986 0.0074528474 0.039479613
0000d0 68 85 0a 3d 9a d5 12 bd 98 cd a0 3c 85 89 98 3c
       0.033818632 -0.035848238 0.019629285 0.018620262
0000e0 4b f8 da ba df 87 73 3c 5e 9e f4 3c e9 6a c2 3c
       -0.0016706077 0.014863937 0.029860672 0.02373262
0000f0 9e ed 64 bd cc 9e 33 3d e3 a8 40 3d 46 b9 ca 3b
       -0.055890672 0.043852612 0.047036063 0.006186637
000100 67 f9 52 3d 34 e9 43 3d e9 34 6a 3d b2 ea 4c bd
       0.05150738 0.04782982 0.057179365 -0.05002851
000110 c2 17 70 3d 8e ff ab 3c c9 b7 ea bb e9 f7 e2 3c
       0.058616407 0.020995881 -0.007163022 0.027706103
000120 a4 03 60 3d ef f3 36 3d 3c 15 eb 3c 2e f4 dd 3c
       0.054690972 0.044666227 0.028696649 0.027093973
000130 af 5a 01 bd 4a 0e 70 3d 22 2f 49 bd fb 8c 00 3f
       -0.031580623 0.058607377 -0.049117215 0.5021512
000140 d1 19 62 bd 01 f0 53 3c 9d cb 74 bd a3 39 2e 3d
       -0.0552004 0.012935639 -0.059764493 0.042535435
000150 97 39 08 3d 57 9e 57 3d 3d 33 c0 3c 8d 49 74 bd
       0.033258047 0.05264124 0.023461932 -0.059640456
000160 13 4d 5b 3c 2e 4e f0 3c 50 29 ed 3c c9 e4 62 bd
       0.013385075 0.029334154 0.028950363 -0.055393968
000170 7b 6c 39 bd 31 a0 b7 3a c4 25 39 3d 17 7a d7 bc
       -0.04526947 0.0014009533 0.04520203 -0.026303334
000180 7b 8f 0c bd cc b4 a2 3e 4e 32 64 3d 54 9b 99 3c
       -0.03431652 0.31778562 0.055712037 0.018750824
000190 72 7e 89 bb 50 b2 2d 3e 17 3e 41 bd 8b 06 0c bd
       -0.0041959817 0.16962552 -0.047178354 -0.034185927
0001a0 ca e6 d4 bc 2c 25 4a 3c d5 5e 3b 3c 0d 4a 55 bc
       -0.025988955 0.012337964 0.011436184 -0.013018143
0001b0 75 a7 92 3c 53 d8 4a bd cf 8f 22 3d 0f bc 1a 3d
       0.017902115 -0.04952271 0.039687928 0.037777003
0001c0 2a 82 92 be ad 66 05 be b5 37 09 3d d2 e0 f3 3c
       -0.28614932 -0.13027449 0.033500392 0.029770289
0001d0 75 ac 5a 3c 31 38 06 bd 81 bd 73 bd 56 06 17 3c
       0.013346781 -0.032768432 -0.059506897 0.009217819
0001e0 a6 d7 b9 3c c7 90 18 3d d8 88 d7 bc 08 6e b5 bc
       0.022685837 0.037247445 -0.02631037 -0.022147194
0001f0 62 88 18 bd 2b 17 5f bd 07 80 9b bd b3 36 a9 3c
       -0.03723944 -0.054465454 -0.07592779 0.020655965
000200 6c f0 b2 bc 22 33 00 bd 11 7a 48 3d 08 49 71 3d
       -0.021843158 -0.031298764 0.048944537 0.05890754
000210 d0 85 97 3c 46 c1 66 bd a6 1b 7e be 9b 4b c6 bc
       0.018496424 -0.056336664 -0.24815235 -0.024205973
000220 2b 82 8c bc 88 b2 30 bd 4f a1 a7 bc 81 1c 56 3d
       -0.017151913 -0.04313901 -0.02046266 0.052273277
000230 62 a6 6b 3c d5 a1 e1 bc 67 42 b0 bc a8 01 a0 bc
       0.0143829305 -0.027542988 -0.021516038 -0.01953204
000240 2b c5 40 3d 99 57 52 3c bd cc 41 3d 78 30 1e 3d
       0.047063034 0.012838268 0.047314394 0.038620442
000250 9f a2 cf bc 49 12 1e 3d 45 99 e7 bc ae ba 2f 3d
       -0.025346098 0.038591657 -0.028271327 0.04290264
000260 5c ac 51 3d 06 5d 44 bd bb cc 51 bd 68 fb 47 bd
       0.051189765 -0.047940277 -0.051220637 -0.048823744
000270 b2 5b 82 bc 78 3b d0 bc 5c 46 52 3d 2c e7 8d bc
       -0.015912864 -0.025418982 0.05133663 -0.017322145
000280 d4 be a1 3c ee 21 6c 3d e2 d7 83 3c 71 1f 30 3d
       0.019744314 0.057649545 0.016094152 0.042998735
000290 e8 3b 5b bd bb 9a 4b 3d 73 ce 3b bd de a6 62 bd
       -0.053523928 0.04970811 -0.045851182 -0.05533492
0002a0 85 5a 82 bd 5b 13 05 3b ae c8 32 3d d8 5b 3f 3d
       -0.063649215 0.0020305726 0.043648414 0.04671845
0002b0 2d 91 dc 3b 11 20 9e bc 1e fe 09 bd da 61 4b bd
       0.0067311735 -0.0193024 -0.03368961 -0.049653865
0002c0 37 93 26 bd 30 fd dc bc 6d f7 15 bd 73 e5 90 3c
       -0.04066774 -0.026976198 -0.036612917 0.017687535
0002d0 86 68 7f bd 12 09 da bc ee e0 14 3d 7c 61 39 3d
       -0.06235554 -0.026615653 0.036347322 0.045258984
0002e0 05 b4 e3 3c 35 a2 30 bd e3 8a 5c bd bc 46 7c 3d
       0.027795801 -0.043123443 -0.05384339 0.061590895
0002f0 32 1b 2b 3d 6b ed 26 bc 1a f3 0c bd c5 11 10 bd
       0.041773982 -0.010188441 -0.034411527 -0.035173196
000300 92 a5 af 3c 16 1d 40 3d 46 85 02 3b d1 42 0c bd
       0.021441255 0.04690274 0.0019915863 -0.03424341
000310 cb eb 6e 3c 86 bd 40 bd f5 6a 27 3d e6 94 71 bd
       0.014582585 -0.047055744 0.040873487 -0.05897989
000320 3a c0 b4 bc 8d a9 34 3c f9 f6 fa 3c 48 54 f7 bc
       -0.022064317 0.011026752 0.030635344 -0.030191556
000330 9d 4d 13 bd 41 ca 45 3c e4 97 75 3d e6 7e 65 bd
       -0.03596269 0.012072147 0.059959307 -0.056029223
000340 2e f2 4f bb 2f 12 11 3d 00 c1 82 3d ab c4 10 bd
       -0.0031730044 0.03541773 0.06384468 -0.035343807
000350 17 72 34 3d 0b 1d 62 bd de a8 19 3d 9e 19 a5 bc
       0.044054117 -0.05520348 0.03751456 -0.020153817
000360 68 ea 82 3d 18 1c 23 3d b1 8c 39 3d 74 5c 40 3d
       0.06392366 0.039821714 0.04530019 0.04696317
000370 a6 56 4d 3d ee 25 2f bc 07 d7 4c 3d fc b1 19 3d
       0.050131463 -0.0106901955 0.050009754 0.037523255
000380 f4 1c 71 bd cc 9c 8c bc 52 ed 47 3d 24 c0 10 bd
       -0.058865502 -0.01716461 0.04881031 -0.03533949
000390 49 fb dd bc b4 2a 2a bd e8 b8 ae 3e 1d 07 59 3d
       -0.027097361 -0.04154463 0.34125447 0.0529853
0003a0 18 8c df 3c 06 2a 39 bd 26 fa 61 bd 01 32 15 3c
       0.027288482 -0.045206092 -0.0551702 0.00910616
0003b0 af 73 46 3c 90 6b 62 bd 1f a1 c5 be 85 6b 24 bd
       0.012112542 -0.05527836 -0.38599488 -0.0401416
0003c0 2f 82 af 3c 98 b4 85 bb ff ed 5a 3d a9 82 40 bd
       0.021424381 -0.0040803663 0.053449627 -0.046999607
0003d0 35 81 df bc c2 87 e9 3c b0 54 0d bd 09 e8 14 3a
       -0.02728329 0.028507117 -0.034504592 0.0005680328
0003e0 68 1b 70 bd 1f 58 27 bd 90 32 62 3c 9b 8c 25 3d
       -0.058619887 -0.040855523 0.013806 0.040417295
0003f0 db 9e 98 bc 5a 8d 2a bd 8a f6 0e 3d d6 70 a9 bc
       -0.018630436 -0.04163871 0.034903087 -0.020683687
