figures/TS_global/theta=0.1_s=0.8_step=1/best_model.pth (torch, 249061 bytes, 6 tensors)

bias f4 [200]
00000000: c143 a9be 2df8 d53d 7af9 8a3e 36aa 1fbf
00000010: 3c3e 033e 93cb fd3e 0957 c03d c436 2ebf
00000020: 0b9e 06bf 0434 10bf c30f eabe 5098 b63e
00000030: 40fe 8bbe a64d d5bd 702e 883e b1b0 c4be
00000040: 71ee 1bbf 4e50 a6bd 72a1 a83e 8ad2 ae3e
00000050: bb0f f03c 6cbe fbbd 1549 10bf 77af 253f
00000060: 946d 3d3e 2a0b ac3e d1e0 213f f34a 13bf
00000070: 8897 b8be 0606 263f 0d3a c1bd 32b7 cf3e
00000080: 6c95 c93e 0ed0 cfbe 0ba7 e03e c5fe dbbe
00000090: 04df 24bf 325f 073f 2890 16bf 399a dd3e
000000a0: d949 bcbd 8945 1bbe 8a25 a03e 93ed 5dbe
000000b0: 52fe 303f 48f8 003e a5d6 cdbe 1ec5 f23d
000000c0: 7e6a da3d 43d0 8fbe c952 273f a0fd 873d
000000d0: 4777 09bf 055b c6be f088 0e3f 34b6 2abf
000000e0: 0f9f 9cbe 3978 c13d 8f73 a8be f272 383e
000000f0: f820 e0be 9032 13be 47f5 c93e 4877 1e3f
00000100: 397d b9be 8fc5 8d3e 1e6a 863d bcb3 333f
00000110: 3fa9 78be f286 08bf 0941 3dbe 3c64 a63e
00000120: ea59 d8bd a8f9 02bf 8489 103f 0ae6 d2be
00000130: 43f8 693e 9b05 09be 9857 b03e 1b9a 82be
00000140: da9a ae3e 9b7c 153f 2922 343e c90a 05bf
00000150: c436 2f3f 8701 c83e 7c7a 983e 09ff 323f
00000160: 644b 7cbe afdc 3dbe 56b7 0f3c f383 643e
00000170: 3ecf 75bd a076 afbc 1a6d c5be 48ca 973e
00000180: 02d0 083f 7c89 4b3e 6373 b13e 2ceb 97be
00000190: d592 b2bc 5aa4 c13e 1ab9 47be 4b91 2dbf
000001a0: 58ad dfbe 2b26 0b3c a8b7 1dbd 3724 90bd
000001b0: 1688 bdb9 7d31 943e fe8e 3c3e 778c edbe
000001c0: 8af3 2f3e 047a 62bc 5ce6 27bf 8ba3 29bf
000001d0: 6d4d 303f ee9d f1be 2191 073f 73c0 0cbf
000001e0: 50af 9abe 06f1 7cbe afdd a73e 2509 0c3f
000001f0: fc40 7cbd 6afb f03e 8d6a c0be 488c ff3e
00000200: e6fc 04bf e131 eb3e 9b12 a63e ea3e a43e
00000210: 0302 44be ff51 093f 9e16 a6bc 0b97 0d3f
00000220: 9ff7 c43b dcb8 5c3e 75e6 1d3f 406a 25bf
00000230: 445d c5be d7c9 4fbd 963a d7be 3894 fbbc
00000240: 6b0b 3cbe f61e 9e3e daae f9be 9d22 efbe
00000250: 4397 063d 1047 06bf 0784 b43e 8a3a c3be
00000260: a666 bbbe 5028 06bf 83cb 05be 3b9a 913e
00000270: 444d 0b3f cf38 1bbe 2224 04bf c430 d6be
00000280: 57bd 273f ce7d 21be 0abf b83e c5e9 04bf
00000290: f492 2fbf a6d0 03bf bbf7 fe3d 6bea 01bf
000002a0: a6d1 163f 014a 70bd e947 283f d57e 02bf
000002b0: be83 0a3e fed9 0dbf 3c3f 67be 7a38 07bf
000002c0: 73e1 2ebe 0358 173f f617 123f fed1 2bbf
000002d0: d4fd 1dbc 4fa9 00bd ddbc d63e fa95 d43e
000002e0: ac78 853e 261b 0b3f 33ee 763e 8dd6 e53d
000002f0: bfd2 423b 2785 873e 9e6f c73e 40fe 81bd
00000300: c58d cbbe d533 fcbe 10bf c0be bfa1 153f
00000310: f2a4 86be 8f48 c5be 6adc f8bd 1340 513e
-0.33059505 0.104477264 0.2714346 -0.62369096 0.1281671 0.49569377 0.09391601 -0.68052316
-0.52584904 -0.5632937 -0.4571515 0.3566308 -0.27342415 -0.10415201 0.2659793 -0.38416055
-0.6091071 -0.08120786 0.32935673 0.34145004 0.029304376 -0.122921795 -0.56361514 0.64720863
0.18498832 0.33602268 0.6323367 -0.5753624 -0.3605311 0.6485294 -0.094349004 0.40569454
0.39371812 -0.4058842 0.43877444 -0.4296781 -0.64402795 0.5287963 -0.58813715 0.43281725
-0.09193773 -0.15163244 0.3127864 -0.21672659 0.6913806 0.12594712 -0.40202823 0.11854003
0.10664843 -0.2808858 0.65360695 0.06640172 -0.5369763 -0.38741317 0.556777 -0.6668427
-0.30590102 0.09446759 -0.32900664 0.18012598 -0.43775153 -0.14374757 0.39444944 0.6190076
-0.3622835 0.27689788 0.06563209 0.7019613 -0.24283312 -0.5333091 -0.1848184 0.32498348
-0.10564025 -0.51162195 0.5645983 -0.4119113 0.2284861 -0.13381045 0.3444183 -0.25508198
0.34102517 0.5839326 0.17591156 -0.5196958 0.6844294 0.39063665 0.29780948 0.699204
-0.24638134 -0.18541215 0.008771738 0.2231596 -0.060012095 -0.02141887 -0.385598 0.29646516
0.53442395 0.19876665 0.34658346 -0.2967161 -0.02179853 0.37820703 -0.19504204 -0.67799824
-0.43686938 0.008492987 -0.038505226 -0.070381574 -0.0003615028 0.28944007 0.18413922 -0.4639623
0.17182747 -0.013823036 -0.65585876 -0.6626517 0.6886814 -0.47190803 0.52955824 -0.54981154
-0.30211878 -0.24701318 0.3278632 0.54701453 -0.06158541 0.47066814 -0.37581292 0.49911714
-0.5194839 0.45936492 0.3243607 0.3207925 -0.19141392 0.5364074 -0.020274457 0.553086
0.006010964 0.21554893 0.61679775 -0.6461525 -0.3854772 -0.0507296 -0.42036885 -0.030710325
-0.1836373 0.30882996 -0.48766214 -0.46706095 0.0328591 -0.5245218 0.3525698 -0.381306
-0.36601752 -0.5240526 -0.13065915 0.2843798 0.54414773 -0.1515839 -0.51617634 -0.4183408
0.65523285 -0.15770647 0.3608325 -0.51919204 -0.6858361 -0.5149025 0.124495946 -0.5074832
0.5891365 -0.058664326 0.65734726 -0.5097478 0.13526818 -0.55410755 -0.22582716 -0.5282055
-0.1707819 0.5911867 0.5706781 -0.671173 -0.009643037 -0.031411465 0.41940966 0.41520673
0.26068628 0.543383 0.24114303 0.11222563 0.0029727665 0.26468775 0.38952345 -0.063473225
-0.397566 -0.49258295 -0.3764577 0.5844993 -0.26297718 -0.3853192 -0.12151416 0.20434599

weight f4 [200, 2]
00000000: 0000 0080 e9cb 04bf 00da d23d 51dc 1ebf
00000010: 0000 0000 1229 35bf dba7 22bf f9f9 9b3e
00000020: 5ba5 293f 26a2 cebe e99b 31be e2b8 313e
00000030: 8147 acbe 7a81 6cbd 3f56 0ebf 8e00 2e3f
00000040: 3272 b13e d624 913e 9b33 85bd 6e85 77bd
00000050: f9ca 913e e113 7abe 10f2 033f d163 273f
00000060: 41f3 b9be 584c 4c3e ddc1 1cbf 6c02 cd3e
00000070: 46f5 0b3e 60cb 31bf bfbc 0cbf 1f93 6cbd
00000080: a1a0 103f 449f c5be c082 343f 0000 0000
00000090: 8af8 cabe 919e e0be 0000 0000 397b 8c3e
000000a0: 0000 0080 1106 103e 6cbc dd3e 3e51 e83d
000000b0: ef88 20be d402 f4be e7d7 0a3f 9c04 debe
000000c0: 044c c93e e762 263f 7d48 1f3f d678 fabd
000000d0: 29f7 27be 87cc cc3e 19f9 b33e 9441 e4be
000000e0: 0000 0000 f5f3 c03e 278c 073f 7773 2ebe
000000f0: 0000 0080 0000 0000 b83b 9c3e 2401 013e
00000100: e865 24bf eafb 31be a579 be3e f018 0abf
00000110: fdb0 463e 1bf4 19bf 2d78 c7be 63c2 b0be
00000120: 4828 1cbf a6ec fd3e 7b95 c03e f04a 533e
00000130: 0769 a03e 2602 a33e 6890 2fbe 2549 313f
00000140: 9155 a0be 29cc 8a3e 1a4e 0f3f 4b6a 23bf
00000150: 9794 2c3f 0000 0080 e612 663e 81af 9e3d
00000160: 36a8 093e 533e b3be 6cc2 963d 2955 b73e
00000170: 6678 c53e c269 8f3e 70c3 2fbf c7dc 88be
00000180: ebba c93d 2111 08bf 0000 0000 bf87 b13e
00000190: 8807 003f b2df f6be 0000 0000 999f 453e
000001a0: fd47 2cbf dcf0 1abe 5556 b53e bf4a 6fbe
000001b0: ac9c 8a3d 6755 073f 6ac0 15be 5e71 be3e
000001c0: d19c 10bf 1d61 043e b4cb 003f 7785 d63e
000001d0: c162 ee3e 0000 0080 d9bb 02bf e6a9 83bd
000001e0: 45f5 d53e e24e c4be 64ca 703e e7f3 d2be
000001f0: b628 d8be 4b77 273f 96cd d53e f161 22bf
00000200: b535 d8be 5031 313f 57d0 cabe 0000 0000
00000210: 2714 34bf 8c12 20bf 00bd 233f 0b1a ae3e
00000220: a5a7 a5be 5429 043f fbc5 69bd 8521 b53e
00000230: 421d afbe 0d0b fcbe ccb4 d0be 5edd 2ebf
00000240: 3107 bb3e e2d0 16bf 2af8 debe 40a2 1cbf
00000250: a271 2dbf e38e 04bf 4a5a 293f dc71 1b3f
00000260: cab9 00bf 4bb0 aabe f71e 1b3f 91fb 5c3e
00000270: 2712 363f c8e6 a73e 7b76 17bf 3186 c3be
00000280: 92cd b1be 5534 203e c4fe 253f 49b7 b33d
00000290: 399b cf3e 55ff 0c3e 100c 073f a45c 5d3e
000002a0: 6a59 e9be e014 29bf 6367 723e b8d4 e5be
000002b0: 38a7 8cbe 5c8a 043f 5ef1 983e e537 c6be
000002c0: db5b 523e c39e 32bf 8001 333f a80a a9be
000002d0: 0000 0080 b638 08bf 0000 0080 0000 0000
000002e0: 91d2 0e3e 3faf a63e deba 223e 754a 9c3e
000002f0: 7ee0 1e3f a0b1 0dbf 0000 0000 cdf2 153f
00000300: 60fb be3d a60c 23bf 11ef 20be 7f6a 743d
00000310: 47a0 1c3f 4a00 a8bd eb43 f8be 1673 b3be
00000320: 9244 a9be 13f5 14be 0316 34be 4323 093f
00000330: e434 02bf cb7e b93e d101 c3be 9a9b 0c3e
00000340: 15f9 b63e b2de b33e dba1 373e 715b 353f
00000350: 5057 ed3d 45ba cf3e b37c 2dbf 881d bb3e
00000360: 383b 03bf f4a7 d5bd 0000 0080 54eb 313f
00000370: f222 32bf 0000 0080 4e9a 203f d7b9 173f
00000380: 7242 0dbf 95fc 89be c7e8 763e 13a2 053f
00000390: 0000 0080 10da 2fbf 91a0 593e 0000 0080
000003a0: d66f 09bf 7537 093e aa8e 28bf f5fa d43e
000003b0: 942e 0fbf b858 75be 7e92 333e 2b58 e13e
000003c0: 0a5f 1ebf d463 16bf d9b2 333f 9a33 adbe
000003d0: 7334 27bf 8e6b 1fbf 1052 283f e593 39be
000003e0: cc1f 0e3f 9914 28bf ee26 37be 6290 213f
000003f0: 1083 1bbf 2484 67be ef0a e33e 6409 073f
-0.0 -0.5187364 0.102954865 -0.62054926 0.0 -0.70765793 -0.6353738 0.30464152
0.6626794 -0.40358084 -0.17344631 0.17355683 -0.33648303 -0.057740666 -0.5560035 0.67969596
0.34657437 0.28348416 -0.065039836 -0.060429983 0.28475168 -0.24421646 0.51541233 0.6538668
-0.363184 0.19950998 -0.6123331 0.4004091 0.13667783 -0.6945095 -0.54975504 -0.057757493
0.564951 -0.38598073 0.7051201 0.0 -0.39642745 -0.43870977 0.0 0.2743776
-0.0 0.14064814 0.43307817 0.11343621 -0.15677236 -0.47658408 0.5423569 -0.43362892
0.39315808 0.64994663 0.62219983 -0.12230079 -0.16402878 0.39999792 0.35150984 -0.44581282
0.0 0.37686124 0.5294823 -0.17036234 -0.0 0.0 0.30514312 0.12598091
-0.64217997 -0.17381254 0.37202182 -0.539443 0.19403453 -0.601381 -0.38958874 -0.34523305
-0.60998964 0.4959461 0.37614045 0.20634055 0.3133013 0.31837577 -0.1714493 0.69252235
-0.31315282 0.27108887 0.5597855 -0.63834065 0.6741423 -0.0 0.22468147 0.077483185
0.13443074 -0.35008487 0.07361302 0.3580716 0.3856842 0.28010374 -0.6865759 -0.2673094
0.09850105 -0.53151137 0.0 0.3467388 0.5001149 -0.4821754 0.0 0.19299163
-0.67297345 -0.15130943 0.3541743 -0.23368357 0.06768164 0.5286469 -0.14624181 0.37195867
-0.5648928 0.12927671 0.50310826 0.418987 0.46559718 -0.0 -0.5106788 -0.0642889
0.41788688 -0.38341433 0.23514706 -0.41201708 -0.4221856 0.654164 0.41758412 -0.63430697
-0.42228475 0.6921587 -0.39612076 0.0 -0.7034325 -0.625283 0.63960266 0.34004244
-0.32354465 0.5162556 -0.057073575 0.35377136 -0.3420201 -0.4922718 -0.40762937 -0.6830653
0.36528924 -0.5891248 -0.4354871 -0.61185074 -0.67751515 -0.5178053 0.66153395 0.6072061
-0.5028349 -0.33337626 0.60594124 0.2158034 0.7112145 0.3279326 -0.5916516 -0.38188317
-0.3472715 0.15644963 0.64841866 0.08775193 0.40548113 0.13769276 0.5275278 0.21617371
-0.4557603 -0.6604748 0.23672251 -0.44888854 -0.27471328 0.5177362 0.2987165 -0.3871452
0.20542853 -0.697735 0.69924164 -0.33015943 -0.0 -0.53211534 -0.0 0.0
0.13947512 0.32555577 0.15891597 0.30525556 0.620613 -0.5534916 0.0 0.5857361
0.0932529 -0.63691175 -0.15716197 0.059671875 0.61182064 -0.0820318 -0.48489317 -0.3504874
-0.33060127 -0.14546613 -0.17586522 0.5356943 -0.50861955 0.36229548 -0.38087323 0.13731232
0.3573691 0.3513084 0.17932837 0.70842654 0.11588919 0.405718 -0.677684 0.36545968
-0.51262236 -0.10432425 -0.0 0.6949971 -0.6958457 -0.0 0.6273545 0.59267944
-0.5517951 -0.26950517 0.24112235 0.5220043 -0.0 -0.6869211 0.21252657 -0.0
-0.53686273 0.13400061 -0.6584269 0.41597715 -0.5593045 -0.23959625 0.17536351 0.4401258
-0.6186377 -0.58746076 0.70194775 -0.3382843 -0.65314406 -0.6227349 0.6575022 -0.18122824
0.5551727 -0.6565643 -0.17885944 0.63110936 -0.6074686 -0.22609001 0.4434428 0.52748704

bias f4 [300]
00000000: 2dec f43c a564 263d a70a 50bd ee1a 3bbd
00000010: 5498 133d 637c 14bd aadf 3abc e7a7 583d
00000020: 69bc 4bbd 3571 8f3d 385e a13c fc3c 043d
00000030: bc65 02bd fc55 74bd 058a dc3c 6353 0a3d
00000040: aa26 423d a359 b83c 2c1d 4b3c d40c 673b
00000050: 8668 5dbc 4fa7 373d 8791 80bd 6f57 abbc
00000060: e855 ed3c 4a84 79bd 1e35 7d3d 0a34 633d
00000070: 5532 3f3d 1244 4e3d 0132 123d a5f0 0cbd
00000080: 0d1f 2b3d 6dd2 073c 5401 e4bb 74f2 ed3c
00000090: 91e9 febc 435c 813d 4417 8bbd 6ca4 50bd
000000a0: 9aff 75bd 0db5 d93b a260 823d 1933 093d
000000b0: 54ae 3dbd 0ccc 723d b7ff 3dbd 893a 31bd
000000c0: 66cf 5cbd efbc cebb dfcb de3c eb44 db3c
000000d0: efbd 843d bb55 8bbd 6b9e abbb 5659 ee3c
000000e0: 8c92 22bb 4ca1 cbbc 196c 433d 4621 2ebc
000000f0: 6b50 a5bc 9977 5c3b be19 f63c fb1b 593d
00000100: c2a4 b33c 533e 49bd 3095 a8bc 4806 39bd
00000110: 73e3 433a b292 7ebd e6e4 f83c 0872 7d3b
00000120: 075a 4a3b 5e5c ee3c 6ee4 60bc ca41 4b3d
00000130: 4e40 313d d676 a6bc 1a65 54bd c657 153d
00000140: 59ec de3c c6d2 24bd 0999 6fbd f5a2 fdba
00000150: 77b9 9a3c 4492 323d ea75 74bd 4f1e 20bc
00000160: 0059 a8bc b007 d0bc 3327 3d3d 6c76 23bd
00000170: 47d3 71bd 8aa7 013d 2d81 cc3c 6dcb 03bc
00000180: 7697 90bd f2d0 6b3d 956f 90ba d51a 4b3d
00000190: 9adf 533d 7005 82bc d4cd 46bd 5999 d23b
000001a0: e434 243d 5061 51bc a422 d9bc d820 afbc
000001b0: 9eaa 4bbc d768 253d 23de 313c 5620 8bbd
000001c0: 35c9 213d 9a26 ecbc cb0a e83c 4795 183d
000001d0: e7e3 033d 96a4 993b 8ca5 473d 8234 8e3b
000001e0: 1f78 733c e241 033d c2ee 62bd 3113 593d
000001f0: cc68 febb e928 c43c df41 293d 4ae7 b43c
00000200: adb1 35bd 0b44 763d 0acc 7fbd 7591 bbbc
00000210: fb9c c6bc 9823 5bbc aa50 56bc 7e97 5f3d
00000220: d69f 5dbd 8a98 69bd 73d4 78bd 314e 903b
00000230: 0a0b c3ba 30a8 563d 3e6c 3ebd 90d4 71bd
00000240: b816 4ebd 0984 f73c a73c 0d3d 394b fc3b
00000250: 29f1 533c c0e8 aabc 86cd 4b3c 2842 253b
00000260: 13a8 89bb ff28 7c3d 1dbd dbbc 7943 7bbd
00000270: 975d 3c3d 9f46 873d 3028 77bd d96c 853d
00000280: fceb 6abd f921 fe3b c7a0 8e3c 8a71 843d
00000290: d5ba 313c 4b67 03bd 4cd7 3e3c 9b5b b93c
000002a0: 52c9 1e3d 2509 48bd 2da7 edbc 1cad 203d
000002b0: d1d6 c03c b55d cc3c 3570 91bd 1927 283d
000002c0: 41e3 6d3d 5c78 273d e1ca 4dbd d07f e13c
000002d0: 8e8c 21bd 6fd2 023c e04d b23c 3e58 873d
000002e0: 217a 833d 76f8 a13b 3bf1 773d e2d4 2fbd
000002f0: f2f3 79bd 39ed 503d 73d7 c3bc 2757 22bd
00000300: 7222 a43c 1b8c 843c 20bf 3ebc c0da 24b9
00000310: 23e4 273c 979e 11bd 1187 083c 5935 283b
00000320: d4f4 783d e7a5 853b bbab 903d 84a6 843d
00000330: ec44 2dbd ec05 45bd 3420 a6bb a9c9 7fbd
00000340: a2c3 1fbd 7391 143c 5b08 3cbd 5c42 6fbc
00000350: 1e4a f63c 2248 f93c 84d0 243d 329a 8fbd
00000360: c3a5 0d3d 269a 863d b673 953d b3b5 4dbd
00000370: 61f7 1a3b f110 cabc 4bd2 703b 99bc 71bd
00000380: c169 3dbd 8ca5 df3b 5472 00bd cfba 7ebd
00000390: bd1f 32bd 74b0 76bc dc36 25bd ee60 1d3c
000003a0: 29a8 213d 826f 48bd 618c 023a fa63 63bd
000003b0: bb6d b3bc 39d5 343d 6ecc 03bd 5c20 8dbd
000003c0: a41e d0bc 9c19 643c 059e 233c 3e56 bfbc
000003d0: 6eb9 64bb 19e1 f13c 7faf 1f3d c765 fa3a
000003e0: 701a 2b3b 8c5d 07bd 6237 703d 56c6 2f3d
000003f0: 7980 873d c3cf 323c 5a1d d7bc ed2f c0bc
0.029897774 0.040623326 -0.05079141 -0.04567998 0.036033943 -0.036251437 -0.011405865 0.0528945
-0.04974023 0.070040144 0.019698247 0.03228472 -0.031835303 -0.059652314 0.026921282 0.03377093
0.047400154 0.02250368 0.012397092 0.003525545 -0.01351369 0.044837292 -0.06277757 -0.020915715
0.028971627 -0.060917176 0.061818235 0.05546955 0.04667886 0.050357886 0.03569222 -0.034409184
0.04177766 0.0082899155 -0.006958166 0.029046275 -0.031117233 0.06316426 -0.06791547 -0.050938055
-0.060058214 0.0066438974 0.063660875 0.033495996 -0.04630883 0.059276626 -0.046386447 -0.043268714
-0.053908728 -0.0063091437 0.027196823 0.026766261 0.064815395 -0.06803461 -0.0052373908 0.029095333
-0.0024806587 -0.024857186 0.04771051 -0.01062805 -0.020179948 0.0033640622 0.030041572 0.0530052
0.021929149 -0.049131703 -0.02057895 -0.045172006 0.0007472552 -0.06215162 0.030382585 0.0038672704
0.0030876414 0.029096778 -0.013726337 0.04962329 0.043274216 -0.020320337 -0.05185423 0.03646066
0.027212309 -0.04024007 -0.058495555 -0.0019350933 0.018887265 0.04359652 -0.059682764 -0.009772851
-0.020550251 -0.02539429 0.04617996 -0.039907858 -0.05903938 0.03165392 0.02496394 -0.008044106
-0.07060139 0.057572313 -0.0011019582 0.049586136 0.051726915 -0.015871733 -0.048536137 0.006426972
0.040089503 -0.012779549 -0.026505776 -0.021377966 -0.012430815 0.040383186 0.010856184 -0.06793277
0.039498527 -0.028827 0.028325459 0.037251737 0.032199766 0.0046888096 0.048741862 0.0043397555
0.014860182 0.032045253 -0.05540348 0.052996818 -0.0077639576 0.023945289 0.041322585 0.022082943
-0.044358898 0.060123485 -0.062450446 -0.022896508 -0.024244776 -0.013375185 -0.013080755 0.054587834
-0.05410751 -0.05703024 -0.060749482 0.0044038524 -0.0014880609 0.05240649 -0.046489947 -0.059040606
-0.050314635 0.030214326 0.03448167 0.007699397 0.012935915 -0.020862937 0.012439137 0.0025216434
-0.004200944 0.061562534 -0.026823575 -0.061343644 0.04598769 0.06605267 -0.06034106 0.06514902
-0.05735396 0.0077555147 0.017410649 0.06466968 0.010847767 -0.03208093 0.01164801 0.022626689
0.038766213 -0.048836846 -0.02901038 0.03922759 0.023539932 0.024947027 -0.0710148 0.04105291
0.058078054 0.040886268 -0.05024231 0.027526766 -0.039440684 0.007984742 0.02176565 0.06608628
0.064197786 0.004942949 0.06053279 -0.04292763 -0.06102366 0.051007483 -0.023906445 -0.039633896
0.020035956 0.016180089 -0.011642247 -0.0001572175 0.010247263 -0.035551634 0.008332984 0.0025666563
0.06078036 0.004078615 0.07064005 0.06477073 -0.042302057 -0.04810135 -0.005069757 -0.062448177
-0.03900493 0.009067881 -0.045906406 -0.014603224 0.030064639 0.030429903 0.04023792 -0.07011832
0.03458191 0.0657237 0.07297461 -0.05022211 0.0023645984 -0.024666281 0.0036746438 -0.05901775
-0.046243433 0.0068251546 -0.03135903 -0.062189873 -0.0434873 -0.015056718 -0.04033552 0.009605629
0.03946701 -0.048934467 0.00049800245 -0.055515267 -0.02190291 0.044148657 -0.03217738 -0.06890938
-0.025405236 0.013922121 0.009986405 -0.023356553 -0.0034900564 0.02952628 0.038985725 0.0019103818
0.0026108287 -0.033048198 0.058646567 0.042913757 0.06616301 0.010913792 -0.026259113 -0.023460353

weight f4 [300, 200]
00000000: 0000 0080 0000 0080 0000 0080 0000 0000
00000010: 0000 0000 0000 0000 0000 0080 0000 0000
00000020: 0000 0080 0000 0000 0000 0000 0000 0000
00000030: fd5a 74bd 0000 0080 0000 0080 0000 0000
00000040: 0000 0080 0000 0080 7cb2 93bd 0000 0080
00000050: 4b04 8fbd d1f7 6b3d 0000 0000 0000 0000
00000060: 0000 0000 0000 0000 0000 0000 0000 0000
00000070: 0000 0080 0000 0080 2acf 713d 0000 0080
00000080: 0000 0000 97fa 703d 3dbb 6abd 0000 0000
00000090: 0000 0000 0000 0080 0000 0080 0000 0000
000000a0: 0000 0080 0000 0000 d64b 753d 76f7 88bd
000000b0: 927b 95bd 3f50 7c3d 0000 0000 0000 0000
000000c0: 0000 0080 0000 0080 0000 0000 0000 0080
000000d0: 0000 0080 0000 0000 0000 0080 0000 0080
000000e0: 0000 0000 0000 0080 0000 0080 5bba 8fbd
000000f0: 0000 0000 0000 0000 0000 0080 0000 0000
00000100: 6b7c 853d ed89 7dbd 0000 0080 aa70 833d
00000110: 0000 0000 0000 0080 0000 0000 0000 0080
00000120: 154f 6ebd 2f8a 92bd 0000 0000 0000 0080
00000130: 0000 0080 0000 0080 0000 0000 0916 84bd
00000140: 0000 0080 0000 0080 0000 0080 0000 0000
00000150: 0000 0000 0000 0000 aaa0 7abd 0000 0000
00000160: 0000 0000 0000 0080 0000 0080 0000 0000
00000170: 0000 0000 0000 0080 0000 0080 a1df 6b3d
00000180: 0000 0080 333c 94bd 0000 0080 0000 0000
00000190: 0000 0000 0000 0000 0000 0000 0000 0000
000001a0: 0000 0000 0000 0000 0000 0080 8660 8e3d
000001b0: 0000 0080 0000 0000 0000 0000 0000 0000
000001c0: 0000 0000 4ae7 9abd 50d2 7abd 0000 0000
000001d0: 0000 0080 0000 0080 0000 0080 0000 0000
000001e0: 0000 0080 0000 0000 0000 0080 0000 0000
000001f0: 0000 0000 0000 0080 0000 0080 0000 0000
00000200: 0000 0080 0000 0000 0000 0000 0000 0000
00000210: 0000 0000 0000 0080 0000 0000 0000 0000
00000220: 0000 0080 0000 0080 0000 0000 0000 0000
00000230: 0000 0080 0000 0000 0000 0080 0000 0000
00000240: 0000 0080 0000 0080 0000 0000 0000 0080
00000250: 0000 0080 0000 0080 0000 0000 0000 0000
00000260: 0000 0000 1976 80bd 9aed 7c3d 0000 0000
00000270: 0000 0080 0000 0000 0000 0080 0000 0000
00000280: 0000 0080 5bf8 793d 0000 0080 0000 0080
00000290: 0000 0000 0000 0000 0000 0080 0000 0000
000002a0: 0000 0000 0000 0000 0000 0080 0000 0000
000002b0: 0000 0000 0000 0080 0000 0080 0000 0000
000002c0: 37f0 6ebd 0000 0000 0000 0080 0000 0080
000002d0: 0000 0000 2c6a 91bd ff9c 91bd 0000 0000
000002e0: 0000 0000 0000 0000 0000 0080 de2a 833d
000002f0: 982b 86bd ccd5 853d 7e70 9bbd 0000 0080
00000300: 0000 0000 56c6 78bd 0000 0000 0000 0000
00000310: 0000 0080 0c68 753d 0000 0000 34bc 713d
00000320: 0000 0000 c961 773d 0000 0080 b0ee 86bd
00000330: 0000 0000 14c7 94bd 0000 0080 0000 0080
00000340: 0000 0000 0000 0000 0000 0080 0000 0000
00000350: 0000 0080 0000 0080 0000 0000 0d37 7d3d
00000360: 0000 0000 0000 0080 0000 0080 0000 0000
00000370: 0000 0080 0000 0000 0000 0080 0000 0000
00000380: 0000 0080 0000 0080 0000 0000 0000 0080
00000390: 0000 0080 0000 0000 0000 0080 0000 0080
000003a0: 0000 0000 0000 0000 0000 0000 0000 0080
000003b0: 0000 0080 ae2a 77bd b60b 86bd 0000 0000
000003c0: 0000 0080 2991 843d f28b 733d 1ff6 8d3d
000003d0: 0000 0080 0000 0080 0000 0000 2807 7e3d
000003e0: de35 7e3d 0000 0080 dc66 8d3d 0000 0000
000003f0: 0000 0080 0000 0080 0000 0000 0000 0080
-0.0 -0.0 -0.0 0.0 0.0 0.0 -0.0 0.0
-0.0 0.0 0.0 0.0 -0.059657086 -0.0 -0.0 0.0
-0.0 -0.0 -0.072117776 -0.0 -0.06983241 0.057609383 0.0 0.0
0.0 0.0 0.0 0.0 -0.0 -0.0 0.059035458 -0.0
0.0 0.05883273 -0.05730747 0.0 0.0 -0.0 -0.0 0.0
-0.0 0.0 0.059886776 -0.066878244 -0.0729896 0.061599966 0.0 0.0
-0.0 -0.0 0.0 -0.0 -0.0 0.0 -0.0 -0.0
0.0 -0.0 -0.0 -0.07017966 0.0 0.0 -0.0 0.0
0.065178715 -0.061899114 -0.0 0.06417973 0.0 -0.0 0.0 -0.0
-0.058180887 -0.07155263 0.0 -0.0 -0.0 -0.0 0.0 -0.06449515
-0.0 -0.0 -0.0 0.0 0.0 0.0 -0.061188377 0.0
0.0 -0.0 -0.0 0.0 0.0 -0.0 -0.0 0.057586316
-0.0 -0.072380446 -0.0 0.0 0.0 0.0 0.0 0.0
0.0 0.0 -0.0 0.06952004 -0.0 0.0 0.0 0.0
0.0 -0.07563646 -0.061235726 0.0 -0.0 -0.0 -0.0 0.0
-0.0 0.0 -0.0 0.0 0.0 -0.0 -0.0 0.0
-0.0 0.0 0.0 0.0 0.0 -0.0 0.0 0.0
-0.0 -0.0 0.0 0.0 -0.0 0.0 -0.0 0.0
-0.0 -0.0 0.0 -0.0 -0.0 -0.0 0.0 0.0
0.0 -0.06272525 0.061750032 0.0 -0.0 0.0 -0.0 0.0
-0.0 0.061027866 -0.0 -0.0 0.0 0.0 -0.0 0.0
0.0 0.0 -0.0 0.0 0.0 -0.0 -0.0 0.0
-0.058334555 0.0 -0.0 -0.0 0.0 -0.07100329 -0.07110023 0.0
0.0 0.0 -0.0 0.06404661 -0.065512836 0.06534919 -0.075898156 -0.0
0.0 -0.060736023 0.0 0.0 -0.0 0.05991368 0.0 0.059017375
0.0 0.06039599 -0.0 -0.06588495 0.0 -0.07264534 -0.0 -0.0
0.0 0.0 -0.0 0.0 -0.0 -0.0 0.0 0.06182008
0.0 -0.0 -0.0 0.0 -0.0 0.0 -0.0 0.0
-0.0 -0.0 0.0 -0.0 -0.0 0.0 -0.0 -0.0
0.0 0.0 0.0 -0.0 -0.0 -0.060343437 -0.065452024 0.0
-0.0 0.064729996 0.059459634 0.069317095 -0.0 -0.0 0.0 0.062018543
0.06206309 -0.0 0.069043845 0.0 -0.0 -0.0 0.0 -0.0

bias f4 [2]
00000000: 31fc f33b 0bb1 05bc
0.007445835 -0.008159886

weight f4 [2, 300]
00000000: 0000 0000 0000 0080 2962 713d 0000 0080
00000010: 0000 0000 7057 743d 0000 0080 0000 0080
00000020: 5d32 6abd 0000 0000 0000 0080 0000 0000
00000030: 0000 0080 0000 0080 0000 0000 0000 0000
00000040: 0000 0000 de0c 693d 0000 0000 0000 0000
00000050: 0000 0000 0000 0000 0000 0080 0000 0080
00000060: 0000 0000 0000 0000 0000 0080 0000 0000
00000070: 0000 0000 0000 0000 3bb3 773d 0000 0000
00000080: 0000 0000 0000 0080 0000 0080 0000 0080
00000090: 0000 0000 0000 0000 0000 0080 0000 0000
000000a0: 0000 0000 0000 0000 0000 0000 0000 0080
000000b0: 0000 0080 0000 0080 0000 0000 0000 0000
000000c0: 0000 0080 0000 0000 0000 0080 0000 0000
000000d0: 0000 0000 0000 0000 0000 0000 0000 0080
000000e0: 0000 0080 0000 0000 0000 0080 0000 0000
000000f0: 0000 0000 0000 0000 0000 0000 0000 0080
00000100: 0000 0000 0000 0080 0000 0000 0000 0080
00000110: 0000 0080 0000 0000 0000 0000 0000 0000
00000120: da5e 7abd 0000 0080 0000 0080 0000 0000
00000130: 0000 0080 0000 0080 17aa 71bd b1e5 6dbd
00000140: 0000 0080 0000 0000 0000 0080 0000 0000
00000150: 0000 0000 0000 0080 0000 0000 0000 0080
00000160: 0000 0000 0000 0000 0000 0080 0000 0080
00000170: 0000 0080 0000 0000 0000 0000 0000 0080
00000180: 0000 0080 0000 0080 0000 0000 0000 0080
00000190: 0000 0000 0000 0000 0000 0080 0000 0000
000001a0: 0000 0000 0000 0080 0000 0080 78f4 7abd
000001b0: 03e1 79bd 0000 0000 0000 0080 0000 0000
000001c0: 0000 0080 0000 0000 0000 0080 0000 0000
000001d0: 0000 0000 62f4 74bd 0000 0000 0000 0080
000001e0: 0000 0000 0000 0080 0000 0000 0000 0080
000001f0: 0000 0080 0000 0080 0000 0000 0000 0080
00000200: 0000 0080 0000 0000 0000 0080 0000 0080
00000210: 0000 0080 0000 0080 0000 0080 0000 0080
00000220: 0000 0080 0000 0000 aec0 813d 0000 0000
00000230: 0000 0000 0000 0000 0000 0000 0000 0080
00000240: 0000 0000 0000 0080 0000 0000 0000 0000
00000250: 0000 0000 0000 0080 0000 0000 0000 0080
00000260: 2a96 6ebd 0000 0000 0000 0080 0000 0000
00000270: 0000 0080 0000 0000 0000 0000 0000 0080
00000280: 0000 0000 0000 0080 0000 0080 0000 0000
00000290: 0000 0080 0000 0000 0000 0000 0000 0080
000002a0: 0000 0000 0000 0000 0000 0000 0000 0000
000002b0: 0000 0000 0000 0080 0000 0080 0000 0000
000002c0: 0000 0080 0000 0080 0000 0080 0000 0000
000002d0: 0000 0000 0000 0000 0000 0000 0000 0080
000002e0: 0000 0080 0000 0080 0000 0000 0000 0000
000002f0: 0000 0080 0000 0080 0000 0000 fedd 74bd
00000300: 0000 0080 0000 0000 0000 0000 0000 0080
00000310: 0000 0000 0000 0080 0000 0000 0000 0080
00000320: 0000 0000 0000 0080 0000 0000 0000 0080
00000330: 0000 0000 0000 0080 0000 0000 829b 75bd
00000340: 0000 0080 0000 0000 0000 0000 0000 0000
00000350: 0000 0000 0000 0000 0000 0000 0000 0000
00000360: 0000 0080 0000 0000 0000 0080 0000 0000
00000370: 0000 0000 0000 0000 0000 0080 0000 0000
00000380: 0000 0000 0000 0080 0000 0000 0000 0000
00000390: 0000 0080 0000 0080 0000 0000 0000 0080
000003a0: 0000 0080 0000 0080 0000 0000 0000 0000
000003b0: 0000 0080 0000 0000 0000 0080 0000 0080
000003c0: 0000 0080 0000 0080 0000 0000 0000 0000
000003d0: 0000 0000 0000 0000 acb8 6bbd 0000 0000
000003e0: 0000 0080 0000 0080 0000 0080 0000 0080
000003f0: 0000 0080 0000 0000 0000 0080 0000 0080
0.0 -0.0 0.058931503 -0.0 0.0 0.0596537 -0.0 -0.0
-0.057176936 0.0 -0.0 0.0 -0.0 -0.0 0.0 0.0
0.0 0.056897037 0.0 0.0 0.0 0.0 -0.0 -0.0
0.0 0.0 -0.0 0.0 0.0 0.0 0.060473662 0.0
0.0 -0.0 -0.0 -0.0 0.0 0.0 -0.0 0.0
0.0 0.0 0.0 -0.0 -0.0 -0.0 0.0 0.0
-0.0 0.0 -0.0 0.0 0.0 0.0 0.0 -0.0
-0.0 0.0 -0.0 0.0 0.0 0.0 0.0 -0.0
0.0 -0.0 0.0 -0.0 -0.0 0.0 0.0 0.0
-0.061125614 -0.0 -0.0 0.0 -0.0 -0.0 -0.0590001 -0.05808038
-0.0 0.0 -0.0 0.0 0.0 -0.0 0.0 -0.0
0.0 0.0 -0.0 -0.0 -0.0 0.0 0.0 -0.0
-0.0 -0.0 0.0 -0.0 0.0 0.0 -0.0 0.0
0.0 -0.0 -0.0 -0.0612683 -0.061005604 0.0 -0.0 0.0
-0.0 0.0 -0.0 0.0 0.0 -0.059803374 0.0 -0.0
0.0 -0.0 0.0 -0.0 -0.0 -0.0 0.0 -0.0
-0.0 0.0 -0.0 -0.0 -0.0 -0.0 -0.0 -0.0
-0.0 0.0 0.06335579 0.0 0.0 0.0 0.0 -0.0
0.0 -0.0 0.0 0.0 0.0 -0.0 0.0 -0.0
-0.058248676 0.0 -0.0 0.0 -0.0 0.0 0.0 -0.0
0.0 -0.0 -0.0 0.0 -0.0 0.0 0.0 -0.0
0.0 0.0 0.0 0.0 0.0 -0.0 -0.0 0.0
-0.0 -0.0 -0.0 0.0 0.0 0.0 0.0 -0.0
-0.0 -0.0 0.0 0.0 -0.0 -0.0 0.0 -0.05978202
-0.0 0.0 0.0 -0.0 0.0 -0.0 0.0 -0.0
0.0 -0.0 0.0 -0.0 0.0 -0.0 0.0 -0.059962757
-0.0 0.0 0.0 0.0 0.0 0.0 0.0 0.0
-0.0 0.0 -0.0 0.0 0.0 0.0 -0.0 0.0
0.0 -0.0 0.0 0.0 -0.0 -0.0 0.0 -0.0
-0.0 -0.0 0.0 0.0 -0.0 0.0 -0.0 -0.0
-0.0 -0.0 0.0 0.0 0.0 0.0 -0.057549164 0.0
-0.0 -0.0 -0.0 -0.0 -0.0 0.0 -0.0 -0.0
