figures/TS_global_3/theta=0.1_s=0_step=1/best_model.pth (torch, 249061 bytes, 6 tensors)

bias f4 [200]
000000 b0 12 9c be 8a 7f 38 3e ce d1 a1 3e 4a 01 ea be
       -0.30483007 0.18017402 0.3160538 -0.45704108
000010 24 6d 40 3e a1 cb 00 3f 73 9f b1 3d c2 f2 10 bf
       0.18791634 0.50310713 0.08672991 -0.5662042
000020 0b 9e 06 bf 04 34 10 bf c3 0f ea be e5 0a b1 3e
       -0.52584904 -0.5632937 -0.4571515 0.34578624
000030 7c df 44 be 60 b7 55 be 83 8b 9b 3e 4a 8d 5e be
       -0.19225878 -0.20870733 0.30379876 -0.21733585
000040 80 c2 f0 be 75 82 06 be 4f 42 a5 3e 7b 14 b4 3e
       -0.47023392 -0.13135703 0.32277152 0.35171875
000050 81 c5 8f 3d 4a 3e 84 bd 15 49 10 bf 9c b0 28 3f
       0.07020093 -0.06457193 -0.56361514 0.65894485
000060 88 af f7 3d d8 d9 c0 3e 79 d3 20 3f f3 4a 13 bf
       0.12094027 0.37666202 0.6282268 -0.5753624
000070 82 b3 82 be c1 45 27 3f 0d 3a c1 bd 48 b8 d0 3e
       -0.2552758 0.6534081 -0.094349004 0.40765595
000080 50 94 d7 3e 1f fb 9f be b7 33 fd 3e cb 06 af be
       0.4210534 -0.31246278 0.49453518 -0.3418487
000090 a9 b5 05 bf 12 ca 0a 3f 28 90 16 bf 1e dd d4 3e
       -0.52230316 0.54214585 -0.58813715 0.4157495
0000a0 90 5b 2a be 7f b7 7c be ac 87 ab 3e 93 ed 5d be
       -0.16636491 -0.24679373 0.33501947 -0.21672659
0000b0 21 0e 34 3f 7f 62 23 3e a5 d6 cd be e9 da 02 3e
       0.7033406 0.15955542 -0.40202823 0.1277882
0000c0 4b 41 41 3e e5 8a 65 be 61 df 27 3f fc cd ba 3d
       0.18872564 -0.22416265 0.65575224 0.0912132
0000d0 be eb e2 be bd 8b c7 be 80 1f 0f 3f 34 b6 2a bf
       -0.44320482 -0.389738 0.5590744 -0.6668427
0000e0 fd 53 42 be 86 72 e5 3d 0c 4b 20 be c2 74 56 3e
       -0.18977351 0.11203484 -0.15653628 0.20942977
0000f0 14 68 a1 be 61 c1 66 be c6 1b c9 3e 4e 9b 28 3f
       -0.31524718 -0.22534706 0.39279002 0.65861976
000100 69 c8 b9 be 4d 76 8c 3e 17 da 0e 3e 9d 44 37 3f
       -0.36285713 0.27434006 0.13950382 0.7158907
000110 02 35 90 be f2 86 08 bf fc 90 b3 bd d7 f5 b0 3e
       -0.28165442 -0.5333091 -0.08767888 0.3456256
000120 75 41 5f be 03 db e3 be 5e bf 10 3f f2 06 40 be
       -0.21802314 -0.4450303 0.56542003 -0.1875265
000130 50 44 61 3e 3e 74 bd bd bb 2d c1 3e 04 ea d3 bd
       0.21998715 -0.09250687 0.37730202 -0.10347369
000140 95 85 b7 3e 24 19 18 3f d8 97 13 3e c9 0a 05 bf
       0.35844103 0.5941336 0.14413393 -0.5196958
000150 57 2c 31 3f 65 59 de 3e ea 1b 99 3e 08 e1 35 3f
       0.6920828 0.43427578 0.2990411 0.71046495
000160 b3 d5 b4 be b4 12 6a be 9a 04 93 bd 93 d5 66 3e
       -0.3531929 -0.22858697 -0.07178612 0.2254241
000170 42 a3 72 bd a4 18 66 bd 6d 8e 9f be 1e 1f 9a 3e
       -0.059237726 -0.056175843 -0.3116335 0.30101866
000180 75 3e 15 3f 08 20 40 3e 5b ee bd 3e a7 49 c6 bd
       0.58298427 0.18762219 0.37095913 -0.09682017
000190 87 01 63 bd 62 99 db 3e 3b 2b 83 be 4b 91 2d bf
       -0.05542138 0.4289046 -0.2561892 -0.67799824
0001a0 96 80 a8 be 74 63 c1 bd 2f b0 80 bd 33 61 35 be
       -0.32910603 -0.09442797 -0.06283604 -0.1771286
0001b0 50 ee 5a bd 00 9e a9 3e e3 68 3f 3e 0f ad 6b be
       -0.05344993 0.33128357 0.18692355 -0.23015235
0001c0 83 fc 14 3e bd 36 aa bd 1f 99 f8 be 8b a3 29 bf
       0.1454945 -0.08311222 -0.48554322 -0.6626517
0001d0 4f 68 30 3f 7a e1 b8 be aa d4 09 3f 73 c0 0c bf
       0.6890916 -0.36109525 0.53840125 -0.54981154
0001e0 06 cb 02 be 47 81 7d be bd f0 a2 3e d8 a7 0c 3f
       -0.1277276 -0.24756347 0.31824294 0.5494361
0001f0 02 17 e0 bd 14 ac f5 3e b1 1e 2a be d1 95 f7 3e
       -0.109418884 0.47982848 -0.1661327 0.48356488
000200 e6 fc 04 bf bd d9 f2 3e 42 22 af 3e 4c cf a5 3e
       -0.5194839 0.47431746 0.34205824 0.32384717
000210 02 ea 6f bd 67 cc 08 3f 1a 06 98 bd 41 e0 1f 3f
       -0.058572777 0.53436893 -0.07423039 0.6245156
000220 36 f4 3d bd b7 1d 65 3e ab 94 1f 3f 40 6a 25 bf
       -0.046375476 0.22374617 0.62336224 -0.6461525
000230 44 5d c5 be 13 a1 53 bd fa ad 80 be 7b 5d c8 bd
       -0.3854772 -0.051667284 -0.25132734 -0.09783455
000240 c5 fd 92 be 6e 5e a0 3e da ae f9 be 39 69 cd be
       -0.28709236 0.31322044 -0.48766214 -0.4011934
000250 7d 56 59 bd 54 5e c9 be 6c d3 b6 3e 7d 35 63 be
       -0.053060997 -0.3932978 0.35708177 -0.22188373
000260 b6 c8 a4 be 50 28 06 bf 4b 12 68 be c2 97 9b 3e
       -0.3218438 -0.5240526 -0.22663228 0.3038922
000270 98 90 09 3f 07 9f 3d be 22 24 04 bf 84 75 9e be
       0.5373626 -0.18517695 -0.51617634 -0.30949032
000280 8d 21 29 3f 18 4c 53 be 71 dd bb 3e c5 e9 04 bf
       0.6606682 -0.20634496 0.36692384 -0.51919204
000290 f4 92 2f bf a6 d0 03 bf f6 13 04 3e 81 f1 d5 be
       -0.6858361 -0.5149025 0.1289824 -0.41785815
0002a0 d8 9d 18 3f e2 00 db bd 62 fe 2b 3f d5 7e 02 bf
       0.5961585 -0.10693528 0.6718503 -0.5097478
0002b0 59 60 60 3e fe d9 0d bf 1d 9f af bd 7a 38 07 bf
       0.21911754 -0.55410755 -0.0857527 -0.5282055
0002c0 78 be 06 be 51 e9 15 3f ca 53 16 3f fe d1 2b bf
       -0.13158596 0.5855914 0.587216 -0.671173
0002d0 85 e8 21 bd de 70 cf bd 8d 14 ec 3e e1 68 de 3e
       -0.03952839 -0.101289496 0.4610943 0.4343939
0002e0 9f 31 92 3e df b9 0d 3f 6c 43 89 3e 82 f8 4f 3e
       0.28553483 0.5536174 0.2680925 0.20309642
0002f0 e2 59 6d bd b6 a3 8b 3e 96 8b d0 3e ef 60 a6 bd
       -0.057947047 0.2727334 0.40731496 -0.08123957
000300 c5 8d cb be d5 33 fc be 6e 6a 94 be 90 5f 14 3f
       -0.397566 -0.49258295 -0.2898745 0.57958317
000310 f2 a4 86 be b8 5a 8e be 84 91 b2 bd 15 91 6e 3e
       -0.26297718 -0.27803588 -0.08719161 0.23297532

weight f4 [200, 2]
000000 c4 a5 0c 3d 52 9b 1b bf 95 0f 84 3e 5b 35 07 bf
       0.034337774 -0.60783875 0.25793138 -0.5281579
000010 88 5d 1e 3e 01 dd 2c bf 1d c7 4d bf 17 5f e5 3e
       0.15465367 -0.67524725 -0.8038195 0.4479911
000020 4f 46 5e 3f 41 35 78 be 63 a9 64 be 40 c7 4c 3e
       0.8682603 -0.24239065 -0.22330241 0.19997883
000030 4d 33 02 bf ad b9 57 be 06 c8 29 bf b0 b4 4a 3f
       -0.5085953 -0.21066923 -0.66320837 0.7918196
000040 32 72 b1 3e d6 24 91 3e 9b 33 85 bd 6e 85 77 bd
       0.34657437 0.28348416 -0.065039836 -0.060429983
000050 f9 ca 91 3e e1 13 7a be c9 eb 24 3f dc 6c 5c 3f
       0.28475168 -0.24421646 0.6442228 0.86103606
000060 27 d6 f2 be dc fb 8a 3e 72 43 24 bf be a8 d0 3e
       -0.4742901 0.27145278 -0.64165413 0.4075374
000070 9f 5f 87 3e c1 16 28 bf 6a f0 37 bf 54 a9 d9 bb
       0.2644014 -0.6565972 -0.7185122 -0.0066425
000080 d9 49 35 3f 7c 22 02 bf 11 88 4a 3f a5 ea 8d 3d
       0.7081581 -0.5083387 0.7911387 0.069295205
000090 99 0a d5 be dc 49 0d bf c8 18 d6 3d c2 da af 3e
       -0.41609648 -0.55190825 0.104539454 0.34346586
0000a0 5e 39 4a be 81 67 a8 3d 2d bf 12 3f 54 96 60 3e
       -0.19748446 0.08222867 0.5732296 0.21932346
0000b0 ef 88 20 be d4 02 f4 be a2 9d 25 3f 15 c3 e4 be
       -0.15677236 -0.47658408 0.64693654 -0.44680086
0000c0 eb dd 0c 3f d4 4d 6d 3f c2 cb 31 3f 32 16 50 bd
       0.5502612 0.9269688 0.69451535 -0.050802417
0000d0 31 b3 7e be 13 62 df 3e 19 f9 b3 3e 94 41 e4 be
       -0.24873044 0.43629512 0.35150984 -0.44581282
0000e0 41 32 e9 3c a2 0c 03 3f 33 36 1d 3f c6 4e 28 be
       0.028466346 0.5119115 0.61410826 -0.164363
0000f0 96 fe 51 bd 56 fc 85 3c 0d 29 a9 3e 44 1a 15 3e
       -0.051268183 0.016355675 0.33039132 0.14560801
000100 92 f4 33 bf 6a 36 51 be 86 63 c5 3e 78 53 29 bf
       -0.7029506 -0.20430914 0.38552493 -0.6614299
000110 70 47 97 3e ee c4 04 bf 5a e8 d7 be 7d 06 fa be
       0.2954669 -0.5186299 -0.42169458 -0.48833075
000120 0a 1b 3c bf df c2 1b 3f 09 45 fd 3e ad cf 65 3e
       -0.7347876 0.60844225 0.49466732 0.22442503
000130 07 69 a0 3e 26 02 a3 3e 84 87 9a be c0 21 37 3f
       0.3133013 0.31837577 -0.30181515 0.71535873
000140 7a 34 9f be ed e4 b1 3e 0f 95 08 3f 52 fa 29 bf
       -0.31094724 0.3474497 0.53352445 -0.66397583
000150 ac ad 4d 3f 01 8e 66 3d e6 12 66 3e 81 af 9e 3d
       0.8034313 0.05628777 0.22468147 0.077483185
000160 e4 8b 0e 3e 05 77 cb be b0 48 77 bc d4 74 c1 3e
       0.13920552 -0.39739242 -0.015093014 0.37784445
000170 66 78 c5 3e c2 69 8f 3e 98 71 68 bf 9c 7d f1 be
       0.3856842 0.28010374 -0.9079833 -0.47166145
000180 7a 32 83 3e 27 6c e3 be 9c ed 87 bb fe ee e7 3e
       0.25624448 -0.4441845 -0.0041481983 0.45299524
000190 63 fa 1e 3f b9 8b f3 be 0b 13 f9 bd 43 e0 32 3e
       0.6210081 -0.47567537 -0.12161835 0.17468362
0001a0 56 24 4f bf 95 d4 16 be f3 03 b4 3e ab 6b 6d be
       -0.8091482 -0.14729531 0.35159263 -0.23185603
0001b0 1f 5b 0b 3d 83 1f 0b 3f 6a c0 15 be 5e 71 be 3e
       0.034022447 0.5434496 -0.14624181 0.37195867
0001c0 96 26 33 bf 80 c0 28 3e f9 0c 38 3f 62 5b 29 3f
       -0.6998075 0.16479683 0.71894795 0.66155064
0001d0 3b 34 25 3f de 09 38 bd 69 1d 26 bf 56 e6 4b be
       0.6453282 -0.044931285 -0.64888626 -0.19912085
0001e0 e1 3a 07 3f ef b4 ff be 23 db 62 3e 89 bb f4 be
       0.5282422 -0.4994273 0.22153907 -0.47799328
0001f0 91 d3 15 bf 2d 23 20 3f ce d1 00 3f 6e 2d 14 bf
       -0.5852595 0.62553674 0.50320137 -0.5788182
000200 dd 75 dc be b3 8b 46 3f d0 f9 00 bf 5b 1c e5 bc
       -0.43058673 0.77556914 -0.50381184 -0.027967623
000210 65 38 70 bf 38 e6 5a bf 24 67 4c 3f aa 71 d4 3e
       -0.9383605 -0.85507536 0.7984488 0.4149297
000220 d1 70 ab be 4c 34 19 3f fb c5 69 bd 85 21 b5 3e
       -0.3348451 0.59845424 -0.057073575 0.35377136
000230 9e f8 fd be bb 91 2e bf 18 9d bb be 14 e6 4c bf
       -0.49603742 -0.6819112 -0.3664329 -0.8003857
000240 16 1f b6 3e 2a cc 13 bf e4 b6 bb be 14 4b 3d bf
       0.35570592 -0.57733405 -0.36662972 -0.73942685
000250 52 17 38 bf 02 e4 20 bf 34 3e 5b 3f c2 9e 3a 3f
       -0.71910584 -0.6284791 0.8564179 0.72898495
000260 4d 88 2d bf 67 40 00 bf 58 16 3c 3f 5c 2a a0 3e
       -0.67786103 -0.5009827 0.73471594 0.31282318
000270 59 b5 58 3f 7e e1 e0 3e a1 49 3c bf e1 01 03 bf
       0.84651715 0.43922037 -0.7354985 -0.5117474
000280 9b 9e fe be e7 16 0b 3e 7f d7 41 3f 07 44 1c 3e
       -0.4973038 0.13582955 0.75719446 0.15260325
000290 09 0c 19 3f d6 54 99 3e 10 0c 07 3f a4 5c 5d 3e
       0.5978399 0.29947537 0.5275278 0.21617371
0002a0 5f f3 e4 be fd 55 3d bf c9 7b 9d 3e bb 28 c7 be
       -0.44716927 -0.7395933 0.30758503 -0.38898262
0002b0 24 14 de be 65 87 01 3f a4 a8 d6 3e 0d 09 d2 be
       -0.4337474 0.5059722 0.41925538 -0.4102253
0002c0 33 8c 52 3e 91 02 3f bf cd ab 4d 3f ea 24 96 be
       0.20561294 -0.7461329 0.8034027 -0.29325038
0002d0 c5 9e 14 be b6 52 39 bf 00 ac 66 bb 8d 86 90 3d
       -0.14513691 -0.7239183 -0.0035197735 0.070569135
0002e0 cc 8b 8a 3e cf e8 02 3f 57 26 92 3e fb 0f e8 3e
       0.27059782 0.5113649 0.28544876 0.45324692
0002f0 00 fb 2b 3f 98 7d 28 bf f3 d0 b5 bd 74 3d 1a 3f
       0.6717987 -0.6581664 -0.088777445 0.6025002
000300 eb 51 25 3e 42 c2 18 bf a7 23 95 be b6 43 2c bc
       0.1614453 -0.59671414 -0.29128763 -0.01051419
000310 6d 98 42 3f 1e 9e 21 3c 68 3d 28 bf 2c f2 f6 be
       0.76013833 0.009864358 -0.657187 -0.48231637
000320 0b ad e6 be ce e0 92 be c6 fa 95 be 8a 5f e5 3e
       -0.45053896 -0.28687137 -0.29292887 0.44799453
000330 7d 55 14 bf bc cc c9 3e d1 01 c3 be 9a 9b 0c 3e
       -0.57942945 0.39414012 -0.38087323 0.13731232
000340 50 e9 d6 3e 86 7e fd 3e 92 87 90 3e 04 b3 69 3f
       0.41974878 0.49510592 0.28228432 0.9128878
000350 b2 09 7c 3e 96 ff 13 3f 55 5b 3a bf d8 b3 a6 3e
       0.24613073 0.5781187 -0.7279561 0.32559085
000360 96 14 1d bf 86 37 32 be 2f f0 26 be 89 ef 2b 3f
       -0.61359537 -0.17403993 -0.1630256 0.67162377
000370 e5 45 5d bf 6a 65 38 be 8f db 54 3f 13 dc 53 3f
       -0.86434776 -0.18007436 0.8314752 0.8275768
000380 1a bb 36 bf 0f a2 f0 be b1 a5 b6 3e 89 7e 3a 3f
       -0.71379244 -0.4699864 0.35673288 0.7284933
000390 ed d8 19 be cc f9 5b bf 91 a0 59 3e 27 8a 52 bc
       -0.15024157 -0.85928035 0.21252657 -0.012850321
0003a0 09 0b 20 bf 6c 6b 0f 3e d1 17 46 bf 7e 63 04 3f
       -0.6251684 0.14005822 -0.7738009 0.51714313
0003b0 2c 1a 33 bf 8c 1c a4 be 7e 92 33 3e 2b 58 e1 3e
       -0.6996181 -0.3205303 0.17536351 0.4401258
0003c0 d1 ef 45 bf f4 45 42 bf f2 1f 51 3f 80 0b b0 be
       -0.77319056 -0.7588799 0.8168937 -0.34383774
0003d0 0e c5 4c bf f3 32 56 bf cc 2d 3b 3f fc 03 1d be
       -0.7998818 -0.8367149 0.73116755 -0.15333551
0003e0 f0 7f 0d 3f 98 0b 3b bf 7f d3 9f be 2f 9f 1b 3f
       0.5527334 -0.73064566 -0.31216046 0.6078977
0003f0 28 1a 4a bf dd e1 98 be a3 a2 05 3f f5 c7 2c 3f
       -0.7894616 -0.2985982 0.5220129 0.6749261

bias f4 [300]
000000 4b 49 25 3d d1 ab da 3c c2 a8 25 bd ee 1a 3b bd
       0.0403531 0.026693257 -0.040444143 -0.04567998
000010 58 44 09 3d aa de 45 bd aa df 3a bc e4 f9 5d 3d
       0.033512443 -0.048308052 -0.011405865 0.054193392
000020 33 87 9a bd 5e b6 78 3d 59 fa a3 3c c7 c3 4f 3c
       -0.075453185 0.060720794 0.020016836 0.012680954
000030 81 dd 7b bd 6b c0 5e bd 55 c1 5e 3c 63 53 0a 3d
       -0.06149054 -0.054382723 0.013595899 0.03377093
000040 05 11 46 3d 6f 58 3e 3c 2c 1d 4b 3c 2a 00 b9 3c
       0.048356075 0.011617764 0.012397092 0.022583086
000050 f5 58 cf bc 6a 66 3d 3d 97 07 8b bd 81 74 bf bc
       -0.025310973 0.046240248 -0.06788557 -0.023370983
000060 e8 55 ed 3c 50 7d 3a bd 1e 35 7d 3d af 20 7d 3d
       0.028971627 -0.045529664 0.061818235 0.061798748
000070 59 ba 70 3d 3c 91 6a 3d a1 68 2e 3d 23 a4 99 bc
       0.058771465 0.057267413 0.04258025 -0.018755024
000080 33 fc 78 3d d8 03 90 bb c9 67 cb bb fe 23 10 3d
       0.06078739 -0.0043949895 -0.0062074405 0.035190575
000090 e9 d5 fc bc c6 f5 4c 3d db 78 8f bd 65 77 38 bd
       -0.030863719 0.050039075 -0.07005473 -0.04503574
0000a0 0e 3f 58 bd 8c eb ba 3c 34 e3 90 3d bd fd 21 3d
       -0.05279451 0.022817396 0.070745856 0.039548624
0000b0 69 8e 22 bd 13 bd 85 3d dd 13 5d bd 4c 55 93 bd
       -0.039686594 0.06530204 -0.05397402 -0.071940035
0000c0 a4 fa 43 bd 5a 60 5f bc df cb de 3c ca 75 0f 3d
       -0.04784645 -0.013633812 0.027196823 0.03502444
0000d0 12 6d 7f 3d ac 57 92 bd 56 93 6f bb 33 f0 d6 3c
       0.062359877 -0.07145628 -0.0036556325 0.026237583
0000e0 7e 5f b2 bb 8b 67 9c bc 19 6c 43 3d 8b ab 8e bc
       -0.0054435125 -0.019092342 0.04771051 -0.017415782
0000f0 ab f6 ab bc f1 02 07 ba 13 6a 16 3d ea 6b 6d 3d
       -0.020991644 -0.00051502796 0.036722254 0.057964243
000100 32 01 e0 3c c6 9f 55 bd 30 95 a8 bc 46 ca 32 bd
       0.02734432 -0.052154325 -0.02057895 -0.043649934
000110 73 e3 43 3a b2 92 7e bd 06 a4 cd 3c 1c 4f f1 3b
       0.0007472552 -0.06215162 0.025102627 0.007364167
000120 12 5a d2 3b 7d 40 d6 3c 8d ac 12 bc d0 4a 89 3d
       0.0064194286 0.026153797 -0.008952272 0.067037225
000130 6f 34 4a 3d fe 67 f5 bc e9 a5 38 bd 21 0c f2 3c
       0.04936641 -0.029956814 -0.0450801 0.0295468
000140 59 ec de 3c db 69 d7 bc 18 58 9a bd ef eb 9f 3b
       0.027212309 -0.026295593 -0.07536334 0.0048804204
000150 64 54 64 bc 22 cf 25 3d a1 f2 67 bd 4f 1e 20 bc
       -0.013936136 0.04048074 -0.056627873 -0.009772851
000160 4c 5a 13 bb f8 ee be bc 60 71 83 3d 44 23 2e bd
       -0.002248424 -0.023307309 0.06418109 -0.0425141
000170 98 7f 5d bd c0 e2 d0 3c d2 a3 fc 3c 6d cb 03 bc
       -0.05407676 0.025498748 0.030839834 -0.008044106
000180 17 36 98 bd f2 d0 6b 3d d9 79 e3 bc 94 46 3c 3d
       -0.07432192 0.057572313 -0.027768062 0.045965746
000190 c6 63 6f 3d dd aa a6 bc c5 7f 8c bd 8c 17 83 3c
       0.05844476 -0.020345146 -0.068603076 0.016002439
0001a0 e4 34 24 3d 50 61 51 bc a4 22 d9 bc 29 c1 7e bc
       0.040089503 -0.012779549 -0.026505776 -0.015548983
0001b0 b8 57 e2 bb 4e a6 47 3d ac 44 00 3c a1 2e b0 bd
       -0.0069074295 0.048742585 0.007828873 -0.08602644
0001c0 9d 5c 38 3d a6 99 09 bd 9f c0 12 3d f9 bc 29 3d
       0.045010198 -0.033593796 0.03582823 0.041439984
0001d0 4c 59 0a 3d 1d 90 11 3b 7e 9e 61 3d 0b 94 d0 3c
       0.033776566 0.0022211142 0.05508279 0.025461217
0001e0 58 7b 8a 3b 7f a3 18 3d c3 a5 8d bd d2 99 69 3d
       0.0042261295 0.037265297 -0.06916382 0.05703146
0001f0 dd f6 05 bd b4 d4 bb 3b 15 7b 4c 3c cd 69 e5 3c
       -0.03270613 0.0057321433 0.012480517 0.028004551
000200 f1 be 2f bd 28 54 85 3d f9 c7 3f bd 5f ba 7f bc
       -0.042906705 0.06510192 -0.04682157 -0.015608399
000210 10 1d 22 bd 98 23 5b bc aa 50 56 bc 7e 97 5f 3d
       -0.039578497 -0.013375185 -0.013080755 0.054587834
000220 09 4d 71 bd 49 1d 4b bd 42 f4 5d bd 7e 23 62 bc
       -0.058911357 -0.049588475 -0.05418802 -0.013802407
000230 6c 19 81 bb f2 c8 c1 3c 17 a2 45 bd e0 b8 84 bd
       -0.003939798 0.023655389 -0.048250284 -0.064805746
000240 31 79 6b bd 09 84 f7 3c c3 6f 25 3d 0c 32 99 3b
       -0.057488624 0.030214326 0.040389787 0.0046751555
000250 98 41 a3 3c b7 b9 01 bd 86 cd 4b 3c ae c1 18 3c
       0.019928738 -0.031671252 0.012439137 0.009323521
000260 20 1b 84 bc a7 75 87 3d 65 eb 53 bd e3 a8 82 bd
       -0.016126215 0.06614237 -0.05173816 -0.06379869
000270 bf bd 32 3d b5 86 78 3d 94 0f a5 bd fd 20 90 3d
       0.043637987 0.06067534 -0.08059612 0.07037542
000280 fc eb 6a bd a6 e8 2a 3c 86 cc b6 3c 33 c5 89 3d
       -0.05735396 0.010431444 0.022314321 0.06727066
000290 a3 6b 64 bb d9 b8 6d bd 02 9a bf 3c 9b 5b b9 3c
       -0.0034854196 -0.058037613 0.023388866 0.022626689
0002a0 5b 7b 27 3d a8 84 3d bd 87 5d e0 bc 29 15 f9 3c
       0.040889125 -0.04626909 -0.027388347 0.030405598
0002b0 95 63 1f 3d b0 cd 7d 3b e9 27 ad bd eb c8 4a 3d
       0.03891333 0.0038727336 -0.08454878 0.049508017
0002c0 e2 54 82 3d 3f a4 c0 3c 9a d3 34 bd 59 3f be 3c
       0.06363846 0.023515819 -0.04414711 0.023223566
0002d0 88 85 51 bd 56 30 b5 3b f7 4e 49 3c 96 8a 9c 3d
       -0.051152736 0.0055294437 0.012286893 0.07643621
0002e0 2c eb 8e 3d 76 f8 a1 3b a9 cd 97 3d ca d4 21 bd
       0.06978449 0.004942949 0.074122734 -0.039509572
0002f0 38 73 74 bd 95 82 04 3d 85 f3 d7 bc cf 74 3d bd
       -0.059680194 0.032351095 -0.026361236 -0.046253975
000300 43 e9 a5 bb 35 24 52 3c f8 a7 07 bc 06 e8 97 bb
       -0.0050632074 0.012826015 -0.008279793 -0.0046358136
000310 dd d2 d7 3a 09 2b 2e bd 38 a4 59 3c 3f 07 67 3c
       0.001646604 -0.04252151 0.013283782 0.014100849
000320 3d 22 8b 3d 56 f3 c0 3b 27 18 75 3d 8a ff 8d 3d
       0.0679364 0.005888383 0.059837487 0.06933506
000330 9c 06 08 bd ec 05 45 bd 6d df 09 bc ca 9d 36 bd
       -0.03320943 -0.04810135 -0.008415085 -0.044584073
000340 df 00 60 bd b3 e5 1a 3c 67 5d 23 bd 9f bb bd bb
       -0.05468833 0.009454179 -0.039883997 -0.0057901884
000350 1e 4a f6 3c dc d3 71 3b cd 14 42 3d 93 70 a5 bd
       0.030064639 0.003689996 0.04738312 -0.080781125
000360 34 f9 25 3d 26 9a 86 3d 1d e2 9c 3d db aa 2a bd
       0.04052086 0.0657237 0.07660315 -0.041666847
000370 61 f7 1a 3b 37 87 34 bd 8f 27 21 3c ca 42 5a bd
       0.0023645984 -0.044074263 0.009836092 -0.05328635
000380 6e 3d 5e bd 23 1d 8c 3c 51 ee b3 bc b2 64 84 bd
       -0.054257803 0.017103737 -0.021964224 -0.064645186
000390 b1 b0 20 bd 74 b0 76 bc e3 f5 0e bd ee 60 1d 3c
       -0.039231006 -0.015056718 -0.034902465 0.009605629
0003a0 dc 44 66 3d 82 6f 48 bd 5c 06 81 3c 63 32 8f bd
       0.056218013 -0.048934467 0.015750103 -0.069920324
0003b0 bb 6d b3 bc e8 33 2a 3d d7 4f 0e bd f9 ae b9 bd
       -0.02190291 0.041553408 -0.03474411 -0.090665765
0003c0 71 64 3c bd f6 88 84 ba 84 64 4e ba 70 98 87 bc
       -0.045994226 -0.0010111618 -0.00078732544 -0.01655218
0003d0 e2 04 73 bc e5 4b 18 3d d0 5b 18 3d d0 48 89 bb
       -0.014832707 0.037181754 0.037196934 -0.004189588
0003e0 70 1a 2b 3b 76 3d 22 bd 77 05 81 3d 55 33 4a 3d
       0.0026108287 -0.039609395 0.062998705 0.04936536
0003f0 af 36 99 3d c3 cf 32 3c c2 39 d5 bc 4c 3f d4 bc
       0.07481133 0.010913792 -0.026028518 -0.025909089

weight f4 [300, 200]
000000 2a 60 cd bd 0c dc bf bb 47 36 ee ba 35 aa 23 3e
       -0.100281075 -0.005855089 -0.0018174135 0.15982898
000010 96 a9 d6 3d 40 46 31 3d 80 a2 16 be 65 53 09 3e
       0.10481565 0.043279886 -0.14710426 0.13410719
000020 d0 c6 b8 bc 28 fb 64 3a 7f 7f 90 3c c0 f7 d9 3d
       -0.022555739 0.0008734935 0.01763892 0.10642958
000030 87 96 97 3c 86 53 26 bb d2 2f d1 3c cc 00 18 3e
       0.018504394 -0.0025379374 0.025535498 0.14844054
000040 11 77 36 be c0 31 5b bd 88 98 df bd a7 da 98 3c
       -0.17818858 -0.053514242 -0.10917765 0.018658949
000050 bd 05 cf bd 9d 3e cf bb 78 d0 10 3d bf 9c 66 3d
       -0.10108516 -0.0063246028 0.03535506 0.05630183
000060 57 69 db 3d 24 df 96 3d 71 ab 5a 3d 4c 00 e9 3c
       0.10713451 0.073667794 0.053386156 0.028442524
000070 bc 10 23 3e ab 79 47 ba 2a cf 71 3d 4f 8f c9 3c
       0.15924352 -0.00076093775 0.059035458 0.024604468
000080 5c 8a 17 bd 26 cb 66 3b 4d b1 20 bd a9 92 fe bb
       -0.036997184 0.00352163 -0.039231587 -0.007768948
000090 9a f9 08 3e 99 86 87 3b 5e e4 b8 bc 6a 42 e3 3c
       0.13376465 0.0041359183 -0.022569831 0.02774163
0000a0 de 08 5e 3c e9 d9 00 3d 76 8f f2 3d 76 f7 88 bd
       0.013551919 0.031457815 0.11843769 -0.066878244
0000b0 79 51 81 bd 56 78 ba 3d 8c 79 7f 3c d4 3a ee bd
       -0.06314368 0.091049835 0.015592944 -0.11632314
0000c0 f5 72 15 bc 73 4f 07 3e aa c0 d3 3c 05 54 36 bc
       -0.009121646 0.13213901 0.025848705 -0.01112843
0000d0 39 1f 9d bc 7c 08 ac 3c 13 b4 eb 3b ee 05 b8 bc
       -0.019179927 0.02100014 0.0071930974 -0.022463765
0000e0 da c6 ae 3d a2 5d ca 3d 41 48 34 be 76 2b 1a be
       0.08534022 0.0988114 -0.17605688 -0.15055642
0000f0 fd ae f9 bc b0 33 31 ba 98 3d 8f bd 3b 92 2c 3d
       -0.030478949 -0.0006759716 -0.0699417 0.042131644
000100 ca 3e 0a 3e 85 24 c4 bd 3d e1 38 be 13 7b d8 3d
       0.13500515 -0.09577278 -0.18054672 0.105703495
000110 3a 2f a6 3d 2a 12 d7 b9 61 1a aa 3d 55 d8 8b bd
       0.081144765 -0.0004102153 0.083058126 -0.068283714
000120 b1 ac 82 bd ec 75 06 be de 4c 86 3c 9f 5c 98 bd
       -0.063805945 -0.13130921 0.016394075 -0.07439541
000130 2a 29 f3 bd 94 15 ac bd 05 46 dd 3d 4d 8f 66 3d
       -0.11873086 -0.08402553 0.10804371 0.056289006
000140 f0 57 b8 bc cf c7 10 3d ea f5 40 3d 7e 41 07 3d
       -0.02250287 0.035346802 0.047109522 0.033021443
000150 07 92 89 3c 77 95 83 3d b1 81 a1 bd 5d 52 77 3d
       0.016793264 0.064249925 -0.07886065 0.060381282
000160 df e3 00 bd 59 53 c5 bd d9 2d 16 3d 96 62 30 3d
       -0.031467315 -0.09635038 0.036664817 0.04306277
000170 36 47 19 bd 83 96 ba bd 5a 4f 50 bd 4f 25 9a 3d
       -0.037421428 -0.09110739 -0.050856926 0.07526647
000180 a6 f8 ce bc 48 2c b6 bd 52 eb 8f 3c 88 fc 2a 3e
       -0.02526505 -0.08895165 0.017568264 0.16697896
000190 23 6d 42 3d 7d 91 d5 3c 2a 8a cd 3d ca 55 21 3d
       0.047467362 0.02607035 0.10036118 0.039388455
0001a0 75 d1 47 3e 93 9f e9 bc 23 9b 89 bd b9 25 9b 3d
       0.19513495 -0.028518474 -0.06719043 0.075755544
0001b0 db 5b de bd 61 9a 6d 3c b7 42 d0 bd 41 3f ce bb
       -0.10857364 0.014502139 -0.10168975 -0.0062941615
0001c0 e2 25 9a bd 11 10 04 be 08 b8 14 be 14 37 4a 3c
       -0.07526757 -0.12896754 -0.14523327 0.012342233
0001d0 2b 3d c8 bc 9e 19 20 3d d7 f8 a8 bd 5d 52 15 3d
       -0.02444323 0.03908693 -0.082505874 0.0364555
0001e0 d2 38 68 3d 34 49 75 bc 3c a3 07 be bc 23 4a 3d
       0.056694813 -0.014971066 -0.13245863 0.049350485
0001f0 05 70 f1 3c 5f d0 42 bc e2 6c 17 3d 25 ff b7 3d
       0.02947236 -0.0118905 0.036969073 0.08984212
000200 06 88 14 bd 08 3f a4 3b f7 2f cf 3d 15 af 21 3d
       -0.036262535 0.0050123967 0.101165704 0.03947361
000210 4d a7 0c be 63 f4 54 bc eb 0e b0 3d e9 ae 69 3c
       -0.13735695 -0.012997719 0.085965954 0.014262893
000220 fc ee 19 3d 80 22 bc bc 47 40 80 3b 1b 76 1f 3d
       0.03758143 -0.02296567 0.0039139125 0.038930994
000230 64 0d 57 bc 99 60 b1 bc 38 d2 3a 3e c6 7e 5b b9
       -0.013125751 -0.021652507 0.18244255 -0.00020932694
000240 9d 5a 89 bd ec 23 47 bc af 5b 06 3d 41 aa 60 3d
       -0.06706736 -0.012154561 0.03280228 0.054849867
000250 0c 18 94 bd ad ea fe 3d bb 83 da 3c af 10 2b be
       -0.07231149 0.124471046 0.026674142 -0.16705583
000260 e8 d0 04 bd 19 76 80 bd 7b f1 5e 3d 42 f8 92 3d
       -0.03242579 -0.06272525 0.054429512 0.07176258
000270 02 76 60 bc 22 8d 3b 3c 76 b3 b0 bb 54 37 08 bd
       -0.01370001 0.011447223 -0.005392487 -0.03325589
000280 f7 d7 2d bd 55 68 59 3c 2c a4 8a bd 21 34 25 bc
       -0.04244229 0.013269504 -0.067695946 -0.010083229
000290 ba e9 ce 3c 80 01 e5 3c 61 39 d8 3c 2d de 20 3e
       0.025257934 0.027954817 0.026394548 0.15709753
0002a0 a7 9f 82 bc 9a 03 08 bd e0 c8 01 bd d8 a3 a4 3c
       -0.015945269 -0.03320656 -0.03168571 0.020097658
0002b0 07 a1 6d 3d ca 75 4b bd 0b 32 ef 3d 78 22 bb 3c
       0.058014896 -0.04967288 0.11679467 0.022843584
0002c0 f2 57 f1 bd 57 aa a0 3b 1e e0 31 bd c6 c1 6d bb
       -0.11784352 0.0049031186 -0.043426625 -0.0036278828
0002d0 d2 6e c0 3d 2c 20 ef bd f8 15 71 bd 58 34 35 3d
       0.09396137 -0.11676058 -0.05885884 0.044239372
0002e0 09 21 54 3c ac bb a6 3d 74 c0 3d bd c2 51 9e 3d
       0.012947329 0.08141264 -0.046326116 0.07730438
0002f0 32 5e b1 bd a2 a6 94 3d 13 a7 70 bc a1 22 8e 3c
       -0.086605445 0.07258345 -0.014688271 0.017350497
000300 ac 6e a0 3b 56 c6 78 bd 3c c3 cf bc 7f 5f 8b 3b
       0.0048960056 -0.060736023 -0.02536165 0.0042533274
000310 f5 0f b6 b9 2b 00 0b bc 53 52 8e 3d 57 c8 a4 3d
       -0.00034725634 -0.008483927 0.06949296 0.08046024
000320 1b ba 15 3e c7 6c 9f 3d 5c 70 07 bd 65 36 10 be
       0.14621775 0.077844195 -0.03306614 -0.1408325
000330 e2 29 6d 3d 59 db c6 bd 52 83 fd bb 20 ac 9d bd
       0.05790127 -0.09709806 -0.007736602 -0.07698846
000340 51 ac 61 3d 4c 10 e5 3b 8b c9 4d bd 02 21 69 3d
       0.055095974 0.006990468 -0.050241034 0.056916244
000350 1c 2b 6e bc b1 7f 2f bd d6 0b b1 3c 91 ed 06 3e
       -0.014536645 -0.042846385 0.02161209 0.13176562
000360 79 dd 1e 3e 9a 92 33 3d bf 4b 97 bd 03 6e 88 3b
       0.15514173 0.043840982 -0.07387494 0.004163505
000370 3f 0a 76 3c bf a9 c7 3d 2a 59 8f bc 11 ad 46 3d
       0.015017091 0.097491734 -0.017498571 0.048504893
000380 d8 fb 8c 3d ad 70 61 bc 20 8d 17 3c 39 8a 37 bc
       0.06883973 -0.013759774 0.009249955 -0.011202388
000390 9f b2 1c be c3 d7 06 3d ac 8e ff bc e9 5e be bb
       -0.15302514 0.03292061 -0.031195961 -0.005809654
0003a0 6a 69 b0 3c dd 49 c4 3d cc 18 b6 3c bb c0 f8 3d
       0.02153464 0.09584401 0.022228621 0.121461354
0003b0 0a 28 2b bc 6a 11 6a bd b6 0b 86 bd b7 f2 54 3d
       -0.010446558 -0.057145514 -0.065452024 0.051989283
0003c0 6b e7 07 bd af bc ea 3d 8d 1d a6 3d 1f f6 8d 3d
       -0.03317968 0.1146177 0.08111105 0.069317095
0003d0 00 5e 48 bd 7d c1 82 3c 25 9a 47 3d f1 53 ea 3d
       -0.04891777 0.015961403 0.048730988 0.11441792
0003e0 3d 03 9c 3d 61 1a 1d be 38 fc a1 3d 27 fe c2 3d
       0.07617805 -0.15342094 0.07909435 0.09521132
0003f0 2a ba 87 3c a2 c0 30 3b 89 fc 08 3d 2c 05 a0 bc
       0.016568262 0.0026970287 0.03344396 -0.019533716

bias f4 [2]
000000 da f9 14 3c f8 ac 20 bc
       0.009092772 -0.009806864

weight f4 [2, 300]
000000 f4 77 1a 3e 84 24 24 be ca df 0c 3e bc 10 3b bd
       0.15084821 -0.16029555 0.13757244 -0.045670256
000010 92 fe 66 3c cb 8e 33 3e 70 d8 cb bc 51 b1 db 3c
       0.01409878 0.1753494 -0.024883479 0.02681795
000020 e7 2a 1f be 77 4f 2f 3e 9a a0 09 be 8b a1 f9 3d
       -0.1554371 0.17120157 -0.13440171 0.12189015
000030 79 08 07 be aa 0d 0d be 38 03 14 3e d4 e2 cc 3b
       -0.13186826 -0.13774744 0.14454353 0.006252626
000040 cc 88 86 bd 80 80 1b 3e b9 6b 23 3b f0 f3 95 bd
       -0.06569061 0.15185738 0.0024936034 -0.07321918
000050 6c 93 07 3e 60 a5 24 3e a2 a4 43 bd 3e 92 63 bc
       0.1323983 0.1607871 -0.047764428 -0.013889847
000060 d6 68 df 3c 59 15 1d 3e 07 4a 4d bd ee 9b bd 3d
       0.02727167 0.15340175 -0.050119426 0.09258257
000070 a0 48 1d 3e 8a bf d4 3d ff bf e7 3d d3 83 10 3e
       0.15359735 0.10388096 0.11315917 0.14112787
000080 69 ff 9b bd 3a dd e9 3d 4b 88 0b be 65 54 3d be
       -0.07617075 0.11419149 -0.1362621 -0.18489225
000090 c8 85 be 3d c9 f1 1d 3e 6b c4 34 3c 0b 0c 09 bd
       0.093028605 0.15424265 0.011033158 -0.03345875
0000a0 49 b9 70 bd ab 1c 06 3e 99 b7 af 3d e4 35 85 bd
       -0.05877045 0.13096873 0.0857994 -0.065044194
0000b0 e6 2c 33 3d 75 d7 e4 bd fd 0b 2c 3d e7 ce 37 bd
       0.04374399 -0.11173908 0.04200362 -0.04487505
0000c0 fe 9b d3 3d 02 4d bc 3c 6e 74 13 bc e6 8d fa 3d
       0.103324875 0.022985939 -0.008999927 0.12234096
0000d0 07 05 31 3d 3e 1a 81 3c 66 18 c6 3d 3f 5c 17 be
       0.043217685 0.015759584 0.096726224 -0.14781283
0000e0 bf 7a b1 bd 09 cf 95 3d d4 dd 01 bd 9e af 38 3d
       -0.0866599 0.073148794 -0.031705692 0.045089357
0000f0 7e b0 27 3e a8 16 a6 3b 2c c6 96 3d dd a6 f4 bd
       0.1637592 0.005068619 0.07362017 -0.11945889
000100 c6 4d 85 3d ae bc b6 bb 8a 5f 38 3b db 26 55 3d
       0.06508975 -0.0055766916 0.0028133118 0.05203901
000110 7d 4d 36 bd 34 52 e0 3c 67 4b 2e 3c bd 59 cc 3d
       -0.044507492 0.027382948 0.0106380945 0.09978054
000120 f5 a1 fc bd 73 9a 56 bd ea b6 d2 bd dd 6d 00 3e
       -0.12335578 -0.052393388 -0.10288794 0.1254191
000130 20 a3 da bd c5 89 04 bd 42 c2 f0 bd 9e 8c 2d be
       -0.10675645 -0.03235795 -0.11755802 -0.16948172
000140 1c e7 ec bc 7d f0 1b 3e d7 f9 00 be d7 fd b9 3d
       -0.028918795 0.15228458 -0.12595306 0.09081619
000150 cc cd a6 bd e4 ce 83 bd a3 a1 cd 3d 8f 92 40 bd
       -0.081447214 -0.06435946 0.100405954 -0.04701477
000160 76 54 e6 3d 1d 9d 33 bd 0a b4 cf bd 3f fa ea bc
       0.112465784 -0.043851007 -0.101417616 -0.02868378
000170 8a fa 99 bd 0a 14 65 3b 95 32 bb bc 4e 6c 3f bc
       -0.0751849 0.0034954571 -0.022851268 -0.011683537
000180 1e 54 12 bc 85 ff 66 bd e8 b1 b6 bd 2f 49 1f bd
       -0.008931188 -0.056396026 -0.08920652 -0.038888153
000190 d2 89 aa 3d 10 07 1a 3e 89 91 ff bd 5c 45 18 3e
       0.083270684 0.15041757 -0.124789305 0.14870209
0001a0 5b da f4 3c 23 78 23 bd 8e a9 3d bd 72 a1 47 be
       0.029889276 -0.039909493 -0.046304278 -0.1949518
0001b0 ec fa 25 be db cb b4 3d 50 b6 b4 bc aa e6 1c 3e
       -0.16209 0.08827945 -0.02205959 0.15322366
0001c0 63 dc e7 bc 39 15 0b 3e dd fa a8 bd 19 e1 9d 3d
       -0.02830333 0.13582315 -0.082509734 0.077089496
0001d0 17 20 ee 3d 24 43 48 be f0 db aa 3d 51 90 01 be
       0.116272144 -0.19556862 0.08342731 -0.12652709
0001e0 bc 8c 19 3e ea d0 6b 3d ab 56 24 3e cd a6 93 bd
       0.14995092 0.057572283 0.16048686 -0.07209549
0001f0 27 ab 15 be 66 46 0b be 2a 88 47 bd b2 5d a7 bd
       -0.1461607 -0.13601074 -0.04871384 -0.08172168
000200 75 6a dd bd ad 78 50 bd e9 ee 1e be 5e 74 5d 3d
       -0.10811321 -0.050896335 -0.15520824 0.054066055
000210 84 7a 32 be f1 43 17 bd 2c f7 3a bd c5 35 39 bd
       -0.17429549 -0.03693003 -0.045645878 -0.045217294
000220 87 7a 29 be 10 83 88 3d c6 96 07 3e 09 56 0f 3e
       -0.16550647 0.06665623 0.13241109 0.13997664
000230 ae 4a 98 3c 75 c3 bd bd 06 b0 1b 3e 6c cf 39 bd
       0.018590298 -0.09265796 0.15203866 -0.04536383
000240 80 e1 5d 3c b1 26 53 bd 18 58 43 bd 43 db ab 3c
       0.013542533 -0.05155057 -0.047691435 0.020978576
000250 26 fd 45 3d 81 78 25 be fd 1d 42 3d d9 4b 4e 3d
       0.048337124 -0.1615925 0.04739188 0.050365303
000260 4a 5b 2e be bc 4b b3 3d 12 a3 21 be 6a d7 c8 3c
       -0.17027012 0.087546796 -0.15784863 0.02451678
000270 95 9c 57 be 41 c3 04 3e f0 ea 15 3e e6 09 c4 bd
       -0.21055825 0.12965108 0.14640403 -0.095722005
000280 7f 49 3d 3d d3 0e 0c be a0 2b 8c bd 04 81 9d 3d
       0.04621267 -0.1367753 -0.06844258 0.076906234
000290 fb 7b 0c be b8 d8 a7 bd 57 2e 13 3e ab 58 81 bc
       -0.1371917 -0.08195633 0.14373146 -0.01578935
0002a0 1e a0 89 bd 65 b5 a8 bd 97 1d 5a bd 52 8e 0c 3e
       -0.06719993 -0.08237723 -0.053250875 0.13726166
0002b0 d6 91 f9 3d 3f 11 aa 3d 3d 8d 81 3d 66 cd 93 3d
       0.12186019 0.08304071 0.06325767 0.07216911
0002c0 ca 77 e3 bd 89 fd c0 3d 76 da e5 bd 3b 76 4d 3e
       -0.11106832 0.09423358 -0.11223309 0.20064633
0002d0 cf 23 27 3e 82 f4 a3 3c 34 74 bf bd 0d cb 29 be
       0.16322254 0.020014051 -0.09348336 -0.16581364
0002e0 ea 67 d2 bd 9d ab 2d bd d0 db d6 3d 4b 81 ed 3d
       -0.10273726 -0.04239999 0.10491145 0.11596926
0002f0 e1 fe e1 bd 5b e5 ac 3d b7 f5 93 3c 62 87 34 be
       -0.110349424 0.084421836 0.018061502 -0.1762977
000300 74 dd fc bd 22 93 13 3d 0f 58 92 bd a4 28 0f bd
       -0.12346926 0.03602899 -0.07145702 -0.034950867
000310 99 89 29 3e df 89 e1 bc 28 34 9e 3d 4e 2b 13 be
       0.16556396 -0.027531562 0.07724792 -0.14371988
000320 f3 3e c2 bd 21 c3 1d bd 6b 3d 27 3e 80 43 5f 3d
       -0.09484663 -0.038516168 0.16332023 0.054507732
000330 c7 20 0a be 0d 42 ae bc 87 54 e4 3c ca 53 3a be
       -0.13489066 -0.02127173 0.027872337 -0.18196025
000340 c2 c7 29 be fd c3 87 3d 35 f4 ee bd 9c 3e 47 3d
       -0.16580108 0.06629179 -0.116676725 0.048643693
000350 48 7f 5a 3c ef 77 5c bd 71 58 a8 3d f0 6e 2b 3e
       0.01333601 -0.053825315 0.08219994 0.16741538
000360 aa e9 fe 3c 48 0e 05 3a 84 7a a6 bd d5 71 a1 3d
       0.03111728 0.00050756754 -0.08128837 0.0788304
000370 bb 43 36 3d 94 c2 e7 3d 4e a2 15 3d 64 46 35 3d
       0.044498187 0.1131641 0.03653174 0.044256583
000380 e0 26 4a 3c 02 ed 09 be 30 da 0d 3e 38 db 29 3d
       0.01233837 -0.13469318 0.13852763 0.04146883
000390 fe 95 cb bd cf 7e 71 bc ed df 61 3d b6 6b 00 bd
       -0.09940718 -0.014739706 0.055145193 -0.03135272
0003a0 fc 1d ee 3d 72 68 62 bd 8d 4a ac bd 59 6e 0e 3e
       0.11626813 -0.055275388 -0.08412657 0.13909282
0003b0 8c 22 42 bd fb da 31 3d 69 63 ca bc 18 69 c9 3d
       -0.047396228 0.043421727 -0.024705606 0.09834498
0003c0 c0 88 8b 3d 11 e0 b4 3d 51 ca dc bd 31 68 94 3d
       0.06813192 0.088318 -0.10780776 0.072464354
0003d0 9e bd 04 3e 05 a4 d1 3d b5 0a eb bd 34 1a 1b 3d
       0.12962958 0.10236362 -0.114766516 0.037866786
0003e0 f5 6d a9 bb e8 6d 0f bc 35 79 93 bd b5 98 bd bd
       -0.0051705786 -0.008754231 -0.07200853 -0.09257642
0003f0 0c fa c8 bd 0a 61 c7 3c e7 81 b5 bd 42 e6 04 bd
       -0.09813318 0.024338264 -0.088626675 -0.032446153
