figures/TS_partial/theta=0.1_s=0.2_step=1/best_model.pth (torch, 249061 bytes, 6 tensors)

weight f4 [200, 2]
0	0x3d11fea6	0.035643242
1	0xbf1c1480	-0.6096878
2	0x3e85cb71	0.26131776
3	0xbf08a7ef	-0.53381246
4	0x3e2107b4	0.15725595
5	0xbf2d106b	-0.67603177
6	0xbf4fd73c	-0.81187797
7	0x3ee72918	0.4514854
8	0x3f60ea27	0.8785729
9	0xbe77a0f5	-0.24182494
10	0xbe669612	-0.22518185
11	0x3e4c74cc	0.1996643
12	0xbf02adea	-0.5104662
13	0xbe5cf7d3	-0.21578912
14	0xbf2b0369	-0.6680208
15	0x3f4b9468	0.79523325
16	0x3eb17232	0.34657437
17	0x3e9124d6	0.28348416
18	0xbd85339b	-0.065039836
19	0xbd77856e	-0.060429983
20	0x3e91caf9	0.28475168
21	0xbe7a13e1	-0.24421646
22	0x3f27eb2f	0.65593237
23	0x3f5aa6d3	0.85410804
24	0xbef58f86	-0.47961062
25	0x3e8ac564	0.27103722
26	0xbf268173	-0.65041274
27	0x3ecbe076	0.39819688
28	0x3e89956e	0.26871818
29	0xbf27de95	-0.6557401
30	0xbf39aadd	-0.7252634
31	0x3ba88bc7	0.005143616
32	0x3f3570c8	0.70875216
33	0xbf01e4ec	-0.5073993
34	0x3f4bf2f5	0.796676
35	0x3d96b768	0.07359201
36	0xbed307df	-0.41216943
37	0xbf0bdfd0	-0.54638386
38	0x3df49ff4	0.11944571
39	0x3eafeb95	0.34359422
40	0xbe5310c3	-0.20611863
41	0x3d927037	0.071503095
42	0x3f13bec6	0.5771297
43	0x3e703134	0.2345627
44	0xbe2088ef	-0.15677236
45	0xbef402d4	-0.47658408
46	0x3f29ac5e	0.66278636
47	0xbee14538	-0.43998122
48	0x3f0ba88c	0.5455406
49	0x3f70efad	0.94115716
50	0x3f308381	0.6895066
51	0xbd46edc7	-0.048566606
52	0xbe868683	-0.262745
53	0x3ed8e3aa	0.42361194
54	0x3eb3f919	0.35150984
55	0xbee44194	-0.44581282
56	0x3c996fae	0.01873001
57	0x3f0381f8	0.5137019
58	0x3f1e0457	0.6172537
59	0xbe22514c	-0.15851325
60	0xbd51fe96	-0.051268183
61	0x3c85fc56	0.016355675
62	0x3ea00b5f	0.31258675
63	0x3e0f764f	0.14009975
64	0xbf2f7188	-0.6853261
65	0xbe4e90a2	-0.2017236
66	0x3ec604b6	0.3867547
67	0xbf29d05f	-0.66333574
68	0x3e9faf85	0.31188598
69	0xbf017095	-0.5056241
70	0xbed49ce9	-0.41525963
71	0xbefc0c3a	-0.49228078
72	0xbf3df684	-0.7420428
73	0x3f1d2912	0.61390793
74	0x3ef96aab	0.48714194
75	0x3e62037f	0.22071646
76	0x3ea06907	0.3133013
77	0x3ea30226	0.31837577
78	0xbe9bf920	-0.30463505
79	0x3f359fff	0.7094726
80	0xbea0b901	-0.31391147
81	0x3eb25d05	0.34836593
82	0x3f07e703	0.5308687
83	0xbf2b04f8	-0.66804457
84	0x3f4f660f	0.81015104
85	0x3d902c39	0.07039685
86	0x3e6612e6	0.22468147
87	0x3d9eaf81	0.077483185
88	0x3e3009dc	0.17191261
89	0xbec271c3	-0.37977418
90	0xbcc88e55	-0.024481932
91	0x3ec11567	0.3771164
92	0x3ec57866	0.3856842
93	0x3e8f69c2	0.28010374
94	0xbf6b490d	-0.9190834
95	0xbef695a8	-0.48161054
96	0x3e85de29	0.26146057
97	0xbee23743	-0.44182786
98	0xbc35eaf7	-0.011103383
99	0x3ee94a08	0.45564294
100	0x3f1fb0eb	0.6237933
101	0xbeec84c0	-0.4619503
102	0xbe01c2ce	-0.12671968
103	0x3e36ccc7	0.17851554
104	0xbf457620	-0.7713337
105	0xbe4d2e6f	-0.20037244
106	0x3f0ff465	0.5623229
107	0xbea081b0	-0.31348944
108	0x3cacc5a0	0.021090329
109	0x3f074dd8	0.52853155
110	0xbe15c06a	-0.14624181
111	0x3ebe715e	0.37195867
112	0xbf345463	-0.70441264
113	0x3e276698	0.1634773
114	0x3f3ba1ee	0.7329396
115	0x3f2e5d17	0.68110794
116	0x3f2544d0	0.64558125
117	0xbd6195f5	-0.05507465
118	0xbf26e560	-0.6519375
119	0xbe4f9382	-0.20271114
120	0x3f078c80	0.5294876
121	0xbf010344	-0.5039561
122	0x3e65b0bc	0.224307
123	0xbef6105a	-0.4805935
124	0xbf1732ee	-0.5906209
125	0x3f1f811d	0.62306386
126	0x3ef82e6d	0.4847292
127	0xbf151abd	-0.58243924
128	0xbeddc34c	-0.43313062
129	0x3f477eec	0.7792804
130	0xbf00815c	-0.50197387
131	0xbcae299b	-0.021260073
132	0xbf738cfb	-0.95136994
133	0xbf5d8939	-0.8653751
134	0x3f4e7d39	0.80659825
135	0x3ed320ac	0.41235864
136	0xbeadae7a	-0.33922178
137	0x3f19fe4f	0.6015367
138	0xbd69c5fb	-0.057073575
139	0x3eb52185	0.35377136
140	0xbefeab33	-0.4973999
141	0xbf30d92a	-0.69081366
142	0xbeba16f9	-0.36345652
143	0xbf4da544	-0.803303
144	0x3eb7472c	0.35796487
145	0xbf13a715	-0.5767682
146	0xbeb9465d	-0.36186495
147	0xbf3dd055	-0.74146014
148	0xbf3328a9	-0.6998392
149	0xbf1d2fd0	-0.6140108
150	0x3f5c423a	0.86038554
151	0x3f42c574	0.7608254
152	0xbf304b07	-0.6886448
153	0xbefe5187	-0.49671575
154	0x3f3cf454	0.73810315
155	0x3ea755a6	0.32682532
156	0x3f547f61	0.83006865
157	0x3edecc74	0.4351536
158	0xbf3cb580	-0.7371445
159	0xbf0576c0	-0.52134323
160	0xbf02cc97	-0.5109343
161	0x3dfd086b	0.12355121
162	0x3f4318a1	0.76209456
163	0x3e1fe8f0	0.15616202
164	0x3f1b19d8	0.6058631
165	0x3e9df6d8	0.3085239
166	0x3f070c10	0.5275278
167	0x3e5d5ca4	0.21617371
168	0xbee1d2d0	-0.4410615
169	0xbf3e25df	-0.74276537
170	0x3e9bf8c0	0.3046322
171	0xbec52fca	-0.38513023
172	0xbedef710	-0.4354787
173	0x3efdd0e2	0.49573427
174	0x3ed9400c	0.42431676
175	0xbed4b7f9	-0.4154661
176	0x3e53c5ff	0.20680998
177	0xbf401b51	-0.7504168
178	0x3f5061fe	0.81399524
179	0xbe943ef8	-0.2895429
180	0xbe15d93d	-0.14633651
181	0xbf3c153f	-0.7346992
182	0xbc82eaac	-0.01598104
183	0x3d58716d	0.052842546
184	0x3e8a8fb1	0.27062753
185	0x3f063101	0.52418524
186	0x3e92d994	0.28681624
187	0x3eeff979	0.4687002
188	0x3f34b880	0.70594025
189	0xbf20b4f0	-0.6277609
190	0xbdc23e8d	-0.09484587
191	0x3f19c4b6	0.6006578
192	0x3e3e1d91	0.18565966
193	0xbf1221f4	-0.5708306
194	0xbe969af7	-0.29415104
195	0xbd1011d4	-0.035173252
196	0x3f43605e	0.7631892
197	0x3c5f1ed0	0.013618186
198	0xbf289f35	-0.6586793
199	0xbef9843b	-0.48733696
200	0xbee9d39b	-0.45669255
201	0xbe9536a6	-0.29143256
202	0xbe99ad8a	-0.30015212
203	0x3edf9254	0.43666327
204	0xbf1565f1	-0.58358675
205	0x3ecac7c0	0.39605522
206	0xbec301d1	-0.38087323
207	0x3e0c9b9a	0.13731232
208	0x3ed63baa	0.41842395
209	0x3f00458c	0.5010612
210	0x3e948002	0.29003912
211	0x3f6c7620	0.92367744
212	0x3e7d230c	0.247204
213	0x3f17c3be	0.59283054
214	0xbf3a9907	-0.7288975
215	0x3ea4440a	0.3208316
216	0xbf1e5384	-0.61846185
217	0xbe302e1c	-0.1720509
218	0xbe2cf972	-0.16892031
219	0x3f2c0d71	0.6720801
220	0xbf5e035d	-0.8672388
221	0xbe3a1839	-0.18173303
222	0x3f55b701	0.83482367
223	0x3f565847	0.8372845
224	0xbf3904d4	-0.7227299
225	0xbef38a4b	-0.47566447
226	0x3eb62a87	0.3557932
227	0x3f3e2993	0.7428219
228	0xbe1facb7	-0.15593229
229	0xbf5cd1b2	-0.8625747
230	0x3e59a091	0.21252657
231	0xbc528a27	-0.012850321
232	0xbf1d1b92	-0.61370194
233	0x3e064a35	0.13114245
234	0xbf475458	-0.77863073
235	0x3f04e041	0.51904684
236	0xbf353172	-0.7077857
237	0xbea64f5f	-0.3248243
238	0x3e33927e	0.17536351
239	0x3ee1582b	0.4401258
240	0xbf4631e7	-0.77419895
241	0xbf45f16c	-0.77321506
242	0x3f522d04	0.8209994
243	0xbeaf97b1	-0.3429542
244	0xbf4ca232	-0.7993499
245	0xbf563a05	-0.8368228
246	0x3f38b51a	0.7215134
247	0xbe228507	-0.15871058
248	0x3f0e30c3	0.55543154
249	0xbf3dddc5	-0.7416652
250	0xbea18bb0	-0.31551886
251	0x3f1c3444	0.6101725
252	0xbf4b7b77	-0.7948527
253	0xbe9416d9	-0.2892368
254	0x3f03bca2	0.51459706
255	0x3f2ae0f8	0.66749525

bias f4 [200]
0	0xbe9cb96a	-0.3061021
1	0x3e38c8b2	0.18045309
2	0x3ea201f8	0.31642127
3	0xbee63020	-0.4495859
4	0x3e47f8f9	0.1952857
5	0x3f015a72	0.50528634
6	0x3db8263a	0.08991666
7	0xbf0fef7b	-0.56224793
8	0xbf069e0b	-0.52584904
9	0xbf103404	-0.5632937
10	0xbeea0fc3	-0.4571515
11	0x3eb27bce	0.3486008
12	0xbe446eea	-0.19182935
13	0xbe5844d9	-0.21120013
14	0x3e9d162d	0.3068098
15	0xbe595833	-0.21225052
16	0xbef0f521	-0.4706202
17	0xbe0c0ff0	-0.13677955
18	0x3ea6e87b	0.32599244
19	0x3eb515ba	0.3536814
20	0x3d8daab7	0.06917327
21	0xbd87e4c9	-0.06635434
22	0xbf104915	-0.56361514
23	0x3f28f658	0.6600089
24	0x3dfb100d	0.12258921
25	0x3ec2073d	0.37896147
26	0x3f2045c3	0.6260645
27	0xbf134af3	-0.5753624
28	0xbe831b1d	-0.25606623
29	0x3f27b396	0.655084
30	0xbdc13a0d	-0.094349004
31	0x3ed0c65b	0.40776333
32	0x3ed851cb	0.42249903
33	0xbea05011	-0.31311086
34	0x3efe4c67	0.49667665
35	0xbeaf2efe	-0.3421554
36	0xbf03f919	-0.5155197
37	0x3f0cebbb	0.55047196
38	0xbf169028	-0.58813715
39	0x3ed4e370	0.4157977
40	0xbe2c2b47	-0.16813384
41	0xbe7fc18a	-0.24976173
42	0x3eacd6cd	0.3375763
43	0xbe5ded93	-0.21672659
44	0x3f364cc2	0.71210873
45	0x3e234da9	0.15947594
46	0xbecdd6a5	-0.40202823
47	0x3e05474c	0.13015479
48	0x3e43559d	0.19075628
49	0xbe65bdbc	-0.22435659
50	0x3f27a32a	0.65483344
51	0x3dbe3ead	0.09289298
52	0xbee3a690	-0.44463015
53	0xbe65b4f2	-0.22432306
54	0x3f0f425d	0.5596064
55	0xbf2ab634	-0.6668427
56	0xbe4170bc	-0.18890661
57	0x3deb692a	0.11494668
58	0xbe247479	-0.16060056
59	0x3e589ad3	0.21152811
60	0xbe9f666b	-0.31132826
61	0xbe684db5	-0.22685893
62	0x3ec8c3a8	0.39211774
63	0x3f289cb5	0.65864116
64	0xbeba4d3f	-0.3638706
65	0x3e8d8977	0.2764394
66	0x3e11404a	0.1418468
67	0x3f3870ea	0.72047293
68	0xbe913902	-0.28363806
69	0xbf0886f2	-0.5333091
70	0xbdb57f0e	-0.088621244
71	0x3eaf2ea3	0.34215268
72	0xbe5f8424	-0.21827751
73	0xbee40abe	-0.44539446
74	0x3f110a29	0.5665613
75	0xbe3229c7	-0.1739875
76	0x3e6822b9	0.22669496
77	0xbdbd6b25	-0.09248952
78	0x3ec1ebc2	0.3787518
79	0xbdd5d525	-0.10441045
80	0x3eb9a39c	0.36257637
81	0x3f18154a	0.59407485
82	0x3e0d6736	0.13808903
83	0xbf050ac9	-0.5196958
84	0x3f31954b	0.6936843
85	0x3edea2d9	0.43483618
86	0x3e9b37cf	0.30316016
87	0x3f364c36	0.7121004
88	0xbeb625ab	-0.35575613
89	0xbe6e59bb	-0.23276417
90	0xbd928e8b	-0.07156094
91	0x3e69392b	0.22775714
92	0xbd7b456c	-0.061345503
93	0xbd6bc8a8	-0.057564408
94	0xbeacb723	-0.33733472
95	0x3e9a3dc4	0.30125248
96	0x3f1541c5	0.5830348
97	0x3e4160bb	0.18884556
98	0x3ec08fb4	0.37609637
99	0xbdc43a2a	-0.095814064
100	0xbd68539f	-0.056720372
101	0x3edd9f48	0.43285584
102	0xbe832bd4	-0.25619376
103	0xbf2d914b	-0.67799824
104	0xbea734b6	-0.32657403
105	0xbdc52987	-0.09627061
106	0xbd851ee3	-0.06500032
107	0xbe37a8d1	-0.17935492
108	0xbd67014b	-0.056397717
109	0x3eaa591e	0.33271116
110	0x3e44884f	0.19192623
111	0xbe644e39	-0.22295465
112	0x3e172b04	0.14762503
113	0xbdae85b2	-0.08521594
114	0xbef7a252	-0.48366028
115	0xbf29a38b	-0.6626517
116	0x3f30688f	0.68909544
117	0xbeb7268d	-0.357716
118	0x3f0ad863	0.5423643
119	0xbf0cc073	-0.54981154
120	0xbe032631	-0.12807538
121	0xbe800082	-0.25000387
122	0x3ea2cf5e	0.31798834
123	0x3f0c6402	0.548401
124	0xbdd81cce	-0.10552369
125	0x3ef44f64	0.4771682
126	0xbe26584a	-0.16244617
127	0x3ef91e27	0.48655817
128	0xbf04fce6	-0.5194839
129	0x3ef63192	0.48084694
130	0x3eb09fa5	0.344968
131	0x3ea5d74a	0.32390815
132	0xbd80cc0b	-0.06288918
133	0x3f0a0278	0.53910017
134	0xbd99c06a	-0.07507403
135	0x3f21977d	0.6312178
136	0xbd3e2dcb	-0.04643039
137	0x3e65bc9f	0.22435234
138	0x3f1f67b2	0.622676
139	0xbf256a40	-0.6461525
140	0xbec55d44	-0.3854772
141	0xbd5bb542	-0.053639658
142	0xbe7e60cb	-0.24841611
143	0xbdced5bb	-0.100993596
144	0xbe9483c3	-0.29006776
145	0x3ea1f26a	0.3163026
146	0xbef9aeda	-0.48766214
147	0xbecd9f03	-0.4016038
148	0xbd61489d	-0.05500089
149	0xbec9794d	-0.39350358
150	0x3eb90f88	0.36144662
151	0xbe5f3163	-0.21796183
152	0xbea54300	-0.3227768
153	0xbf062850	-0.5240526
154	0xbe6c8d0d	-0.23100682
155	0x3e9cdaf4	0.30635798
156	0x3f093cd3	0.53608435
157	0xbe41c752	-0.18923691
158	0xbf042422	-0.51617634
159	0xbe9e62ff	-0.30934903
160	0x3f28e587	0.6597523
161	0xbe55e574	-0.2088831
162	0x3ebb0f07	0.36534902
163	0xbf04e9c5	-0.51919204
164	0xbf2f92f4	-0.6858361
165	0xbf03d0a6	-0.5149025
166	0x3e05124e	0.12995264
167	0xbed67987	-0.41889593
168	0x3f18def0	0.59715176
169	0xbde333db	-0.11093875
170	0x3f2c2648	0.6724591
171	0xbf027ed5	-0.5097478
172	0x3e5feebf	0.21868418
173	0xbf0dd9fe	-0.55410755
174	0xbdb13db5	-0.08654348
175	0xbf07387a	-0.5282055
176	0xbe08b318	-0.13349569
177	0x3f15f93b	0.5858342
178	0x3f184638	0.59482145
179	0xbf2bd1fe	-0.671173
180	0xbd281b1b	-0.041041475
181	0xbdd3a3ac	-0.10333952
182	0x3eecc53c	0.46244228
183	0x3ee1c089	0.44092205
184	0x3e93a4e6	0.28836745
185	0x3f0e70ef	0.55641073
186	0x3e8aee20	0.271348
187	0x3e548d7d	0.20757098
188	0xbd7103c3	-0.058841478
189	0x3e8b5c1c	0.2721871
190	0x3ed38500	0.41312408
191	0xbda70f4b	-0.08157214
192	0xbecb8dc5	-0.397566
193	0xbefc33d5	-0.49258295
194	0xbe94fbad	-0.29098263
195	0x3f143db6	0.57906663
196	0xbe86a4f2	-0.26297718
197	0xbe8df185	-0.27723327
198	0xbdb8c856	-0.09022586
199	0x3e73f9ac	0.23825711

bias f4 [300]
0	0x3d2e28c3	0.042519342
1	0x3cb4aa12	0.022053752
2	0xbd1ce8ce	-0.038307957
3	0xbd3b1aee	-0.04567998
4	0x3d094458	0.033512443
5	0xbd4ac34e	-0.049502663
6	0xbc3adfaa	-0.011405865
7	0x3d586d89	0.052838836
8	0xbda2aff2	-0.07943715
9	0x3d734d51	0.059399907
10	0x3cb48319	0.022035168
11	0x3c26715a	0.010158861
12	0xbd849c72	-0.06475152
13	0xbd61c1cc	-0.05511646
14	0x3c624432	0.013810204
15	0x3d0a5363	0.03377093
16	0x3d446533	0.047948074
17	0x3c288d58	0.010287605
18	0x3c4b1d2c	0.012397092
19	0x3cdbea17	0.026845021
20	0xbce28d7e	-0.02765536
21	0x3d89acc6	0.06722407
22	0xbd8b0a6e	-0.06789099
23	0xbcbf7481	-0.023370983
24	0x3ced55e8	0.028971627
25	0xbd3234b5	-0.043507297
26	0x3d7d351e	0.061818235
27	0x3d804db0	0.06264818
28	0x3d74042c	0.05957429
29	0x3d6eafae	0.05827301
30	0x3d30cc26	0.04316344
31	0xbca094e4	-0.019602247
32	0x3d7d6f57	0.06187376
33	0xbb921d2f	-0.0044590454
34	0xbc38c650	-0.01127775
35	0x3d02cf3c	0.031935915
36	0xbceea149	-0.029129641
37	0x3d3ca440	0.04605508
38	0xbd8e73ad	-0.06955657
39	0xbd355d03	-0.044278156
40	0xbd661de7	-0.05618086
41	0x3cdbd1aa	0.026833374
42	0x3d924e1c	0.071438044
43	0x3d277d5e	0.040891044
44	0xbd18845b	-0.0372356
45	0x3d81393d	0.063097455
46	0xbd5d13dd	-0.05397402
47	0xbd93881a	-0.07203694
48	0xbd5ccf66	-0.053908728
49	0xbc5f605a	-0.013633812
50	0x3cdecbdf	0.027196823
51	0x3d1526bb	0.03641389
52	0x3d7f6d12	0.062359877
53	0xbd9257ac	-0.07145628
54	0xbb5af1c6	-0.0033408268
55	0x3cc74909	0.024326818
56	0xbbc64af2	-0.0060514146
57	0xbc90a04c	-0.01765456
58	0x3d436c19	0.04771051
59	0xbc8df90e	-0.017330673
60	0xbcc541e0	-0.024079263
61	0xba0702f1	-0.00051502796
62	0x3d1ccc59	0.03828082
63	0x3d6ff11c	0.05857955
64	0x3ce680fc	0.028137676
65	0xbd54d9cc	-0.05196552
66	0xbca89530	-0.02057895
67	0xbd2edab4	-0.04268904
68	0x3a43e373	0.0007472552
69	0xbd7e92b2	-0.06215162
70	0x3ccda406	0.025102627
71	0x3bbf2a3d	0.0058338926
72	0x3bef30ab	0.007299503
73	0x3d137627	0.03600135
74	0xbc26882f	-0.010164305
75	0x3d939dba	0.07207818
76	0x3d48bfaa	0.04901091
77	0xbcebccae	-0.028784122
78	0xbd3c3545	-0.04594924
79	0x3cfb1a5c	0.030652218
80	0x3cdeec59	0.027212309
81	0xbcd9c50e	-0.02658322
82	0xbd9e2146	-0.0772119
83	0x3b2fe252	0.0026837778
84	0xbc91e6c3	-0.017810231
85	0x3d2541c4	0.040345922
86	0xbd5bf0c9	-0.053696427
87	0x3b5023cd	0.003175962
88	0xbb1ce293	-0.002393876
89	0xbcc6346e	-0.024194922
90	0x3d8e1186	0.06936936
91	0xbd2e2344	-0.0425141
92	0xbd6428b2	-0.055702873
93	0x3cd0e2c0	0.025498748
94	0x3d077c90	0.033077776
95	0xbc03cb6d	-0.008044106
96	0xbd973fad	-0.07385192
97	0x3d6bd0f2	0.057572313
98	0xbca88933	-0.020573234
99	0x3d3c4694	0.045965746
100	0x3d70d149	0.05879334
101	0xbc9c1060	-0.019050777
102	0xbd8648ab	-0.06556829
103	0x3c7862f7	0.015160314
104	0x3d2434e4	0.040089503
105	0xbc516150	-0.012779549
106	0xbcd922a4	-0.026505776
107	0xbc6d61ac	-0.014488619
108	0xbbe6a248	-0.0070383884
109	0x3d4b9392	0.04970128
110	0x3c0044ac	0.007828873
111	0xbdb42314	-0.08795753
112	0x3d332997	0.043740835
113	0xbcfeba0c	-0.031094573
114	0x3d11da15	0.03560837
115	0x3d2a0224	0.041505948
116	0x3d0b12f2	0.033953615
117	0x3b5a6765	0.0033325788
118	0x3d63e567	0.055638697
119	0x3ce3e17c	0.02781748
120	0x3bcca149	0.0062448126
121	0x3d1da204	0.03848459
122	0xbd8ae48f	-0.06781875
123	0x3d69de46	0.057096742
124	0xbd075213	-0.033037256
125	0x3b831f84	0.0040015597
126	0x3c002455	0.007821162
127	0x3cde122b	0.027108273
128	0xbd31c7f4	-0.04340358
129	0x3d80c6e0	0.062879324
130	0xbd3ad834	-0.045616344
131	0xbc7d6dc1	-0.015468062
132	0xbd2874fc	-0.04112719
133	0xbc5b2398	-0.013375185
134	0xbc5650aa	-0.013080755
135	0x3d5f977e	0.054587834
136	0xbd745f38	-0.05966112
137	0xbd47af5f	-0.04875123
138	0xbd5ab2ab	-0.053393047
139	0xbc93ccd2	-0.018042002
140	0xbb81196c	-0.003939798
141	0x3cf2192c	0.029553019
142	0xbd52e143	-0.051484358
143	0xbd84b8e0	-0.064805746
144	0xbd6af821	-0.05736554
145	0x3cf78409	0.030214326
146	0x3d30076f	0.04297584
147	0x3b99320c	0.0046751555
148	0x3ca94988	0.020664945
149	0xbc276026	-0.010215795
150	0x3c4bcd86	0.012439137
151	0x3c221b12	0.009894149
152	0xbc98069c	-0.01855784
153	0x3d812829	0.06306488
154	0xbd4e47a9	-0.05036131
155	0xbd82a8e3	-0.06379869
156	0x3cfc58d4	0.030804075
157	0x3d77b46b	0.060474794
158	0xbdac0625	-0.083996095
159	0x3d8e4097	0.06945913
160	0xbd6aebfc	-0.05735396
161	0x3bf9632c	0.007610699
162	0x3ca736b8	0.020411834
163	0x3d8bb6c1	0.06821967
164	0xbc74f985	-0.014952068
165	0xbd52df8d	-0.051482726
166	0x3ce19b3e	0.027539846
167	0x3cb95b9b	0.022626689
168	0x3d329922	0.04360307
169	0xbd3b9159	-0.04579291
170	0xbce570cd	-0.02800789
171	0x3ced7af1	0.028989287
172	0x3d371b57	0.044703808
173	0x3c15688c	0.009119164
174	0xbdafc4be	-0.085824475
175	0x3d4f938e	0.05067783
176	0x3d7b0432	0.061283298
177	0x3cbcd684	0.023051508
178	0xbd341dde	-0.043973796
179	0x3cbfa3b4	0.02339349
180	0xbd528a4f	-0.051401433
181	0x3bb53056	0.0055294437
182	0x3c62f13a	0.013851458
183	0x3da12987	0.07869249
184	0x3d907563	0.0705364
185	0x3ba1f876	0.004942949
186	0x3d9b23d3	0.07575192
187	0xbd176a88	-0.03696683
188	0xbd7f63b6	-0.06235095
189	0x3d00840c	0.03137593
190	0xbcd7f385	-0.026361236
191	0xbd3c7c64	-0.046017066
192	0xbb760688	-0.0037540514
193	0x3c522435	0.012826015
194	0xbbe6f284	-0.007047953
195	0xbb97e806	-0.0046358136
196	0xb79c75bc	-1.8651474e-05
197	0xbd2b8830	-0.041877925
198	0x3c5b5c9d	0.01338878
199	0x3ca5bd7c	0.020231955
200	0x3d916434	0.0709919
201	0x3bf573af	0.007490597
202	0x3d66aefd	0.056319226
203	0x3d913935	0.070909895
204	0xbcd38f18	-0.025825068
205	0xbd4505ec	-0.04810135
206	0xbc09df6d	-0.008415085
207	0xbd2bda3c	-0.04195617
208	0xbd3b8dba	-0.045789458
209	0x3c30141a	0.01074698
210	0xbcac0d1f	-0.02100235
211	0xbbbfeb7a	-0.0058569284
212	0x3cf64a1e	0.030064639
213	0x3c5986e3	0.013276788
214	0x3d436967	0.04770794
215	0xbda440ef	-0.080201976
216	0x3d290d11	0.041272227
217	0x3d869a26	0.0657237
218	0x3d9bb1c7	0.07602268
219	0xbd281835	-0.04103871
220	0x3b1af761	0.0023645984
221	0xbd3f0b54	-0.046641663
222	0x3c2704e9	0.010194042
223	0xbd552460	-0.052036643
224	0xbd526ae0	-0.051371455
225	0x3c96da3c	0.01841461
226	0xbc986a39	-0.018605338
227	0xbd8464b2	-0.064645186
228	0xbd247dba	-0.040158965
229	0xbc76b074	-0.015056718
230	0xbd0c9fcb	-0.034332078
231	0x3c1d60ee	0.009605629
232	0x3d736920	0.059426427
233	0xbd486f82	-0.048934467
234	0x3cab5613	0.020915067
235	0xbd8e688d	-0.06953535
236	0xbcb36dbb	-0.02190291
237	0x3d2a33e8	0.041553408
238	0xbd0e4fd7	-0.03474411
239	0xbdbae833	-0.0912632
240	0xbd3bd9b2	-0.045861907
241	0xbbb8c597	-0.005638789
242	0xbb318195	-0.0027085294
243	0xbc849627	-0.01618488
244	0xbca7ab39	-0.020467388
245	0x3d19c245	0.037538785
246	0x3d1a0bfd	0.03760909
247	0x3afa65c7	0.0019103818
248	0x3b2b1a70	0.0026108287
249	0xbd1e7e1d	-0.03869449
250	0x3d82db75	0.06389514
251	0x3d4a445a	0.04938159
252	0x3d99ce85	0.075100936
253	0x3c32cfc3	0.010913792
254	0xbce99147	-0.028511656
255	0xbcd43f4c	-0.025909089

weight f4 [300, 200]
0	0xbdd4b8ae	-0.10386787
1	0x80000000	-0.0
2	0x80000000	-0.0
3	0x3e226199	0.15857543
4	0x3de3eba1	0.11128927
5	0x3d364bcb	0.044505876
6	0xbe1c8344	-0.15284449
7	0x3e0c2706	0.13686761
8	0xbcb8c6d0	-0.022555739
9	0x00000000	0.0
10	0x3c907f7f	0.01763892
11	0x3de43f29	0.11144859
12	0x3cd0e2e7	0.02549882
13	0x80000000	-0.0
14	0x80000000	-0.0
15	0x3e0d6b2d	0.13810416
16	0xbe357a41	-0.17722417
17	0xbd63de40	-0.055631876
18	0xbde2a8bc	-0.1106734
19	0x00000000	0.0
20	0xbdddfb9b	-0.108390056
21	0x00000000	0.0
22	0x3d10d078	0.03535506
23	0x3d76ddb7	0.060270038
24	0x3de57503	0.11203959
25	0x3da00ac2	0.07814552
26	0x3d5ff9e7	0.054681685
27	0x3ce9004c	0.028442524
28	0x3e2866b9	0.16445436
29	0x00000000	0.0
30	0x3d71cf2a	0.059035458
31	0x00000000	0.0
32	0x80000000	-0.0
33	0x00000000	0.0
34	0xbd1118fd	-0.03542422
35	0xbc94ee64	-0.01818008
36	0x3e0ce12e	0.13757774
37	0x00000000	0.0
38	0xbcb8e45e	-0.022569831
39	0x3ce52b37	0.027974708
40	0x00000000	0.0
41	0x3cf05664	0.02933807
42	0x3dfda472	0.12384881
43	0xbd88f776	-0.066878244
44	0xbd7680dc	-0.060181484
45	0x3dbec58a	0.09315021
46	0x3c7f798c	0.015592944
47	0xbe03323b	-0.1281213
48	0x80000000	-0.0
49	0x3df95db9	0.12176079
50	0x00000000	0.0
51	0x00000000	0.0
52	0xbc9d1f39	-0.019179927
53	0xbe26be35	-0.16283496
54	0x00000000	0.0
55	0xbcb805ee	-0.022463765
56	0x3d58cb73	0.0529284
57	0x3dc11add	0.09428952
58	0xbe39da59	-0.181497
59	0xbe1fb5f2	-0.1559675
60	0xbd0ad59d	-0.033895124
61	0x00000000	0.0
62	0xbd93a8cf	-0.07209932
63	0x3d384937	0.044991698
64	0x3e0be846	0.13662824
65	0xbdc7d2a1	-0.09756971
66	0xbe238917	-0.15970264
67	0x3de15f27	0.11004477
68	0x00000000	0.0
69	0x80000000	-0.0
70	0x3dadfbe1	0.08495308
71	0xbd8ea718	-0.06965464
72	0xbd877d24	-0.066156656
73	0xbe0ea5bb	-0.13930409
74	0x3c77a6a2	0.015115412
75	0xbd1d1ec6	-0.038359426
76	0xbdfd3f84	-0.1236563
77	0xbdb166bb	-0.086621724
78	0x3de6ffd8	0.11279267
79	0x3d4e773d	0.050406683
80	0x80000000	-0.0
81	0x00000000	0.0
82	0x3cd21458	0.025644466
83	0x3d07417e	0.033021443
84	0x3c87ffb3	0.01660142
85	0x3d89c634	0.06727257
86	0xbda4e979	-0.08052344
87	0x3d81ee7c	0.063443154
88	0x00000000	0.0
89	0xbdcb776e	-0.09934889
90	0x3d2b57bd	0.04183172
91	0x3d349071	0.044083063
92	0xbd0f8763	-0.035041224
93	0xbdc69d57	-0.09697979
94	0x00000000	0.0
95	0x3d9c4503	0.076303504
96	0xbcb5bd69	-0.022185044
97	0xbdb92157	-0.09039562
98	0x00000000	0.0
99	0x3e2a0cd8	0.16606462
100	0x3d4d0f26	0.050063275
101	0x3cd97eea	0.026549775
102	0x3dd0a798	0.10188216
103	0x3d2155ca	0.039388455
104	0x3e4cb13f	0.19989489
105	0x80000000	-0.0
106	0xbd0c3473	-0.034229707
107	0x3d9eb211	0.07748807
108	0xbde04238	-0.1095013
109	0x00000000	0.0
110	0xbdd27382	-0.102759376
111	0x00000000	0.0
112	0xbdaa9e93	-0.08331027
113	0xbe0a467b	-0.13503449
114	0xbe182534	-0.14857942
115	0x00000000	0.0
116	0x00000000	0.0
117	0x3d31b564	0.04338588
118	0xbdac0708	-0.083997786
119	0x3d15525d	0.0364555
120	0x3d587d67	0.052853968
121	0x80000000	-0.0
122	0xbe0cad6b	-0.13738029
123	0x00000000	0.0
124	0x00000000	0.0
125	0xbc36a769	-0.011148312
126	0x3d316ae4	0.04331483
127	0x3dc09649	0.094036646
128	0xbd148806	-0.036262535
129	0x3ba9a9ad	0.0051776976
130	0x3dd9837d	0.106207825
131	0x3d22305f	0.03959691
132	0xbe00c8f3	-0.12576656
133	0x00000000	0.0
134	0x3db480f3	0.088136576
135	0x3c7d1291	0.015446321
136	0x00000000	0.0
137	0xbc9e7c7c	-0.019346468
138	0x3b447162	0.0029974808
139	0x3d1f761b	0.038930994
140	0x80000000	-0.0
141	0x00000000	0.0
142	0x3e3fcba3	0.18730025
143	0x00000000	0.0
144	0xbd8f4c02	-0.06996919
145	0xbc47ab93	-0.012186903
146	0x3d065baf	0.03280228
147	0x00000000	0.0
148	0xbda65190	-0.081210256
149	0x3e091fbd	0.13391013
150	0x3cfb344b	0.030664584
151	0xbe1d7a01	-0.15378572
152	0x00000000	0.0
153	0xbd807619	-0.06272525
154	0x3d552be9	0.05204383
155	0x3d99935c	0.0749881
156	0xbc1daa27	-0.009623087
157	0x3c0c1b85	0.008551483
158	0x80000000	-0.0
159	0x80000000	-0.0
160	0xbd30fe85	-0.04321148
161	0x3c18a7ce	0.0093173515
162	0xbd9236d0	-0.07139361
163	0x80000000	-0.0
164	0x3ccee9ba	0.025257934
165	0x3ce50180	0.027954817
166	0x00000000	0.0
167	0x3e23e6b5	0.16005976
168	0x80000000	-0.0
169	0x80000000	-0.0
170	0xbcf7a631	-0.030230613
171	0x3ca4a3d8	0.020097658
172	0x3d7faaad	0.06241863
173	0xbd4b75ca	-0.04967288
174	0x3ded0244	0.11572698
175	0x3cbb2278	0.022843584
176	0xbdf6255e	-0.12018846
177	0x00000000	0.0
178	0xbd27fe80	-0.041014194
179	0x80000000	-0.0
180	0x3dc7e692	0.09760775
181	0xbdf6f266	-0.120579526
182	0xbd6388e8	-0.055550486
183	0x00000000	0.0
184	0x3c57eaf9	0.01317858
185	0x3db0bb9b	0.08629533
186	0x80000000	-0.0
187	0x3da67f20	0.08129716
188	0xbdaf5daa	-0.08562787
189	0x3d9aba2c	0.07555041
190	0xbc1c5a84	-0.009543065
191	0x3ca150c3	0.01969183
192	0x00000000	0.0
193	0xbd78c656	-0.060736023
194	0xbd0d444a	-0.034488954
195	0x3b95e868	0.004574824
196	0x80000000	-0.0
197	0x80000000	-0.0
198	0x3d60741f	0.05479824
199	0x3daa0ddd	0.083034255
200	0x3e15bea8	0.14623511
201	0x3da44e01	0.080226906
202	0xbd074129	-0.033021126
203	0xbdd3e8b5	-0.1034712
204	0x3d842733	0.06452789
205	0xbdd4094f	-0.10353338
206	0x80000000	-0.0
207	0xbd8f2a63	-0.069905065
208	0x3d61ac51	0.055095974
209	0x00000000	0.0
210	0xbd4dc98b	-0.050241034
211	0x00000000	0.0
212	0x80000000	-0.0
213	0xbd2979e8	-0.041376024
214	0x3cbafcba	0.022825588
215	0x3e0724c6	0.13197622
216	0x3e1e33ed	0.15449496
217	0x80000000	-0.0
218	0xbd9d42b3	-0.076787375
219	0x00000000	0.0
220	0x00000000	0.0
221	0x3dcb0885	0.09913734
222	0xbc8f592a	-0.017498571
223	0x3d47c705	0.048773784
224	0x3d3a9bf1	0.045558874
225	0xbc37dcca	-0.011222074
226	0x80000000	-0.0
227	0x80000000	-0.0
228	0xbe0a584b	-0.13510244
229	0x3d04558f	0.032308158
230	0xbcff8eac	-0.031195961
231	0x80000000	-0.0
232	0x3c78ad7a	0.015178079
233	0x3d82601e	0.06365989
234	0x3cb04039	0.021514999
235	0x3df64244	0.12024358
236	0x80000000	-0.0
237	0xbd75a0ed	-0.059967924
238	0xbd860bb6	-0.065452024
239	0x3d362152	0.04446537
240	0x80000000	-0.0
241	0x3dee9b6f	0.1165074
242	0x3dad2350	0.08454001
243	0x3d8df61f	0.069317095
244	0xbd549f7a	-0.0519099
245	0x00000000	0.0
246	0x3d479a25	0.048730988
247	0x3dd95a00	0.10612869
248	0x3da1f568	0.07908136
249	0xbe0faa86	-0.14029893
250	0x3da1dc4c	0.079033464
251	0x3dba4839	0.09095807
252	0xbc37364c	-0.011182379
253	0x3e284d9b	0.16435854
254	0x3cdfeb2e	0.027333822
255	0xbca0052c	-0.019533716

weight f4 [2, 300]
0	0x3e1dfee0	0.15429258
1	0xbe1ec23f	-0.15503787
2	0x3e12aa8a	0.14322868
3	0xbd3b10bc	-0.045670256
4	0x3c66fe92	0.01409878
5	0x3e378074	0.17920095
6	0xbccbd870	-0.024883479
7	0x3c819fe2	0.015823308
8	0xbe1f7dec	-0.15575379
9	0x3e315f8f	0.17321609
10	0xbe07fbcb	-0.13279645
11	0x3df69fb2	0.12042178
12	0xbe093b31	-0.13401486
13	0xbe0d3857	-0.13791023
14	0x3e17e068	0.14831698
15	0x3bcce2d4	0.006252626
16	0xbd961ad4	-0.07329336
17	0x3e1af590	0.15132737
18	0x3b236bb9	0.0024936034
19	0xbda740fc	-0.08166692
20	0x3e0b4556	0.13600668
21	0x3e09540b	0.13410966
22	0xbd427934	-0.04747887
23	0xbc63923e	-0.013889847
24	0x3cdf68d6	0.02727167
25	0x3e2035a9	0.1564547
26	0xbd4d4a07	-0.050119426
27	0x3dbdb799	0.09263534
28	0x3e2683a5	0.16261156
29	0x3ddbb6c7	0.107282214
30	0x3df27756	0.11839168
31	0x3e19d968	0.1502434
32	0xbdaee5c9	-0.08539922
33	0x3ded969e	0.116009936
34	0xbe11c913	-0.1423686
35	0xbe4369ad	-0.19083281
36	0x3db3c589	0.08777911
37	0x3e1f1fbd	0.15539451
38	0x3c3d98ee	0.011572106
39	0xbd22998e	-0.039697222
40	0xbd8c9a33	-0.06865349
41	0x3e0ffffe	0.14062497
42	0x3db49daf	0.08819138
43	0xbd856dd0	-0.06515086
44	0x3d67d052	0.056595154
45	0xbe082bfb	-0.13298027
46	0x3d2c0bfd	0.04200362
47	0xbd3ff302	-0.04686261
48	0xbbc94ff5	-0.006143565
49	0x3cbc4d02	0.022985939
50	0xbc13746e	-0.008999927
51	0x3e0a2965	0.13492353
52	0x3d310507	0.043217685
53	0x3c811a3e	0.015759584
54	0x3dc3e499	0.09565086
55	0xbe139284	-0.1441136
56	0xbdaeca96	-0.08534734
57	0x3d966951	0.07344306
58	0xbd01ddd4	-0.031705692
59	0x3d389f6a	0.045073904
60	0x3e296fac	0.16546506
61	0x3ba616a8	0.005068619
62	0x3da43045	0.08017019
63	0xbdf5b197	-0.11996763
64	0x3d831db5	0.064021505
65	0xbbb4cd12	-0.0055176103
66	0x3b385f8a	0.0028133118
67	0x3d66b6d4	0.056326702
68	0xbd364d7d	-0.044507492
69	0x3ce05234	0.027382948
70	0x3c2e4b67	0.0106380945
71	0x3dced4db	0.10099193
72	0xbe00dc0f	-0.12583946
73	0xbd82ae28	-0.06380874
74	0xbdcd1fcf	-0.10015833
75	0x3e0782c7	0.13233481
76	0xbde70989	-0.112811156
77	0xbcfed5d5	-0.031107822
78	0xbdef9ff4	-0.117004305
79	0xbe2f1594	-0.17098075
80	0xbcece71c	-0.028918795
81	0x3e26bb4c	0.16282386
82	0xbe0156ee	-0.12630817
83	0x3dc40cfc	0.09572789
84	0xbdabe453	-0.08393159
85	0xbd860733	-0.06544342
86	0x3dc84795	0.09779278
87	0xbd54ab74	-0.051921323
88	0x3df37eb4	0.11889401
89	0xbd4331ad	-0.047654796
90	0xbddb1666	-0.106976315
91	0xbceafa3f	-0.02868378
92	0xbd9b264e	-0.075756654
93	0x3b65140a	0.0034954571
94	0xbcbc90b5	-0.02301822
95	0xbc3f6c4e	-0.011683537
96	0xbc14c5c3	-0.009080353
97	0xbd66ff85	-0.056396026
98	0xbdb91f65	-0.09039191
99	0xbd1f492f	-0.038888153
100	0x3da93419	0.0826189
101	0x3e1bf107	0.15228663
102	0xbe003c28	-0.12522948
103	0x3e26a1b3	0.16272621
104	0x3cf4da5b	0.029889276
105	0xbd237823	-0.039909493
106	0xbd3da98e	-0.046304278
107	0xbe4fda5d	-0.20298143
108	0xbe2df834	-0.16989213
109	0x3dbc9f3b	0.09210058
110	0xbcb4b650	-0.02205959
111	0x3e1f606b	0.15564124
112	0xbc99a145	-0.018753657
113	0x3e0a67ac	0.1351611
114	0xbda8037a	-0.08203788
115	0x3da1b2d0	0.07895434
116	0x3def2f38	0.11678928
117	0xbe489168	-0.19586718
118	0x3db3fedb	0.08788844
119	0xbe09e84d	-0.13467522
120	0x3e18a730	0.14907527
121	0x3d7c0512	0.061528273
122	0x3e276554	0.16347247
123	0xbd8d9b82	-0.069144264
124	0xbe15ae76	-0.14617333
125	0xbe0a1b6f	-0.13487028
126	0xbd506c6d	-0.050884653
127	0xbda3001a	-0.07959004
128	0xbddad27e	-0.106846794
129	0xbd6e23da	-0.05813966
130	0xbe28e241	-0.16492559
131	0x3d68ae2c	0.05680673
132	0xbe38cb62	-0.18046334
133	0xbd1743f1	-0.03693003
134	0xbd3af72c	-0.045645878
135	0xbd3935c5	-0.045217294
136	0xbe2a11e0	-0.16608381
137	0x3d94e22e	0.07269703
138	0x3e0d1812	0.13778713
139	0x3e103b62	0.14085153
140	0x3c984aae	0.018590298
141	0xbdbf51b4	-0.093417555
142	0x3e21066f	0.1572511
143	0xbd39cf6c	-0.04536383
144	0x3c5e09c2	0.013552131
145	0xbd5326b1	-0.05155057
146	0xbd8884ee	-0.06665979
147	0x3cabdb43	0.020978576
148	0x3d35392c	0.044243976
149	0xbe15f771	-0.14645173
150	0x3d421dfd	0.04739188
151	0x3d6819ba	0.05666516
152	0xbe32f052	-0.17474487
153	0x3db794e1	0.08963943
154	0xbe235c29	-0.15953125
155	0x3cc8d76a	0.02451678
156	0xbde78a67	-0.11305695
157	0x3e0dea1d	0.13858838
158	0x3e171dbf	0.14757441
159	0xbdc3f32a	-0.09567864
160	0x3d3d497f	0.04621267
161	0xbe0d9bd1	-0.1382897
162	0xbd942402	-0.072334304
163	0x3da0b166	0.07846336
164	0xbe0bb009	-0.13641371
165	0xbdb1eace	-0.086873636
166	0x3e1f1b87	0.15537845
167	0xbc8158ab	-0.01578935
168	0xbd8efbbc	-0.06981608
169	0xbdb05e21	-0.08611704
170	0xbd7da437	-0.061924186
171	0x3e0e52bc	0.13898748
172	0x3e05ffd2	0.13085869
173	0x3db43a59	0.088001914
174	0x3d8b3bf3	0.06798544
175	0x3d9947a9	0.07484371
176	0xbded6829	-0.115921326
177	0x3dcbba2b	0.09947618
178	0xbdff33fe	-0.124610886
179	0x3e3052b3	0.17219047
180	0x3e27b236	0.16376576
181	0x3ca3f482	0.020014051
182	0xbdbfca05	-0.09364704
183	0xbe342e00	-0.17595673
184	0xbde9ad83	-0.11410048
185	0xbd2dab9d	-0.04239999
186	0x3de35ec3	0.11102059
187	0x3df73eb3	0.12072506
188	0xbde06e1f	-0.10958504
189	0x3daebe2e	0.08532368
190	0x3c93f5b7	0.018061502
191	0xbe377776	-0.17916664
192	0xbdff0de6	-0.12453823
193	0x3d139322	0.03602899
194	0xbd9a67a6	-0.075393006
195	0xbd0f28a4	-0.034950867
196	0x3e2a972b	0.16659229
197	0xbce999fd	-0.02851581
198	0x3d9eb703	0.077497505
199	0xbe16e725	-0.14736612
200	0xbde187d6	-0.11012237
201	0xbd102029	-0.03518692
202	0x3e28d088	0.16485798
203	0x3d81a3b1	0.0633005
204	0xbe10eb78	-0.14152324
205	0xbcae420d	-0.02127173
206	0x3ce45487	0.027872337
207	0xbe43041b	-0.19044535
208	0xbd97e66b	-0.074169956
209	0x3d86687b	0.06562897
210	0xbdbb3911	-0.09141744
211	0x3d5176fb	0.05113886
212	0x3c5a7f48	0.01333601
213	0xbd63da25	-0.05562796
214	0x3db02cbd	0.08602283
215	0x3e329dea	0.17443052
216	0x3cfb4c76	0.030676108
217	0x3a050e48	0.00050756754
218	0xbda9b9ab	-0.082873665
219	0x3daa805a	0.08325262
220	0x3d3643bb	0.044498187
221	0x3deaa20e	0.11456691
222	0x3d1b3bda	0.037898876
223	0x3d46954d	0.048482228
224	0x3c211b83	0.009833219
225	0xbe0d0a8f	-0.13773559
226	0x3e135bfc	0.14390558
227	0x3d29db38	0.04146883
228	0xbddce478	-0.107857645
229	0xbc717ecf	-0.014739706
230	0x3d7be023	0.06149305
231	0xbd006bb6	-0.03135272
232	0x3dfe517c	0.12417886
233	0xbd626872	-0.055275388
234	0xbdb6123e	-0.08890198
235	0x3e13fa7b	0.1445102
236	0xbd42228c	-0.047396228
237	0x3d31dafb	0.043421727
238	0xbcca6369	-0.024705606
239	0x3dd90f41	0.105986126
240	0x3d929fdb	0.07159396
241	0x3dc5eb2a	0.096639946
242	0xbde95701	-0.11393548
243	0x3d8d7155	0.06906382
244	0x3e09d2ec	0.13459367
245	0x3de078c4	0.10960534
246	0xbdf2ad1e	-0.11849426
247	0x3d32f33e	0.043689005
248	0xbba96df5	-0.0051705786
249	0xbc019d6d	-0.007911068
250	0xbd9a376c	-0.07530102
251	0xbdbf43b3	-0.093390845
252	0xbdd7f197	-0.105441265
253	0x3cc7610a	0.024338264
254	0xbdb60768	-0.088881314
255	0xbd04e642	-0.032446153

bias f4 [2]
0	0x3c1a6744	0.0094240345
1	0xbc261a7a	-0.010138148
