figures/Illu_large_global_2/theta=0.1_s=0.4_step=100/best_model.pth (torch, 246949 bytes, 5 tensors)

bias f4 [200]
000000 b2 7e 8a bf 0f 1a 47 bf 6b ef 38 bf 60 cd cd be
       -1.0819914 -0.7777414 -0.7224032 -0.4019575
000010 6f ec 57 3f 85 bd e1 3f 95 18 0d bf 0f 0b 38 3f
       0.84345144 1.7635962 -0.55115634 0.71891874
000020 b1 d8 6b 3f 6a ea a2 3f f3 53 a0 3e 27 12 7f bf
       0.9212752 1.2727787 0.31314048 -0.99637073
000030 3a 93 97 bf 29 60 d4 3e ec a9 4c 3f 74 a0 1a 3f
       -1.1841805 0.41479614 0.7994678 0.6040108
000040 b9 5f 59 bf 02 73 50 3f 90 14 24 3f c0 e8 28 bf
       -0.84911686 0.8142549 0.64093876 -0.6598015
000050 c8 31 9c 3f 71 9c 31 bf 26 f0 fd 3f b1 8c 90 3f
       1.2202692 -0.69379336 1.9838912 1.1292936
000060 80 51 8d 3f 25 8f d3 3e 87 a3 20 bf d4 52 60 3f
       1.1040497 0.41320148 -0.6274952 0.87626386
000070 ae bc 63 3f 0e c3 66 3f 2b 4b 33 3f 3b f4 98 3f
       0.8895978 0.9014138 0.7003657 1.1949533
000080 31 0a e6 be a6 0f 8a be 92 76 84 3f c3 bf 21 3f
       -0.4492965 -0.26965064 1.0348685 0.6318323
000090 52 76 57 3f 39 8b be bf 05 d0 01 bf 2e f0 3c bf
       0.8416492 -1.4886237 -0.5070804 -0.73803985
0000a0 91 0b 29 3f 3a 79 61 bf d6 ab 8b bf f6 a4 22 3f
       0.66033274 -0.880756 -1.0911815 0.6353296
0000b0 47 7a 5e 3f 82 15 63 bf ba 86 15 3f 8b 32 81 bf
       0.8690533 -0.88704693 0.584087 -1.009355
0000c0 95 fa 33 bf c2 51 84 3e 2e 7d d4 3f 70 31 e7 bf
       -0.7030423 0.25843626 1.6600702 -1.8061962
0000d0 17 c1 b4 3f 75 68 5a 3f 58 c6 89 3f ef 9c 58 bf
       1.4121426 0.8531564 1.0763655 -0.8461446
0000e0 d9 cd 18 bf 12 09 30 bf 0d f2 0e 3f 67 d0 11 bf
       -0.596891 -0.6876384 0.5583809 -0.5695862
0000f0 33 f8 ca 3f cc 51 0e 3f 03 71 5c bf 90 a6 e0 3f
       1.5856994 0.5559356 -0.8610994 1.7550831
000100 82 4e 37 3f f5 bf 9c bf ea 1e 3c 3f df cc 9d 3f
       0.7160417 -1.2246081 0.7348467 1.2328147
000110 c3 ed d6 3f 0a 5b 14 3f c4 1e c2 3f e4 6b 57 bf
       1.6791309 0.57951415 1.5165639 -0.84149003
000120 69 76 61 bf e1 27 97 bf b7 58 6e bf 73 a9 ad 3f
       -0.88071305 -1.1809045 -0.9310412 1.3567337
000130 c4 73 71 bf 75 4c 32 3f 16 14 a1 bf a1 6a 14 bf
       -0.9431727 0.69647914 -1.2584255 -0.579752
000140 57 f8 21 40 68 b2 45 3f d5 cf dc 3f 91 09 86 3e
       2.5307825 0.7722535 1.7250925 0.26179174
000150 21 74 87 bf cd 8f c1 bf 11 34 f9 bf f4 62 95 3f
       -1.0582315 -1.512201 -1.9469014 1.1670823
000160 e5 40 2a bf 57 d3 1c bf cf 41 40 3f a3 2d b3 bf
       -0.6650527 -0.6125998 0.75100416 -1.3998302
000170 db 73 c6 bf 0b 8f 94 3f ff d2 f9 3f cb 71 3e 3f
       -1.5504106 1.1606153 1.9517516 0.74392384
000180 ce d5 ec 3f e4 32 a1 3f e5 a8 77 bf 52 f7 8d bc
       1.8502748 1.2593656 -0.9674209 -0.017329846
000190 cc a7 54 3f 3b 2a 22 3f 9c c9 c4 3f d7 40 4a bf
       0.8306854 0.6334569 1.5374026 -0.7900519
0001a0 ca fe a1 bf 77 24 8e bf c9 3c da 3e 9c 10 b7 3e
       -1.265588 -1.1104878 0.426245 0.3575486
0001b0 72 c8 5e bf 03 68 99 3f 78 c4 53 bf 3c f4 fa 3e
       -0.87024605 1.1984867 -0.8272166 0.4901446
0001c0 bc 3d 70 3e f3 0f c3 3f 61 1f af 3f 84 7f 8e bf
       0.2346105 1.5239242 1.3681451 -1.1132665
0001d0 4d 20 d9 3f a2 a6 6e 3f 2a ec c7 3f f9 5d a5 3f
       1.6962982 0.9322301 1.5618947 1.2919303
0001e0 e6 6b ac bf f6 b7 58 3f 56 79 31 be fa 1c 05 3f
       -1.3470428 0.846557 -0.17331442 0.5199734
0001f0 e8 5c 16 3f a6 ac 84 bf 13 88 33 bf 2c 02 43 bf
       0.58735514 -1.0365188 -0.7012951 -0.7617519
000200 19 cf cb be 05 10 77 3f e3 60 94 be 92 8a 85 3f
       -0.3980644 0.9650882 -0.2898017 1.0432913
000210 a5 f9 8a 3f 49 47 9a bf 77 90 f1 be 56 80 66 3f
       1.0857435 -1.2053005 -0.4718053 0.90039575
000220 e5 30 2a 3f b8 c3 e2 be 37 05 ba 3f 1d 2c 06 40
       0.6648086 -0.44289947 1.4532841 2.0964425
000230 a2 3b f0 3f d0 47 c1 3f 4c 64 ba 3f 8d ef 89 bf
       1.8768198 1.510004 1.4561858 -1.077623
000240 1f 87 2d 3f 34 2a 26 3e df 6d 64 3f 84 f9 b0 3f
       0.67784303 0.16227037 0.8923015 1.3826146
000250 60 e8 cc be 39 46 71 3f 0d 04 06 3f f0 e9 a8 3f
       -0.40021038 0.94247776 0.5234993 1.3196392
000260 f1 dd 92 bf 03 ab 51 3f a8 f8 67 3f a4 79 ac 3f
       -1.1473981 0.8190157 0.90613794 1.3474622
000270 f9 ee 70 bf a0 20 f1 3e bc 2e 60 3f de 00 4e 3f
       -0.94114643 0.47095203 0.8757131 0.80470073
000280 8a c3 c7 bd 0f 7e af bf e7 56 0e 3f b4 fe 49 bf
       -0.09754093 -1.3710345 0.5560135 -0.7890427
000290 d9 56 35 bf a4 e4 e3 bf 64 7e bc 3f 85 dd 0b bf
       -0.70835644 -1.780415 1.4726071 -0.54634887
0002a0 0e 9a 37 bf ba aa bd bf 36 b8 46 bf d7 01 82 bf
       -0.71719444 -1.4817727 -0.77624834 -1.0156811
0002b0 df 74 87 3f 4c cf 56 bf 7c 77 88 bf 27 20 be 3f
       1.0582541 -0.8391006 -1.0661464 1.4853562
0002c0 02 7a e1 3f f8 43 87 3f d5 b4 40 bf c1 a0 d0 be
       1.7615359 1.0567617 -0.7527593 -0.40747645
0002d0 9d f9 25 3f 1f 31 0d 40 c3 4c c5 3e c7 dc 68 3f
       0.64834005 2.206123 0.38535127 0.9096188
0002e0 b2 3d 4d bf a6 eb 62 3f d4 39 b4 3f 04 91 91 3f
       -0.80172265 0.8864082 1.4080148 1.137238
0002f0 20 7a a5 bf 78 87 35 3f a5 d5 89 3f 3a d0 2f 3f
       -1.2927895 0.70909834 1.0768324 0.68677104
000300 90 59 ac 3f e2 bd 2d bf 56 ae e4 3e ea d0 3a 3f
       1.3464832 -0.67867863 0.44664258 0.7297503
000310 57 da 0c 3f 49 60 b4 3e 06 2d ff 3f 90 2d 0e bf
       0.5502066 0.3522971 1.9935615 -0.5553827

weight f4 [200, 1]
000000 9f 25 04 c0 af 36 70 bf 8b 0a 79 bf f2 be 4b bf
       -2.0647962 -0.9383344 -0.9728171 -0.79588234
000010 e1 c4 ba 3e 81 65 11 c0 87 00 c5 3f c6 37 67 bf
       0.36478332 -2.2718203 1.5390786 -0.9031948
000020 32 76 81 3f 28 59 9b bf e9 67 fd 3f a2 33 05 c0
       1.0114195 -1.2136583 1.9797336 -2.0812764
000030 43 ae a7 3f 55 99 37 bf 64 5b 8b bf 9e e2 f0 bf
       1.3100055 -0.7171834 -1.0887265 -1.8819158
000040 75 51 8a 3f f0 ea 7f 3f 8f 44 9b bf 70 6e fe bf
       1.0806109 0.9996786 -1.2130297 -1.9877453
000050 0c f2 d2 3e 29 f1 69 bf 65 d3 17 c0 41 53 f4 bf
       0.41200292 -0.91383606 -2.3722775 -1.9087907
000060 62 b8 ca 3e 00 2d a6 3e 12 b8 39 40 6b 00 fd 3f
       0.39593798 0.32456207 2.9018598 1.9765753
000070 71 89 93 bf 6e c1 80 3f b4 10 7d 3f 60 12 01 c0
       -1.1526319 1.005903 0.9885361 -2.0167465
000080 16 5f bb 3f 77 47 6c bf 04 fb 97 bf 68 94 b0 3f
       1.4638393 -0.92296547 -1.1873479 1.379529
000090 0d 35 88 bf a6 0e 16 40 60 82 ca 3f 2e 40 a2 3f
       -1.064119 2.344644 1.5821037 1.2675836
0000a0 57 41 1e c0 d1 ca 01 c0 f3 50 c8 be 2d e7 fc bf
       -2.472738 -2.028004 -0.3912426 -1.9758049
0000b0 05 22 77 3f d3 3c a8 3f 21 3d 13 bf 46 f4 a5 3f
       0.96536285 1.3143562 -0.5751515 1.2965171
0000c0 e9 43 ee bf cd 82 b0 be 43 03 89 bf f3 1f 94 bf
       -1.8614475 -0.34474793 -1.070412 -1.157225
0000d0 d4 38 a0 bf 07 12 74 3f 63 f0 83 bf 25 b8 7c bf
       -1.2517343 0.9534001 -1.0307735 -0.9871848
0000e0 cf 1b cc 3f 49 76 79 bf 86 fd b1 bf 3c c3 06 40
       1.5945987 -0.97446114 -1.3905494 2.1056662
0000f0 6f 21 0f c0 1a 07 02 40 92 8b 04 c0 ea 14 9b bf
       -2.2364156 2.0316834 -2.0710187 -1.2115757
000100 5b 7b 43 bf 44 4f d2 be bb 38 42 bf 55 cc 03 40
       -0.763601 -0.410761 -0.75867814 2.0593464
000110 b9 24 0a 40 08 de fd bf ea 66 09 c0 e2 c0 7a bf
       2.1584914 -1.9833384 -2.1469064 -0.97950566
000120 60 46 ad 3f c9 79 10 40 e2 e1 0e 40 33 89 89 3f
       1.3537102 2.2574332 2.2325368 1.0744995
000130 d2 ad 10 3f a5 8f 7a 3f ba 83 06 c0 1f 9d db bf
       0.5651523 0.97875434 -2.10179 -1.7157325
000140 24 c4 a0 bf b9 5f b6 3e b0 68 6b bf c0 03 02 c0
       -1.2559857 0.35619906 -0.91956615 -2.031479
000150 fa f6 84 bf ce 01 1c 3f f4 70 97 bf 17 57 97 bf
       -1.0387871 0.60940254 -1.1831346 -1.1823453
000160 c6 de 1f 40 60 c1 18 3f 4f c1 9a 3f c7 b7 aa 3f
       2.497972 0.59670067 1.2090243 1.3337334
000170 ca 09 17 40 fd ca 81 3f b9 82 a7 bf 32 d1 1b 40
       2.3599725 1.0140072 -1.3086768 2.4346433
000180 4a 7c 73 bf ae ed 9a bf 08 f9 05 c0 65 95 47 bf
       -0.95111525 -1.2103784 -2.0933247 -0.7796233
000190 c0 76 72 3f 84 8b ad 3e 9b e2 88 bf 98 3e b4 be
       0.9471245 0.33895504 -1.0694155 -0.35204005
0001a0 a8 3e 10 40 c9 d3 11 40 1b 9a 4a 3f 3d 7d 5d 3f
       2.2538242 2.2785513 0.79141396 0.86519223
0001b0 3b bf 4c 40 aa 48 13 bf 7e 50 0e 40 32 80 e4 3e
       3.1991718 -0.5753275 2.2236629 0.44629055
0001c0 b7 63 d0 be d9 fe 92 bf 39 79 17 bf 01 4a 06 c0
       -0.40701076 -1.1484023 -0.59169346 -2.0982668
0001d0 3d 35 12 c0 5c 0b 7c 3f 26 83 0e c0 a4 1f 99 bf
       -2.2844994 0.98454833 -2.2267547 -1.1962781
0001e0 ae d2 11 40 42 1d 81 3f 36 74 f3 3f c8 12 a9 3e
       2.2784839 1.0087054 1.901984 0.3302214
0001f0 dc 57 fd bf 44 f9 0e 40 b3 fe 1f 40 8b 83 a0 3f
       -1.9792438 2.233964 2.4999206 1.2540144
000200 f9 38 21 40 16 a1 10 bf 5f 41 1a bf e4 66 95 bf
       2.5191023 -0.564958 -0.60256 -1.1672025
000210 23 49 84 3f 88 46 88 bf 2c 26 1a 40 96 f2 7d 3f
       1.033482 -1.0646524 2.4085798 0.9919828
000220 68 fc 73 3f ce c7 ea 3f f5 99 8b 3f 32 99 1a c0
       0.95307016 1.8342226 1.0906359 -2.4156003
000230 db 2d 16 c0 a8 94 07 40 aa e5 06 40 05 8a 07 c0
       -2.3465488 2.1184483 2.1077676 -2.117799
000240 ae 59 33 bf fa 7a 01 40 6f 3c 80 3f a3 e2 89 3f
       -0.70058715 2.023131 1.0018443 1.0772289
000250 14 23 3b 3f c1 25 78 bf e9 a1 3b bf 1d cd 98 bf
       0.731004 -0.9693261 -0.7329393 -1.1937596
000260 f0 f6 c0 3f db 06 c0 bf 12 e6 7a 3f 32 52 06 40
       1.5075359 -1.5002092 0.9800731 2.0987668
000270 5b 1a 19 40 7a 51 1c bf ac 4c 8b bf 5c ea 7c 3f
       2.3922336 -0.61061823 -1.0882773 0.98795104
000280 32 12 46 3f d4 aa 12 40 0a 09 e6 bf 04 15 a1 3f
       0.77371514 2.2916765 -1.7971509 1.2584538
000290 7d 5a 8a bf 34 0d b1 3f 1f ac 89 3f f4 3b 81 bf
       -1.0808865 1.3832154 1.0755652 -1.0096421
0002a0 0c 59 0f 40 8f 3c ab 3f 92 e0 93 3f 33 5d 9d 3f
       2.23981 1.3377856 1.1552908 1.2294067
0002b0 22 42 02 40 3c e0 db 3f d5 87 85 bf f7 f4 06 40
       2.0352864 1.7177806 -1.0432078 2.1087015
0002c0 dd 18 0a 40 0e 1f f1 bf b0 d1 a1 3f de 34 99 be
       2.1577675 -1.8837602 1.2642117 -0.29923147
0002d0 92 17 06 40 d3 24 85 bf b4 b7 9c be f4 a2 7f 3f
       2.0951886 -1.0401863 -0.30608904 0.9985802
0002e0 42 6e a6 3f 2f 28 0e bf 7e a2 05 40 9b 0e 7f 3f
       1.3002398 -0.55530065 2.0880427 0.9963166
0002f0 57 b2 13 40 eb 68 77 3f 86 43 56 c0 1f 9c 26 c0
       2.30776 0.9664447 -3.3478713 -2.6032789
000300 70 d5 88 3f ac 19 9e 3f 32 b8 70 3f 04 53 38 c0
       1.0690136 1.2351584 0.9403106 -2.8800669
000310 d8 a4 bf bf dc 2f 26 bf 84 a6 0e 40 19 9c 1b 3f
       -1.4972181 -0.6491678 2.2289133 0.6078506

bias f4 [300]
000000 39 99 44 be 8e 9a 5c 3b 4d 2f 07 bd 7c 7e d5 bd
       -0.19199075 0.0033661458 -0.033004094 -0.104245156
000010 b6 ab 2d 3b 3a 2e 5f bc 23 03 33 bc 75 47 53 be
       0.0026500053 -0.013621861 -0.010926041 -0.20632727
000020 aa b7 14 be 57 cd 54 bd 7a f9 e8 bd 38 02 65 be
       -0.14523187 -0.05195364 -0.11375709 -0.22364128
000030 40 35 35 bd 54 d3 f3 bc d1 59 4f be e8 7c 5a 3d
       -0.044240236 -0.029763855 -0.20249106 0.053341776
000040 bc e6 11 3c a8 e4 27 be e6 39 ce bd da 38 51 be
       0.008905109 -0.16395819 -0.10069637 -0.20431843
000050 77 63 12 3c 4e 74 17 be 81 86 f6 bd e7 e2 b7 3d
       0.008934847 -0.1479046 -0.12037373 0.08978825
000060 3b 22 26 3d dc cb 26 be e8 a1 74 be ad 01 5c bd
       0.04055999 -0.16288704 -0.23889887 -0.053712536
000070 99 d3 b6 bd 10 e0 f0 bd 3b 97 6b be 8b 24 ad 3c
       -0.08927078 -0.117614865 -0.23006909 0.02113559
000080 2d e6 7d bd 82 cc b7 bc 27 62 43 be c8 2e 4c be
       -0.06198709 -0.022436384 -0.19080411 -0.1993972
000090 a5 53 28 be 85 c9 81 3d 71 c0 e6 bd 95 df 5e be
       -0.16438158 0.06337265 -0.11267174 -0.21764977
0000a0 5d 93 79 3d 47 a7 10 be d3 06 28 be 9a de 44 be
       0.060931552 -0.14126311 -0.16408853 -0.19225541
0000b0 f6 8d 0c be 93 a9 19 be 41 d3 03 bd 6e 03 3f be
       -0.13726029 -0.15006094 -0.03218389 -0.18653652
0000c0 5a 7f 33 be da 48 8a bd c9 f1 46 3d b5 97 f4 bc
       -0.1752905 -0.067521766 0.048570428 -0.029857496
0000d0 4b 04 8c bd 1f 5f 0a 3d 29 65 1b be 94 3d 22 be
       -0.06836756 0.03378212 -0.15175308 -0.15843803
0000e0 25 e9 5b be 47 26 31 be af 54 07 bd 18 be 82 3d
       -0.21475656 -0.17299758 -0.033039745 0.06383914
0000f0 35 11 02 bb e5 e9 a7 3c c9 a8 2f be 6a 2e ba bc
       -0.0019846682 0.020497272 -0.1715423 -0.02272721
000100 8f cf 4e be fa 4e 4a bc e7 f8 62 be aa d3 ed bd
       -0.20196365 -0.012347931 -0.22165261 -0.11612637
000110 b5 d1 47 be fb f6 90 bd ac 22 4c be 91 b8 51 bd
       -0.1951359 -0.07078358 -0.19935101 -0.051201407
000120 9e 25 17 3c 72 55 34 be 5d 18 30 3d 2b 75 0c ba
       0.009225277 -0.1761072 0.042991985 -0.00053580356
000130 9d b0 a7 bd 23 39 8e 3d 24 c1 8f bc 65 61 35 3a
       -0.08187983 0.06944492 -0.017548151 0.0006919115
000140 b1 4a 52 be f5 d8 f6 3c 12 0b 16 bd e4 2d c3 bc
       -0.20536305 0.03013275 -0.03663165 -0.023825593
000150 d8 8c 31 be b6 61 83 3c 62 1b 41 bd 9b 66 81 3c
       -0.17338884 0.016037803 -0.047145255 0.015795996
000160 f6 37 34 be 01 5d 13 be bd 1c 11 bd 8f fa 39 be
       -0.17599472 -0.14390947 -0.035427798 -0.18161987
000170 79 6a 5e be b7 a6 1a be 3e 5d 3b 3d 9a 79 56 bd
       -0.21720304 -0.15102659 0.04574322 -0.052362062
000180 d6 c2 7c 3c 82 48 43 bd ec da 37 bd 64 70 c6 bd
       0.015427312 -0.04767657 -0.044886515 -0.096894056
000190 8b f4 0f 3d 20 b6 51 be ed 6a 4d be 4f b0 1e 3c
       0.035145324 -0.20479631 -0.2006032 0.00968559
0001a0 f8 13 f3 ba 05 a4 28 bd 7b 18 1c 3d 53 55 42 be
       -0.001854538 -0.041172046 0.038109284 -0.18977861
0001b0 a3 45 cb bd 22 d1 c6 3c 27 c4 51 ba f0 2a 53 bd
       -0.099253915 0.024269644 -0.0008001946 -0.05155462
0001c0 50 45 2d be fc 60 44 be 0c c0 1b bd 78 5e 28 be
       -0.16920972 -0.19177622 -0.038024947 -0.16442287
0001d0 a7 f4 93 bd 63 54 18 bd 6b 9b 09 be 71 c3 d4 bd
       -0.07224398 -0.037189852 -0.13438194 -0.1038884
0001e0 c1 aa 4a be 5d 72 23 bd dc ef c2 3b 20 b0 0b be
       -0.197917 -0.039903987 0.0059490036 -0.13641405
0001f0 31 52 1f be 62 53 bf bd 35 c1 0f bd 41 3b 90 bd
       -0.15558697 -0.09342076 -0.035096366 -0.07042552
000200 63 b1 1b be e6 1d d5 bd a8 c9 3e be 9d 8b 72 3d
       -0.15204386 -0.10406093 -0.18631613 0.059215177
000210 e0 f5 22 be 4d d7 0c 3d 0d 54 7e bd dc 09 2c bd
       -0.15914106 0.034385014 -0.062091876 -0.04200159
000220 92 11 4e be 61 3f e3 bd 32 48 67 3d a8 16 f5 3b
       -0.2012389 -0.11096073 0.056465335 0.0074795075
000230 01 5a 69 be b9 65 7b 3c 58 0b 9a bd 37 b6 40 bd
       -0.2278824 0.015344077 -0.07521695 -0.047048774
000240 39 eb 7a be a0 fa 61 bb b3 9c ea bd fe 6a e0 bd
       -0.24503793 -0.003448166 -0.11455669 -0.10957907
000250 25 cd 39 bc 39 34 0b be d3 1c 65 3d b0 7b 58 3d
       -0.011340414 -0.1359414 0.055935692 0.052852333
000260 1c 6f 5a be bc 1f 86 bd 98 64 10 be f1 d4 72 bd
       -0.21331447 -0.065490216 -0.14100873 -0.059285108
000270 46 48 15 3d 99 6d 0b be a3 e4 2c be b5 b5 69 3d
       0.03644588 -0.13616027 -0.16884093 0.057058055
000280 0d 69 8b bd 88 fb a1 3d 51 90 38 bd 6e 7d 6e 3d
       -0.06807146 0.07909304 -0.045059506 0.058225088
000290 82 4b d5 bc b8 e4 eb bc ab b4 10 bc 0c 4b 1a be
       -0.026036981 -0.028795585 -0.008832137 -0.1506769
0002a0 33 2b ee 3c cd 5f 17 bb 55 54 55 be 55 1c f4 3c
       0.029073333 -0.0023097873 -0.20832951 0.029798666
0002b0 2b 56 41 bb 6a e9 05 be dd ad 35 bd 9d 14 d7 bd
       -0.0029500823 -0.13077322 -0.044355262 -0.105019785
0002c0 b0 c1 17 be 72 b6 70 bd 8c ab 4e be e6 9b 18 be
       -0.1481998 -0.058767743 -0.20182627 -0.1490322
0002d0 27 da 4e bd 68 7a 2b bd c5 e5 1b 3d d8 ba 4f be
       -0.050501015 -0.041864783 0.038060922 -0.20286119
0002e0 66 99 1e bd 25 9b 16 be 4c 53 53 be 67 e9 ed bc
       -0.03872051 -0.1470762 -0.20637244 -0.029041959
0002f0 b5 ac 13 be e5 94 1c 3c 34 63 06 3c d5 93 f3 bd
       -0.14421351 0.009556984 0.008202363 -0.11893431
000300 ba 3e 43 be 23 e7 25 be e6 9b df bc 37 62 3d be
       -0.19066897 -0.16201453 -0.027296018 -0.18494497
000310 23 1f 0c be 7b 9d 0b be 3b 97 e3 bd 91 b1 9a bc
       -0.13683753 -0.13634293 -0.11112829 -0.018883498
000320 f7 ac 58 3c d3 36 2b be 7e 93 1e be 02 49 11 be
       0.013224832 -0.16720133 -0.15485951 -0.14188007
000330 7c d1 47 3d e9 b5 91 3d 11 bc 2c bd 7d 1d 84 bd
       0.048783764 0.07114775 -0.04217154 -0.06450937
000340 fa 44 93 3c 3b 2f 06 bc f4 db 34 3d b9 0f 58 bd
       0.017977227 -0.008189972 0.044155076 -0.05274937
000350 2e f7 49 be 07 b2 1d be d6 d6 01 be c0 03 c0 bd
       -0.19723198 -0.15399943 -0.1267961 -0.09375715
000360 c4 f6 34 bc a9 29 63 be 7c bb c8 bd 2b 63 6f be
       -0.011045162 -0.22183861 -0.09801385 -0.23377673
000370 96 42 27 bc e0 69 a7 3c e8 c1 2d bd 81 f6 8d bd
       -0.010208746 0.020436227 -0.04242125 -0.069317825
000380 c4 b2 14 bc b2 2b 07 be fd 00 da bd a8 96 7c be
       -0.009075824 -0.13200262 -0.1064472 -0.24666846
000390 bf da 60 be 85 d0 e6 bd ee 04 95 3c 7f 75 8d bd
       -0.21958445 -0.11270241 0.018190827 -0.06907176
0003a0 c1 59 3a be ea 69 c7 3c 79 2c 3b be 28 1a c7 bc
       -0.18198301 0.024342496 -0.18278684 -0.024304464
0003b0 e9 ad 1d bd f0 73 26 3c 3f 51 3d be c2 a3 70 be
       -0.03849593 0.010159478 -0.18488024 -0.23499969
0003c0 3a 8a 51 bc ae 6d d0 bd 0a 21 36 bd eb e6 b5 bc
       -0.012789303 -0.1017717 -0.044465102 -0.022204837
0003d0 6a dc d8 bb fe 1f 24 bd 12 61 de 3c 1f 83 20 be
       -0.0066180723 -0.040069573 0.027145896 -0.15675019
0003e0 ff 63 3e 3c 1c 27 cb bc a2 10 76 bd a6 54 29 3d
       0.011620521 -0.024798922 -0.060074456 0.041340493
0003f0 a2 24 2a be c8 e3 c2 3d d6 65 0b be c0 54 dd 3b
       -0.16615537 0.09516102 -0.13613066 0.0067544878

weight f4 [300, 200]
000000 27 26 7a be 13 d4 f8 bd c3 b9 9b bd d3 18 c9 bd
       -0.24428616 -0.12149825 -0.076037906 -0.09819188
000010 cf e7 b1 bd 00 00 00 80 80 10 a5 bd 5b 3e 4e be
       -0.08686792 -0.0 -0.08059788 -0.20140974
000020 1b 92 53 be 00 00 00 80 00 00 00 80 00 00 00 80
       -0.20661204 -0.0 -0.0 -0.0
000030 45 65 d2 bd 00 00 00 80 a4 d0 40 be df 6a 3b be
       -0.10273222 -0.0 -0.1882959 -0.18302487
000040 86 f8 5d be 00 00 00 80 00 00 00 80 39 f2 f4 bd
       -0.21676835 -0.0 -0.0 -0.11960263
000050 34 1d ca bd 72 b3 f4 bd 03 dd 39 be 00 00 00 80
       -0.09868851 -0.11948289 -0.18150716 -0.0
000060 d4 93 d4 bd 00 00 00 80 00 00 00 80 00 00 00 80
       -0.103797585 -0.0 -0.0 -0.0
000070 00 00 00 80 00 00 00 80 00 00 00 80 00 00 00 80
       -0.0 -0.0 -0.0 -0.0
000080 7a 97 23 be 64 9a 2e be 00 00 00 80 02 99 43 be
       -0.15975752 -0.17051083 -0.0 -0.19101337
000090 47 bf 42 be 89 c0 43 be 3c 3d 55 be ae b2 a2 bd
       -0.19018279 -0.19116415 -0.2082414 -0.07944237
0000a0 94 f6 4a be ea 94 06 be 00 00 00 80 00 00 00 80
       -0.19820625 -0.13142744 -0.0 -0.0
0000b0 00 00 00 80 00 00 00 80 4f 9b c5 bd 6e fe c7 bd
       -0.0 -0.0 -0.096487634 -0.097653255
0000c0 00 00 00 80 cf 8f 5b be e7 4a b1 bd a2 9f c9 bd
       -0.0 -0.21441577 -0.086568646 -0.09844901
0000d0 00 00 00 80 00 00 00 80 0a b0 65 be fb 3d 5e be
       -0.0 -0.0 -0.22430435 -0.21703331
0000e0 00 00 00 80 b0 45 d3 bd ed 8b 46 be 30 70 b0 bd
       -0.0 -0.10316026 -0.19389315 -0.08615148
0000f0 00 00 00 80 00 00 00 80 2a 3d de bd b4 be 54 be
       -0.0 -0.0 -0.1085151 -0.20775872
000100 87 43 c6 bd 00 00 00 80 00 00 00 80 00 00 00 80
       -0.096808486 -0.0 -0.0 -0.0
000110 00 00 00 80 00 00 00 80 00 00 00 80 93 63 c1 bd
       -0.0 -0.0 -0.0 -0.094428204
000120 86 48 ea bd 70 4a c3 bd 32 57 62 be 00 00 00 80
       -0.11439614 -0.09535682 -0.22103575 -0.0
000130 00 00 00 80 00 00 00 80 60 0e d6 bd ac 8c df bd
       -0.0 -0.0 -0.104519606 -0.10915503
000140 79 51 b8 bd a0 d2 5c be fa d4 2d bd 00 00 00 80
       -0.08999915 -0.21564722 -0.04243944 -0.0
000150 2e 8f a5 bd 00 00 00 80 8b f8 64 be 00 00 00 80
       -0.0808395 -0.0 -0.22360437 -0.0
000160 2e 65 3e be 00 00 00 80 00 00 00 80 ec 39 cd bd
       -0.18593284 -0.0 -0.0 -0.10020813
000170 78 40 5e be 00 00 00 80 2e f6 5d be 7b 4d 49 be
       -0.2170428 -0.0 -0.21675941 -0.19658463
000180 8e 73 6c be 28 b3 59 be 00 00 00 80 4f 87 59 be
       -0.23090956 -0.21259749 -0.0 -0.21243022
000190 4b 2c 5c be 18 1a d8 bd db f1 38 be 00 00 00 80
       -0.21501271 -0.10551852 -0.1806101 -0.0
0001a0 5d 1d 72 be 3f c4 f2 bd 00 00 00 80 00 00 00 80
       -0.23644014 -0.11853837 -0.0 -0.0
0001b0 ae 5e 3c be b7 fc b3 bd e5 51 87 bd 00 00 00 80
       -0.18395492 -0.08788436 -0.06607417 -0.0
0001c0 a3 95 d4 bd 00 00 00 80 89 8a 96 bd e5 3a d9 bd
       -0.103801034 -0.0 -0.07350642 -0.10606936
0001d0 c5 32 2b be 00 00 00 80 00 00 00 80 00 00 00 80
       -0.16718586 -0.0 -0.0 -0.0
0001e0 a0 c0 be bd 00 00 00 80 4b 77 55 be 35 fe a9 bd
       -0.09314084 -0.0 -0.20846288 -0.08300439
0001f0 00 00 00 80 87 5e 53 be 93 ab a6 bd 2c 4a 4a be
       -0.0 -0.20641528 -0.08138194 -0.19754857
000200 95 10 38 be 3b 03 cf bd 45 6e d7 bd 00 00 00 80
       -0.17975076 -0.10108038 -0.10519079 -0.0
000210 00 00 00 80 3d d2 a5 bd 3d 7e 3c be 00 00 00 80
       -0.0 -0.080967404 -0.18407531 -0.0
000220 5f 4e 48 be ea d3 f4 bd 00 00 00 80 8f 4c a9 bd
       -0.19561146 -0.11954482 -0.0 -0.082665555
000230 00 00 00 80 00 00 00 80 a3 e9 32 be db f6 33 be
       -0.0 -0.0 -0.17471938 -0.17574637
000240 00 00 00 80 00 00 00 80 00 00 00 80 00 00 00 80
       -0.0 -0.0 -0.0 -0.0
000250 00 00 00 80 ec 27 55 be 00 00 00 80 00 00 00 80
       -0.0 -0.2081601 -0.0 -0.0
000260 ac 0f 4c be 00 00 00 80 cd 32 41 be 00 00 00 80
       -0.19927853 -0.0 -0.18867035 -0.0
000270 fc 3b 5f be fd f9 dc bd 00 00 00 80 00 00 00 80
       -0.21800226 -0.10789869 -0.0 -0.0
000280 00 00 00 80 64 4f f0 bd 2f 55 46 be 00 00 00 80
       -0.0 -0.117338926 -0.19368432 -0.0
000290 14 07 c7 bd 7c 79 9f bd c3 af 38 be 00 00 00 80
       -0.09718147 -0.07786843 -0.18035798 -0.0
0002a0 e0 ea db bd 00 00 00 80 0e 14 c2 bd 8a 53 e4 bd
       -0.10738158 -0.0 -0.094764814 -0.11148746
0002b0 5f 02 30 be e7 a1 48 be a2 0b 3a be 00 00 00 80
       -0.17188405 -0.19593011 -0.181685 -0.0
0002c0 00 00 00 80 00 00 00 80 00 00 00 80 00 00 00 80
       -0.0 -0.0 -0.0 -0.0
0002d0 00 00 00 80 32 be 58 be 5d 8c ef bd 00 00 00 80
       -0.0 -0.21166304 -0.11696694 -0.0
0002e0 2e 00 86 bd 65 19 53 be 00 00 00 80 00 00 00 80
       -0.06543003 -0.20615156 -0.0 -0.0
0002f0 04 d6 56 be 00 00 00 80 1c fa 58 be 0b 89 43 be
       -0.20980078 -0.0 -0.21189159 -0.19095246
000300 00 00 00 80 51 2a 50 be 84 f7 57 be 49 f8 37 be
       -0.0 -0.20328642 -0.21090513 -0.17965807
000310 00 00 00 80 b7 6e 55 be 00 00 00 80 00 00 00 80
       -0.0 -0.20843016 -0.0 -0.0
000320 00 00 00 80 18 c0 8c 3d 00 00 00 00 e7 4d 5a 3d
       -0.0 0.068725765 0.0 0.05329695
000330 a1 a4 8c 3d 00 00 00 80 00 00 00 80 00 00 00 00
       0.06867338 -0.0 -0.0 0.0
000340 e2 bc e9 bd 00 00 00 80 68 89 86 bd 00 00 00 80
       -0.1141298 -0.0 -0.06569177 -0.0
000350 4b e3 e2 3c 00 00 00 00 00 00 00 00 00 00 00 80
       0.027696272 0.0 0.0 -0.0
000360 f6 a6 40 bd f5 68 f6 bd 00 00 00 00 00 00 00 80
       -0.047034226 -0.12031738 0.0 -0.0
000370 36 1a b0 3d 00 00 00 00 19 d0 aa 3d 00 00 00 80
       0.08598749 0.0 0.08340473 -0.0
000380 31 1d da 3d d4 23 b2 3d 00 00 00 80 fe 3b 6b 3d
       0.10650099 0.0869824 -0.0 0.05743026
000390 00 00 00 00 00 00 00 80 00 00 00 80 00 00 00 80
       0.0 -0.0 -0.0 -0.0
0003a0 86 6f 53 3d 00 00 00 00 00 00 00 80 00 00 00 80
       0.05162003 0.0 -0.0 -0.0
0003b0 88 41 2b 3c 00 00 00 80 88 f5 2d 3c df 1b 81 3d
       0.010452636 -0.0 0.010617621 0.06304144
0003c0 9b 89 c6 bd 0c 19 0f be 8a 85 9d be 00 00 00 80
       -0.09694215 -0.13974398 -0.30765945 -0.0
0003d0 59 07 cc bd 00 00 00 80 00 00 00 80 68 6a 99 3c
       -0.09962339 -0.0 -0.0 0.018727496
0003e0 45 a8 d9 3c 00 00 00 80 35 92 ae bd a4 0e 5c 3e
       0.026569495 -0.0 -0.085239805 0.2148996
0003f0 00 00 00 80 34 d9 5f 3a e2 f0 b3 bd 00 00 00 00
       -0.0 0.00085391407 -0.08786179 0.0

weight f4 [1, 300]
000000 00 00 00 00 ab 3b 91 bd 3f b5 97 3d 00 00 00 00
       0.0 -0.07091459 0.07407617 0.0
000010 67 5d 7e bd 5e aa cb bd 8d 78 a9 bd 00 00 00 00
       -0.062100794 -0.09944604 -0.08274946 0.0
000020 00 00 00 00 9f 74 ac bd 00 00 00 00 00 00 00 00
       0.0 -0.08420681 0.0 0.0
000030 88 75 93 3d 3f 3f cd bd 00 00 00 00 7e c2 c0 bd
       0.07200152 -0.10021829 0.0 -0.094120964
000040 fb 67 d7 3d 00 00 00 80 00 00 00 00 00 00 00 00
       0.105178796 -0.0 0.0 0.0
000050 8a bb f0 3d 00 00 00 00 00 00 00 80 a2 55 8c bd
       0.1175452 0.0 -0.0 -0.06852271
000060 31 b9 b8 3d 00 00 00 00 00 00 00 00 4a b3 f7 bd
       0.090196975 0.0 0.0 -0.120947435
000070 00 00 00 00 f2 56 eb bd 00 00 00 00 0a 6f 9a bd
       0.0 -0.11491193 0.0 -0.0754071
000080 41 74 f7 bd 31 f4 cc 3d 00 00 00 00 00 00 00 00
       -0.120827205 0.10007513 0.0 0.0
000090 00 00 00 00 80 21 c4 3d b7 59 af be 00 00 00 00
       0.0 0.09576702 -0.34248134 0.0
0000a0 8b 5a 73 3d 00 00 00 00 00 00 00 00 00 00 00 00
       0.05941252 0.0 0.0 0.0
0000b0 00 00 00 00 00 00 00 00 2d 33 d8 bd 00 00 00 00
       0.0 0.0 -0.10556636 0.0
0000c0 00 00 00 00 9e 67 ee 3d 68 4b c4 3d 35 eb 8a bd
       0.0 0.11640857 0.09584695 -0.067831434
0000d0 a5 6c c3 bd 35 1f d3 bd 00 00 00 00 00 00 00 00
       -0.09542207 -0.10308687 0.0 0.0
0000e0 00 00 00 00 00 00 00 00 ca 40 f1 3d 0d 28 a3 bd
       0.0 0.0 0.11779936 -0.079666235
0000f0 a8 fe d9 3d 82 01 d5 3d 00 00 00 00 0a 66 e2 3d
       0.10644275 0.10400678 0.0 0.11054619
000100 00 00 00 00 b2 ec b0 bd 00 00 00 00 00 00 00 00
       0.0 -0.08638896 0.0 0.0
000110 00 00 00 00 39 da c0 3d 00 00 00 80 f4 f9 99 3d
       0.0 0.09416623 -0.0 0.07518378
000120 55 0c 96 bd 00 00 00 00 b9 34 a5 3d 12 89 e5 3d
       -0.07326571 0.0 0.08066697 0.11207785
000130 20 53 08 bf 4e 45 4e be a1 87 3b 3e 34 88 98 3d
       -0.5325184 -0.20143625 0.18313457 0.07447854
000140 00 00 00 00 76 64 b0 bd 98 42 8b 3e 05 87 dc 3d
       0.0 -0.086129114 0.27199244 0.107679404
000150 00 00 00 00 5f fa ac 3d 43 9c ee 3d f5 f8 c2 bd
       0.0 0.08446192 0.11650898 -0.09520141
000160 00 00 00 00 00 00 00 00 e5 cc 91 bd 00 00 00 00
       0.0 0.0 -0.07119159 0.0
000170 00 00 00 00 00 00 00 00 8d 27 da 3d 25 2a ae bd
       0.0 0.0 0.10652075 -0.08504132
000180 39 72 00 be 33 15 ef 3d e9 22 fc bd 00 00 00 00
       -0.12543572 0.11673965 -0.12311346 0.0
000190 72 1a c9 3d 00 00 00 00 00 00 00 00 cd cc b7 3d
       0.09819497 0.0 0.0 0.089746095
0001a0 d4 46 d6 3d 38 f5 f2 be 38 3d a9 3d 00 00 00 00
       0.10462728 -0.47452712 0.0826363 0.0
0001b0 00 00 00 00 57 7c db bd fc 0b ef bd cd d9 1f be
       0.0 -0.10717075 -0.11672208 -0.15610428
0001c0 00 00 00 00 00 00 00 00 78 5d eb 3d 00 00 00 00
       0.0 0.0 0.11492437 0.0
0001d0 5d c0 ee 3d 1a 11 ce 3d 00 00 00 00 00 00 00 00
       0.11657784 0.100618556 0.0 0.0
0001e0 00 00 00 00 0e cd 09 3f 1e 5d fa bd 00 00 00 00
       0.0 0.53828514 -0.12224792 0.0
0001f0 00 00 00 00 00 00 00 00 dd ec e3 3d 1c 1f be 3d
       0.0 0.0 0.111291625 0.092832774
000200 00 00 00 00 00 00 00 00 00 00 00 00 36 06 ca 3d
       0.0 0.0 0.0 0.09864466
000210 00 00 00 00 7f 59 ba 3d 4a 7b 9d bd 7c df d7 3d
       0.0 0.09099101 -0.07689531 0.10540673
000220 00 00 00 00 00 00 00 00 f5 d0 98 bd 93 c6 f7 bd
       0.0 0.0 -0.074617304 -0.12098422
000230 00 00 00 00 f1 43 ca bd fd 1d c1 bd 28 f8 8b 3d
       0.0 -0.0987624 -0.09429548 0.068344414
000240 00 00 00 00 49 c8 30 bf 00 00 00 00 00 00 00 00
       0.0 -0.6905561 0.0 0.0
000250 7a ed c5 bd 00 00 00 00 78 a6 db 3d 6e 5b cd 3d
       -0.09664436 0.0 0.10725111 0.100272045
000260 00 00 00 00 1a bc bc 3d 00 00 00 00 a8 a2 b9 bd
       0.0 0.09215565 0.0 -0.09064227
000270 b6 2d b3 3d 00 00 00 00 00 00 00 00 e8 a2 ef bd
       0.08748953 0.0 0.0 -0.11700994
000280 36 cb c0 bd a0 16 b2 bd 6f b4 be 3d ba c8 e0 bd
       -0.094137594 -0.086957216 0.09311759 -0.109757856
000290 0a 69 eb 3d d6 63 a3 bd db 57 02 be 00 00 00 00
       0.11494644 -0.079780266 -0.12728827 0.0
0002a0 a3 42 d7 3d 78 64 91 3d 00 00 00 00 93 d3 cb bd
       0.10510757 0.07099241 0.0 -0.09952464
0002b0 fe ee de 3d 00 00 00 00 ab 2f f0 bd 00 00 00 00
       0.10885428 0.0 -0.11727842 0.0
0002c0 00 00 00 00 34 d9 7e bd 00 00 00 00 00 00 00 00
       0.0 -0.06221886 0.0 0.0
0002d0 81 5a f0 3d c9 8c e6 bd e0 43 d5 be 00 00 00 00
       0.11736012 -0.112573214 -0.41653347 0.0
0002e0 d4 fa bf bd 00 00 00 00 00 00 00 00 bf e2 c5 3d
       -0.093740135 0.0 0.0 0.09662389
0002f0 00 00 00 00 c3 d5 aa 3d e2 9a b8 3d 00 00 00 00
       0.0 0.08341553 0.090139166 0.0
000300 00 00 00 00 00 00 00 00 b3 44 00 3e 00 00 00 00
       0.0 0.0 0.12526207 0.0
000310 00 00 00 00 00 00 00 00 00 00 00 00 4e d8 d2 3d
       0.0 0.0 0.0 0.10295163
000320 31 bd ef 3d 00 00 00 00 00 00 00 00 00 00 00 00
       0.11706007 0.0 0.0 0.0
000330 16 bc 8d 3d c1 f0 b5 3d b0 b0 ad bd 92 6c b3 3d
       0.0692064 0.08883811 -0.08480966 0.087609425
000340 3d 32 25 3e b1 02 b7 bd c6 2a ca 3d 8d c1 f0 3d
       0.16132446 -0.0893606 0.0987144 0.11755667
000350 00 00 00 00 00 00 00 00 00 00 00 00 00 00 00 00
       0.0 0.0 0.0 0.0
000360 2f e1 b2 bd 00 00 00 00 00 00 00 00 00 00 00 00
       -0.087343566 0.0 0.0 0.0
000370 42 b8 c2 bd 06 fa fb 3d 86 fc c2 3d 4b 44 bd 3d
       -0.09507801 0.123035476 0.09520821 0.092415415
000380 8c 44 db bd 00 00 00 00 00 00 00 00 00 00 00 00
       -0.10706434 0.0 0.0 0.0
000390 00 00 00 00 00 00 00 00 6e 7a b0 3d 9f 55 95 3d
       0.0 0.0 0.086171016 0.072917216
0003a0 00 00 00 00 48 ec 3a be 00 00 00 00 71 2b fa bd
       0.0 -0.18254197 0.0 -0.12215317
0003b0 b7 10 c8 3d 10 6d d2 3d 00 00 00 00 00 00 00 00
       0.09768813 0.10274708 0.0 0.0
0003c0 56 b1 e6 bd 00 00 00 00 9d e3 e5 bd 62 81 df bd
       -0.11264293 0.0 -0.112250544 -0.1091335
0003d0 a2 62 bf bd 55 55 d8 bd 0a 8c c0 3d 00 00 00 00
       -0.093449846 -0.10563151 0.0940171 0.0
0003e0 37 71 e8 3d bf 64 aa bd 3b 06 48 3e 9e 40 de bd
       0.11349719 -0.08319997 0.19533627 -0.108521685
0003f0 00 00 00 00 3b 09 c1 bd 00 00 00 00 1d d5 e9 3d
       0.0 -0.09425589 0.0 0.11417601
