figures/TS_global_2/theta=0.1_s=0.3_step=1/best_model.pth (torch, 249061 bytes, 6 tensors)

bias f4 [200]
0	0xbe9efd06	-0.31052417
1	0x3e4a6a2d	0.19767065
2	0x3ea3bcf7	0.31980106
3	0xbedb0fb0	-0.42785406
4	0x3e4f4303	0.20240407
5	0x3f02904c	0.5100143
6	0x3dbd2b02	0.09236719
7	0xbf0c2a46	-0.54752004
8	0xbf069e0b	-0.52584904
9	0xbf103404	-0.5632937
10	0xbeea0fc3	-0.4571515
11	0x3eb702cc	0.3574432
12	0xbe48bd85	-0.19603546
13	0xbe647ea2	-0.22313932
14	0x3e9e88c0	0.30963707
15	0xbe4c94e8	-0.19978678
16	0xbeda5190	-0.42640352
17	0xbe18e614	-0.14931518
18	0x3ea4add7	0.3216388
19	0x3eb7e686	0.35918063
20	0x3d947eea	0.072507694
21	0xbd8a2690	-0.067456365
22	0xbf104915	-0.56361514
23	0x3f2a57a0	0.66539955
24	0x3df4decd	0.119565584
25	0x3ec34b4b	0.3814338
26	0x3f1fdcc2	0.62446225
27	0xbf134af3	-0.5753624
28	0xbe864d54	-0.26230872
29	0x3f285b2a	0.65764105
30	0xbdc13a0d	-0.094349004
31	0x3ed06579	0.40702417
32	0x3ed96d38	0.4246614
33	0xbea1b5cc	-0.31584013
34	0x3f00a329	0.5024896
35	0xbeaeb3d5	-0.34121576
36	0xbefe1273	-0.4962345
37	0x3f0e0856	0.5548147
38	0xbf169028	-0.58813715
39	0x3eda4911	0.4263387
40	0xbe31ced6	-0.17364058
41	0xbe892f84	-0.26794064
42	0x3eb33fb6	0.35009545
43	0xbe5ded93	-0.21672659
44	0x3f35aeef	0.7097005
45	0x3e2f8efd	0.1714439
46	0xbecdd6a5	-0.40202823
47	0x3e0a46bc	0.13503546
48	0x3e49db0a	0.19712463
49	0xbe6de828	-0.23233092
50	0x3f288177	0.6582255
51	0x3dc82f02	0.09774591
52	0xbee7356b	-0.45157942
53	0xbec75556	-0.38932294
54	0x3f103194	0.5632565
55	0xbf2ab634	-0.6668427
56	0xbe462c09	-0.19352736
57	0x3df5f28a	0.12009151
58	0xbe1c8bfd	-0.15287776
59	0x3e622a42	0.22086433
60	0xbe980452	-0.29690796
61	0xbe6d74e5	-0.23189123
62	0x3ecfc285	0.40578094
63	0x3f2b0d6d	0.6681736
64	0xbebc1149	-0.36731938
65	0x3e8c2486	0.27371615
66	0x3e199846	0.14999494
67	0x3f39d9c1	0.7259789
68	0xbe922442	-0.28543288
69	0xbf0886f2	-0.5333091
70	0xbdb65102	-0.0890217
71	0x3eacddd2	0.33762985
72	0xbe6e39f4	-0.23264295
73	0xbee4e20f	-0.4470372
74	0x3f119a0e	0.56875694
75	0xbe13537d	-0.14387317
76	0x3e5c1d82	0.21495631
77	0xbdb956bb	-0.09049746
78	0x3ec21e00	0.37913513
79	0xbdd438e0	-0.103624105
80	0x3ebe13b0	0.37124395
81	0x3f191d1e	0.59810054
82	0x3e1c7d21	0.15282108
83	0xbf050ac9	-0.5196958
84	0x3f3412e1	0.70341307
85	0x3edefa8e	0.43550533
86	0x3e98a728	0.2981503
87	0x3f376186	0.71633184
88	0xbeba71e4	-0.36415017
89	0xbe73ac59	-0.23796214
90	0xbd98ce37	-0.07461207
91	0x3e6d172a	0.23153368
92	0xbd73f1f2	-0.05955691
93	0xbd673a60	-0.056452155
94	0xbeb048b1	-0.3443046
95	0x3e9be374	0.3044697
96	0x3f17dda2	0.5932256
97	0x3e4bbc81	0.19896127
98	0x3ec3a5ae	0.3821234
99	0xbdbd3e33	-0.09240379
100	0xbd6a160e	-0.05714994
101	0x3ee11f73	0.43969306
102	0xbe855ede	-0.2604894
103	0xbf2d914b	-0.67799824
104	0xbea8ea7b	-0.32991394
105	0xbdc4216c	-0.09576687
106	0xbd811c2f	-0.06304204
107	0xbe46fc30	-0.1943214
108	0xbd5957b7	-0.053062167
109	0x3eac322f	0.33632037
110	0x3e4753c9	0.19465555
111	0xbe3a445b	-0.18190138
112	0x3e17f9f1	0.14841439
113	0xbdabd252	-0.08389725
114	0xbef49d8b	-0.47776446
115	0xbf29a38b	-0.6626517
116	0x3f30cc5e	0.6906184
117	0xbeb4742f	-0.3524489
118	0x3f0a756f	0.5408544
119	0xbf0cc073	-0.54981154
120	0xbe00d3c1	-0.12580778
121	0xbe83953a	-0.25699788
122	0x3e9c2754	0.30498755
123	0x3f0dd8d6	0.5540899
124	0xbdfaed3f	-0.12252282
125	0x3ef6348e	0.4808697
126	0xbe0c9f05	-0.13732536
127	0x3ef9e1b1	0.48805
128	0xbf04fce6	-0.5194839
129	0x3ef7b8c7	0.4838316
130	0x3eb4edb6	0.3533761
131	0x3ea700c9	0.32617787
132	0xbd542142	-0.05178953
133	0x3f0c4c00	0.54803467
134	0xbd9a6ae2	-0.075399175
135	0x3f23ceb5	0.63987285
136	0xbd463765	-0.048392672
137	0x3e602369	0.21888508
138	0x3f206033	0.6264679
139	0xbf256a40	-0.6461525
140	0xbec55d44	-0.3854772
141	0xbd56e865	-0.052467722
142	0xbe4d2b6d	-0.20036097
143	0xbdd0e504	-0.10199931
144	0xbe99bae2	-0.30025393
145	0x3ea60a10	0.32429552
146	0xbef9aeda	-0.48766214
147	0xbece9a6b	-0.40352187
148	0xbd6306fe	-0.05542659
149	0xbecb3c73	-0.39694557
150	0x3ebb3d60	0.36570263
151	0xbe475d87	-0.19469272
152	0xbea9dfe1	-0.3317862
153	0xbf062850	-0.5240526
154	0xbe77468c	-0.24148005
155	0x3e9bf0ca	0.30457145
156	0x3f0b676c	0.54454684
157	0xbe47f40b	-0.19526689
158	0xbf042422	-0.51617634
159	0xbe9962dc	-0.29958236
160	0x3f29f8b6	0.6639513
161	0xbe59d82d	-0.21273871
162	0x3eb91c52	0.3615442
163	0xbf04e9c5	-0.51919204
164	0xbf2f92f4	-0.6858361
165	0xbf03d0a6	-0.5149025
166	0x3e08cd7a	0.13359633
167	0xbed84aeb	-0.42244658
168	0x3f194bd9	0.5988136
169	0xbdecc879	-0.115616746
170	0x3f2e71bd	0.681423
171	0xbf027ed5	-0.5097478
172	0x3e654462	0.22389367
173	0xbf0dd9fe	-0.55410755
174	0xbdb0f0ba	-0.08639665
175	0xbf07387a	-0.5282055
176	0xbdf768e1	-0.12080551
177	0x3f15688a	0.5836264
178	0x3f1b2698	0.60605764
179	0xbf2bd1fe	-0.671173
180	0xbd31f7a5	-0.043449063
181	0xbdd1f1d0	-0.102512
182	0x3eef8040	0.46777534
183	0x3ee1721b	0.44032368
184	0x3e9554d8	0.29166293
185	0x3f0ec239	0.5576511
186	0x3e8af2b4	0.27138293
187	0x3e5fab6f	0.2184274
188	0xbd71dff4	-0.05905147
189	0x3e8bf006	0.2733156
190	0x3ed396df	0.41326043
191	0xbda8b31e	-0.08237289
192	0xbecb8dc5	-0.397566
193	0xbefc33d5	-0.49258295
194	0xbe96c2ae	-0.29445404
195	0x3f190387	0.5977101
196	0xbe86a4f2	-0.26297718
197	0xbe8dfa91	-0.2773023
198	0xbdc0c30f	-0.094122045
199	0x3e7acddd	0.24492593

weight f4 [200, 2]
0	0x3cf1cb09	0.02951576
1	0xbf1e9169	-0.6194063
2	0x3e977a6b	0.29585585
3	0xbf005b89	-0.5013967
4	0x3e399192	0.18121937
5	0xbf2bf5af	-0.6717176
6	0xbf555717	-0.83336014
7	0x3ef0bdd4	0.47019827
8	0x3f6afc0e	0.91790855
9	0xbe43cb2f	-0.19120477
10	0xbe9ce5b1	-0.3064399
11	0x3e402822	0.1876531
12	0xbf0b39f4	-0.54385304
13	0xbe84be71	-0.25926545
14	0xbf2f4ec8	-0.68479586
15	0x3f4ee335	0.8081544
16	0x3eb17232	0.34657437
17	0x3e9124d6	0.28348416
18	0xbd85339b	-0.065039836
19	0xbd77856e	-0.060429983
20	0x3e91caf9	0.28475168
21	0xbe7a13e1	-0.24421646
22	0x3f29b9f3	0.6629936
23	0x3f5ef7e7	0.8709702
24	0xbef89005	-0.48547378
25	0x3e8dbd78	0.27683616
26	0xbf24d2b9	-0.6438404
27	0x3ecfd334	0.40590823
28	0x3e944cf6	0.28964967
29	0xbf2612de	-0.6487254
30	0xbf3da9ca	-0.740872
31	0x3cee2668	0.029071048
32	0x3f42a64f	0.76035017
33	0xbf088a48	-0.53336
34	0x3f500d81	0.81270605
35	0x3d357768	0.044303328
36	0xbed54bd5	-0.41659418
37	0xbf13639a	-0.57573855
38	0x3d1ef9b6	0.03881236
39	0x3eb4bafa	0.35298902
40	0xbe7a9cc2	-0.24473861
41	0x3d65626d	0.05600207
42	0x3f16004b	0.585942
43	0x3e8bf1d5	0.2733294
44	0xbe2088ef	-0.15677236
45	0xbef402d4	-0.47658408
46	0x3f32e5e8	0.6988206
47	0xbed51799	-0.41619566
48	0x3f1298ad	0.57264215
49	0x3f80b385	1.0054785
50	0x3f3245d7	0.6963782
51	0xbcc209f4	-0.023686387
52	0xbe8dc710	-0.27690935
53	0x3ed377c6	0.41302317
54	0x3eb3f919	0.35150984
55	0xbee44194	-0.44581282
56	0x00000000	0.0
57	0x3f060308	0.52348375
58	0x3f27b033	0.65503234
59	0xbe0adafe	-0.13560101
60	0xbd51fe96	-0.051268183
61	0x00000000	0.0
62	0x3e9ea49c	0.30984962
63	0x3e19b765	0.15011366
64	0xbf308bf0	-0.6896353
65	0xbe5d62a3	-0.21619658
66	0x3eca32e1	0.39491943
67	0xbf2b92a7	-0.6702065
68	0x3ea948a1	0.33063224
69	0xbef99934	-0.48749697
70	0xbed03a8e	-0.40669674
71	0xbf02542c	-0.50909686
72	0xbf42135d	-0.75810796
73	0x3f22145b	0.6331231
74	0x3f0b3657	0.5437979
75	0x3e840e61	0.2579222
76	0x3ea06907	0.3133013
77	0x3ea30226	0.31837577
78	0xbea79c29	-0.32736328
79	0x3f311e51	0.69186884
80	0xbe97b6cb	-0.29631647
81	0x3ebae183	0.36500177
82	0x3f06dafd	0.526779
83	0xbf2a8cc2	-0.6662103
84	0x3f581f7c	0.8442304
85	0x3dc1b2b8	0.09457916
86	0x3e6612e6	0.22468147
87	0x3d9eaf81	0.077483185
88	0x3e821231	0.25404504
89	0xbeb94052	-0.36181885
90	0xbd71e45b	-0.059055667
91	0x3ebdc913	0.3706747
92	0x3ec57866	0.3856842
93	0x3e8f69c2	0.28010374
94	0xbf7772f4	-0.9665978
95	0xbf0bc957	-0.54604095
96	0x3e935c6b	0.28781447
97	0xbedde2dc	-0.43337142
98	0xbc5938fa	-0.013258213
99	0x3eeef07d	0.46667853
100	0x3f24bdc7	0.6435208
101	0xbed722f9	-0.4201887
102	0xbe357814	-0.17721587
103	0x3e2ab485	0.16670425
104	0xbf4b93a9	-0.79522187
105	0xbe1efe11	-0.15526606
106	0x3eb437be	0.35198778
107	0xbe6ddfb5	-0.23229869
108	0x00000000	0.0
109	0x3f07c9b6	0.5304216
110	0xbe15c06a	-0.14624181
111	0x3ebe715e	0.37195867
112	0xbf35bcb9	-0.7099109
113	0x3e2f5e46	0.17125806
114	0x3f48864e	0.7832993
115	0x3f40a680	0.7525406
116	0x3f2b2072	0.6684638
117	0xbd9998a2	-0.074998155
118	0xbf2ddb44	-0.679127
119	0xbe65b19b	-0.22431032
120	0x3f0ce5f7	0.550384
121	0xbf05455d	-0.52058965
122	0x3e6cb789	0.23116888
123	0xbefbfaff	-0.49214932
124	0xbf1e80e2	-0.6191541
125	0x3f0f3633	0.55942076
126	0x3f00eeff	0.5036468
127	0xbf1143dc	-0.5674417
128	0xbed79c29	-0.42111328
129	0x3f4af6ea	0.7928301
130	0xbf16af01	-0.58860785
131	0xbd999c64	-0.07500532
132	0xbf80ab7b	-1.0052332
133	0xbf711fe7	-0.94189304
134	0x3f592a8e	0.8483056
135	0x3ee4b42e	0.44668716
136	0xbea96810	-0.33087206
137	0x3f1dfcdd	0.61713964
138	0xbd69c5fb	-0.057073575
139	0x3eb52185	0.35377136
140	0xbf003d9f	-0.50094026
141	0xbf3d9c70	-0.7406683
142	0xbebc6dc6	-0.368025
143	0xbf5784e1	-0.8418713
144	0x3eb778e4	0.3583442
145	0xbf129404	-0.57257104
146	0xbeb17f3e	-0.3466739
147	0xbf40a6fe	-0.7525481
148	0xbf36ed5a	-0.7145592
149	0xbf253d39	-0.64546543
150	0x3f60f624	0.8787558
151	0x3f5509ab	0.8321788
152	0xbf3bb8c3	-0.733288
153	0xbf0b7bc9	-0.54485756
154	0x3f3fe115	0.7495282
155	0x3eb162b6	0.34645623
156	0x3f57aa7a	0.842445
157	0x3ef5d5c8	0.48014665
158	0xbf3ceb9c	-0.7379701
159	0xbf137849	-0.57605416
160	0xbf112926	-0.5670341
161	0x3d9dff3b	0.07714697
162	0x3f483d97	0.7821898
163	0x3e3419eb	0.17588012
164	0x3f216c14	0.6305554
165	0x3eae0756	0.33989972
166	0x3f070c10	0.5275278
167	0x3e5d5ca4	0.21617371
168	0xbed8f949	-0.4237769
169	0xbf3c65bc	-0.73592734
170	0x3e912d67	0.28354952
171	0xbec565d3	-0.38554248
172	0xbeee3942	-0.4652806
173	0x3efdc62d	0.4956526
174	0x3ee98b89	0.4561427
175	0xbecd0b10	-0.40047503
176	0x3e5c4cd2	0.2151368
177	0xbf43097a	-0.76186335
178	0x3f559487	0.8342976
179	0xbe930159	-0.28711966
180	0xbe08d05f	-0.13360737
181	0xbf4bd949	-0.79628426
182	0x00000000	0.0
183	0x3d81bfa4	0.06335381
184	0x3e8bf967	0.27338716
185	0x3f10ab46	0.5651134
186	0x3e946ac5	0.2898771
187	0x3f02ae6d	0.510474
188	0x3f3879c5	0.72060806
189	0xbf20dcbd	-0.6283682
190	0xbdf9af75	-0.12191669
191	0x3f1cb56c	0.6121433
192	0x3e5b0ca7	0.21391545
193	0xbf0b9e90	-0.5453882
194	0xbea995ca	-0.33122092
195	0xbdcfc95e	-0.101458296
196	0x3f4de0d5	0.8042119
197	0x3d637881	0.055534843
198	0xbf297ff6	-0.6621088
199	0xbf0b5582	-0.5442735
200	0xbeec58a1	-0.46161368
201	0xbead8c92	-0.3389631
202	0xbe9da0fb	-0.3078688
203	0x3eda7734	0.4266907
204	0xbf1443fa	-0.57916224
205	0x3ece34f2	0.4027477
206	0xbec301d1	-0.38087323
207	0x3e0c9b9a	0.13731232
208	0x3ed07d00	0.40720367
209	0x3f050f91	0.5197688
210	0x3e983986	0.29731387
211	0x3f79c143	0.9756052
212	0x3e7f6dff	0.24944304
213	0x3f227475	0.6345895
214	0xbf362937	-0.7115664
215	0x3ea5bdc8	0.32371354
216	0xbf1f99ac	-0.6234386
217	0xbe3b1c2b	-0.18272464
218	0xbe449640	-0.19197941
219	0x3f29dbe5	0.6635116
220	0xbf68ba41	-0.909092
221	0xbe60f3b4	-0.21967965
222	0x3f5b1924	0.85585237
223	0x3f637d29	0.88862854
224	0xbf3e9bf9	-0.74456745
225	0xbf061d6e	-0.52388656
226	0x3eb9b34b	0.36269602
227	0x3f49ebb3	0.78875273
228	0xbe0ccade	-0.13749263
229	0xbf603c59	-0.87592083
230	0x3e59a091	0.21252657
231	0x80000000	-0.0
232	0xbf1e05aa	-0.6172739
233	0x3dfcf0e5	0.123506345
234	0xbf4970df	-0.7868785
235	0x3f06ee31	0.527072
236	0xbf3bc696	-0.73349893
237	0xbeab11fd	-0.3341216
238	0x3e33927e	0.17536351
239	0x3ee1582b	0.4401258
240	0xbf478600	-0.7793884
241	0xbf5675ab	-0.837733
242	0x3f554e71	0.8332282
243	0xbeb093a3	-0.34487638
244	0xbf52fb8f	-0.824151
245	0xbf68a00d	-0.9086922
246	0x3f4ad08a	0.79224455
247	0xbdfaa7aa	-0.12239011
248	0x3f100f83	0.5627367
249	0xbf3e0006	-0.74218786
250	0xbeaeea8d	-0.34163323
251	0x3f16cdc9	0.58907753
252	0xbf4fc797	-0.81163925
253	0xbeaaf525	-0.33390155
254	0x3f0d1809	0.551148
255	0x3f37cc1a	0.7179581

bias f4 [300]
0	0x3d4158c4	0.047203794
1	0x3cbbe136	0.022934537
2	0xbd147cc3	-0.036251795
3	0xbd3b1aee	-0.04567998
4	0x3d094458	0.033512443
5	0xbd5a5103	-0.053299915
6	0xbc3adfaa	-0.011405865
7	0x3d549007	0.051895168
8	0xbdaa0b0d	-0.08302889
9	0x3d6dcd74	0.058057263
10	0x3cb4bbff	0.0220623
11	0x3bb549d1	0.0055324812
12	0xbd73832b	-0.059451263
13	0xbd5b5bdc	-0.0535544
14	0x3c0d55f8	0.008626454
15	0x3d0a5363	0.03377093
16	0x3d2e16f9	0.042502377
17	0x3ba30952	0.0049754763
18	0x3c429ad6	0.011877736
19	0x3ceb8ff6	0.02875517
20	0xbcff733c	-0.031182878
21	0x3d943da7	0.07238322
22	0xbd809187	-0.06277757
23	0xbcbf7481	-0.023370983
24	0x3ced55e8	0.028971627
25	0xbd2ddef8	-0.042448968
26	0x3d7d351e	0.061818235
27	0x3d80e58e	0.06293784
28	0x3d89005a	0.0668952
29	0x3d69b5fe	0.057058327
30	0x3d323bda	0.04351411
31	0xbc862695	-0.01637582
32	0x3d7859bc	0.060632452
33	0xbbbe43ab	-0.0058064065
34	0x3ca3c1d8	0.019989893
35	0x3d0462e3	0.03232087
36	0xbcebc42c	-0.028780065
37	0x3d3bb463	0.045826327
38	0xbd875c27	-0.066093735
39	0xbd3060d4	-0.043061092
40	0xbd50eafa	-0.05100534
41	0x3ce684cf	0.0281395
42	0x3d8f7b3a	0.070059255
43	0x3d2e3c85	0.042538185
44	0xbd0e0ecd	-0.034682084
45	0x3d2b91a3	0.041886937
46	0xbd5d13dd	-0.05397402
47	0xbd62c8fd	-0.05536746
48	0xbd5ccf66	-0.053908728
49	0xbc5f605a	-0.013633812
50	0x3cdecbdf	0.027196823
51	0x3d3d6399	0.04623756
52	0x3d7f6d12	0.062359877
53	0xbd9257ac	-0.07145628
54	0xbb7f1927	-0.0038924904
55	0x3cd29011	0.025703462
56	0xbbb07d31	-0.0053860177
57	0xbcc5fd34	-0.024168588
58	0x3d436c19	0.04771051
59	0xbc8c9494	-0.017160691
60	0xbcf02b3b	-0.029317489
61	0xba0702f1	-0.00051502796
62	0x3d202d7c	0.039105877
63	0x3d7b8490	0.06140572
64	0x3ce2d1bb	0.027687898
65	0xbd539c24	-0.05166258
66	0xbca89530	-0.02057895
67	0xbd302cf2	-0.043011613
68	0x3a43e373	0.0007472552
69	0xbd7e92b2	-0.06215162
70	0x3ccda406	0.025102627
71	0x3bb419c7	0.005496237
72	0x3c1bbe46	0.009505814
73	0x3c951809	0.018199937
74	0xbc22f02d	-0.009944958
75	0x3d9e88cd	0.077409364
76	0x3d4d345f	0.050098773
77	0xbce1f053	-0.027580416
78	0xbd390890	-0.04517418
79	0x3cf37b67	0.029721929
80	0x3cdeec59	0.027212309
81	0xbcdcdf35	-0.026961902
82	0xbdaab751	-0.08335746
83	0x3b8ac6f3	0.0042351424
84	0xbcacc9fe	-0.021092411
85	0x3d298802	0.041389473
86	0xbd5d6548	-0.054051667
87	0xbb416665	-0.0029510495
88	0x3b92fe8f	0.004485912
89	0xbcd406e6	-0.025882196
90	0x3d948a8c	0.07252988
91	0xbd2e2344	-0.0425141
92	0xbd791d81	-0.060819153
93	0x3cd0e2c0	0.025498748
94	0x3d0ed4b5	0.034870822
95	0xbc03cb6d	-0.008044106
96	0xbda319e6	-0.07963924
97	0x3d6bd0f2	0.057572313
98	0xbcbc07ed	-0.022952998
99	0x3d3c4694	0.045965746
100	0x3d702886	0.058632396
101	0xbcca002e	-0.024658289
102	0xbda0f9ea	-0.07860167
103	0x3c5ac18a	0.013351807
104	0x3d2434e4	0.040089503
105	0xbc516150	-0.012779549
106	0xbcd922a4	-0.026505776
107	0xbc709774	-0.014684547
108	0xbb85a7a2	-0.0040788213
109	0x3d479fe7	0.04873648
110	0x3c0044ac	0.007828873
111	0xbdc4b984	-0.09605697
112	0x3d3c2151	0.04593021
113	0xbd090547	-0.0334523
114	0x3d19723e	0.037462465
115	0x3d2a86dd	0.041632522
116	0x3d0a81c0	0.033815145
117	0x3b8d5c96	0.0043140156
118	0x3d613235	0.05497952
119	0x3b80b608	0.00392795
120	0x3bae0062	0.005310104
121	0x3d1626a2	0.036657937
122	0xbd96b55b	-0.073588096
123	0x3d716427	0.058933403
124	0xbd07031d	-0.032961953
125	0x3b1bdde9	0.0023783392
126	0x3c21ee48	0.009883471
127	0x3cf6e08b	0.030136367
128	0xbd283cbb	-0.041073542
129	0x3d83dc35	0.064384855
130	0xbd2f3f95	-0.042785246
131	0xbc7fe6f5	-0.015619029
132	0xbd41b389	-0.04729036
133	0xbc5b2398	-0.013375185
134	0xbc5650aa	-0.013080755
135	0x3d5f977e	0.054587834
136	0xbd6bc88a	-0.057564296
137	0xbd473dfc	-0.048643097
138	0xbd5efab3	-0.054438304
139	0xbcb68864	-0.022281833
140	0xbb81196c	-0.003939798
141	0x3cec6719	0.028857755
142	0xbd5a2ff7	-0.0532684
143	0xbd84b8e0	-0.064805746
144	0xbd6c9663	-0.057760607
145	0x3cf78409	0.030214326
146	0x3d421bbf	0.047389742
147	0x3b99320c	0.0046751555
148	0x3c9afccc	0.018919371
149	0xbc26bf74	-0.010177482
150	0x3c4bcd86	0.012439137
151	0x3c2847de	0.010271041
152	0xbc650876	-0.013979068
153	0x3d8610e2	0.06546189
154	0xbd340650	-0.043951333
155	0xbd82a8e3	-0.06379869
156	0x3d0a2ca5	0.033733983
157	0x3d63fc89	0.05566076
158	0xbdbac81b	-0.09120198
159	0x3d941b7e	0.07231806
160	0xbd6aebfc	-0.05735396
161	0x3bbc904c	0.005754506
162	0x3cb17020	0.02165991
163	0x3d890d68	0.0669201
164	0xbc912719	-0.017718839
165	0xbd557e25	-0.052122254
166	0x3d0779d9	0.033075187
167	0x3cb95b9b	0.022626689
168	0x3d24a98f	0.040200766
169	0xbd2d6d7f	-0.04234075
170	0xbce472b9	-0.027886735
171	0x3cabec86	0.020986807
172	0x3d3fc067	0.04681435
173	0x3b6590a2	0.0035028835
174	0xbdb0c2b6	-0.08630888
175	0x3d4cf455	0.0500377
176	0x3d82102e	0.06350742
177	0x3c5959ec	0.013266068
178	0xbd2cf2ad	-0.04222362
179	0x3c908b25	0.017644474
180	0xbd67af5e	-0.056563728
181	0x3bb53056	0.0055294437
182	0x3c667e1e	0.014068155
183	0x3db4c141	0.08825923
184	0x3d91767e	0.07102679
185	0x3ba1f876	0.004942949
186	0x3da3b0c9	0.079927035
187	0xbd1047e8	-0.035224825
188	0xbd7a2f94	-0.06108053
189	0x3cf33f6d	0.02969333
190	0xbcd7f385	-0.026361236
191	0xbd2e7c72	-0.04259915
192	0xbb0f8cad	-0.0021903918
193	0x3c522435	0.012826015
194	0xbba739cc	-0.0051033255
195	0xbb97e806	-0.0046358136
196	0xbbe29ce8	-0.0069156773
197	0xbd28db62	-0.041224845
198	0x3c203c5b	0.009780015
199	0x3cdf49f8	0.02725695
200	0x3d94e357	0.07269924
201	0x3c09c2b9	0.008408242
202	0x3d5ca4de	0.053868167
203	0x3d627e15	0.055296022
204	0xbca305d2	-0.019900236
205	0xbd4505ec	-0.04810135
206	0xbc09df6d	-0.008415085
207	0xbd0ec05d	-0.03485142
208	0xbd6a3390	-0.05717808
209	0x3c241756	0.010015329
210	0xbc61e8c1	-0.013788403
211	0xbbf03301	-0.007330299
212	0x3cf64a1e	0.030064639
213	0x3c0d67c9	0.008630701
214	0x3d460a70	0.048349798
215	0xbdb0aa16	-0.08626191
216	0x3d2ba0cb	0.04190139
217	0x3d1ebbde	0.038753383
218	0x3d9e2dab	0.07723554
219	0xbd2f7127	-0.04283252
220	0x3b1af761	0.0023645984
221	0xbd4f2e65	-0.050581355
222	0x3c38a55c	0.0112698935
223	0xbd620f14	-0.05519016
224	0xbd6210e9	-0.055191908
225	0x3c5477c2	0.012968006
226	0xbc745df3	-0.014914977
227	0xbd8464b2	-0.064645186
228	0xbd12df79	-0.03585765
229	0xbc76b074	-0.015056718
230	0xbd0a4950	-0.033761322
231	0x3c1d60ee	0.009605629
232	0x3d87af0b	0.06625184
233	0xbd581381	-0.052752975
234	0x3cb8a69e	0.022540387
235	0xbd85a2f1	-0.06525219
236	0xbcb36dbb	-0.02190291
237	0x3d2a33e8	0.041553408
238	0xbd0e4fd7	-0.03474411
239	0xbdaae8a5	-0.08345155
240	0xbd45b9b1	-0.048272792
241	0xbc192186	-0.0093463715
242	0xbbb36b7b	-0.005475459
243	0xbc961c78	-0.018324122
244	0xbcb82fcf	-0.022483734
245	0x3d07307e	0.03300523
246	0x3d19406d	0.037414957
247	0x3afa65c7	0.0019103818
248	0x3b2b1a70	0.0026108287
249	0xbd1c5176	-0.038163625
250	0x3d855e21	0.06512094
251	0x3d4a5b0c	0.049403235
252	0x3d9bdf16	0.0761091
253	0x3c32cfc3	0.010913792
254	0xbcb97e86	-0.022643339
255	0xbcd43f4c	-0.025909089

weight f4 [300, 200]
0	0xbde50ab6	-0.111836836
1	0x80000000	-0.0
2	0x80000000	-0.0
3	0x3e1da92c	0.15396565
4	0x3e0bf486	0.13667497
5	0x3d3181e9	0.043336783
6	0xbe332011	-0.17492701
7	0x3e1b18ac	0.1514613
8	0xbcb8c6d0	-0.022555739
9	0x00000000	0.0
10	0x00000000	0.0
11	0x3e04df0b	0.12975709
12	0x3d16d4ad	0.036823917
13	0x80000000	-0.0
14	0x80000000	-0.0
15	0x3e1f9166	0.15582809
16	0xbe67c556	-0.22633871
17	0x80000000	-0.0
18	0xbdefac90	-0.117028356
19	0x00000000	0.0
20	0xbe020c05	-0.12699898
21	0x80000000	-0.0
22	0x3d10d078	0.03535506
23	0x3d92d684	0.07169822
24	0x3dbd9005	0.09255985
25	0x3dc16b31	0.09444273
26	0x3d6aa36c	0.057284757
27	0x3ce9004c	0.028442524
28	0x3e38ad4f	0.18034862
29	0x00000000	0.0
30	0x3d71cf2a	0.059035458
31	0x00000000	0.0
32	0x80000000	-0.0
33	0x00000000	0.0
34	0xbce514ef	-0.027964083
35	0xbd2e9f6c	-0.042632505
36	0x3e1fed9a	0.15617982
37	0x00000000	0.0
38	0xbcb8e45e	-0.022569831
39	0x3cf19cf7	0.029493792
40	0x00000000	0.0
41	0x3cc83e5c	0.024443798
42	0x3e12c0de	0.14331385
43	0xbd88f776	-0.066878244
44	0xbd573ae5	-0.0525464
45	0x3dc4ab88	0.096030295
46	0x00000000	0.0
47	0xbe1f3cdd	-0.15550561
48	0x80000000	-0.0
49	0x3e0b4c1c	0.13603252
50	0x00000000	0.0
51	0x00000000	0.0
52	0x00000000	0.0
53	0x3cabfdd6	0.020995062
54	0x00000000	0.0
55	0xbcb805ee	-0.022463765
56	0x3d6b3f64	0.0574335
57	0x3e05249c	0.13002247
58	0xbe6188ba	-0.22024813
59	0xbe2e799b	-0.17038576
60	0xbd874248	-0.06604439
61	0x00000000	0.0
62	0xbd9d090d	-0.07667742
63	0x80000000	-0.0
64	0x3e1840d3	0.14868478
65	0xbde676b9	-0.11253113
66	0xbe2e9f84	-0.17053038
67	0x3dff3f6f	0.12463271
68	0x00000000	0.0
69	0x80000000	-0.0
70	0x3e04a254	0.12952548
71	0xbd9bfba6	-0.076163575
72	0xbd8f80dc	-0.07007
73	0xbe17046f	-0.14747785
74	0x3c106f58	0.008815609
75	0xbd35e88e	-0.044411235
76	0xbe1339b8	-0.14377487
77	0xbdcb1023	-0.09915187
78	0x3e07e772	0.13271883
79	0x3def09a9	0.116717644
80	0x80000000	-0.0
81	0x00000000	0.0
82	0x00000000	0.0
83	0x3d07417e	0.033021443
84	0x3c747e8d	0.01492275
85	0x3d979e47	0.07403236
86	0xbdaf141f	-0.0854876
87	0x3d93de5d	0.07220147
88	0x00000000	0.0
89	0xbde1e545	-0.11030058
90	0x3da2f020	0.079559565
91	0x3d4ad9af	0.049524006
92	0xbd50017e	-0.050782673
93	0xbdf5920b	-0.11990746
94	0x80000000	-0.0
95	0x3da4eaa3	0.08052566
96	0xbc82ef04	-0.015983112
97	0xbdc7121d	-0.09720252
98	0x00000000	0.0
99	0x3e6bcae6	0.23026618
100	0x3dace2d9	0.08441705
101	0x3ce705fc	0.028201096
102	0x3de1680e	0.11006175
103	0x3d2155ca	0.039388455
104	0x3e653e1b	0.22386973
105	0x80000000	-0.0
106	0xbcde809f	-0.02716094
107	0x3da3ed32	0.08004226
108	0xbdebb451	-0.11509002
109	0x00000000	0.0
110	0xbdd30e2d	-0.10305438
111	0xbbce72f0	-0.0063003227
112	0xbdba483f	-0.09095811
113	0xbe20f049	-0.15716662
114	0xbe2c8277	-0.16846643
115	0x00000000	0.0
116	0x80000000	-0.0
117	0x3d4736e6	0.04863634
118	0xbdb9caa0	-0.09071851
119	0x3d15525d	0.0364555
120	0x3ddb429f	0.10706066
121	0x80000000	-0.0
122	0xbe1d7915	-0.1537822
123	0x00000000	0.0
124	0x00000000	0.0
125	0x00000000	0.0
126	0x3e442437	0.1915444
127	0x3ddfe870	0.10933006
128	0xbd148806	-0.036262535
129	0x80000000	-0.0
130	0x3df9696f	0.12178313
131	0x3d309af1	0.043116514
132	0xbe0ac3e7	-0.13551293
133	0x80000000	-0.0
134	0x3df8def0	0.12151897
135	0x3c8fd543	0.017557746
136	0x00000000	0.0
137	0xbc618c6c	-0.013766389
138	0x80000000	-0.0
139	0x3d1f761b	0.038930994
140	0x80000000	-0.0
141	0x80000000	-0.0
142	0x3e86492d	0.26227704
143	0x00000000	0.0
144	0xbd9cd684	-0.07658103
145	0xbc4b6b8e	-0.01241578
146	0x3d065baf	0.03280228
147	0x00000000	0.0
148	0xbddbeb7d	-0.10738275
149	0x3e236bbc	0.15959066
150	0x80000000	-0.0
151	0xbe419e3b	-0.18908016
152	0x00000000	0.0
153	0xbd807619	-0.06272525
154	0x3d52d7ac	0.051475212
155	0x3db69031	0.08914221
156	0x00000000	0.0
157	0x80000000	-0.0
158	0x80000000	-0.0
159	0x80000000	-0.0
160	0xbd46f9b2	-0.04857797
161	0x00000000	0.0
162	0xbda52c4d	-0.0806509
163	0x80000000	-0.0
164	0x3ccee9ba	0.025257934
165	0x3ce50180	0.027954817
166	0x00000000	0.0
167	0x3e3a409f	0.18188713
168	0x80000000	-0.0
169	0x80000000	-0.0
170	0xbce14c78	-0.027502283
171	0x00000000	0.0
172	0x3d9d8b8e	0.076926336
173	0xbd4b75ca	-0.04967288
174	0x3e405377	0.1878184
175	0x3cbb2278	0.022843584
176	0xbe082972	-0.1329706
177	0x80000000	-0.0
178	0xbd124ca6	-0.03571763
179	0x80000000	-0.0
180	0x3de982e4	0.114019185
181	0xbe0dbd2c	-0.13841695
182	0xbd43ad15	-0.047772486
183	0x00000000	0.0
184	0x3bd7cf71	0.0065860082
185	0x3dd07b15	0.10179726
186	0x80000000	-0.0
187	0x3dc3e148	0.09564453
188	0xbd808eb7	-0.06277221
189	0x3da23f90	0.0792228
190	0x00000000	0.0
191	0x3d5c1a1c	0.053735837
192	0x00000000	0.0
193	0xbd78c656	-0.060736023
194	0xbd117a0c	-0.035516784
195	0x3b739015	0.0037164737
196	0x80000000	-0.0
197	0x80000000	-0.0
198	0x00000000	0.0
199	0x3db600a5	0.08886842
200	0x3e235329	0.15949692
201	0x3da3e138	0.080019414
202	0xbd13d56f	-0.036092218
203	0xbe42c0f1	-0.19018914
204	0x3d88e352	0.06683983
205	0xbdd51a36	-0.1040539
206	0x80000000	-0.0
207	0xbd9adf1b	-0.07562085
208	0x3d61ac51	0.055095974
209	0x00000000	0.0
210	0xbd4dc98b	-0.050241034
211	0x00000000	0.0
212	0x80000000	-0.0
213	0xbd2cb313	-0.042162966
214	0x80000000	-0.0
215	0x3e036730	0.12832332
216	0x3e462b61	0.19352485
217	0x00000000	0.0
218	0xbdb0c252	-0.08630814
219	0x00000000	0.0
220	0x00000000	0.0
221	0x3de61298	0.11234015
222	0x80000000	-0.0
223	0x3d4ef76b	0.050528925
224	0x00000000	0.0
225	0xbc0921f2	-0.00836991
226	0x00000000	0.0
227	0x80000000	-0.0
228	0xbe2db0b1	-0.16961934
229	0x3d106970	0.035256803
230	0xbcff8eac	-0.031195961
231	0x00000000	0.0
232	0x3c3504d7	0.011048517
233	0x3d456bb4	0.048198417
234	0x80000000	-0.0
235	0x3e16a11a	0.14709893
236	0x80000000	-0.0
237	0xbd605269	-0.054766092
238	0xbd860bb6	-0.065452024
239	0x3d646680	0.055761814
240	0x80000000	-0.0
241	0x3e013699	0.12618484
242	0x3db466ad	0.08808646
243	0x3d8df61f	0.069317095
244	0xbd4f1823	-0.050560128
245	0x00000000	0.0
246	0x3d479a25	0.048730988
247	0x3df4f310	0.11960423
248	0x3da035e6	0.0782278
249	0xbe2b0abb	-0.16703312
250	0x3da4da87	0.08049493
251	0x3dda2e8e	0.10653411
252	0x3bb03f70	0.005378656
253	0x00000000	0.0
254	0x3d00061c	0.031255826
255	0x80000000	-0.0

bias f4 [2]
0	0x3c187268	0.00930462
1	0xbc2425a9	-0.0100187445

weight f4 [2, 300]
0	0x3e3c7b1c	0.18406337
1	0xbe2e3f9e	-0.17016456
2	0x3e2773b2	0.16352728
3	0xbd3b10bc	-0.045670256
4	0x80000000	-0.0
5	0x3e477f13	0.19482069
6	0xbccbd870	-0.024883479
7	0xbda9f23f	-0.08298158
8	0xbe2c8867	-0.16848908
9	0x3e3f3a8e	0.1867468
10	0xbe16caf6	-0.14725861
11	0x3e0679ea	0.13132444
12	0xbe1728da	-0.14761677
13	0xbe24a7d3	-0.16079645
14	0x3e27a839	0.16372766
15	0x00000000	0.0
16	0x00000000	0.0
17	0x3e240c0e	0.16020223
18	0x80000000	-0.0
19	0xbdca9293	-0.09891238
20	0x3dda7c12	0.10668196
21	0x3e2671a7	0.16254292
22	0xbd576471	-0.052586023
23	0x00000000	0.0
24	0x3cdf68d6	0.02727167
25	0x3e2d7c7b	0.16942017
26	0xbd4d4a07	-0.050119426
27	0x3dcb9446	0.0994039
28	0x3e4ab62e	0.19796059
29	0x3df5ec50	0.12007964
30	0x3e05792a	0.13034502
31	0x3e1da3f0	0.15394568
32	0xbddf89d1	-0.10914958
33	0x3dff0db9	0.12453789
34	0x3e16101c	0.14654583
35	0xbe5c0f14	-0.21490127
36	0x00000000	0.0
37	0x3e22e92e	0.15909263
38	0x00000000	0.0
39	0xbd159faa	-0.03652922
40	0xbdd348f5	-0.1031665
41	0x3debe2f2	0.11517896
42	0x3dc326de	0.09528898
43	0xbddb0ab6	-0.10695402
44	0x00000000	0.0
45	0xbe19c020	-0.15014696
46	0x3d2c0bfd	0.04200362
47	0xbd8a97c1	-0.06767226
48	0x00000000	0.0
49	0x00000000	0.0
50	0x80000000	-0.0
51	0x3e31d92d	0.17368002
52	0x3d310507	0.043217685
53	0x00000000	0.0
54	0x3dd3e873	0.103470705
55	0xbe1c25c6	-0.15248784
56	0xbdc61276	-0.0967149
57	0x80000000	-0.0
58	0xbd01ddd4	-0.031705692
59	0x3d38b47d	0.045094002
60	0x3e38b5a7	0.18038045
61	0x80000000	-0.0
62	0x00000000	0.0
63	0xbe0cb0db	-0.1373934
64	0x00000000	0.0
65	0x80000000	-0.0
66	0x00000000	0.0
67	0x00000000	0.0
68	0xbd364d7d	-0.044507492
69	0x3ce05234	0.027382948
70	0x00000000	0.0
71	0x3dfaf057	0.122528724
72	0xbe15ca0e	-0.14627859
73	0x3de28a57	0.110615425
74	0x80000000	-0.0
75	0x3e13c020	0.14428759
76	0xbe0909eb	-0.1338269
77	0xbce586d6	-0.028018396
78	0xbe161372	-0.14655855
79	0xbe3ee071	-0.18640305
80	0xbcece71c	-0.028918795
81	0x3e40631c	0.18787807
82	0xbe0999a0	-0.1343751
83	0x3dd24ed2	0.1026894
84	0xbd85923a	-0.06522031
85	0xbdc0440b	-0.09387978
86	0x3dddfd1b	0.10839292
87	0xbdd4ce80	-0.10390949
88	0x3e0780a2	0.13232663
89	0x80000000	-0.0
90	0x80000000	-0.0
91	0xbceafa3f	-0.02868378
92	0x00000000	0.0
93	0x80000000	-0.0
94	0x80000000	-0.0
95	0x80000000	-0.0
96	0x80000000	-0.0
97	0xbd66ff85	-0.056396026
98	0xbde09db7	-0.10967582
99	0xbd1f492f	-0.038888153
100	0x3db43731	0.087995894
101	0x3e27cbda	0.16386357
102	0xbe083ae4	-0.13303715
103	0x3e30a085	0.17248733
104	0x3cf4da5b	0.029889276
105	0xbd237823	-0.039909493
106	0xbd3da98e	-0.046304278
107	0xbe6acbf2	-0.22929361
108	0xbe3e6075	-0.18591483
109	0x3ddb3e1f	0.10705208
110	0xbcb4b650	-0.02205959
111	0x3e2fbda8	0.17162192
112	0x80000000	-0.0
113	0x3e168ce2	0.1470218
114	0xbdc0d9ea	-0.09416564
115	0x3daf8638	0.08570522
116	0x3dff006a	0.12451251
117	0xbe5f40f0	-0.21802115
118	0x00000000	0.0
119	0x00000000	0.0
120	0x3e227b4b	0.15867345
121	0x00000000	0.0
122	0x3e3b6f5f	0.18304203
123	0xbdb8437f	-0.08997249
124	0xbe202345	-0.15638454
125	0xbe1ad9bf	-0.15122126
126	0xbd902db7	-0.070399694
127	0xbdd7b8e8	-0.10533315
128	0xbe0b6dbc	-0.13616079
129	0x80000000	-0.0
130	0xbe49ece1	-0.19719268
131	0x00000000	0.0
132	0xbe509036	-0.20367512
133	0xbd1743f1	-0.03693003
134	0xbd3af72c	-0.045645878
135	0xbd3935c5	-0.045217294
136	0xbe3a2e69	-0.18181767
137	0x00000000	0.0
138	0x3e1f1147	0.15533935
139	0x3e1960b5	0.14978297
140	0x80000000	-0.0
141	0xbdd39260	-0.10330653
142	0x3df39868	0.118943036
143	0xbd39cf6c	-0.04536383
144	0x00000000	0.0
145	0xbd5326b1	-0.05155057
146	0x80000000	-0.0
147	0x3cabdb43	0.020978576
148	0x00000000	0.0
149	0xbe39021b	-0.1806721
150	0x3d421dfd	0.04739188
151	0x00000000	0.0
152	0xbe3a0d29	-0.18169083
153	0x3dc8a89c	0.09797785
154	0xbe32d46c	-0.17463845
155	0x3cc8d76a	0.02451678
156	0xbd0f7bd9	-0.03503022
157	0x3df1e7dc	0.11811802
158	0x3e1fd7d2	0.15609673
159	0xbde00846	-0.10939078
160	0x3d3d497f	0.04621267
161	0xbe225775	-0.15853675
162	0x80000000	-0.0
163	0x3dc5be3e	0.096554264
164	0xbe17b917	-0.148167
165	0xbdd5b16a	-0.1043423
166	0x3e4126f6	0.18862519
167	0x80000000	-0.0
168	0x3dd4b6c3	0.103864215
169	0x3dc81b77	0.097708635
170	0xbda6d4f8	-0.08146089
171	0x3dfe2695	0.12409703
172	0x3dd526bd	0.10407779
173	0x3dee4e0e	0.116359815
174	0x3daac85d	0.083389975
175	0x3da09e11	0.07842649
176	0x80000000	-0.0
177	0x3df2dfc5	0.11859087
178	0xbe06358c	-0.13106364
179	0x3e3c3c93	0.18382482
180	0x3e34ced1	0.17657019
181	0x00000000	0.0
182	0x80000000	-0.0
183	0xbe4bfee6	-0.19921455
184	0xbd8258f9	-0.063646264
185	0xbd2dab9d	-0.04239999
186	0x00000000	0.0
187	0x3e0b4180	0.13599205
188	0xbe1097fa	-0.14120474
189	0x3da22ac7	0.079183154
190	0x80000000	-0.0
191	0xbe44ffb1	-0.19238164
192	0xbe154ae6	-0.14579353
193	0x3d139322	0.03602899
194	0x80000000	-0.0
195	0xbd0f28a4	-0.034950867
196	0x3e3bdb32	0.18345335
197	0xbceb24fe	-0.028704163
198	0x80000000	-0.0
199	0xbe246cd9	-0.16057147
200	0xbdc3ecaf	-0.09566628
201	0x80000000	-0.0
202	0x3e31b0fd	0.17352672
203	0x80000000	-0.0
204	0xbe31d9b0	-0.17368197
205	0xbcae420d	-0.02127173
206	0x3ce45487	0.027872337
207	0xbe59d726	-0.21273479
208	0xbe5115c7	-0.20418464
209	0x00000000	0.0
210	0xbdfddb77	-0.12395375
211	0x00000000	0.0
212	0x00000000	0.0
213	0xbda709a9	-0.081561394
214	0x3de76417	0.112983875
215	0x3e40c8e5	0.18826635
216	0x00000000	0.0
217	0xbe60e4d6	-0.21962294
218	0x80000000	-0.0
219	0x80000000	-0.0
220	0x3d3643bb	0.044498187
221	0x3d7d604b	0.06185941
222	0x00000000	0.0
223	0xbde39177	-0.111117296
224	0x00000000	0.0
225	0x80000000	-0.0
226	0x3e2ff4b3	0.17183189
227	0x3d29db38	0.04146883
228	0xbe074a87	-0.13212024
229	0x80000000	-0.0
230	0x00000000	0.0
231	0xbd006bb6	-0.03135272
232	0x3e17af18	0.14812887
233	0xbe189c03	-0.14903264
234	0x80000000	-0.0
235	0x3e23e7bc	0.16006368
236	0xbd42228c	-0.047396228
237	0x3d31dafb	0.043421727
238	0xbcca6369	-0.024705606
239	0x00000000	0.0
240	0x3dbb4d08	0.09145552
241	0x3df29eab	0.1184667
242	0xbdfe770a	-0.12425049
243	0x3daa67ba	0.083205655
244	0x3def10e2	0.11673142
245	0x80000000	-0.0
246	0xbe0a1149	-0.13483156
247	0x3d32f33e	0.043689005
248	0x80000000	-0.0
249	0x80000000	-0.0
250	0x80000000	-0.0
251	0xbdd2c5da	-0.102916434
252	0xbe0794c9	-0.13240351
253	0x3cc7610a	0.024338264
254	0xbde0f07b	-0.10983368
255	0xbd04e642	-0.032446153
