figures/Illu_large_global_4/theta=0.1_s=0.05_step=100/best_model.pth (torch, 247654 bytes, 5 tensors)

bias f4 [200]
000000 27 77 c8 3f 4f 3b d7 bf 99 2a b3 3e 05 b0 2d 3f
       1.5661362 -1.6814975 0.34993437 0.6784671
000010 64 ee 3a bf af e5 13 3e f3 a9 19 bf 3e 0e 5e 3f
       -0.73020005 0.14443086 -0.60024947 0.8674048
000020 3e 3d 5d 3f 1a ed 58 3f 66 09 e0 3e 1a d3 9b 3e
       0.86421573 0.8473679 0.4375717 0.30434495
000030 68 e4 e0 be 8e 37 84 3f e2 38 ef 3e fb dc 1e 3f
       -0.4392426 1.0329454 0.46723086 0.6205594
000040 77 29 5a 3f 09 d6 8d bd 0e 69 37 bc 4e 0b 23 3f
       0.8521952 -0.069255896 -0.011194481 0.63689125
000050 68 c5 86 3f d3 6f 54 bf bc 96 74 bf 07 76 2c 3d
       1.0528994 -0.8298313 -0.955425 0.042104747
000060 bf 9d 3a 3f e3 e3 67 bf ad 98 4f 3f 36 3a 5a bf
       0.7289695 -0.905821 0.8109234 -0.8524507
000070 ad e3 08 3f be 66 61 3f ef c8 93 be c3 1d 04 be
       0.53472406 0.880474 -0.28864238 -0.12901978
000080 4e d5 fd 3e 77 ce 70 3f e3 19 84 3f e0 85 d4 3e
       0.495768 0.9406504 1.03204 0.4150839
000090 fb 2d 84 bb 8a 0c 46 bf 12 4c e5 be bc 9d af 3f
       -0.0040338016 -0.77362883 -0.447846 1.3720012
0000a0 b6 43 fb be 32 5d 3a 3f 3f 38 8b be 9f 92 dd 3e
       -0.49075097 0.72798455 -0.2719135 0.43275926
0000b0 70 25 19 3f d6 e9 68 3f 36 a5 b3 be 19 b7 d7 be
       0.5982275 0.90981805 -0.35086983 -0.4213188
0000c0 2e ca 54 bf 1e 3c 30 3f 35 87 fc be 57 a7 7f 3f
       -0.83121 0.6884173 -0.49321905 0.99864715
0000d0 62 93 43 bf d4 c1 e6 be 41 44 52 bf 93 ca 02 bf
       -0.76396763 -0.45069754 -0.821354 -0.51090354
0000e0 e0 53 4c 3f a7 5a 0f 3f 8a 60 fd be 06 db dc be
       0.79815483 0.559977 -0.49487716 -0.43135852
0000f0 56 0f 71 3f 5b 70 9a 3e fa df e1 3e e8 c8 8b 3f
       0.94164026 0.30163845 0.44116193 1.0920687
000100 4d 22 7c 3f 9e f7 5c 3d da 93 3b 3f 4e 51 10 3f
       0.9848984 0.053947084 0.7327248 0.5637406
000110 df a1 8e bf 49 f6 68 3f b4 49 97 bd df 93 ed be
       -1.1143149 0.910008 -0.07387105 -0.4640188
000120 4d 50 69 3f 6d 84 45 3f 02 83 04 3f fa 55 2d bc
       0.91138154 0.7715519 0.517624 -0.01057958
000130 3e 42 3e 3f 12 a5 0a 3f 70 00 26 3f f3 46 4f 3f
       0.7431983 0.5415813 0.6484442 0.80967635
000140 1d 84 24 bf 42 6d 6f 3f 62 d7 ee be d2 13 a4 3e
       -0.6426409 0.9352609 -0.466487 0.32046372
000150 15 61 b1 3e d3 8b 99 bf 21 b2 57 bf a9 97 f7 bc
       0.3464438 -1.1995796 -0.8425618 -0.030223684
000160 2a e1 47 be 13 c6 1a 3f d6 33 15 bf c9 94 6e 3f
       -0.19519487 0.6045849 -0.5828222 0.9319578
000170 4d 10 d4 bd 21 5a d6 3f 98 58 61 3f 1a d7 6f 3f
       -0.103546716 1.6746255 0.8802581 0.93687594
000180 5b ff 36 bf 27 4a 49 3f fe f9 39 3f fe d9 50 bf
       -0.7148339 0.7862877 0.7264708 -0.8158263
000190 2b 78 35 3f b8 86 84 3f 74 ba c8 3e c7 1d 5a 3f
       0.70886487 1.0353613 0.39204752 0.85201687
0001a0 42 f1 f5 bd 97 a3 b9 3e 42 42 1c bf c3 a7 61 3f
       -0.12008907 0.36257622 -0.610386 0.8814661
0001b0 6d 03 4e 3f 00 58 17 bf f4 3c 20 be ee 77 97 bf
       0.8047398 -0.5911865 -0.15648252 -1.1833475
0001c0 55 d6 da be 28 5a 02 3f 9b a6 67 bf 73 21 e9 3e
       -0.42741647 0.5091882 -0.90488595 0.45533332
0001d0 3b 34 ad bf 7e 0e 80 3f 79 38 4d 3f d7 bb 80 bb
       -1.3531564 1.0004423 0.80164295 -0.0039286423
0001e0 6d 4a 6d 3f af 3f ab 3f 03 0d 44 bd ef a6 9b bf
       0.9269169 1.337881 -0.04786397 -1.2160319
0001f0 4a 33 16 bf 12 d7 b6 3e 94 db 01 3f 6a f4 24 bf
       -0.5867201 0.3571096 0.50725675 -0.64435446
000200 15 7f 3e be 7e 81 a3 3f e7 a6 9c 3e 7b b4 5b 3f
       -0.18603165 1.2773893 0.30596086 0.85822266
000210 3b c3 b9 3f 9e 32 69 3f 29 e2 61 3f d4 a6 7f 3f
       1.4512705 0.9109286 0.8823572 0.99863935
000220 5f 5d b7 be e6 78 3a bf 80 4d a4 be 12 b1 28 3f
       -0.35813424 -0.72840726 -0.32090378 0.6589519
000230 8b aa 81 3e 83 c9 e5 3e 9e 39 48 bf 3f e9 45 bf
       0.25325426 0.44880304 -0.78212917 -0.7730903
000240 6a ce 44 be b2 e7 5e 3f 2c 0e 95 bf 35 e2 25 3f
       -0.19219366 0.8707229 -1.164495 0.6479829
000250 6d 5a 43 3f a0 01 60 bf 50 7f 84 3f 38 5e 28 bf
       0.76309854 -0.8750248 1.0351353 -0.65768766
000260 05 30 15 3f 31 13 62 3d 51 e8 42 bf 07 3f 3d be
       0.58276397 0.055194084 -0.76135737 -0.18481074
000270 6c 26 15 3f 03 ef 1a bf 27 3b 54 3f 2d 8c b2 be
       0.5826175 -0.6052095 0.8290276 -0.3487257
000280 2e 56 e4 be 07 4f 15 bf 70 82 64 bf 42 fc af bf
       -0.44597 -0.5832371 -0.8926153 -1.3748858
000290 77 38 98 3e 32 d9 82 3f 90 9c 16 3f 5f 8b 70 3f
       0.2973058 1.0222533 0.58832645 0.93962663
0002a0 2d b1 e9 be 03 2e 4e bf 13 f0 65 3f 51 85 9d 3e
       -0.45642987 -0.8053896 0.8981945 0.30765775
0002b0 e6 cc 53 3f be dd 3d 3f cb ea cb 3e 18 66 2a bf
       0.82734525 0.74166477 0.3982757 -0.6656203
0002c0 ea 34 91 3f 7c 3a ba 3d 4d bd 31 3f d7 14 43 3f
       1.1344273 0.09093186 0.69429475 0.76203674
0002d0 07 7d 12 bf 61 39 15 3c 07 8f 39 3f 1c 29 31 bf
       -0.57222027 0.0091079185 0.7248387 -0.6920335
0002e0 8a 3f c7 be 38 36 88 3f 8b 73 04 bf 26 23 66 be
       -0.38915664 1.0641546 -0.51738805 -0.22474346
0002f0 20 81 4d 3e d5 7b 81 3f 03 c4 6e 3f 3b 8a 7c 3f
       0.20068789 1.0115916 0.9326784 0.9864842
000300 28 de 40 be 8e f2 92 3e 60 c4 53 3f 7f f3 0e 3e
       -0.18834746 0.2870068 0.8272152 0.13960074
000310 f2 6a 2f bf 6d a5 8d 3f 23 8c db bd 36 4d 11 3f
       -0.6852256 1.1066109 -0.10720088 0.5675844

weight f4 [200, 1]
000000 be de 34 3f 63 ea b2 3f 83 4d 75 bf a0 8f 83 bf
       0.7065238 1.3977779 -0.958214 -1.0278206
000010 2a 57 b7 bf 4e 66 b8 bf f7 a2 9e 3f ee 7d 85 3f
       -1.4323475 -1.4406221 1.2393483 1.0429056
000020 ca 4a 8a 3f 7e f8 a7 3f 38 ff 5b bf ba e1 30 bf
       1.0804074 1.3122709 -0.8593631 -0.6909443
000030 74 bd 95 3f cb 72 8d bf c6 1f 8c 3f a2 17 84 3f
       1.1698442 -1.1050657 1.0947196 1.0319712
000040 e4 7d 94 3f a2 0d 57 bf 09 4d 1d bf 0c 45 90 bf
       1.1600919 -0.8400518 -0.6144567 -1.1271071
000050 50 3e 8c bf a9 5b e9 bf 8e fc a1 3f b1 57 f8 3f
       -1.0956516 -1.8231097 1.2655199 1.9401761
000060 f3 d8 9f 3f a3 0c fb be 6b 11 1f 3f 03 90 e8 3e
       1.2488083 -0.4903308 0.6213595 0.45422372
000070 4f 22 a8 3f b1 46 e3 be 44 fb 94 3f 94 9b 83 3f
       1.313547 -0.4438987 1.163918 1.0281854
000080 2e 67 64 bf e2 2e 9a 3f 9f 79 8f 3f 90 0c 3c bf
       -0.8921994 1.2045557 1.1208991 -0.7345667
000090 38 9e 24 bf 4a 4c 9c 3f cb 8b 91 3f ae 66 08 3f
       -0.6430392 1.2210782 1.1370786 0.53281677
0000a0 c8 d1 09 40 f3 98 98 3f cb f5 85 3f aa ff 70 bf
       2.153429 1.1921676 1.0465635 -0.9414011
0000b0 3b bc 80 bf a8 37 9f 3f 76 ac 90 3f ce 4b d3 be
       -1.0057443 1.243886 1.1302631 -0.41268772
0000c0 ce 03 fe be 2e 5c c7 3f 92 41 7d bf d4 70 4d 3f
       -0.49612278 1.5575006 -0.9892818 0.8025029
0000d0 37 3d 97 3f ce 29 a9 bf 98 78 a9 bf a1 38 01 40
       1.1815556 -1.3215883 -1.3239927 2.0190814
0000e0 c6 84 8d 3f 74 40 a8 3f da 86 97 3f 51 9f 8e 3f
       1.1056144 1.314467 1.1838028 1.114237
0000f0 03 8a 92 bf ac a3 8a 3f c9 20 9b bf 09 e7 9b 3f
       -1.1448368 1.0831199 -1.211938 1.2179881
000100 3f fa e5 be d7 47 67 3f 26 1e 7d 3f 21 d1 40 bf
       -0.44917485 0.90343994 0.9887413 -0.75319105
000110 2e 62 a2 3f c2 10 99 3f 14 a1 92 3e 19 90 ba bf
       1.2686212 1.1958239 0.28638518 -1.4575225
000120 ed c4 47 bf 91 4c aa bf 53 25 42 bf b9 a0 ab 3f
       -0.7803486 -1.3304616 -0.758382 1.3408424
000130 e9 7e 92 3f 4b 13 85 3f 71 a1 70 bf a3 d8 8e bf
       1.144498 1.0396513 -0.9399634 -1.1159862
000140 ba d9 cc 3e 2a 10 a2 3f 70 6f 0e 40 c0 49 7e bf
       0.40009862 1.2661183 2.2255516 -0.99331284
000150 32 f3 a4 be 1e 3c a5 3f 99 be 9b 3f 96 54 74 3f
       -0.32216793 1.2908971 1.2167541 0.9544157
000160 3a fb 77 bf a6 01 8f bf 5a dc 0b 40 5f e2 92 3f
       -0.96867716 -1.1172378 2.1853242 1.1475333
000170 41 ec 4c 3f da 3f 7a 3f 4c 88 9d 3f a4 13 46 bf
       0.80047995 0.9775368 1.230722 -0.7737372
000180 a4 1e b8 bf 36 1a b2 3f a7 09 ae 3f b1 ac 9e bf
       -1.4384351 1.3914249 1.3596696 -1.2396451
000190 e7 b9 7f bf 98 b0 9f 3f 39 f4 8d 3f 24 c4 79 3e
       -0.9989304 1.2475767 1.1090156 0.24391228
0001a0 b9 d7 18 bf dd 75 8c 3f 4f 14 e7 bf 3a 1a 52 bf
       -0.59704167 1.0973469 -1.8053073 -0.8207127
0001b0 75 42 dc be a0 55 dc be c8 05 79 3f 6e 99 00 3f
       -0.43019453 -0.43034077 0.97274446 0.50234115
0001c0 91 91 98 bf f9 1f 7f bf 47 9d 9e bf 92 9a 8a 3f
       -1.1919423 -0.9965816 -1.2391747 1.0828421
0001d0 7c b1 0a bf 00 b5 68 bf 21 06 8b 3f fe 5a 75 3f
       -0.5417707 -0.90901184 1.0861245 0.9584197
0001e0 a3 a3 f2 3e f5 81 4c bf ab 85 ba 3f ae a3 00 3f
       0.4739047 -0.798858 1.4572042 0.50249755
0001f0 f3 d4 fe 3f 3b 6e 16 bf 4a 03 81 bf 21 69 9a 3f
       1.9908737 -0.5876195 -1.0079129 1.2063333
000200 a9 46 17 bf 2a 95 68 3f 22 e9 4b 3f 83 88 a0 3f
       -0.59092194 0.90852606 0.7965261 1.254166
000210 37 13 8c bf 60 05 e0 be a2 aa db 3f 5b 91 eb be
       -1.0943364 -0.437541 1.7161448 -0.46009335
000220 6c 81 8c 3f 82 a3 ea be 60 d6 89 3f 5f 01 4d bf
       1.0976996 -0.45827872 1.0768547 -0.8008022
000230 4c 00 53 bf 2c da 8b 3f f6 cb ab bf 26 e3 00 40
       -0.8242233 1.0925956 -1.3421619 2.013864
000240 a7 58 8f 3f 7d 71 c1 3f b3 52 a5 3f e6 15 83 bf
       1.119893 1.5112759 1.2915863 -1.0241058
000250 c2 58 a5 3f 15 0c 08 40 c6 45 40 bf 98 b0 d7 3e
       1.2917712 2.1257374 -0.75106466 0.42126918
000260 fc ab 88 bf 9f 37 75 3f 77 47 ee bf 71 60 1d bf
       -1.0677485 0.95787996 -1.8615559 -0.6147528
000270 02 e1 87 bf ec 84 95 3f 08 b8 d3 be 2f 0b 17 40
       -1.0615542 1.168119 -0.41351342 2.3600576
000280 6d 29 88 bf 71 53 71 bf 94 d5 a1 bf d8 d7 08 3f
       -1.0637642 -0.94267946 -1.2643304 0.5345435
000290 81 94 6f bf da 55 88 bf c4 7b 8d 3f 1b 36 9f 3f
       -0.93585974 -1.06512 1.1053395 1.2438387
0002a0 71 5d 81 bf 4c 8a ad bf a6 01 a8 3f b2 20 88 3f
       -1.0106641 -1.355783 1.3125503 1.0634978
0002b0 07 b0 99 3f 59 b8 d0 bf 03 0d 76 bf b4 f1 97 bf
       1.2006844 -1.6306258 -0.96113604 -1.1870637
0002c0 c3 da 98 3f b1 ab 83 3f d0 e4 33 bf 94 e5 9e 3f
       1.1941761 1.0286771 -0.70271015 1.2413812
0002d0 93 81 03 40 03 07 96 be f8 7e 8b bf 98 08 ee be
       2.0547836 -0.29302225 -1.0898123 -0.46490932
0002e0 d4 e5 2e bf 90 71 3b bf 03 23 c1 3e 8e 63 a7 be
       -0.6831944 -0.7322016 0.37722024 -0.32693142
0002f0 ea 79 7f 3f 3c 6f 90 bf 01 c4 79 bf 56 58 64 3f
       0.997954 -1.1283946 -0.97564703 0.8919729
000300 14 dc a3 3f 7c 2e 7d bf a8 66 da be f9 e6 71 3f
       1.2801538 -0.98899055 -0.42656446 0.9449306
000310 73 d7 e6 be e9 f1 fe 3e 1f 11 83 3f cc 0a 9c bf
       -0.4508625 0.49793938 1.02396 -1.2190795

bias f4 [300]
000000 25 b4 4d bd fc 9a 31 3d 5b e7 3d 3d b2 2f af bc
       -0.050220627 0.043360695 0.046363216 -0.021385048
000010 39 c8 3e bc ea b8 27 bc bb cf 51 bd bd 50 2b bd
       -0.0116444165 -0.010236958 -0.051223498 -0.041825045
000020 67 31 77 3b 10 9f 49 bc 51 06 25 3d f7 04 3a 3c
       0.0037718655 -0.01230599 0.040289227 0.011353723
000030 9f 77 1a 3c 68 5f 90 3c f5 a0 3c 3d 15 99 52 b9
       0.009427934 0.017623618 0.046051938 -0.00020084188
000040 56 71 a9 3c 7d b3 4e bc d8 e6 1a 3d 10 81 a0 3a
       0.020683926 -0.0126160355 0.037817806 0.0012245495
000050 02 4d 56 bd 7d ac a3 bd 56 49 92 3c 4e 6f 9d 3c
       -0.052319534 -0.07991884 0.017857235 0.019218113
000060 2b 81 2d bc 2f b0 c8 bc 7f 66 1f bd f4 1e 5c 3d
       -0.010589878 -0.024498073 -0.038916107 0.053740457
000070 80 4e d6 be 41 23 b1 bd f8 c2 b6 bd b0 be 5c 3c
       -0.41856766 -0.08649302 -0.08923906 0.013473198
000080 74 1f 73 bd 6c cf a5 3d b8 8d f4 bc 01 20 4d 3b
       -0.059356168 0.08096203 -0.029852733 0.0031299593
000090 af 03 75 bd 85 52 44 bd 96 c6 3f bd 48 69 71 3c
       -0.059817966 -0.04793026 -0.046820246 0.014734574
0000a0 ce 17 8d 3c 1b cc 70 bd ee 6d 26 3d 73 d1 08 3d
       0.017223265 -0.0587884 0.04063218 0.03340287
0000b0 00 33 95 bd 4f 97 29 3d 32 13 26 bd fb 1d b6 bc
       -0.07285118 0.041404065 -0.04054565 -0.022231093
0000c0 23 d0 98 bd 3a 38 a4 bc 2d 4a 61 bd fd aa 1c 3d
       -0.07461574 -0.020046342 -0.05500238 0.038249005
0000d0 90 44 6a 3c 74 7d 76 bd e8 6e 9d bc 93 fa b1 bc
       0.014298573 -0.060178235 -0.019217923 -0.021725928
0000e0 9b ea 28 bc 2c 7b 91 bd c6 9d 8d bc 7d 0c 34 3d
       -0.010309841 -0.07103571 -0.017287146 0.043957222
0000f0 2f 87 52 3d f7 a0 c0 bc 28 64 ab bc 52 2d 9c 3d
       0.051398452 -0.023514254 -0.020921782 0.07625832
000100 98 9c 37 3d da 87 1c bd fc 48 51 3d c5 a0 72 3b
       0.044827074 -0.038215496 0.051094994 0.0037022096
000110 1c 6a 1f 3c 0d 8b 5c bc e5 e2 25 bd e0 cd c3 3c
       0.009729888 -0.013460887 -0.040499587 0.02390188
000120 57 a1 0f 3d 47 cd 03 bc 72 6d 71 3d 69 5d d3 bc
       0.035065975 -0.008044547 0.058942266 -0.025801377
000130 9d 80 e1 b7 40 90 57 3a f6 62 2c bd 7a 63 94 bd
       -2.688198e-05 0.0008223094 -0.042086564 -0.07245536
000140 b7 6a 72 3d 24 bd 65 bd 7b ba 58 3d 06 6f 3f bd
       0.059183802 -0.05608858 0.052912217 -0.04673674
000150 73 fa 2d 3b dc a4 4c 3d aa b8 57 bd bd f8 a6 3c
       0.0026546984 0.04996191 -0.052666344 0.02038228
000160 89 fb 2b 3d 70 55 4b 3c e1 b8 09 bd 63 84 47 bd
       0.04198793 0.012410507 -0.03362358 -0.04871024
000170 66 d7 f1 bb a3 2a b8 bc 1b 74 83 bd cc cd 2a bd
       -0.007380414 -0.022481268 -0.0641863 -0.04170017
000180 50 9b 92 be 08 bc f8 bc 18 52 bb bc fd 45 f7 3c
       -0.2863412 -0.030363098 -0.022866294 0.03018474
000190 c3 e5 2b 3d 25 4a e9 3b d5 7b f7 bc 43 f5 a5 bd
       0.041967165 0.0071194344 -0.030210415 -0.081034206
0001a0 3f 56 ce bd e0 6c 88 bd 22 d5 a9 bc f7 6c 17 bd
       -0.10075044 -0.06661391 -0.020731512 -0.03696915
0001b0 a3 34 05 3d 91 38 ac bc 3c fc 69 bd 05 a4 26 3c
       0.0325209 -0.021023067 -0.057125315 0.010170941
0001c0 31 c4 92 bd b6 5a 77 bd 44 a9 ad bc 10 f6 ee 3c
       -0.07166327 -0.060389243 -0.021198876 0.029170066
0001d0 71 d5 9a 3b ab dd 26 be 2a 1f 3f bd 2b 58 da bd
       0.004725151 -0.16295497 -0.04666058 -0.10661348
0001e0 c1 63 71 bd fb 0d 97 3c 9a d0 0e bd 3e 51 a9 bd
       -0.058933023 0.018439284 -0.034866907 -0.08267449
0001f0 0a 71 c1 3c 73 da f3 3c 05 8a 34 bd 60 f8 36 bd
       0.023613472 0.02976725 -0.04407694 -0.044670463
000200 d9 c6 b8 bc dd 91 1a 3d f3 69 80 bb 52 f1 19 3d
       -0.022555755 0.037736762 -0.00391888 0.037583657
000210 01 56 96 bd f0 71 8b 3b cd 05 75 bd 9c a8 81 3b
       -0.07340623 0.004255526 -0.059819985 0.0039568674
000220 c1 80 37 3d f6 57 10 bd e6 be d2 bc 58 c0 19 bc
       0.044800524 -0.035240136 -0.025725793 -0.009384237
000230 89 d6 69 bd a2 c9 0a 3d 84 c1 6d bc 18 9f cc 3e
       -0.057089362 0.0338837 -0.01451147 0.3996513
000240 a9 13 99 bd cc fd 40 3d cf 47 03 3d 37 6c d2 bc
       -0.07474453 0.04711704 0.032050904 -0.025686366
000250 b0 6f 40 3d 2f 39 32 3c 2c 46 aa bd fd 3f 93 bd
       0.046981514 0.010877891 -0.083141655 -0.07189939
000260 15 cb 33 3d 8c a2 13 3d df 2d 6b bc d4 2f 9a bb
       0.043894846 0.03604369 -0.014354198 -0.0047054086
000270 3d d8 87 bc 23 03 a2 bd 51 a1 7f 3c 21 3f 0e bc
       -0.016582603 -0.079107545 0.015602426 -0.008682043
000280 21 54 1f bd 34 0a 1c bd 5d 4a b4 bb 85 dd 00 bd
       -0.03889859 -0.038095668 -0.005502029 -0.031461257
000290 89 99 af bc 03 ac 84 bc 65 39 36 bc c6 84 d7 3b
       -0.021435516 -0.016195303 -0.011122082 0.006577107
0002a0 bd ae 72 bd 97 a2 7e bd 48 eb d7 bc b1 45 97 3d
       -0.059248675 -0.062166777 -0.026357308 0.073863395
0002b0 c4 c8 34 bd 74 bc 18 3d e1 3a 83 bd 71 d8 cb bc
       -0.044136778 0.037289098 -0.06407715 -0.02488348
0002c0 a7 78 d4 be 36 4a 48 bc 74 d5 fd 3c 96 c1 3f bc
       -0.414983 -0.0122247245 0.030985571 -0.011703869
0002d0 d2 22 47 bd 8b 81 8b bc a9 a8 4f bd da 8c 8b 3c
       -0.04861719 -0.017029544 -0.050697956 0.017034937
0002e0 44 31 02 3c 52 9a e1 bc bd 04 52 bd aa aa b0 bc
       0.007946316 -0.027539406 -0.05127405 -0.021565754
0002f0 39 8b 90 bd e4 e2 1e bd 4c 91 0f be fb 19 38 3d
       -0.070578046 -0.0387906 -0.1402027 0.044946652
000300 ab 35 97 bd 67 98 5d 3d 1a 64 51 bd 15 c4 4d 3c
       -0.07383283 0.05410042 -0.051120855 0.012558957
000310 55 84 03 be 35 23 fd 3c 1f d4 64 3d 79 d8 a5 3b
       -0.1284345 0.030900577 0.055866357 0.005061206
000320 91 64 c1 3c b0 79 95 bd 47 e8 4d bd 43 ce 23 bd
       0.023607524 -0.07298601 -0.050270345 -0.03999163
000330 3f de f2 3c ab 27 2e 3d b7 e3 2f 3d 1a 95 00 3d
       0.02964699 0.0425183 0.042941775 0.031392194
000340 3d 7b a4 bd c8 59 1f 3d ca 91 ea 3b 8e bf 66 3d
       -0.08031318 0.03890398 0.0071584927 0.056335025
000350 63 bb 36 3c 4e 69 75 bd 44 04 46 3d 78 e8 3f 3d
       0.011153075 -0.05991488 0.04834391 0.04685256
000360 b9 cc ea bc f8 1a 67 3d 41 9a 5b bd 19 63 f7 bc
       -0.028662072 0.056422204 -0.053613905 -0.03019862
000370 0b d9 e8 bc da 81 03 3c 8b 3f 5f 3d ea 3d 32 3b
       -0.028423807 0.0080265645 0.05450396 0.0027197548
000380 a2 f0 1d bb ea c7 63 bd 0d 42 3f bd ea db bc bc
       -0.0024099727 -0.055610575 -0.04669385 -0.023054082
000390 a4 1f 83 be b8 77 9b 3d e2 f3 15 3d 11 01 9c bc
       -0.25610077 0.07591194 0.036609538 -0.019043477
0003a0 47 f9 d0 bd e8 e3 3e bd 74 65 3e bd 2f 6a 72 bd
       -0.10203796 -0.046604067 -0.046483472 -0.059183296
0003b0 e0 0e 8d bd 13 75 54 bd e1 df 92 bd b8 b4 38 bc
       -0.06887603 -0.051869463 -0.07171608 -0.011273555
0003c0 75 75 94 bd e2 5a 4b bd a3 9d 3b 3d 12 19 18 3d
       -0.07248966 -0.04964722 0.04580463 0.037133284
0003d0 14 7b 73 3d b4 77 7f bb 60 3d 08 bd 93 86 2d 3d
       0.05944355 -0.003898126 -0.033261657 0.042364668
0003e0 4b 9b ae bd 21 50 65 bd 2e 2b f8 3c 61 9a af 3c
       -0.085257135 -0.05598462 0.030294027 0.021435918
0003f0 e2 6a e6 bc c7 37 1f bd 5c ac 03 3d a9 10 81 3b
       -0.028127138 -0.038871553 0.032146797 0.0039387536

weight f4 [300, 200]
000000 90 e0 89 bd e4 26 86 bd d5 c2 cb bd 32 a6 03 be
       -0.06732285 -0.065503865 -0.09949271 -0.12856367
000010 98 98 10 be 5a f1 26 be 3e 69 87 3c a1 14 53 3d
       -0.1412071 -0.16303006 0.016529676 0.051533345
000020 97 74 af 3c ec d5 20 3e 78 d2 cd bd 6c 71 fe bd
       0.021417899 0.15706605 -0.10049909 -0.12423977
000030 4d 21 9e 3c 1a 64 54 bd 71 8f 5c 3d 1b 42 34 bd
       0.019302988 -0.051853277 0.053847734 -0.044008356
000040 f4 92 06 bd 6e 50 f1 bd 6e 65 04 be 71 b2 77 bd
       -0.03285499 -0.11782919 -0.12929317 -0.06047291
000050 22 36 8f 3c 46 c1 7a bd cc bd 6e 3d 11 45 6a 3d
       0.017481867 -0.061219476 0.058286473 0.057194773
000060 ed 3f 15 3e fb 9f 48 3c 73 06 19 bd 29 7d c0 bc
       0.14575167 0.012245174 -0.037359666 -0.023497181
000070 60 b8 fe 3c ff 3a ff bd f6 4f 43 3d a4 0c 72 3d
       0.031093776 -0.124624245 0.04768368 0.059094086
000080 e9 17 8a bd ab 63 6e bc d3 a7 a1 3d 97 d8 33 be
       -0.06742842 -0.01455013 0.07893338 -0.17563091
000090 0e 71 06 be 8d e5 65 bc 49 b8 90 3d bb f8 21 3d
       -0.13129064 -0.01403178 0.070663996 0.03954385
0000a0 d8 96 7e 3d 08 f8 ea 3d 5f fe b5 3c c1 e1 e9 bd
       0.062155575 0.114730895 0.02221602 -0.11420012
0000b0 f8 38 dd bb 8e c8 24 3e 3c c7 d1 3c 4c 40 4e bd
       -0.006751176 0.1609213 0.025607698 -0.050354287
0000c0 2a ff f1 bd 19 b8 1d 3e 47 8a 06 be 83 5d a5 3d
       -0.11816247 0.15402259 -0.13138686 0.080744766
0000d0 37 57 a1 bb 62 94 a7 bd 6d 7c 01 be 93 af 23 3d
       -0.004923727 -0.08182599 -0.12645121 0.039962362
0000e0 71 87 27 bd 52 7f f8 3d d8 2d f8 3c 9a bd a6 3d
       -0.04090065 0.121336594 0.030295298 0.081416324
0000f0 c2 22 7a bc 92 ad 9a 3d e3 38 ef bc 40 1f 0c 3d
       -0.015267076 0.07552637 -0.02920193 0.03420949
000100 3f 85 ee bc d3 14 e0 3d e7 76 75 bc 86 83 fb bd
       -0.029116271 0.10941472 -0.014981962 -0.122809455
000110 29 fb 4e bd 45 e7 0d 3c e7 38 63 3d 68 6b 63 be
       -0.050532494 0.008661096 0.05547419 -0.22208941
000120 c4 b6 e7 bc 13 fa b5 bd ad f4 27 be 6c 28 bc 3a
       -0.028285392 -0.088855885 -0.1640193 0.0014355308
000130 c8 4a cd 3d 54 cc a6 3c 82 5c b0 bc 6a b9 d9 3c
       0.10024029 0.020361103 -0.021528486 0.02657767
000140 8c 6d bb 3b bd bf e6 3d 58 de fb bb 3e 30 06 be
       0.005719846 0.1126704 -0.0076864175 -0.1310434
000150 be dc 02 bc a2 39 5f bd a3 45 5e bd b9 8a 8c 3c
       -0.007987199 -0.054498322 -0.05426563 0.017155992
000160 17 48 2e be ed 7f af 3c 85 a7 4a bd c2 8b 27 3c
       -0.17019688 0.021423304 -0.049476165 0.010226192
000170 93 72 98 3c 2e 76 9a 3d 9a 39 01 3e a2 94 0b be
       0.01860932 0.07542072 0.1261963 -0.13630918
000180 64 15 68 be c1 1d 98 bc 79 c8 69 3d a6 46 29 be
       -0.2266441 -0.018568875 0.05707595 -0.16530856
000190 d9 8a 45 bd 63 81 06 3e 88 e2 66 3d 53 f9 f1 3c
       -0.04822812 0.13135295 0.05636838 0.029537832
0001a0 15 73 bc bd ef 04 ac bc e7 47 4b be 76 76 0a bd
       -0.09201638 -0.020998446 -0.19851647 -0.03380438
0001b0 39 65 88 bb dc 18 f4 bc 84 e7 4c bc 32 a6 7d bb
       -0.0041624573 -0.02979701 -0.0125063695 -0.0038703796
0001c0 49 95 44 be 53 0a d5 bd d6 c5 82 bc b8 fe 99 3d
       -0.19197573 -0.1040236 -0.015963476 0.07519287
0001d0 8d b5 5f bb b7 6e bc bd 52 a5 61 bd 4d 5d 19 3d
       -0.0034135312 -0.09200805 -0.055089302 0.037442494
0001e0 a0 5d 4b bc 6a b4 2e be b3 b3 3f bd 3f 34 4d 3d
       -0.012412459 -0.1706101 -0.046802234 0.050098654
0001f0 68 66 e3 3c 8d a6 e3 bb 9d f4 30 bd f6 f0 49 3d
       0.027758792 -0.0069473446 -0.04320203 0.049302064
000200 e7 ee 7c bd 8f 49 74 3d f7 f6 c9 bd 45 c5 9c 3d
       -0.061751273 0.059640463 -0.09861558 0.07654814
000210 07 28 d3 bc dd 74 f5 bc c1 8d 96 3d 20 8a 53 bc
       -0.025775922 -0.029962951 0.07351256 -0.01291135
000220 7b a4 87 3d 1d 87 1e bd ff 23 aa 3d 7d 9e d2 bd
       0.06623169 -0.038703073 0.08307647 -0.102841355
000230 c0 95 e7 bc b8 60 49 3d f1 7c f4 bd f9 51 b9 3d
       -0.028269649 0.049164504 -0.11937893 0.09048838
000240 2e 47 29 3d 59 d6 a9 3d 98 7c 01 3d 48 95 22 3c
       0.041327648 0.08292837 0.031612962 0.009923287
000250 1c 18 26 bd c3 6f 62 3d 81 1e e7 bc 65 54 5e 3d
       -0.040550336 0.055282366 -0.028212788 0.054279704
000260 2a ba 8b bc cf b7 6d bd b3 34 87 bd f4 0a 6d bd
       -0.017056543 -0.05803662 -0.066018485 -0.057871774
000270 06 b6 ea bd cf a2 25 3d d6 86 e5 bc 84 4e dc 3c
       -0.114604995 0.04043847 -0.028018396 0.026892908
000280 af f4 c0 bd cf 83 c1 bd 1f 72 04 be e2 5a 25 3d
       -0.0942167 -0.094489686 -0.12934159 0.040369876
000290 1a fc a6 bd 8d 0c 83 3c ec 1c 07 3d 3b ed 7c 3d
       -0.08153553 0.015997196 0.032986566 0.061749678
0002a0 67 6f 86 bd ce a1 35 be 0c f5 0e 3e 3a 32 27 3d
       -0.06564217 -0.17737505 0.13960665 0.040819384
0002b0 0b 82 af 3d 50 17 05 3c 29 a6 52 3c 77 52 9f bd
       0.085697256 0.008123234 0.0128569985 -0.07779401
0002c0 51 d9 20 bc 86 cc 95 bd de 17 05 be 3b 93 11 3e
       -0.009817437 -0.073144004 -0.12997386 0.1421632
0002d0 1c 67 ed bb 24 a0 90 bd 31 f2 86 3b 41 61 03 be
       -0.0072449576 -0.070617944 0.004118227 -0.12830068
0002e0 0a e0 84 bc 4b 28 ed bd a6 fe e4 3c d7 7b 0b be
       -0.016220111 -0.11579951 0.027953457 -0.1362146
0002f0 01 a0 e1 3c 6f c5 f5 bc 9f 70 84 bd 93 3c ac 3d
       0.027542116 -0.03000137 -0.06466793 0.08409991
000300 39 d4 a5 3d f1 36 a5 bd c9 9b df bc 3e 2c 20 bd
       0.08097119 -0.0806712 -0.027295964 -0.039104693
000310 4d ab 84 bc 7c 12 41 3d f8 57 90 3d 36 d7 35 bc
       -0.016194964 0.04713677 0.07048029 -0.011098674
000320 cf 43 18 bd 21 0f 1d 3e 9c 0c 4a bb 7b fb 9e bd
       -0.037174042 0.15337802 -0.003083027 -0.0776281
000330 f2 25 2e bd 0c 9b 30 3d fb 64 a4 3d 69 9b 29 3b
       -0.042516656 0.043116614 0.08027073 0.0025879985
000340 e8 30 4f bd 07 a6 1f bd 39 02 00 3d 00 00 00 80
       -0.05058375 -0.038976695 0.03125212 -0.0
000350 92 2e 8d 3c 13 de 7e 3c 1c f2 64 bd 01 d6 06 bd
       0.01723412 0.015555876 -0.055894956 -0.032918934
000360 9c aa 48 ba 3d 02 99 bd ab 7b bd 3c 97 8a 1a bd
       -0.00076548173 -0.0747113 0.023130259 -0.037729826
000370 2d e8 38 3c 59 f1 29 bd 01 dd 24 3d c8 16 b7 3c
       0.011285824 -0.041489933 0.04024983 0.02234973
000380 ba c6 c3 bd 17 d8 d2 bd 91 40 10 3d 44 b0 03 be
       -0.095593885 -0.10295122 0.035217825 -0.12860209
000390 26 c3 58 3d ec b4 87 3d 4f 2a 53 bd 5a cd 41 bd
       0.052920483 0.06626305 -0.05155402 -0.04731498
0003a0 73 01 30 bb 00 00 00 00 b2 a3 3a 3d e0 54 96 3c
       -0.0026856333 0.0 0.04556627 0.018351018
0003b0 72 31 41 bd 54 cc 60 3c 43 ba 40 bd c3 49 ac 3d
       -0.047166295 0.013720591 -0.047052633 0.084125064
0003c0 6f f2 21 bd cc 30 9b bd c7 33 79 3b e8 bb 94 bd
       -0.039537843 -0.07577667 0.0038025246 -0.07262403
0003d0 d6 46 87 bd 50 38 8e bd 41 29 b1 bc d1 32 10 bb
       -0.06605308 -0.069443345 -0.021626117 -0.0022002945
0003e0 2b 2e 08 be 8f b7 0d 3c 0b 48 35 bd 38 ce 5a bc
       -0.13298862 0.008649721 -0.04425816 -0.01335483
0003f0 24 bd 0b bd 38 c2 98 bd 2f 6d 2e 3d a5 8a f5 3c
       -0.034115925 -0.07458919 0.042584594 0.029973337

weight f4 [1, 300]
000000 58 69 7d 3d 33 6f 01 bd d9 85 1f bd 66 c9 9e bd
       0.06186804 -0.03160019 -0.038946006 -0.077532575
000010 d9 f8 34 3d 78 c7 56 3d 93 c5 64 3d ce 16 86 bd
       0.044182632 0.052436322 0.055852484 -0.065473184
000020 88 ec a5 3c e6 9f 6b 3d 37 c4 7c 3d 94 38 2c 3d
       0.020254388 0.057525538 0.061710563 0.042046145
000030 ec 39 34 be b6 98 33 3d 7c 8f 66 3d 17 4e 4d bc
       -0.1760022 0.04384681 0.05628918 -0.012530825
000040 32 ba 38 3d b8 d9 8a 3d ec 39 32 3d df 2c a4 bd
       0.045099445 0.06779808 0.04351227 -0.08016371
000050 7b 88 1d bd c0 b9 72 bd 9d d0 09 3d 6f 98 fe bc
       -0.038460236 -0.059259176 0.033646215 -0.031078545
000060 ad f4 5f 3d 67 c0 0b 3d 9f f5 7a 3d 09 6c 11 3d
       0.0546767 0.034119036 0.0612694 0.03550342
000070 49 8b 08 3f 00 00 00 00 00 00 00 00 49 68 c9 3c
       0.5333753 0.0 0.0 0.02458586
000080 04 c5 35 bd 97 cc d1 3c 23 eb 4c 3d eb 2c 98 3d
       -0.044377342 0.025610251 0.05002893 0.074304424
000090 78 a5 35 bd 35 cc 63 bd 25 39 3a bd b6 f8 8a bd
       -0.044347256 -0.05561467 -0.045464654 -0.06785719
0000a0 ed ba 95 3d 00 00 00 00 06 9c 8a 3c 51 6f 5e 3d
       0.07311044 0.0 0.0169201 0.05430538
0000b0 81 09 38 3d a3 ae 49 bd 1d 03 1b 3d ad 0c c8 bd
       0.04493094 -0.049238812 0.037844766 -0.09768043
0000c0 21 bd c0 bd f0 a5 f1 3c 78 aa 04 3d 78 bc 20 bd
       -0.094110735 0.02949807 0.032389134 -0.039242238
0000d0 36 8d 12 3d c9 a8 5e bd 2d a9 9c 3d 6f 20 19 bd
       0.0357792 -0.054360185 0.07649455 -0.037384447
0000e0 ff f9 b2 bd 40 dd 7a bd fa dd 9c bd f9 70 8d 3d
       -0.08739089 -0.061246157 -0.07659526 0.069063134
0000f0 33 49 82 bd fd 6e 80 bd 73 07 de 3c 78 09 8a 3d
       -0.06361618 -0.06271169 0.027103161 0.06740087
000100 cd 91 84 3d a0 27 2b 3d 86 15 27 3d 1a f0 5c 3d
       0.06473122 0.041785836 0.04079201 0.053939916
000110 f5 a6 25 3d 69 c4 88 bd 00 00 00 00 e2 78 63 bd
       0.040442426 -0.06678087 0.0 -0.055535205
000120 c1 4d 1e 3d 0f 08 8d 3d 07 21 3f 3d fa 7b 3a bd
       0.03864837 0.06886303 0.046662357 -0.04552839
000130 e4 d2 7f bd c9 5f b1 bd 42 dd 5e 3d ca 6c 8b bd
       -0.06245698 -0.08660848 0.054410227 -0.06807859
000140 75 45 78 bd 08 76 fa 3c e9 e4 fd 3c 71 e4 56 3d
       -0.060613114 0.03057386 0.030992942 0.052463952
000150 85 75 55 bd d6 0b 95 3e c1 65 63 3d 0e de 2f 3d
       -0.05211403 0.29110593 0.055516962 0.042936377
000160 3e 11 ff bc 39 27 78 bd e4 6f 8d 3d f6 6f 8a 3c
       -0.031136151 -0.06058428 0.06906107 0.01689909
000170 54 54 89 bd 65 33 64 bd 15 1b cf 3c 00 00 00 00
       -0.067055374 -0.055713076 0.025281468 0.0
000180 05 08 c5 be d9 6c 83 bd a7 83 73 3d 94 4a 5d 3d
       -0.3848268 -0.064172454 0.059451725 0.0540262
000190 09 25 af bd 85 d5 90 bd 89 e8 90 3d da ef 4c 3d
       -0.08551986 -0.070719756 0.070756026 0.050033428
0001a0 67 1c 3f 3d 95 16 85 bd b3 c1 30 3d 02 21 25 bd
       0.046657946 -0.06498448 0.043153476 -0.04031468
0001b0 14 ba 93 3d aa d1 5a 3d 7c 2a 8d bd bd fd ec bc
       0.07213226 0.053422607 -0.06892869 -0.028929586
0001c0 34 f9 8b bd b1 d3 a4 3d a6 3e 7c 3d 28 6c 13 bd
       -0.06834641 0.080481894 0.061583184 -0.035991818
0001d0 89 f6 48 3d 00 00 00 00 5c df 60 bd af 65 c9 3d
       0.04906324 0.0 -0.054900512 0.09833848
0001e0 eb 1b 06 3d 2f a7 2a 3d 00 00 00 00 00 00 00 00
       0.03274147 0.041663345 0.0 0.0
0001f0 4d e4 db bd 1f 3d 5d 3d 0a aa 63 bd 70 83 2c bd
       -0.10736904 0.054013368 -0.055582084 -0.042117536
000200 f6 3a 09 3d f1 d1 5a be 99 bd ae 3c 16 13 a0 bd
       0.033503495 -0.21369149 0.021330642 -0.0781614
000210 65 f6 1b bd c7 89 42 bd 40 5d 91 bd bb fc ad 3c
       -0.038076777 -0.047494676 -0.07097864 0.021238675
000220 25 ac 26 bd a3 76 07 3d 77 9e 40 bd 09 42 ca 3c
       -0.040691514 0.033072125 -0.047026124 0.024689691
000230 27 d0 05 3d 0b b3 93 bd 1e 10 76 3d 59 92 e4 be
       0.032669213 -0.07211884 0.060073964 -0.44642904
000240 01 e6 02 bd 10 dd 2e bd bb 02 85 3d 19 db 39 bd
       -0.03195763 -0.04269129 0.064946614 -0.045374963
000250 6f 45 6a 3d 26 b0 7a bd 4a 63 35 3d d0 70 32 bd
       0.057195123 -0.061203144 0.044284143 -0.043564618
000260 56 42 71 bd cf ee 5b bd 11 95 86 3d eb 72 95 be
       -0.058901154 -0.053694542 0.06571401 -0.29189238
000270 85 18 42 3d 22 a2 20 bd 78 b5 6a 3d 84 d5 66 3d
       0.047386665 -0.039217122 0.05730197 0.056355968
000280 92 cc 0c 3d ba 03 7a be 4c 77 73 3d f5 48 3d bd
       0.03437478 -0.24415484 0.059439942 -0.046212155
000290 db e4 a8 bd 71 be 8d 3d fc 4b e6 3c 31 29 14 bd
       -0.08246776 0.069210894 0.028112404 -0.036172096
0002a0 fa f1 d8 bd 99 33 9a 3d 0c 96 66 bd d2 f2 a0 be
       -0.10593028 0.07529373 -0.05629544 -0.31435257
0002b0 4f 8d 8c bd 8b 47 65 bd a7 ec 16 bd 65 49 09 3d
       -0.0686289 -0.05597643 -0.036846783 0.03351726
0002c0 8c bd 93 be 0b fb 80 bd 96 27 98 bd f2 c7 48 3d
       -0.2885555 -0.06297883 -0.074294254 0.049018808
0002d0 e3 a2 84 bd ab 94 1b 3d 08 7f 75 3d 3a 1c 6e 3d
       -0.06476381 0.037983578 0.0599356 0.058132388
0002e0 32 44 93 3d 26 f0 9b 3c 00 00 00 00 71 d4 06 bd
       0.071907416 0.01903541 0.0 -0.032917444
0002f0 8e 53 4a 3d e3 0f 7e bd 00 00 00 00 b3 f9 61 bd
       0.04939609 -0.06202687 0.0 -0.055169772
000300 c3 7a 2a bd ca 67 78 bd 2b 23 8a 3d 75 52 4f 3d
       -0.04162098 -0.060645856 0.06744989 0.050615747
000310 00 00 00 00 82 95 0c bd 87 46 35 bd f2 5b 5e bd
       0.0 -0.03432227 -0.044256713 -0.054286905
000320 14 89 9a 3c d0 08 80 bd 42 f0 61 3d 60 c4 4d 3d
       0.018864192 -0.06251681 0.05516077 0.050236106
000330 5e 99 d8 bc 69 9c 21 3d 68 b3 47 bc 95 b0 c2 bc
       -0.026440319 0.039455805 -0.01218877 -0.023765841
000340 59 1a 2f 3d 3a 2a c1 3c 5e e5 12 3d ca f7 63 bd
       0.042749736 0.023579706 0.035863273 -0.055656232
000350 ca 3b 57 bd c7 41 04 3d 63 98 7f 3d 09 65 84 bd
       -0.052547254 0.032289293 0.062401187 -0.064645834
000360 a0 86 30 3d 9b bc 66 3d 00 00 00 00 93 81 40 3d
       0.04309714 0.056332212 0.0 0.04699857
000370 db d8 2e 3e 44 fd 87 bd 73 54 be 3c c0 99 c8 3c
       0.17074911 -0.066401035 0.023233628 0.024487376
000380 e4 e6 47 3d 6c 92 4c 3d 73 a3 bb bc ae a2 c2 3c
       0.04880418 0.049944326 -0.022905087 0.023759212
000390 5e 7c 6b be d5 9b 11 3d 10 e0 2b 3d f1 8c 5d 3d
       -0.22996661 0.035549004 0.04196173 0.05408949
0003a0 00 00 00 00 ef 83 d7 bc 45 d7 99 3d 16 1a 33 bd
       0.0 -0.026308028 0.075117625 -0.04372605
0003b0 ad df 31 bd 9f 59 1e bd c0 ce 96 bd 9b 41 a2 bd
       -0.043426204 -0.038659688 -0.07363653 -0.079226695
0003c0 6d f5 58 bd e9 ce 87 bd f0 25 99 bd b9 2f f1 3c
       -0.05296843 -0.06631262 -0.07477939 0.029441701
0003d0 13 30 05 3d 04 3f e1 3c 00 00 00 00 b2 65 3f bd
       0.03251655 0.027495869 0.0 -0.046727844
0003e0 3d e4 7e bd 28 6a 89 3d 0b 85 65 3d 3f 5b 15 bd
       -0.062229384 0.06709701 0.056035083 -0.036463972
0003f0 cd 7e dc bc 5a 2f 66 3d 86 0a fd bc 2b 82 96 bd
       -0.026915932 0.0561975 -0.030888807 -0.07349046
