figures/TS_global_3/theta=0.1_s=0.7_step=1/best_model.pth (torch, 249061 bytes, 6 tensors)

bias f4 [200]
000000 41 41 b5 be ad e6 8e 3e cc b9 b5 3e 78 15 c3 be
       -0.35401347 0.27910367 0.35493314 -0.38102317
000010 77 16 80 3e f8 00 ff 3e f2 1c 3f 3e 9f 18 e9 be
       0.2501714 0.49805427 0.18663386 -0.45526597
000020 0b 9e 06 bf 04 34 10 bf c3 0f ea be f4 3a cc 3e
       -0.52584904 -0.5632937 -0.4571515 0.39888728
000030 c3 80 6d be 5f 93 92 be b5 ee af 3e 83 f2 56 be
       -0.2319365 -0.2862806 0.34361807 -0.20990948
000040 ca db bf be f0 10 50 be 5b 20 af 3e a8 c8 da 3e
       -0.37472373 -0.20318961 0.34204373 0.42731214
000050 50 ce 02 3e 0b 35 b2 bd 15 49 10 bf 0b 28 2e 3f
       0.12774014 -0.087015234 -0.56361514 0.6802985
000060 31 99 1e 3e 67 45 d1 3e c8 09 2e 3f f3 4a 13 bf
       0.15488125 0.40873262 0.67983675 -0.5753624
000070 35 a4 9b be ba c7 2b 3f 0d 3a c1 bd 36 2f d0 3e
       -0.30398718 0.67101634 -0.094349004 0.4066102
000080 7f a1 d9 3e 5a 1a b5 be 85 f0 03 3f 38 78 ae be
       0.42506024 -0.35371667 0.5153888 -0.34076095
000090 8b bb e2 be d4 78 08 3f 28 90 16 bf 85 13 ce 3e
       -0.4428371 0.5330937 -0.58813715 0.40249267
0000a0 8c fa 62 be bc a7 ad be 2f d6 b3 3e 93 ed 5d be
       -0.22165889 -0.33917034 0.35124347 -0.21672659
0000b0 c0 13 3d 3f a8 14 31 3e a5 d6 cd be 17 01 46 3e
       0.7385826 0.17293036 -0.40202823 0.19336353
0000c0 3b 26 84 3e 3a 44 90 be 26 23 20 3f a4 5d 06 3e
       0.25810418 -0.28177053 0.6255363 0.13121659
0000d0 29 e6 36 be 84 b0 c7 be 59 6d 1a 3f 34 b6 2a bf
       -0.17861237 -0.39001858 0.603231 -0.6668427
0000e0 7b 07 67 be 8f 64 29 3e d0 f5 29 be ce 39 74 3e
       -0.22561447 0.16542266 -0.16597676 0.23850176
0000f0 fe 6c 91 be 2a af 90 be 86 8c fb 3e 2a e6 30 3f
       -0.28403467 -0.2825864 0.49130648 0.691012
000100 aa 35 cd be 68 f7 b3 3e e2 7d 4f 3e 05 e8 32 3f
       -0.40080005 0.35149693 0.20262864 0.69885284
000110 c4 fe a9 be f2 86 08 bf c5 f8 f8 bd a8 07 c8 3e
       -0.33202183 -0.5333091 -0.12156824 0.3906834
000120 af 37 9b be c4 94 e1 be 43 cd 13 3f 48 97 12 be
       -0.3031592 -0.44058812 0.5773508 -0.14315522
000130 95 1f 8e 3e b0 79 d7 bd 95 84 97 3e 6e 97 08 be
       0.2775847 -0.10521257 0.2959334 -0.13339016
000140 dc 21 b6 3e d8 d4 17 3f ea a3 43 3e c9 0a 05 bf
       0.35572708 0.5930915 0.19105497 -0.5196958
000150 e4 b2 44 3f 73 f6 ca 3e e9 8c aa 3e 02 32 30 3f
       0.76835465 0.3964115 0.3331063 0.68826306
000160 1c 06 d5 be 07 00 96 be f0 b5 ab bd 65 57 71 3e
       -0.41606224 -0.29296896 -0.08384311 0.23568495
000170 9a 38 8f bd 56 0a 84 bd b8 96 b9 be ca db ae 3e
       -0.06993218 -0.06447284 -0.36247802 0.3415206
000180 61 df 1e 3f 3e a2 82 3e 59 bc d2 3e 9d 0d f6 bd
       0.620596 0.25514406 0.41159323 -0.12014315
000190 1c 20 b3 bd e7 83 f9 3e b5 67 99 be 4b 91 2d bf
       -0.08746359 0.48733446 -0.29961935 -0.67799824
0001a0 e8 0b b7 be 83 8a e2 bd e2 fc 98 bd 2c e0 82 be
       -0.3575127 -0.11061575 -0.074701086 -0.25561655
0001b0 2b 56 eb bd 46 23 bd 3e c5 b3 81 3e 18 b9 1d be
       -0.114910446 0.36940974 0.25332466 -0.15402639
0001c0 0c 8a 37 3e 63 a7 bf bd 8d 48 f6 be 8b a3 29 bf
       0.17923754 -0.09358098 -0.48102227 -0.6626517
0001d0 bd 3e 39 3f 45 d3 b8 be 95 6b 16 3f 73 c0 0c bf
       0.72361356 -0.36098686 0.5875791 -0.54981154
0001e0 c6 76 2a be b4 bb 9a be 2d 69 94 3e bd 4d 11 3f
       -0.16646871 -0.3022133 0.28986493 0.56759244
0001f0 d9 26 76 bd f1 27 fc 3e 87 6e 0b be 45 66 d9 3e
       -0.06009564 0.49249223 -0.13616382 0.42460838
000200 e6 fc 04 bf 9a e7 fe 3e 43 cf cc 3e b7 d6 b5 3e
       -0.5194839 0.49786073 0.40001878 0.35515377
000210 31 b2 de bd cf 9a 11 3f 7a 02 cb bd 0d c2 ff 3e
       -0.10873831 0.56876844 -0.09912582 0.49952736
000220 51 0b 8b 3e 66 ed 87 3e 86 20 2e 3f 40 6a 25 bf
       0.2715707 0.26548308 0.68018377 -0.6461525
000230 44 5d c5 be 77 2f 8b bd e9 4a 33 be 17 16 07 be
       -0.3854772 -0.067961626 -0.17509045 -0.1319202
000240 68 43 b7 be 48 0b b2 3e da ae f9 be e4 03 d9 be
       -0.35793614 0.34774232 -0.48766214 -0.4238578
000250 9e 3f e0 3d b6 ce d9 be 18 6e b0 3e a0 a4 3a be
       0.10949634 -0.4254052 0.34458995 -0.18226862
000260 94 b5 a4 be 50 28 06 bf 15 d5 a7 be 35 c5 aa 3e
       -0.32169783 -0.5240526 -0.32779756 0.33353582
000270 7d b4 e6 3e 59 0a 76 be 22 24 04 bf 50 2b a1 be
       0.45059577 -0.24027385 -0.51617634 -0.31478357
000280 84 99 2b 3f be ff 79 be 00 82 d5 3e c5 e9 04 bf
       0.6703112 -0.24413964 0.41700745 -0.51919204
000290 f4 92 2f bf a6 d0 03 bf 1f 95 16 3e ab 79 ea be
       -0.6858361 -0.5149025 0.14705323 -0.4579595
0002a0 75 4a 26 3f cf 2c 17 be e4 b9 31 3f d5 7e 02 bf
       0.6495736 -0.14763187 0.6942427 -0.5097478
0002b0 be 9f 94 3e fe d9 0d bf dc 9a f4 bd 7a 38 07 bf
       0.29028124 -0.55410755 -0.119435996 -0.5282055
0002c0 57 f7 2c be c0 40 28 3f 97 80 27 3f fe d1 2b bf
       -0.16891228 0.657238 0.6543059 -0.671173
0002d0 69 38 57 be 1d 0f e2 bd d5 73 f4 3e fb bb db 3e
       -0.21017613 -0.11038039 0.47744623 0.42916855
0002e0 ed 89 99 3e d6 aa 0e 3f 5f 40 9f 3e d4 df 8b 3e
       0.29988042 0.55729425 0.311038 0.27319205
0002f0 e7 98 9b bd 57 e0 a0 3e 07 2b d0 3e 50 d1 e8 bd
       -0.07597523 0.31421158 0.40657827 -0.11368048
000300 c5 8d cb be d5 33 fc be 00 f7 a7 be c3 de 1a 3f
       -0.397566 -0.49258295 -0.32805634 0.6049616
000310 f2 a4 86 be 26 71 8d be 0f b7 f8 bd 5d a4 56 3e
       -0.26297718 -0.27625388 -0.12144291 0.20961137

weight f4 [200, 2]
000000 00 00 00 80 1b 5d 35 bf f5 66 f1 3e 0f 97 0e bf
       -0.0 -0.7084519 0.47148862 -0.5569925
000010 67 9f 87 3e ab 02 3d bf b0 6b 6a bf 1c 8d 0d 3f
       0.26488802 -0.73832196 -0.9157057 0.5529344
000020 d6 38 92 3f dc 12 fa bd 7c 43 11 bf 7f 06 00 3e
       1.1423595 -0.122106284 -0.567436 0.12502478
000030 0c fe 09 bf f1 86 7f be 6a db 1a bf cf 28 79 3f
       -0.5390327 -0.2495382 -0.6049105 0.97327894
000040 32 72 b1 3e d6 24 91 3e 9b 33 85 bd 6e 85 77 bd
       0.34657437 0.28348416 -0.065039836 -0.060429983
000050 f9 ca 91 3e e1 13 7a be be c8 f3 3e b3 2f 69 3f
       0.28475168 -0.24421646 0.47614092 0.9108841
000060 fb a4 09 bf de 69 b2 3e c5 a3 29 bf a2 4d e5 3e
       -0.53767365 0.34846395 -0.6626552 0.44785792
000070 4f 3b e3 3e 28 65 34 bf 4d fe 55 bf 3d 81 5c 3d
       0.44381186 -0.7046685 -0.8359116 0.05383419
000080 c0 ae 5e 3f 42 4c 20 bf 80 1f 63 3f 00 00 00 80
       0.869854 -0.6261636 0.8871994 -0.0
000090 4e db 81 be 5a e6 14 bf 00 00 00 00 61 1d bf 3e
       -0.2536263 -0.5816399 0.0 0.37327102
0000a0 04 9d b2 be 86 60 46 3e b9 ee 23 3f 55 66 d5 3e
       -0.34885418 0.19372758 0.64036137 0.41679636
0000b0 ef 88 20 be d4 02 f4 be df 80 2e 3f 33 d6 ab be
       -0.15677236 -0.47658408 0.6816539 -0.3356186
0000c0 df 57 57 3f 7f 93 8f 3f 44 bf 4c 3f 00 00 00 00
       0.84118456 1.1216887 0.7997935 0.0
0000d0 9f ef 87 be 7d c5 da 3e 19 f9 b3 3e 94 41 e4 be
       -0.26550004 0.42728797 0.35150984 -0.44581282
0000e0 b0 dc 76 bd e8 b1 1e 3f a0 17 16 3f 5b 86 0b be
       -0.060269058 0.61990213 0.586298 -0.13625471
0000f0 96 fe 51 bd 00 00 00 00 3a 33 0f 3f d0 cb 30 3e
       -0.051268183 0.0 0.5593754 0.17265248
000100 fe c9 1b bf f3 ea 56 be 77 a9 bb 3e 0d ae 42 bf
       -0.6085509 -0.20988064 0.3665273 -0.7604683
000110 95 6b 07 3f 95 a0 c7 be 2a 0d a0 be 7e f6 22 bf
       0.5289853 -0.38989702 -0.31260043 -0.6365737
000120 38 b7 57 bf 49 50 3a 3f 57 37 d7 3e 1f 7b d0 3e
       -0.84263945 0.72778755 0.42034408 0.40718934
000130 07 69 a0 3e 26 02 a3 3e 04 2c ea be fc 07 59 3f
       0.3133013 0.31837577 -0.45736706 0.8477781
000140 84 66 7e be 7b 8f fa 3e ed 70 fa 3e ac f8 3b bf
       -0.24843794 0.48937592 0.4891428 -0.7342632
000150 7e e9 69 3f 00 00 00 00 e6 12 66 3e 81 af 9e 3d
       0.91371906 0.0 0.22468147 0.077483185
000160 46 50 9c 3e 8e b0 ae be 09 51 80 be ae 44 ac 3e
       0.30529994 -0.34119076 -0.25061825 0.33646148
000170 66 78 c5 3e c2 69 8f 3e 51 94 98 bf 61 20 26 bf
       0.3856842 0.28010374 -1.1920263 -0.64893156
000180 0a 2a f7 3e 8a 0f 00 bf b9 23 5a bd 28 02 13 3f
       0.4827426 -0.5002371 -0.053256724 0.57425165
000190 21 2d 5c 3f 7d 8a a8 be f4 f2 8d be 18 7c 62 3e
       0.8600636 -0.32918158 -0.2772442 0.2211765
0001a0 30 51 88 bf c5 eb 8d be 34 e1 b3 3e 12 1c 6d be
       -1.0649776 -0.2771894 0.35132754 -0.23155239
0001b0 00 00 00 00 f5 c2 10 3f 6a c0 15 be 5e 71 be 3e
       0.0 0.5654748 -0.14624181 0.37195867
0001c0 bc 7d 41 bf be a5 6e 3e 72 1e 82 3f d9 d6 56 3f
       -0.7558248 0.23305413 1.0165541 0.8392158
0001d0 e6 88 4f 3f 00 00 00 80 78 b6 4b bf c9 c2 97 be
       0.81068265 -0.0 -0.795753 -0.29640797
0001e0 37 af f6 3e f1 2c 23 bf 82 84 6a 3e af c8 1a bf
       0.48180553 -0.6374045 0.2290211 -0.6046247
0001f0 e4 0c 49 bf a4 cc e7 3e 14 6c 19 3f 8a 85 0a bf
       -0.78535295 0.45273316 0.5993054 -0.54110014
000200 03 c0 c8 be 25 ed 66 3f d1 6f 54 bf 78 8e 15 be
       -0.39208993 0.90205604 -0.8298312 -0.14605129
000210 c5 11 aa bf cf 8f 91 bf ae d2 46 3f 71 8f e5 3e
       -1.3286673 -1.1372012 0.7766522 0.44836
000220 02 22 94 be 4b be 3c 3f fb c5 69 bd 85 21 b5 3e
       -0.28932196 0.73727864 -0.057073575 0.35377136
000230 1c c4 02 bf 83 dd 6d bf 20 79 45 be 64 5b 3d bf
       -0.5108049 -0.92916125 -0.19284487 -0.73967576
000240 78 e4 9e 3e 64 4a 24 bf 7d a2 72 be 95 d6 5e bf
       0.31033683 -0.6417601 -0.23694797 -0.87046176
000250 f5 90 3b bf 68 5a 18 bf 97 95 6b 3f 6b 8f 55 3f
       -0.7326806 -0.5951295 0.9202513 0.83421963
000260 28 69 30 bf a5 d4 ee be 48 2b 53 3f 72 bf c0 3e
       -0.68910456 -0.4664661 0.82487917 0.3764606
000270 39 38 90 3f 4c 66 29 3f 96 40 46 bf 5f 1b 3a bf
       1.1267158 0.6617172 -0.774423 -0.72698015
000280 d0 03 0d bf 81 6d be 3d 37 7c 68 3f b3 bf 87 3e
       -0.5508394 0.0929823 0.90814537 0.26513442
000290 a9 59 2e 3f cb 66 a1 3e 10 0c 07 3f a4 5c 5d 3e
       0.6810556 0.31523737 0.5275278 0.21617371
0002a0 ff 2e 0c bf 99 e4 2f bf ad d8 1c 3f a9 26 a7 be
       -0.5475921 -0.6870819 0.6126812 -0.32646683
0002b0 63 86 22 bf a0 3e 23 3f 9e 28 1f 3f 2a e2 ed be
       -0.6348631 0.63767433 0.6217135 -0.46461612
0002c0 af d9 7f 3e 66 54 5d bf dc 98 65 3f 6d c0 b4 be
       0.24985383 -0.86456907 0.8968637 -0.3530306
0002d0 00 00 00 80 c5 db 69 bf 00 00 00 80 00 00 00 80
       -0.0 -0.91350967 -0.0 -0.0
0002e0 43 1d 96 3e b4 b4 25 3f b8 9e 93 3e 65 ac 10 3f
       0.293192 0.64728856 0.2883203 0.56513053
0002f0 34 7f 24 3f e3 3d 46 bf 0a 34 92 be 8c ca 24 3f
       0.64256597 -0.7743818 -0.28555328 0.6437156
000300 40 15 42 3e e0 cf 31 bf 3e 9c 51 be 00 00 00 80
       0.18953419 -0.6945782 -0.20469758 -0.0
000310 89 52 38 3f 00 00 00 00 6a b7 31 bf 4c 67 38 bf
       0.7200094 0.0 -0.6942049 -0.7203262
000320 66 45 04 bf ad ec fd be 67 65 d1 be e7 f2 cf 3e
       -0.51668394 -0.49594632 -0.40897676 0.40615007
000330 94 d6 19 bf 90 b3 f8 3e d1 01 c3 be 9a 9b 0c 3e
       -0.60093045 0.48574495 -0.38087323 0.13731232
000340 af 3c 70 3e 43 44 1f 3f d7 84 da 3e 7c 19 8c 3f
       0.23460649 0.62213534 0.42679474 1.0945277
000350 e3 18 7c 3e 29 b6 3d 3f 14 ae 3f bf 51 cb be 3e
       0.24618869 0.7410608 -0.74875 0.37264493
000360 7e 0a 29 bf e3 b1 1e be 82 01 86 be 1d 1a 58 3f
       -0.66031635 -0.15497546 -0.26173025 0.84414846
000370 e7 1c 86 bf e9 c4 2f bc 00 a6 6d 3f e9 56 8a 3f
       -1.047757 -0.010728099 0.9283142 1.0807773
000380 98 85 59 bf 94 42 15 bf 78 b4 bc 3e 60 c2 5a 3f
       -0.8496947 -0.58304715 0.36856437 0.8545284
000390 ae 63 d8 3c a5 6c 74 bf 91 a0 59 3e 00 00 00 80
       0.026414718 -0.9547828 0.21252657 -0.0
0003a0 7b f7 0a bf 01 1f 97 3d 15 9c 53 bf 54 1d 14 3f
       -0.54283875 0.073789604 -0.8266004 0.5785725
0003b0 fa 5a 6a bf 5c 5f a1 be 7e 92 33 3e 2b 58 e1 3e
       -0.9154507 -0.31518066 0.17536351 0.4401258
0003c0 93 6d 5e bf 58 98 81 bf 6c 08 65 3f c0 7f c7 be
       -0.86885947 -1.0124617 0.89465976 -0.38964653
0003d0 22 aa 66 bf 9f 5c 82 bf 9a c6 42 3f 57 5f 17 be
       -0.9010335 -1.0184516 0.7608429 -0.14782463
0003e0 6e ab 56 3f d8 2a 80 bf db 0e 04 bf 59 77 23 3f
       0.8385533 -1.0013075 -0.5158517 0.63853985
0003f0 06 4c 5d bf 86 fc 03 bf f2 18 eb 3e 53 f1 55 3f
       -0.8644413 -0.51557195 0.4591747 0.83571357

bias f4 [300]
000000 62 b7 d1 3c 2e 82 7c 3c b5 93 b5 bc 0b f7 48 bd
       0.025600139 0.015411897 -0.022165159 -0.049063724
000010 58 44 09 3d 4e f7 95 bd aa df 3a bc f7 17 99 3d
       0.033512443 -0.0732256 -0.011405865 0.07475274
000020 47 f9 bb bd 04 70 39 3d a4 aa 7c 3c 70 55 07 3d
       -0.09178405 0.045272842 0.015421543 0.033040464
000030 d1 98 48 bd 95 ca 68 bd 86 c7 88 3c 63 53 0a 3d
       -0.048973862 -0.056833822 0.016696703 0.03377093
000040 f1 46 1a 3d 82 a5 3f 3d 2c 1d 4b 3c c9 e6 20 bb
       0.03766531 0.0467887 0.012397092 -0.0024551621
000050 6d cf 9e bc 34 01 81 3d 87 91 80 bd 6e d8 c0 bc
       -0.019386018 0.062990576 -0.06277757 -0.023540702
000060 e8 55 ed 3c 1f 08 28 bd 1e 35 7d 3d 96 f4 60 3d
       0.028971627 -0.04102337 0.061818235 0.054920755
000070 c7 47 92 3d 66 68 60 3d f9 54 81 3d 0d 42 91 bc
       0.07142597 0.054787062 0.063150354 -0.01773169
000080 cf 84 80 3d fa 1c 98 3c 9b a6 a4 bb 18 23 58 3c
       0.06275331 0.018568505 -0.0050247437 0.013191961
000090 d4 49 23 bd 84 af 29 3d 55 32 89 bd fe e6 2e bd
       -0.03986533 0.04142715 -0.06699053 -0.04270076
0000a0 00 1a f7 bc 52 a0 72 3c a8 31 89 3d 1c 57 e4 3c
       -0.030163765 0.014808731 0.06698924 0.027873568
0000b0 02 ce 1b bd 50 60 22 3d dd 13 5d bd d4 ef 87 bd
       -0.03803826 0.039642632 -0.05397402 -0.066375405
0000c0 15 ad 4a bd 5a 60 5f bc df cb de 3c 12 31 9b 3d
       -0.04948147 -0.013633812 0.027196823 0.07577719
0000d0 d4 dd d8 3c ac 57 92 bd 97 12 d6 3c 98 ce 2f 3d
       0.026472963 -0.07145628 0.026131911 0.042921633
0000e0 a5 75 18 bc 17 ba f4 bc 1f 9c 2a 3d 97 f2 90 bc
       -0.009305392 -0.02987389 0.041652795 -0.0176938
0000f0 8d a0 70 bc f1 02 07 ba 19 78 27 3d 65 95 ad 3d
       -0.014686716 -0.00051502796 0.04088602 0.0847576
000100 89 a0 bd 3c 24 9c 53 bd 30 95 a8 bc b4 ce c5 bc
       0.023147838 -0.05166258 -0.02057895 -0.024146415
000110 0f 98 5d 3c b2 92 7e bd c1 b2 bb 3c 52 ec fa 3c
       0.013525023 -0.06215162 0.022912385 0.030630264
000120 f9 02 48 3d 8d e3 9c 3d 0d f4 a5 3c 1e 05 3f 3d
       0.04883096 0.07660589 0.020257974 0.04663574
000130 48 d5 83 3d 41 8a 5f 3c 70 0a d2 bc 15 7e 78 3d
       0.064371645 0.013643802 -0.025639743 0.060667116
000140 0d 67 cf 3c 76 d1 1c 38 6b 1b da bd 33 1f 59 bb
       0.025317693 3.7388374e-05 -0.10649761 -0.0033130168
000150 3a 87 d9 bb f0 9b 12 3d e3 ad 77 bd 63 45 29 bd
       -0.0066384347 0.035793245 -0.060468566 -0.041325938
000160 8f 18 dd bc c5 15 90 bc fb 0a 43 3d 44 23 2e bd
       -0.02698925 -0.017588506 0.047617894 -0.0425141
000170 4e 63 50 bd c0 e2 d0 3c 7d 39 2c 3d 6d cb 03 bc
       -0.050875954 0.025498748 0.042047013 -0.008044106
000180 72 ae 9c bd 86 2b f3 3d 4d ec 2a bd 94 46 3c 3d
       -0.0765046 0.11873536 -0.04172926 0.045965746
000190 81 5b 96 3d 79 00 af bc bc ff 42 bd ab 92 13 3d
       0.07341672 -0.02136253 -0.04760717 0.036028545
0001a0 e4 34 24 3d 1d 5f 44 bb a4 22 d9 bc f8 a8 00 3d
       0.040089503 -0.0029963918 -0.026505776 0.03141114
0001b0 91 36 ed b9 34 eb 3f 3d ac 44 00 3c 46 77 96 bd
       -0.00045244818 0.046855167 0.007828873 -0.07346968
0001c0 75 aa 9d 3d 5d 62 eb bc 7e fa 3c 3d 0c 5f f7 3c
       0.07698528 -0.028733427 0.046137325 0.03019669
0001d0 4a c6 5d 3d 22 f9 9b 3b 83 8a 94 3d 7e 02 89 3b
       0.05414418 0.0047599236 0.072529815 0.0041812053
0001e0 8e 4e 2a 3a 9e 69 1e 3d e1 7e 56 bb d0 44 5c 3d
       0.0006496691 0.038674943 -0.0032729434 0.053776562
0001f0 bd 39 da bc 95 f6 78 bc 1d 72 70 bb 9e 1a 99 3c
       -0.02663886 -0.0151955085 -0.003668911 0.01868945
000200 da 42 4d bd a1 28 bb 3d 4a 39 76 bd b9 b9 85 bc
       -0.050112583 0.09138609 -0.06011323 -0.016323911
000210 df 2f 6f bd 28 ba ae bc aa 50 56 bc 7e 97 5f 3d
       -0.058395263 -0.021329 -0.013080755 0.054587834
000220 02 49 93 bd 96 13 a8 bc 40 d4 05 bd a1 52 8e bb
       -0.071916595 -0.020517152 -0.03267312 -0.004343346
000230 6c 19 81 bb 1d 19 3b 3d 5d 7a 7c bd e0 b8 84 bd
       -0.003939798 0.045678247 -0.061640132 -0.064805746
000240 e1 c4 81 bd 09 84 f7 3c 51 35 9a 3d 0c 32 99 3b
       -0.0633638 0.030214326 0.075297005 0.0046751555
000250 cf fb 42 3c bd ea 91 bc 86 cd 4b 3c a0 c2 0f 3c
       0.011900856 -0.017812127 0.012439137 0.00877443
000260 ff ad 3d bc fb 70 c2 3d 24 da 53 bd e3 a8 82 bd
       -0.011577128 0.094942056 -0.051721707 -0.06379869
000270 47 59 0c 3c 79 d1 df 3d b0 c8 8f bd 99 05 b5 3d
       0.008566207 0.109286256 -0.070207 0.08838958
000280 fc eb 6a bd 0c 46 4e 3c 69 95 71 3c 47 ab b1 3d
       -0.05735396 0.012589943 0.014745095 0.08675247
000290 c8 af f4 ba 5e a1 77 bd 91 07 18 bc 01 9c 13 3d
       -0.001866811 -0.060456626 -0.009279148 0.03603745
0002a0 48 0e 0b 3d 92 7c 03 bd 6d 08 17 bd b1 d1 16 3d
       0.033949167 -0.03210122 -0.03687327 0.03682107
0002b0 ca 5c b6 3c 44 da 65 3d 7b 03 d0 bd d7 f2 35 3d
       0.022261042 0.056116357 -0.10156914 0.044421043
0002c0 45 3b 56 3d 5e 0b f7 3c a5 f0 9e bc 69 fc b8 3c
       0.052302618 0.030156787 -0.019401858 0.022581296
0002d0 e9 82 83 bd 56 30 b5 3b bd 39 e0 3b d1 d2 75 3d
       -0.064214535 0.0055294437 0.0068428204 0.060015503
0002e0 20 62 61 3d 87 63 32 bc 35 43 92 3d 35 a0 09 bd
       0.05502522 -0.010887987 0.07141725 -0.03360005
0002f0 79 fb 89 bd d8 4e 33 3d 85 f3 d7 bc 9d b6 69 bd
       -0.06737418 0.043776363 -0.026361236 -0.05705892
000300 c4 3a 46 3b 35 24 52 3c 8b ae 01 bc 06 e8 97 bb
       0.003024743 0.012826015 -0.007915149 -0.0046358136
000310 b4 3a bc 3c 29 0c 08 bd e7 0a 96 3c f4 24 37 3d
       0.02297721 -0.03321472 0.018315746 0.044712976
000320 01 fc 86 3d 8a 6e 79 3b 8d 57 39 3d b3 37 68 3d
       0.06591035 0.0038060271 0.04524951 0.056693744
000330 e0 af 15 bd ec 05 45 bd 6d df 09 bc 14 6b 9a bc
       -0.03654468 -0.04810135 -0.008415085 -0.018849887
000340 e1 a3 72 bd 9f 37 f8 3c 27 fc b2 bc 3e 20 34 bc
       -0.05923832 0.03029996 -0.021848751 -0.010994015
000350 1e 4a f6 3c bf 0c b5 3c dc 40 28 3d 6c 26 87 bd
       0.030064639 0.022100804 0.04107748 -0.06599125
000360 03 8f 00 3d 8d 26 c1 3d d6 78 99 3d 7e 56 28 bd
       0.031386387 0.09431181 0.07493751 -0.04109811
000370 61 f7 1a 3b 68 5a 8b bd 84 6a 38 3d f5 b0 91 bd
       0.0023645984 -0.06804353 0.045023456 -0.0711383
000380 c1 69 3d bd 57 13 d0 3c 4f 29 da bc b2 64 84 bd
       -0.046243433 0.025399847 -0.026631026 -0.064645186
000390 d4 a4 27 bd 74 b0 76 bc 81 66 30 bd 0f a8 80 3b
       -0.040928677 -0.015056718 -0.043066505 0.003926284
0003a0 dc dc 2e 3d 5c 09 4a bd e3 ad b7 ba ba 4d d9 bd
       0.042691097 -0.049325332 -0.0014013614 -0.10610528
0003b0 bb 6d b3 bc e8 33 2a 3d 57 34 28 bd 42 a6 93 bd
       -0.02190291 0.041553408 -0.04106554 -0.072094455
0003c0 4c b1 82 bd 39 94 1a bc d7 01 81 3b 82 35 d7 bc
       -0.06381473 -0.009434753 0.003936987 -0.026270632
0003d0 6d ab c0 bb 49 a2 1d 3d 43 6c 62 3d bb be 0f bc
       -0.0058798105 0.038484845 0.055279028 -0.008773501
0003e0 70 1a 2b 3b 8c 5d 07 bd ee df 66 3d ad 94 49 3d
       0.0026108287 -0.033048198 0.0563659 0.049214054
0003f0 33 0c a0 3d 94 7f ea 3b d3 9b bf bb 87 8b 87 bd
       0.07814827 0.007156322 -0.005847433 -0.066184096

weight f4 [300, 200]
000000 00 00 00 80 00 00 00 80 00 00 00 80 00 00 00 00
       -0.0 -0.0 -0.0 0.0
000010 00 00 00 80 00 00 00 80 00 00 00 80 3c 85 71 3d
       -0.0 -0.0 -0.0 0.058964953
000020 00 00 00 80 00 00 00 00 00 00 00 00 00 00 00 80
       -0.0 0.0 0.0 -0.0
000030 d4 76 57 bd 00 00 00 00 00 00 00 80 00 00 00 00
       -0.052603558 0.0 -0.0 0.0
000040 00 00 00 80 00 00 00 80 c7 62 94 bd 00 00 00 80
       -0.0 -0.0 -0.07245403 -0.0
000050 bc 24 98 bd 90 92 4b 3d 00 00 00 00 00 00 00 80
       -0.074288815 0.04970032 0.0 -0.0
000060 00 00 00 80 00 00 00 80 00 00 00 80 00 00 00 00
       -0.0 -0.0 -0.0 0.0
000070 00 00 00 00 00 00 00 80 2a cf 71 3d 00 00 00 80
       0.0 -0.0 0.059035458 -0.0
000080 00 00 00 00 02 80 4e 3d 46 4f 7e bd 00 00 00 80
       0.0 0.050415047 -0.06208732 -0.0
000090 00 00 00 00 00 00 00 80 00 00 00 80 00 00 00 80
       0.0 -0.0 -0.0 -0.0
0000a0 00 00 00 00 00 00 00 80 62 4e 5c 3d 76 f7 88 bd
       0.0 -0.0 0.05378569 -0.066878244
0000b0 de 94 9f bd fa e4 64 3d 00 00 00 00 00 00 00 80
       -0.07792066 0.05588243 0.0 -0.0
0000c0 00 00 00 80 00 00 00 00 00 00 00 80 00 00 00 80
       -0.0 0.0 -0.0 -0.0
0000d0 00 00 00 80 00 00 00 80 00 00 00 80 00 00 00 80
       -0.0 -0.0 -0.0 -0.0
0000e0 00 00 00 00 00 00 00 80 00 00 00 80 70 00 92 bd
       0.0 -0.0 -0.0 -0.0712899
0000f0 f1 01 45 3d 00 00 00 80 00 00 00 80 00 00 00 80
       0.048097555 -0.0 -0.0 -0.0
000100 3d c2 95 3d 37 53 72 bd 00 00 00 80 07 cb 70 3d
       0.07312439 -0.05916139 -0.0 0.058787372
000110 00 00 00 00 00 00 00 80 00 00 00 80 00 00 00 80
       0.0 -0.0 -0.0 -0.0
000120 29 ed 86 bd d0 fb 9e bd e2 84 55 3d 00 00 00 80
       -0.065882035 -0.07762873 0.05212868 -0.0
000130 00 00 00 80 00 00 00 80 00 00 00 80 34 12 8a bd
       -0.0 -0.0 -0.0 -0.06741753
000140 00 00 00 00 00 00 00 80 00 00 00 80 00 00 00 00
       0.0 -0.0 -0.0 0.0
000150 00 00 00 80 00 00 00 80 31 43 84 bd 00 00 00 80
       -0.0 -0.0 -0.06458128 -0.0
000160 00 00 00 80 a1 08 81 bd 00 00 00 80 00 00 00 80
       -0.0 -0.06300474 -0.0 -0.0
000170 00 00 00 80 00 00 00 80 00 00 00 80 f1 59 57 3d
       -0.0 -0.0 -0.0 0.05257601
000180 00 00 00 80 f9 df 94 bd 00 00 00 80 00 00 00 80
       -0.0 -0.07269282 -0.0 -0.0
000190 00 00 00 80 00 00 00 80 00 00 00 00 00 00 00 00
       -0.0 -0.0 0.0 0.0
0001a0 b9 2b 76 3d 00 00 00 80 00 00 00 80 fb 10 9a 3d
       0.06010029 -0.0 -0.0 0.0752277
0001b0 00 00 00 80 00 00 00 80 00 00 00 80 00 00 00 80
       -0.0 -0.0 -0.0 -0.0
0001c0 00 00 00 80 30 27 aa bd 51 b8 8a bd 00 00 00 00
       -0.0 -0.08308256 -0.06773437 0.0
0001d0 00 00 00 80 00 00 00 00 e2 65 57 bd 00 00 00 00
       -0.0 0.0 -0.052587397 0.0
0001e0 00 00 00 80 00 00 00 80 8e b5 6a bd 00 00 00 80
       -0.0 -0.0 -0.05730205 -0.0
0001f0 00 00 00 80 00 00 00 80 00 00 00 80 00 00 00 80
       -0.0 -0.0 -0.0 -0.0
000200 00 00 00 80 00 00 00 80 00 00 00 80 00 00 00 80
       -0.0 -0.0 -0.0 -0.0
000210 00 00 00 80 00 00 00 80 00 00 00 80 00 00 00 80
       -0.0 -0.0 -0.0 -0.0
000220 00 00 00 80 00 00 00 80 00 00 00 00 00 00 00 00
       -0.0 -0.0 0.0 0.0
000230 00 00 00 80 00 00 00 80 00 00 00 80 00 00 00 80
       -0.0 -0.0 -0.0 -0.0
000240 00 00 00 80 00 00 00 80 00 00 00 00 00 00 00 00
       -0.0 -0.0 0.0 0.0
000250 00 00 00 80 00 00 00 00 00 00 00 80 00 00 00 80
       -0.0 0.0 -0.0 -0.0
000260 00 00 00 80 19 76 80 bd 5f 9d 5d 3d 00 00 00 80
       -0.0 -0.06272525 0.05410516 -0.0
000270 00 00 00 80 c0 ef 39 3d 00 00 00 80 00 00 00 80
       -0.0 0.04539466 -0.0 -0.0
000280 00 00 00 00 99 c5 57 3d 00 00 00 80 00 00 00 80
       0.0 0.05267868 -0.0 -0.0
000290 00 00 00 00 00 00 00 00 00 00 00 80 00 00 00 00
       0.0 0.0 -0.0 0.0
0002a0 00 00 00 80 00 00 00 80 00 00 00 80 00 00 00 00
       -0.0 -0.0 -0.0 0.0
0002b0 00 00 00 80 00 00 00 80 00 00 00 80 00 00 00 00
       -0.0 -0.0 -0.0 0.0
0002c0 8f 01 88 bd 00 00 00 80 d2 5b 67 bd 00 00 00 80
       -0.06640922 -0.0 -0.05648405 -0.0
0002d0 00 00 00 80 2d dd a0 bd 08 ed 9b bd 00 00 00 80
       -0.0 -0.07854686 -0.076135695 -0.0
0002e0 00 00 00 80 00 00 00 80 00 00 00 00 b3 11 74 3d
       -0.0 -0.0 0.0 0.05958719
0002f0 db e4 92 bd 21 75 81 3d 47 49 a7 bd 00 00 00 80
       -0.07172557 0.06321169 -0.081682734 -0.0
000300 00 00 00 00 56 c6 78 bd 00 00 00 80 00 00 00 80
       0.0 -0.060736023 -0.0 -0.0
000310 00 00 00 80 a8 32 53 3d 00 00 00 00 0c 9c 5f 3d
       -0.0 0.05156198 0.0 0.054592177
000320 00 00 00 00 0c 81 9b 3d 00 00 00 80 3f 74 8a be
       0.0 0.07592973 -0.0 -0.27041814
000330 00 00 00 80 1f b1 09 be 00 00 00 80 69 60 b3 be
       -0.0 -0.13446473 -0.0 -0.35034493
000340 51 ac 61 3d 00 00 00 00 8b c9 4d bd 00 00 00 00
       0.055095974 0.0 -0.050241034 0.0
000350 00 00 00 80 00 00 00 80 00 00 00 80 65 05 4e 3d
       -0.0 -0.0 -0.0 0.050298113
000360 e7 4c 97 3e 00 00 00 00 00 00 00 80 00 00 00 00
       0.2955086 0.0 -0.0 0.0
000370 00 00 00 00 00 00 00 00 00 00 00 80 00 00 00 80
       0.0 0.0 -0.0 -0.0
000380 00 00 00 00 00 00 00 00 00 00 00 00 00 00 00 80
       0.0 0.0 0.0 -0.0
000390 00 00 00 80 00 00 00 00 00 00 00 80 00 00 00 00
       -0.0 0.0 -0.0 0.0
0003a0 00 00 00 00 00 00 00 00 00 00 00 80 29 18 81 3e
       0.0 0.0 -0.0 0.25213745
0003b0 48 d1 fd bd 23 ff ea bc b6 0b 86 bd 00 00 00 00
       -0.12393433 -0.028686112 -0.065452024 0.0
0003c0 00 00 00 80 e7 38 5b 3e 6b f6 07 3e 1f f6 8d 3d
       -0.0 0.21408425 0.13277595 0.069317095
0003d0 00 00 00 00 00 00 00 00 00 00 00 00 7a 8c 11 3e
       0.0 0.0 0.0 0.14213744
0003e0 4c 64 a8 3d 8c cc af be 11 14 c7 3d 00 00 00 00
       0.08222255 -0.34335744 0.09720624 0.0
0003f0 05 88 42 3e 00 00 00 00 00 00 00 00 00 00 00 80
       0.189972 0.0 0.0 -0.0

bias f4 [2]
000000 8a c2 d4 3c 37 9c da bc
       0.02597167 -0.026685817

weight f4 [2, 300]
000000 00 00 00 80 12 77 94 be ac 70 4b 3e 00 00 00 80
       -0.0 -0.28997093 0.198672 -0.0
000010 00 00 00 80 7a f7 91 3e 00 00 00 80 4d 90 76 be
       -0.0 0.28509122 -0.0 -0.24078484
000020 93 59 a1 be 11 a3 9e 3e 00 00 00 80 00 00 00 80
       -0.31513652 0.30983785 -0.0 -0.0
000030 00 00 00 80 00 00 00 80 00 00 00 00 00 00 00 00
       -0.0 -0.0 0.0 0.0
000040 00 00 00 00 8c b5 93 3e 00 00 00 00 00 00 00 00
       0.0 0.28849447 0.0 0.0
000050 00 00 00 00 00 00 00 00 71 64 57 bd 00 00 00 00
       0.0 0.0 -0.052586023 0.0
000060 00 00 00 00 e1 98 8d 3e 07 4a 4d bd 00 00 00 80
       0.0 0.276557 -0.050119426 -0.0
000070 00 00 00 00 00 00 00 80 25 01 82 3e 00 00 00 00
       0.0 -0.0 0.25391498 0.0
000080 00 00 00 80 00 00 00 00 00 00 00 80 00 00 00 80
       -0.0 0.0 -0.0 -0.0
000090 00 00 00 80 00 00 00 00 00 00 00 00 00 00 00 00
       -0.0 0.0 0.0 0.0
0000a0 00 00 00 80 00 00 00 00 00 00 00 80 00 00 00 80
       -0.0 0.0 -0.0 -0.0
0000b0 00 00 00 80 00 00 00 80 00 00 00 80 00 00 00 80
       -0.0 -0.0 -0.0 -0.0
0000c0 00 00 00 00 00 00 00 00 00 00 00 80 00 00 00 00
       0.0 0.0 -0.0 0.0
0000d0 b5 0b c2 be 00 00 00 00 00 00 00 00 96 c4 72 be
       -0.37899557 0.0 0.0 -0.23707804
0000e0 00 00 00 00 00 00 00 80 00 00 00 00 06 7a 38 3d
       0.0 -0.0 0.0 0.045038246
0000f0 00 00 00 80 00 00 00 80 00 00 00 00 00 00 00 80
       -0.0 -0.0 0.0 -0.0
000100 00 00 00 80 00 00 00 80 00 00 00 00 00 00 00 00
       -0.0 -0.0 0.0 0.0
000110 00 00 00 80 00 00 00 00 00 00 00 00 00 00 00 00
       -0.0 0.0 0.0 0.0
000120 f4 b5 78 be 00 00 00 00 00 00 00 80 00 00 00 80
       -0.2428816 0.0 -0.0 -0.0
000130 00 00 00 80 00 00 00 00 47 ed 87 be 50 b8 a4 be
       -0.0 0.0 -0.26548216 -0.3217187
000140 00 00 00 00 27 00 a2 3e 00 00 00 80 00 00 00 80
       0.0 0.3164074 -0.0 -0.0
000150 00 00 00 80 57 a6 19 be 00 00 00 80 00 00 00 00
       -0.0 -0.1500486 -0.0 0.0
000160 00 00 00 80 00 00 00 00 00 00 00 00 00 00 00 80
       -0.0 0.0 0.0 -0.0
000170 00 00 00 80 00 00 00 80 00 00 00 80 00 00 00 80
       -0.0 -0.0 -0.0 -0.0
000180 00 00 00 80 d5 6e f9 be 00 00 00 80 00 00 00 80
       -0.0 -0.4871737 -0.0 -0.0
000190 70 c1 27 3e 00 00 00 00 00 00 00 80 81 6b a4 3e
       0.16382384 0.0 -0.0 0.3211327
0001a0 00 00 00 00 00 00 00 00 00 00 00 80 60 47 ba be
       0.0 0.0 -0.0 -0.3638258
0001b0 aa 21 a9 be 00 00 00 80 00 00 00 00 00 00 00 00
       -0.33033496 -0.0 0.0 0.0
0001c0 00 00 00 80 00 00 00 00 73 94 3f be 00 00 00 80
       -0.0 0.0 -0.18708973 -0.0
0001d0 f1 ad 52 3e 8a 40 c2 be 00 00 00 00 00 00 00 00
       0.20574166 -0.37939864 0.0 0.0
0001e0 00 00 00 00 00 00 00 80 e1 a1 c3 3e 00 00 00 00
       0.0 -0.0 0.3820944 0.0
0001f0 eb 31 87 be 00 00 00 80 00 00 00 80 00 00 00 80
       -0.26405272 -0.0 -0.0 -0.0
000200 00 00 00 80 00 00 00 80 00 00 00 80 00 00 00 80
       -0.0 -0.0 -0.0 -0.0
000210 21 74 a5 be 00 00 00 00 00 00 00 80 00 00 00 80
       -0.32315162 0.0 -0.0 -0.0
000220 fc b3 ab be 00 00 00 00 06 d8 6a 3e 00 00 00 00
       -0.33535755 0.0 0.22933969 0.0
000230 00 00 00 80 00 00 00 80 00 00 00 00 6c cf 39 bd
       -0.0 -0.0 0.0 -0.04536383
000240 00 00 00 00 b1 26 53 bd 00 00 00 80 00 00 00 80
       0.0 -0.05155057 -0.0 -0.0
000250 00 00 00 80 00 00 00 80 00 00 00 00 00 00 00 80
       -0.0 -0.0 0.0 -0.0
000260 45 0d 86 bd df 52 67 3e b7 7b a7 be 00 00 00 00
       -0.065455 0.22590207 -0.32711574 0.0
000270 4e 4e a9 3e 00 00 00 00 00 00 00 00 fc eb 80 be
       0.33067554 0.0 0.0 -0.25180042
000280 00 00 00 00 00 00 00 80 00 00 00 80 00 00 00 00
       0.0 -0.0 -0.0 0.0
000290 00 00 00 80 00 00 00 80 00 00 00 80 00 00 00 00
       -0.0 -0.0 -0.0 0.0
0002a0 00 00 00 00 00 00 00 80 00 00 00 80 00 00 00 80
       0.0 -0.0 -0.0 -0.0
0002b0 00 00 00 80 00 00 00 00 00 00 00 00 00 00 00 80
       -0.0 0.0 0.0 -0.0
0002c0 00 00 00 80 00 00 00 00 00 00 00 80 00 00 00 80
       -0.0 0.0 -0.0 -0.0
0002d0 1f b8 96 3e 00 00 00 00 00 00 00 80 2a 94 a0 be
       0.29437348 0.0 -0.0 -0.3136304
0002e0 00 00 00 80 00 00 00 00 00 00 00 00 00 00 00 80
       -0.0 0.0 0.0 -0.0
0002f0 00 00 00 00 00 00 00 00 00 00 00 80 d5 df b1 be
       0.0 0.0 -0.0 -0.34741083
000300 00 00 00 80 00 00 00 80 00 00 00 80 00 00 00 00
       -0.0 -0.0 -0.0 0.0
000310 00 00 00 80 00 00 00 80 00 00 00 00 a4 e6 9b be
       -0.0 -0.0 0.0 -0.30449402
000320 00 00 00 80 00 00 00 00 00 00 00 00 00 00 00 80
       -0.0 0.0 0.0 -0.0
000330 00 00 00 00 00 00 00 80 00 00 00 80 d4 42 9e be
       0.0 -0.0 -0.0 -0.3091036
000340 00 00 00 00 00 00 00 00 00 00 00 80 00 00 00 80
       0.0 0.0 -0.0 -0.0
000350 00 00 00 00 00 00 00 80 00 00 00 80 00 00 00 00
       0.0 -0.0 -0.0 0.0
000360 00 00 00 80 00 00 00 00 00 00 00 00 00 00 00 80
       -0.0 0.0 0.0 -0.0
000370 00 00 00 00 00 00 00 00 00 00 00 00 00 00 00 00
       0.0 0.0 0.0 0.0
000380 00 00 00 00 00 00 00 80 00 00 00 00 00 00 00 80
       0.0 -0.0 0.0 -0.0
000390 00 00 00 00 00 00 00 80 00 00 00 80 00 00 00 80
       0.0 -0.0 -0.0 -0.0
0003a0 00 00 00 00 1a d3 a2 be 00 00 00 80 00 00 00 00
       0.0 -0.31801683 -0.0 0.0
0003b0 00 00 00 80 00 00 00 80 00 00 00 00 00 00 00 00
       -0.0 -0.0 0.0 0.0
0003c0 00 00 00 00 00 00 00 00 00 00 00 80 00 00 00 80
       0.0 0.0 -0.0 -0.0
0003d0 00 00 00 80 00 00 00 00 b9 93 8a be 00 00 00 80
       -0.0 0.0 -0.27065828 -0.0
0003e0 00 00 00 80 00 00 00 80 00 00 00 00 00 00 00 00
       -0.0 -0.0 0.0 0.0
0003f0 00 00 00 80 00 00 00 80 b0 73 92 be 28 d6 d4 3e
       -0.0 -0.0 -0.28603888 0.41569638
