figures/Illu_large_global_3/theta=0.1_s=0.7_step=100/best_model.pth (torch, 246949 bytes, 5 tensors)

bias f4 [200]
0	0xbfb5c325	-1.4200178
1	0x3fa8647d	1.3155667
2	0x3f863f5e	1.0488088
3	0x3fd6efad	1.6791893
4	0x3ee89678	0.454273
5	0xbf8b668b	-1.0890669
6	0x3f8f98ea	1.1218541
7	0xbfc10df2	-1.5082381
8	0x3f8270d0	1.0190678
9	0xc0076b9c	-2.115943
10	0xbf8d7be6	-1.1053436
11	0xbfa02760	-1.2512016
12	0x3fd39907	1.6531075
13	0x3e7b1868	0.24521029
14	0xbf9ae845	-1.2102133
15	0xbf881083	-1.0630039
16	0xbe0d2c70	-0.13786483
17	0xbf362e27	-0.7116417
18	0x3fcadb7c	1.5848231
19	0x3f97de20	1.1864662
20	0xbf254a4a	-0.6456648
21	0xbfaa0dbc	-1.3285441
22	0x3f65df89	0.8979421
23	0x3fc53fdf	1.5410117
24	0x3fb1e34a	1.3897488
25	0xbf031c63	-0.5121519
26	0xbedfee25	-0.43736377
27	0x3f9b6801	1.2141114
28	0x3fc4c1d6	1.5371654
29	0xbf8975dd	-1.0739094
30	0xbf0a7ba8	-0.54094934
31	0x3faf4701	1.3693544
32	0x3faed047	1.3657311
33	0x3fd48e8e	1.6606004
34	0x3f92dfeb	1.1474584
35	0x3fa0504c	1.2524505
36	0xbf9c3207	-1.2202767
37	0x3f706720	0.93907356
38	0x3f086489	0.53278404
39	0x3fc011eb	1.5005468
40	0x3e8c405e	0.27392858
41	0x3f61c0ad	0.88184625
42	0xbfb7d9bc	-1.4363322
43	0xbf0eb6ff	-0.5574798
44	0x3f5b4f6b	0.8566806
45	0x40093948	2.1441212
46	0x3f0eeeb6	0.55832994
47	0x3f524b98	0.82146597
48	0xbf1235aa	-0.57113135
49	0xbf8ba437	-1.0909489
50	0x3faf8053	1.3711036
51	0x3f85d028	1.0454149
52	0x3fb17cb1	1.3866178
53	0xbf8bd886	-1.0925453
54	0x3eec9c35	0.46212927
55	0xbf89daa0	-1.0769844
56	0x3fb5641c	1.4171176
57	0x3f98dcbe	1.1942365
58	0x40175633	2.3646362
59	0xbf985984	-1.1902318
60	0xbfab54cc	-1.3385253
61	0xbf9d925b	-1.2310289
62	0x3f87e61b	1.0617098
63	0x3f8e3ece	1.1112916
64	0xbe3d65f5	-0.18495925
65	0xbf924cb4	-1.1429658
66	0x3d46c0ed	0.048523832
67	0x3eaf8a6a	0.3428529
68	0x3e56ae97	0.20965038
69	0x3fd0b033	1.6303772
70	0x3eb88713	0.36040553
71	0xbf8a35c0	-1.0797653
72	0xbf7e81f8	-0.99417067
73	0x3e6e234e	0.23255655
74	0xbf89fb91	-1.0779897
75	0xbf94417b	-1.1582483
76	0xbf35d002	-0.7102052
77	0xbfa330da	-1.2749283
78	0x3e991373	0.2989765
79	0xbfb8f6af	-1.4450282
80	0xbf97d1fa	-1.1860955
81	0x3f113757	0.56725067
82	0x3e62889b	0.22122423
83	0xbf54064c	-0.8282211
84	0x3f865926	1.0495956
85	0xbf90d6d0	-1.1315556
86	0x3dd08f29	0.10183556
87	0x3fbd0fee	1.4770486
88	0x3faacca5	1.3343703
89	0x3f9ec5b3	1.2404083
90	0xbe92f150	-0.28699732
91	0x3f485ea5	0.78269416
92	0xbfb94933	-1.4475464
93	0xbf6c9727	-0.9241814
94	0x3f7cc26d	0.9873417
95	0xbeb827be	-0.3596782
96	0xbf902ed7	-1.1264294
97	0x3f945e7d	1.1591336
98	0x3f3a0e75	0.7267831
99	0x3fb50e79	1.4145042
100	0xbf4244c8	-0.758862
101	0xbf5ac879	-0.85462147
102	0xbe636c67	-0.22209321
103	0xbf0a2a26	-0.53970563
104	0x3e1d79b0	0.15378451
105	0xbec97f72	-0.39355046
106	0xbedcc61e	-0.431199
107	0xbf878745	-1.0588156
108	0xbfd4c74a	-1.6623318
109	0xbf96b0b5	-1.1772677
110	0x3f64f587	0.89437145
111	0x3f62e0f9	0.8862453
112	0x3f70d00b	0.9406745
113	0x3ec066ae	0.37578338
114	0xbf86851c	-1.0509372
115	0xbf80dcc3	-1.0067371
116	0xbfa61061	-1.2973748
117	0x3fb03f5b	1.3769335
118	0x3dc63d01	0.09679604
119	0x3fad33cf	1.3531436
120	0x3f972ce4	1.1810575
121	0x3e332915	0.1749614
122	0xbf8fdbf6	-1.1239002
123	0xbfb23cd6	-1.3924816
124	0x3fcabda4	1.5839124
125	0xbf6ee713	-0.9332134
126	0x3f04973c	0.51793265
127	0x3f10eed4	0.5661442
128	0xbd71c1cc	-0.05902271
129	0xbfb06289	-1.378007
130	0xbf61def3	-0.8823082
131	0xbc8434a0	-0.016138375
132	0xbfb9462f	-1.4474543
133	0x3ebb1c86	0.365452
134	0x3f099808	0.53747606
135	0x3f3f5866	0.7474426
136	0xbf8a89a0	-1.082325
137	0x3fa4b1c6	1.2866752
138	0x3fd72856	1.6809185
139	0x3f7b8306	0.982468
140	0xbfbb3a4b	-1.4627165
141	0xbf6a114f	-0.9143266
142	0x3e6a0d64	0.2285667
143	0xbfa004f8	-1.2501516
144	0xbe2dc0a3	-0.16968016
145	0xbf4648b6	-0.774547
146	0xbf13a8e5	-0.5767959
147	0x3f6c5672	0.92319405
148	0xbf970e96	-1.1801326
149	0x3f84497e	1.0334928
150	0x3e1617b7	0.14657484
151	0xbf88936f	-1.0669993
152	0xbf87fa3d	-1.0623242
153	0xbf9dc6aa	-1.2326252
154	0x3f9f3aa4	1.2439771
155	0xbf093d2e	-0.5360898
156	0xbea6c3b8	-0.32571197
157	0xbea9751f	-0.3309717
158	0xbf8a5053	-1.0805763
159	0xbfc61dcd	-1.5477844
160	0xbf95d802	-1.1706545
161	0xbe385e50	-0.18004727
162	0xbfd87eca	-1.6913693
163	0x3fbacb39	1.4593269
164	0x3fc0f6a1	1.5075265
165	0xbf9c342a	-1.2203419
166	0x3fea40f9	1.8301078
167	0xbf01e698	-0.50742483
168	0xbf69bc2a	-0.9130274
169	0x3f9a6b6b	1.2064031
170	0xbf7b3a5f	-0.9813594
171	0x3f021895	0.5081876
172	0x3f1d2c56	0.61395776
173	0x3f9ccf30	1.2250729
174	0xbf48ab5a	-0.7838646
175	0x3fadfc62	1.3592646
176	0xbfae1ce7	-1.360257
177	0xbfa3112a	-1.2739613
178	0x3fb48a83	1.410477
179	0xbf5e15ee	-0.8675221
180	0xbf9fc7d8	-1.2482862
181	0xbf949f5f	-1.1611136
182	0xbf9314be	-1.1490705
183	0xbf8ec50d	-1.1153885
184	0xbebe714f	-0.37195823
185	0xbfa54dd8	-1.2914381
186	0x3fb36197	1.4014157
187	0xbe335515	-0.17512925
188	0xbf797597	-0.9744505
189	0xbf61851a	-0.8809372
190	0x3fb11fc6	1.3837821
191	0xbf9592f9	-1.1685477
192	0x3e94b3b9	0.29043368
193	0x3fd49f2b	1.6611074
194	0x3fb067c9	1.3781673
195	0x3df79dc0	0.12090635
196	0xbd805b07	-0.06267362
197	0xbf162cde	-0.5866221
198	0xbfb4d00a	-1.4125988
199	0xbf81eb3d	-1.0149914

weight f4 [200, 1]
0	0xbfccfb55	-1.60142
1	0xbf9560c8	-1.167016
2	0xbf8ac6fb	-1.0841974
3	0xbfa008f2	-1.250273
4	0xbf1952ce	-0.59891975
5	0xbfdb13c3	-1.7115406
6	0x3fa579d3	1.2927803
7	0x3f98bdf3	1.1932968
8	0x3f156c33	0.58368224
9	0x3fa9175d	1.3210255
10	0xbf1d21d3	-0.61379737
11	0x3f94f5a6	1.1637466
12	0xbf9d69ca	-1.2297909
13	0xbf2f2295	-0.68412143
14	0xbfd1ce40	-1.6391068
15	0xbf927dbe	-1.1444623
16	0xbf81914d	-1.0122467
17	0x3fbbcf6f	1.4672679
18	0x3f1acc12	0.60467637
19	0x3fbb674f	1.4640902
20	0x3f48151d	0.78157216
21	0xbfb7b1b1	-1.4351102
22	0x3fd4f333	1.6636719
23	0xbf9984bc	-1.1993632
24	0xbf95db51	-1.1707555
25	0xbfd725e4	-1.6808438
26	0xbf888791	-1.0666372
27	0x3f0c0e21	0.5470906
28	0xbf9c4c3b	-1.2210764
29	0xbfd85cf2	-1.6903365
30	0xbf96fb5a	-1.1795456
31	0x3fad50a3	1.3540233
32	0xbf97bc4c	-1.1854339
33	0xbf9e2736	-1.2355716
34	0xbfa88386	-1.3165138
35	0xbf90b85c	-1.1306262
36	0xbfb12db4	-1.3842072
37	0xbfa2697e	-1.2688444
38	0xbf70894a	-0.93959486
39	0x3f2aa515	0.66658145
40	0x3f5c6333	0.86088866
41	0xbf422a1a	-0.7584549
42	0xbf1d5170	-0.6145239
43	0xbfd7f2df	-1.6870993
44	0x3f3fbc5b	0.7489678
45	0xbfa8c110	-1.3183918
46	0xbf8be20e	-1.0928361
47	0xbefdbd32	-0.49558407
48	0xbf14fd1d	-0.5819872
49	0x3f9abb4e	1.2088411
50	0x3f2bc40c	0.6709602
51	0xbf621087	-0.8830647
52	0xbf65f43f	-0.89825815
53	0x3fe85395	1.8150507
54	0x3fa822e2	1.3135645
55	0x3f873e70	1.056593
56	0xbf88f893	-1.0700859
57	0x3fc90c74	1.5706925
58	0x3f3a9f0e	0.7289895
59	0xbf64167e	-0.8909682
60	0x3f95a901	1.1692201
61	0x3f854a71	1.0413343
62	0xbf945dce	-1.1591127
63	0xbf90c27e	-1.1309354
64	0xbf84f317	-1.0386685
65	0xbfe8a852	-1.8176367
66	0x3ed6b93c	0.41938198
67	0xbf943ec4	-1.1581655
68	0x3f4a2727	0.7896599
69	0x3f22fac8	0.6366391
70	0x3f8206f7	1.0158376
71	0x3f8592e3	1.0435451
72	0xbfacc34d	-1.3497101
73	0x3f0c9899	0.54920346
74	0x3f8a9d4e	1.0829256
75	0x3f834c95	1.0257746
76	0x3f4f8f98	0.8107848
77	0x3f9da6e4	1.2316556
78	0x3eb49c87	0.3527567
79	0x3f986661	1.1906244
80	0xbfd19c57	-1.6375836
81	0xbf95e6d4	-1.1711068
82	0xbfa7320e	-1.306215
83	0x3f30bd1c	0.6903856
84	0x3fc4f682	1.5387728
85	0xbfe0639a	-1.7530396
86	0x3ea2f16f	0.31824824
87	0xbf920ac5	-1.1409537
88	0xbf92f566	-1.148114
89	0xbf92a10d	-1.1455399
90	0xbfb4113d	-1.4067761
91	0x3f138c32	0.57635796
92	0xbfbd1cbc	-1.4774394
93	0x3fac4756	1.345927
94	0x3f5a1412	0.85186875
95	0x3f3799bd	0.7171896
96	0xbfc5a3c5	-1.5440603
97	0x3fac6121	1.3467141
98	0xbf5e8188	-0.869164
99	0xbf897679	-1.073928
100	0x3f45dea8	0.7729287
101	0x3f522b35	0.8209718
102	0xbe84ffc0	-0.25976372
103	0xbf204b6c	-0.62615085
104	0xbea13279	-0.3148382
105	0xbfa41f7e	-1.2822111
106	0xbee43572	-0.44572026
107	0xbf4e3594	-0.80550504
108	0x3f9b8000	1.2148438
109	0xbfbfc264	-1.4981198
110	0x3f10de57	0.56589264
111	0x3faafd91	1.3358632
112	0xbf801aa6	-1.0008132
113	0xbf672bdf	-0.90301317
114	0xbfbfa2f2	-1.4971602
115	0xbfd8afca	-1.6928647
116	0x3f962eb5	1.1733004
117	0x3fb67ac9	1.4256221
118	0xbf0fca50	-0.5616808
119	0x3fd1b6e7	1.6383942
120	0x3f3c38af	0.7352399
121	0xbfaf9470	-1.3717175
122	0xbff2b049	-1.8960048
123	0xbfb23b26	-1.3924301
124	0xbf935b00	-1.1512146
125	0xbfbbd491	-1.4674245
126	0x3f204483	0.6260454
127	0x3ef0fd8e	0.47068447
128	0xbf2903ae	-0.6602124
129	0xbf25aa8b	-0.6471335
130	0x3fa8a58f	1.3175524
131	0xbf41096e	-0.75405014
132	0x3f94c56b	1.1622747
133	0xbfbe07fc	-1.4846187
134	0xbfa24663	-1.267773
135	0x3f04bc52	0.51849854
136	0x3f8aa26c	1.0830817
137	0x3fb16d49	1.3861476
138	0xbfa1714d	-1.2612702
139	0xbf5a71aa	-0.8532969
140	0xbfca6a86	-1.5813758
141	0xbf821d36	-1.0165164
142	0xbf55a75d	-0.834585
143	0x3f4d4af9	0.80192524
144	0xbf9a5ac7	-1.2058953
145	0xbf15829b	-0.58402413
146	0x3f20feb7	0.62888664
147	0xbfba6452	-1.4561865
148	0x3f8daa68	1.1067629
149	0x3feaba99	1.8338195
150	0xbf8b5671	-1.0885755
151	0x3fb78696	1.4337947
152	0x3f6546db	0.8956124
153	0x3fc3a635	1.5285097
154	0x3fafa273	1.372145
155	0xbfdcf1cf	-1.7261294
156	0x3f9a04c9	1.203271
157	0xbeed902c	-0.46399057
158	0x3f1df0f9	0.6169582
159	0xbfb5c34a	-1.4200222
160	0xbfd8aba8	-1.6927385
161	0x3eb7a02a	0.35864383
162	0x3f8f38db	1.1189226
163	0x3f17f141	0.593525
164	0xbf9e6aa9	-1.23763
165	0xbfe05010	-1.7524433
166	0x3f3770d9	0.71656567
167	0xbf0dce00	-0.55392456
168	0xbf147114	-0.57985044
169	0xbf7d533a	-0.9895512
170	0xbf2b97a7	-0.6702828
171	0x3f185d6c	0.5951755
172	0xbf87fc1d	-1.0623814
173	0x3f167013	0.5876476
174	0x3f5e6469	0.86871964
175	0x3f87ec09	1.0618907
176	0xbf932a4a	-1.1497281
177	0x3f776f12	0.96653855
178	0x3faea8d1	1.3645269
179	0xbfbf70ac	-1.495626
180	0x3f93e88b	1.1555341
181	0x3f24dd12	0.64399827
182	0x3fde7129	1.7378284
183	0x3fd625cc	1.6730285
184	0x3eabd3b8	0.33559966
185	0x3f869db5	1.0516878
186	0x3f1cd70d	0.6126564
187	0x3ebfba48	0.3744681
188	0xbfe55100	-1.7915344
189	0x3f222963	0.633444
190	0x3fcb9988	1.5906229
191	0xbfb9e6a6	-1.4523513
192	0xbf6d7f70	-0.9277258
193	0x3f1f8575	0.62313014
194	0x3f2752ac	0.6536052
195	0x3f4fd6da	0.8118721
196	0x3f04084a	0.5157515
197	0x3f8aaf1c	1.0834689
198	0xbfb40acf	-1.4065799
199	0x3fa588f0	1.2932415

bias f4 [300]
0	0xbdd5e69d	-0.104443766
1	0xbde682ac	-0.112553924
2	0x3d2e5bca	0.042568006
3	0xbd60c65c	-0.05487667
4	0xbc35c3ff	-0.011094092
5	0x3d2157e2	0.039390452
6	0xbcba0dad	-0.0227116
7	0x3abf257c	0.0014583315
8	0xbdd832e3	-0.10556581
9	0x3d0ad52a	0.033894695
10	0x3d4003e8	0.046878725
11	0x3d30a42c	0.043125317
12	0xbc25208d	-0.0100785615
13	0xbd138685	-0.03601696
14	0xbdc04c2c	-0.09389529
15	0x3ce194a6	0.027536701
16	0x3c09f09a	0.00841918
17	0x3a084d1a	0.00051994773
18	0x3c4b5482	0.012410285
19	0xbd1df43d	-0.038563002
20	0x3d101cf9	0.03518388
21	0xbb6b49b9	-0.0035902096
22	0xbd9a0792	-0.07520975
23	0xbde721d3	-0.11285748
24	0xbdacc4ab	-0.08435949
25	0xbd875fd5	-0.066100754
26	0xbd863f09	-0.06554992
27	0xbcd594d4	-0.026071943
28	0xbd060713	-0.03272159
29	0x3ce3b7b0	0.02779755
30	0xbc5bb3eb	-0.013409595
31	0xbc9b1678	-0.018931612
32	0x3b9fcafd	0.004876493
33	0xbdb8b9f7	-0.09019845
34	0x3b7fbd0f	0.00390226
35	0x3d289cde	0.041165225
36	0x3d33984c	0.043846413
37	0xbddb5ac9	-0.10710675
38	0xbcdbc25e	-0.02682608
39	0xbd53ca06	-0.051706336
40	0x3d537529	0.051625405
41	0xbd9c249a	-0.07624169
42	0xbd9a988a	-0.07548626
43	0x3c786a00	0.015161991
44	0xbd2ccc28	-0.042186886
45	0xbd7d201e	-0.061798207
46	0xbd87db2d	-0.06633601
47	0x3b460fdb	0.0030221853
48	0xbc13f00b	-0.009029399
49	0xbd2c5a37	-0.042078223
50	0xbd47828b	-0.04870848
51	0xbdc311b2	-0.095248595
52	0x3d0455bf	0.032308336
53	0xbab7ba84	-0.0014017378
54	0x3b85c884	0.004082741
55	0xbdd1e1dc	-0.102481574
56	0x3c388e09	0.011264333
57	0xbd08db49	-0.03341225
58	0xbd823a18	-0.06358737
59	0xbb8e94f3	-0.004351252
60	0xbd3ab1dd	-0.04557978
61	0xbd87f310	-0.06638157
62	0xbd193697	-0.037405577
63	0xbd803a4e	-0.06261121
64	0xbc99b5e6	-0.018763494
65	0xbd0151b3	-0.031572055
66	0x3b9e04d7	0.0048223543
67	0xbd2b311a	-0.041794874
68	0x3cd2fcb1	0.025755258
69	0xbd22dc38	-0.0397608
70	0x3a846f37	0.0010103945
71	0xbd78e59a	-0.06076584
72	0x3cadce02	0.021216396
73	0xbd86f1b4	-0.0658907
74	0xbda9e262	-0.08295132
75	0x3c8f7aee	0.017514672
76	0x3ce92ffa	0.02846526
77	0xbc20fd81	-0.009826065
78	0x3be940c7	0.0071183178
79	0xbc8091f6	-0.0156946
80	0x3cf5735b	0.029962232
81	0xbce31a9a	-0.027722646
82	0x3d00efd8	0.031478733
83	0xbd974ab4	-0.07387295
84	0xbc8ef108	-0.017448917
85	0xbcb19d1c	-0.02168136
86	0xbd229931	-0.039696876
87	0xbd252bf7	-0.04032513
88	0xbdeee6e9	-0.11665136
89	0x3cb77c57	0.022398157
90	0x3c3cd4c2	0.011525335
91	0xbd40da5d	-0.047083247
92	0x3cd57bf1	0.026060076
93	0xbdc2f17f	-0.09518718
94	0xbd763fbf	-0.060119387
95	0xbb5a0675	-0.003326801
96	0xbd8c359c	-0.06846163
97	0xbd8088bc	-0.0627608
98	0xbdb79819	-0.08964557
99	0xbcd19345	-0.025582919
100	0xbdf3276d	-0.11872754
101	0xbe0f1166	-0.1397148
102	0xbd0eb59a	-0.034841157
103	0xbca24ed9	-0.019812988
104	0xbdae0c40	-0.0849843
105	0xbd68750f	-0.05675226
106	0xbd549f41	-0.05190969
107	0xbd9169dd	-0.0710027
108	0xbd95146d	-0.072792865
109	0x3d4282b3	0.047487926
110	0xbd982dad	-0.07430587
111	0xbca536f0	-0.020167798
112	0xbdf5f3b5	-0.12009374
113	0xbdb7ff73	-0.0898427
114	0xbdc18ee8	-0.09451085
115	0xbc939623	-0.018015927
116	0xbd9c6240	-0.07635927
117	0xbcc1b353	-0.023645079
118	0xbd71df52	-0.059050865
119	0xbc931726	-0.017955374
120	0x3c75e2c6	0.01500768
121	0xbdca24bd	-0.098702885
122	0xbcc84e73	-0.02445147
123	0xbde8fa9d	-0.11375926
124	0xbd05d021	-0.03266919
125	0x3d397bcb	0.045284074
126	0xbcd1566f	-0.02555391
127	0xbd39135f	-0.04518449
128	0xbccc1c87	-0.024915947
129	0xbda77d40	-0.081781864
130	0xbd923e41	-0.0714078
131	0xbc6d23ca	-0.014473865
132	0xbdce6fc0	-0.10079908
133	0x3c2a96d5	0.010411938
134	0xbda088bd	-0.07838581
135	0xbc73062d	-0.014833015
136	0x3c1708aa	0.009218374
137	0x3cfa8ba0	0.030584157
138	0x3b4d56d3	0.003133227
139	0x3d1d89e3	0.038461577
140	0xbdd92b88	-0.10604006
141	0xbd635067	-0.0554966
142	0xbd06fc10	-0.03295523
143	0xbe02bd39	-0.12767495
144	0xbd04cc97	-0.032421675
145	0xbd13f40e	-0.03612142
146	0xbd358032	-0.04431171
147	0xbce31aa9	-0.027722673
148	0xbd3eeaa2	-0.046610482
149	0x3c1fe0ed	0.009758216
150	0xbd8293a4	-0.063758165
151	0x3a9b1014	0.0011830353
152	0x3d7ba5ba	0.061437346
153	0x3c053e28	0.008132495
154	0x3d3e8a47	0.04651859
155	0xbc802cec	-0.01564642
156	0xbe01a466	-0.1266037
157	0xbd973331	-0.07382811
158	0xbda99928	-0.08281165
159	0x3c7e9cc6	0.015540307
160	0xbdb39451	-0.087685235
161	0x3d019718	0.031638235
162	0xbdca4850	-0.09877074
163	0xbd88468d	-0.066540815
164	0xbc9f7ed9	-0.019469665
165	0x3d005f76	0.03134104
166	0x38e5329b	0.00010928997
167	0x3d0dfdb9	0.034665797
168	0xbd427922	-0.047478803
169	0xbdb77870	-0.089585185
170	0xbdaf6ac4	-0.08565286
171	0xbdab0c1e	-0.083519205
172	0xbde8fc5a	-0.11376257
173	0x3c289bc4	0.010291044
174	0xbdca17c1	-0.09867812
175	0x3d40156f	0.04689544
176	0xbd0bae90	-0.034102023
177	0x3b0753d5	0.0020649333
178	0xbc811da4	-0.015761204
179	0xbd4903b4	-0.049075797
180	0xbc8ec04e	-0.017425682
181	0xbd7d71cb	-0.0618761
182	0xbd088686	-0.033331417
183	0xbd67629c	-0.056490526
184	0xbcf548f8	-0.02994202
185	0xbd76c94b	-0.06025056
186	0xbd33b606	-0.043874763
187	0x3d92048b	0.07129773
188	0x3d10b332	0.035327144
189	0xbcd5f9bc	-0.02612006
190	0xbd5159cf	-0.05111104
191	0x3cddca81	0.0270741
192	0xbd821262	-0.063511625
193	0x3d3c6593	0.045995306
194	0xbc85e30f	-0.016343622
195	0xbd444fca	-0.047927655
196	0xbc9ad435	-0.018900016
197	0x3cd57ade	0.026059564
198	0xbd813f5f	-0.06310915
199	0xbc2cc4aa	-0.010544935
200	0xbd094772	-0.0335154
201	0xbc31984c	-0.010839533
202	0x3cbf59c9	0.023358243
203	0xbdada63b	-0.084789716
204	0xbd4af146	-0.049546503
205	0x3c1e4bda	0.009661639
206	0x3cfad961	0.030621232
207	0xbd1dc74a	-0.038520135
208	0xbd8cc5ab	-0.0687364
209	0xbc176754	-0.009240944
210	0x3d957e99	0.07299537
211	0xbd919133	-0.07107773
212	0x3ca9cc0c	0.02072718
213	0x3d50dfab	0.050994556
214	0xbc4baabd	-0.012430844
215	0xbddadf05	-0.10687069
216	0xbd1f7aef	-0.038935598
217	0xbccee2f0	-0.025254697
218	0xbd92d27c	-0.07169053
219	0xbc89cf42	-0.016822461
220	0xbcb197e7	-0.021678878
221	0x3b746f60	0.003729783
222	0x3d6ba6fb	0.05753229
223	0x3d1c45d0	0.038152516
224	0x3d1a8f36	0.037734233
225	0xbdd193c4	-0.10233262
226	0xbcd07b18	-0.02544932
227	0xbcbb8840	-0.022892118
228	0xbdabe686	-0.08393578
229	0xbd3c31ed	-0.04594605
230	0xbd63a4df	-0.055577155
231	0xbd010776	-0.031501256
232	0xbdcb1779	-0.099165864
233	0x3d46a8cc	0.04850082
234	0x3b8f4ff6	0.0043735458
235	0xbb9b5b60	-0.0047411174
236	0xbcd38a39	-0.025822746
237	0xbd10cf04	-0.035353675
238	0xbd98e3c7	-0.0746532
239	0x3d003952	0.031304665
240	0xbdc17ea0	-0.0944798
241	0xbde48b23	-0.11159351
242	0x3ba7449a	0.0051046135
243	0x3c1aed7b	0.009456034
244	0x3c2a127e	0.010380385
245	0x3cf621aa	0.03004535
246	0xbd0f0f05	-0.034926433
247	0xbe2075b2	-0.15669897
248	0x3d08e078	0.033417195
249	0xbcc8bc1f	-0.024503766
250	0x3b4cc22f	0.0031243672
251	0x3cf4652c	0.029833399
252	0xbcb247d2	-0.021762762
253	0xbd0511c8	-0.03248766
254	0xbc1eb0d2	-0.009685712
255	0xbd83603b	-0.06414839

weight f4 [300, 200]
0	0x80000000	-0.0
1	0x80000000	-0.0
2	0x80000000	-0.0
3	0x80000000	-0.0
4	0x3c6d55c7	0.014485783
5	0x80000000	-0.0
6	0x80000000	-0.0
7	0x80000000	-0.0
8	0xbdef2173	-0.11676302
9	0x80000000	-0.0
10	0x80000000	-0.0
11	0x3ce94f10	0.028480083
12	0x80000000	-0.0
13	0x80000000	-0.0
14	0x80000000	-0.0
15	0x80000000	-0.0
16	0x80000000	-0.0
17	0xbddd40b3	-0.10803356
18	0x80000000	-0.0
19	0x80000000	-0.0
20	0x80000000	-0.0
21	0x3cd9e7b6	0.026599746
22	0x80000000	-0.0
23	0x3bec95d9	0.0072200117
24	0x80000000	-0.0
25	0xbdd59779	-0.10429282
26	0x80000000	-0.0
27	0x80000000	-0.0
28	0x80000000	-0.0
29	0x3c1e4c80	0.009661794
30	0x80000000	-0.0
31	0x80000000	-0.0
32	0x80000000	-0.0
33	0x80000000	-0.0
34	0x80000000	-0.0
35	0x80000000	-0.0
36	0x80000000	-0.0
37	0x80000000	-0.0
38	0x80000000	-0.0
39	0xbddb4aef	-0.10707652
40	0x80000000	-0.0
41	0x80000000	-0.0
42	0x80000000	-0.0
43	0x80000000	-0.0
44	0x3c37d703	0.011220696
45	0x80000000	-0.0
46	0x80000000	-0.0
47	0x80000000	-0.0
48	0xbde7df49	-0.11321885
49	0x80000000	-0.0
50	0x80000000	-0.0
51	0x80000000	-0.0
52	0xbde18d53	-0.110132836
53	0x80000000	-0.0
54	0x80000000	-0.0
55	0x80000000	-0.0
56	0x80000000	-0.0
57	0x80000000	-0.0
58	0x80000000	-0.0
59	0x80000000	-0.0
60	0x80000000	-0.0
61	0x3c209b62	0.009802671
62	0x80000000	-0.0
63	0xbde0b311	-0.10971654
64	0x80000000	-0.0
65	0x80000000	-0.0
66	0x80000000	-0.0
67	0x80000000	-0.0
68	0x80000000	-0.0
69	0x80000000	-0.0
70	0xbdeb4d46	-0.11489348
71	0x80000000	-0.0
72	0x80000000	-0.0
73	0xbdce8322	-0.10083605
74	0x80000000	-0.0
75	0xbdc4d929	-0.096117325
76	0x80000000	-0.0
77	0x80000000	-0.0
78	0x80000000	-0.0
79	0x3c316975	0.010828366
80	0x80000000	-0.0
81	0x80000000	-0.0
82	0x80000000	-0.0
83	0x3c524e3f	0.012836038
84	0x80000000	-0.0
85	0x80000000	-0.0
86	0x80000000	-0.0
87	0x80000000	-0.0
88	0xbde798ec	-0.113084644
89	0x80000000	-0.0
90	0xbdca16c1	-0.09867621
91	0x80000000	-0.0
92	0x80000000	-0.0
93	0xbded87bc	-0.11598155
94	0x80000000	-0.0
95	0xbde3f0ee	-0.11129938
96	0x80000000	-0.0
97	0x80000000	-0.0
98	0x3c638fe5	0.013889288
99	0x80000000	-0.0
100	0x80000000	-0.0
101	0x80000000	-0.0
102	0x80000000	-0.0
103	0x80000000	-0.0
104	0x80000000	-0.0
105	0x80000000	-0.0
106	0x3c9beb59	0.019033121
107	0xbdca5231	-0.09878958
108	0x80000000	-0.0
109	0x80000000	-0.0
110	0x80000000	-0.0
111	0x80000000	-0.0
112	0x80000000	-0.0
113	0xbdc831fc	-0.09775159
114	0xbdcb1fcb	-0.099181734
115	0xbde6eef3	-0.11276045
116	0x80000000	-0.0
117	0x80000000	-0.0
118	0x3c8038d4	0.015652098
119	0x3bc22a8c	0.005925482
120	0xbdedc9e6	-0.11610775
121	0xbddd438a	-0.10803898
122	0x80000000	-0.0
123	0xbdace938	-0.084429204
124	0x3c30f726	0.010801112
125	0x80000000	-0.0
126	0x80000000	-0.0
127	0x80000000	-0.0
128	0x80000000	-0.0
129	0xbdc3cde2	-0.095607534
130	0xbdef176c	-0.11674389
131	0x3ca37eac	0.019957863
132	0xbdcb134b	-0.09915789
133	0x3ca87702	0.02056456
134	0xbdd31e2a	-0.10308488
135	0x3c178c49	0.009249755
136	0x80000000	-0.0
137	0x80000000	-0.0
138	0x80000000	-0.0
139	0x3c8241c2	0.015900496
140	0x80000000	-0.0
141	0x80000000	-0.0
142	0x80000000	-0.0
143	0x3c8a5079	0.016884075
144	0x80000000	-0.0
145	0x80000000	-0.0
146	0x80000000	-0.0
147	0x80000000	-0.0
148	0xbdd7a13e	-0.105288014
149	0x80000000	-0.0
150	0xbdd6f288	-0.10495478
151	0x80000000	-0.0
152	0x80000000	-0.0
153	0x3c4a4e79	0.012347811
154	0xbdd4aea7	-0.10384875
155	0x80000000	-0.0
156	0x80000000	-0.0
157	0x80000000	-0.0
158	0x3c9ffdcc	0.0195302
159	0xbdb2e070	-0.08734214
160	0x80000000	-0.0
161	0x80000000	-0.0
162	0x80000000	-0.0
163	0x80000000	-0.0
164	0x80000000	-0.0
165	0x80000000	-0.0
166	0x80000000	-0.0
167	0x80000000	-0.0
168	0x80000000	-0.0
169	0x80000000	-0.0
170	0xbdd1ee35	-0.102505125
171	0xbddf91c5	-0.10916475
172	0x80000000	-0.0
173	0x80000000	-0.0
174	0x80000000	-0.0
175	0xbde4df22	-0.11175372
176	0x80000000	-0.0
177	0x80000000	-0.0
178	0x80000000	-0.0
179	0x80000000	-0.0
180	0x80000000	-0.0
181	0x3d017223	0.03160299
182	0xbdee99cd	-0.11650429
183	0x80000000	-0.0
184	0x80000000	-0.0
185	0x80000000	-0.0
186	0x80000000	-0.0
187	0x80000000	-0.0
188	0x80000000	-0.0
189	0x80000000	-0.0
190	0x80000000	-0.0
191	0xbddba381	-0.10724545
192	0x3c238aac	0.009981792
193	0x80000000	-0.0
194	0x80000000	-0.0
195	0xbdc85f8a	-0.09783848
196	0x80000000	-0.0
197	0x80000000	-0.0
198	0x80000000	-0.0
199	0x3c7c7086	0.015407687
200	0x80000000	-0.0
201	0x80000000	-0.0
202	0x80000000	-0.0
203	0x80000000	-0.0
204	0x80000000	-0.0
205	0x80000000	-0.0
206	0x80000000	-0.0
207	0x80000000	-0.0
208	0x80000000	-0.0
209	0x00000000	0.0
210	0xbe1aebaa	-0.15128961
211	0x80000000	-0.0
212	0x80000000	-0.0
213	0x80000000	-0.0
214	0x80000000	-0.0
215	0x80000000	-0.0
216	0x80000000	-0.0
217	0x80000000	-0.0
218	0x80000000	-0.0
219	0xbe360900	-0.1777687
220	0x80000000	-0.0
221	0x80000000	-0.0
222	0x80000000	-0.0
223	0x80000000	-0.0
224	0x80000000	-0.0
225	0x80000000	-0.0
226	0xbe141dcf	-0.14464496
227	0x80000000	-0.0
228	0x80000000	-0.0
229	0x80000000	-0.0
230	0x80000000	-0.0
231	0x80000000	-0.0
232	0x80000000	-0.0
233	0x80000000	-0.0
234	0x80000000	-0.0
235	0xbe386016	-0.18005404
236	0x80000000	-0.0
237	0xbe165349	-0.14680208
238	0x80000000	-0.0
239	0x80000000	-0.0
240	0x80000000	-0.0
241	0x80000000	-0.0
242	0x80000000	-0.0
243	0x80000000	-0.0
244	0x80000000	-0.0
245	0x80000000	-0.0
246	0xbe22daec	-0.15903825
247	0xbe218160	-0.15772009
248	0x80000000	-0.0
249	0x80000000	-0.0
250	0x80000000	-0.0
251	0x80000000	-0.0
252	0x80000000	-0.0
253	0x80000000	-0.0
254	0x80000000	-0.0
255	0x80000000	-0.0

weight f4 [1, 300]
0	0x80000000	-0.0
1	0x80000000	-0.0
2	0x80000000	-0.0
3	0x80000000	-0.0
4	0x80000000	-0.0
5	0x80000000	-0.0
6	0xbd1c6847	-0.038185384
7	0x80000000	-0.0
8	0x80000000	-0.0
9	0x80000000	-0.0
10	0x80000000	-0.0
11	0x80000000	-0.0
12	0x80000000	-0.0
13	0xbd72dedb	-0.059294563
14	0x80000000	-0.0
15	0x80000000	-0.0
16	0x3db9d7f0	0.0907439
17	0x80000000	-0.0
18	0x80000000	-0.0
19	0x80000000	-0.0
20	0x3dcfa9ec	0.10139832
21	0x80000000	-0.0
22	0x80000000	-0.0
23	0x80000000	-0.0
24	0x80000000	-0.0
25	0x00000000	0.0
26	0x80000000	-0.0
27	0x80000000	-0.0
28	0x80000000	-0.0
29	0x80000000	-0.0
30	0xbd71198b	-0.05886225
31	0x80000000	-0.0
32	0x3dceaf0f	0.100919835
33	0x80000000	-0.0
34	0x00000000	0.0
35	0x80000000	-0.0
36	0x80000000	-0.0
37	0x80000000	-0.0
38	0xbd58bdc5	-0.052915353
39	0x80000000	-0.0
40	0x3db46977	0.08809178
41	0x80000000	-0.0
42	0x80000000	-0.0
43	0x80000000	-0.0
44	0x80000000	-0.0
45	0x80000000	-0.0
46	0x80000000	-0.0
47	0x80000000	-0.0
48	0x3df84d12	0.12124075
49	0x3dbdf7fd	0.09275816
50	0x80000000	-0.0
51	0x80000000	-0.0
52	0x80000000	-0.0
53	0x80000000	-0.0
54	0x80000000	-0.0
55	0x80000000	-0.0
56	0xbe8bf8e4	-0.27338326
57	0x80000000	-0.0
58	0x80000000	-0.0
59	0x80000000	-0.0
60	0x80000000	-0.0
61	0x80000000	-0.0
62	0x80000000	-0.0
63	0x80000000	-0.0
64	0x3da44ba3	0.08022239
65	0x00000000	0.0
66	0x3db7047b	0.089364015
67	0x00000000	0.0
68	0x3ddc000d	0.10742197
69	0x80000000	-0.0
70	0x80000000	-0.0
71	0x80000000	-0.0
72	0x80000000	-0.0
73	0x80000000	-0.0
74	0x80000000	-0.0
75	0x80000000	-0.0
76	0x80000000	-0.0
77	0x3dd5a1fd	0.104312874
78	0x80000000	-0.0
79	0xbe6dfc5d	-0.232408
80	0x80000000	-0.0
81	0x80000000	-0.0
82	0xbd5b76b2	-0.053579994
83	0x80000000	-0.0
84	0x80000000	-0.0
85	0x3dab59e6	0.08366756
86	0x80000000	-0.0
87	0x80000000	-0.0
88	0x80000000	-0.0
89	0x80000000	-0.0
90	0x80000000	-0.0
91	0x80000000	-0.0
92	0x80000000	-0.0
93	0x80000000	-0.0
94	0x80000000	-0.0
95	0x80000000	-0.0
96	0x80000000	-0.0
97	0x80000000	-0.0
98	0x80000000	-0.0
99	0x80000000	-0.0
100	0x00000000	0.0
101	0x80000000	-0.0
102	0x00000000	0.0
103	0x80000000	-0.0
104	0x80000000	-0.0
105	0x80000000	-0.0
106	0x80000000	-0.0
107	0x80000000	-0.0
108	0x80000000	-0.0
109	0x80000000	-0.0
110	0x80000000	-0.0
111	0x80000000	-0.0
112	0xbebf5029	-0.37365845
113	0xbe92b3e8	-0.28652883
114	0x80000000	-0.0
115	0x80000000	-0.0
116	0x80000000	-0.0
117	0x80000000	-0.0
118	0x80000000	-0.0
119	0x80000000	-0.0
120	0x80000000	-0.0
121	0x80000000	-0.0
122	0x80000000	-0.0
123	0x80000000	-0.0
124	0x80000000	-0.0
125	0x80000000	-0.0
126	0x3eda4b29	0.42635468
127	0x80000000	-0.0
128	0x80000000	-0.0
129	0x80000000	-0.0
130	0x80000000	-0.0
131	0x3ddafcbe	0.10692738
132	0x80000000	-0.0
133	0x80000000	-0.0
134	0xbe9b11fd	-0.3028716
135	0x80000000	-0.0
136	0x00000000	0.0
137	0x80000000	-0.0
138	0x80000000	-0.0
139	0x3db058db	0.08610698
140	0x80000000	-0.0
141	0x80000000	-0.0
142	0x80000000	-0.0
143	0x80000000	-0.0
144	0x80000000	-0.0
145	0x80000000	-0.0
146	0x80000000	-0.0
147	0x80000000	-0.0
148	0x80000000	-0.0
149	0x80000000	-0.0
150	0x80000000	-0.0
151	0x80000000	-0.0
152	0x3dae36e0	0.0850656
153	0x80000000	-0.0
154	0x80000000	-0.0
155	0x80000000	-0.0
156	0x80000000	-0.0
157	0x80000000	-0.0
158	0x80000000	-0.0
159	0x80000000	-0.0
160	0x80000000	-0.0
161	0x3dc460d2	0.095887795
162	0x80000000	-0.0
163	0x80000000	-0.0
164	0x80000000	-0.0
165	0x80000000	-0.0
166	0x80000000	-0.0
167	0xbd32c9a1	-0.04364932
168	0xbd85f13c	-0.065401524
169	0x80000000	-0.0
170	0x80000000	-0.0
171	0x80000000	-0.0
172	0x80000000	-0.0
173	0x80000000	-0.0
174	0x80000000	-0.0
175	0x80000000	-0.0
176	0x80000000	-0.0
177	0x80000000	-0.0
178	0x80000000	-0.0
179	0x80000000	-0.0
180	0xbd7de8d9	-0.06198964
181	0x80000000	-0.0
182	0x80000000	-0.0
183	0x80000000	-0.0
184	0x00000000	0.0
185	0x80000000	-0.0
186	0xbd524106	-0.051331542
187	0x3db5f78d	0.08885107
188	0x80000000	-0.0
189	0x80000000	-0.0
190	0x80000000	-0.0
191	0x80000000	-0.0
192	0x80000000	-0.0
193	0x80000000	-0.0
194	0x80000000	-0.0
195	0x80000000	-0.0
196	0x80000000	-0.0
197	0x80000000	-0.0
198	0x80000000	-0.0
199	0xbd2c8ec3	-0.042128336
200	0x80000000	-0.0
201	0x80000000	-0.0
202	0x80000000	-0.0
203	0x80000000	-0.0
204	0x80000000	-0.0
205	0x80000000	-0.0
206	0x3dcc04ef	0.099618785
207	0x80000000	-0.0
208	0x3e5149d5	0.20438321
209	0x80000000	-0.0
210	0x3de9ecb5	0.114221014
211	0x80000000	-0.0
212	0x80000000	-0.0
213	0xbd3ba6a2	-0.04581321
214	0x80000000	-0.0
215	0x80000000	-0.0
216	0x3de36e2a	0.111049965
217	0x80000000	-0.0
218	0x80000000	-0.0
219	0x80000000	-0.0
220	0x80000000	-0.0
221	0x80000000	-0.0
222	0x3d98a39c	0.07453081
223	0x80000000	-0.0
224	0xbd5bee41	-0.053694014
225	0x80000000	-0.0
226	0x80000000	-0.0
227	0x00000000	0.0
228	0x80000000	-0.0
229	0x80000000	-0.0
230	0x3e3d4a3b	0.18485348
231	0x3db2f821	0.08738733
232	0x80000000	-0.0
233	0x80000000	-0.0
234	0x80000000	-0.0
235	0x80000000	-0.0
236	0x80000000	-0.0
237	0x80000000	-0.0
238	0xbed87a66	-0.42280883
239	0x80000000	-0.0
240	0x80000000	-0.0
241	0x00000000	0.0
242	0x80000000	-0.0
243	0x80000000	-0.0
244	0x80000000	-0.0
245	0x80000000	-0.0
246	0x80000000	-0.0
247	0xbe5bb93e	-0.21457383
248	0xbd647297	-0.055773344
249	0x80000000	-0.0
250	0x00000000	0.0
251	0x80000000	-0.0
252	0x80000000	-0.0
253	0x80000000	-0.0
254	0x80000000	-0.0
255	0x80000000	-0.0
