figures/Illu_large_global_2/theta=0.1_s=0.9_step=100/best_model.pth (torch, 246949 bytes, 5 tensors)

bias f4 [200]
00000000: 49ec 11bf fcf4 53bf 8304 8c3f 0eff 573f
00000010: 516a a8be 0ee2 70bf afb7 6d3f 5d21 afbe
00000020: 1d1e 803f 4a49 93bf 44c8 933f 4e3b 933f
00000030: 4a23 b7bf 8b43 9c3e 186c 823f 4fe5 7ebf
00000040: 3aa1 a03f 78d0 143f 43ef 123f a947 713f
00000050: 302d 6b3f a648 a8bf 4b2a 41bf 26b3 983f
00000060: cb66 43bf 6cd6 b73b a88e 22bf b74f b4bc
00000070: 5eb4 adbe f57f 96bf 419b b1bf 409d 543f
00000080: cc61 4c3f abb9 80bf f0bd f4be 2cec aebf
00000090: 8d56 173f 4f98 6dbe f43a 4cbf 5884 133f
000000a0: 582b 713f 000e 81bf 0721 703f ff4b 7a3d
000000b0: 230c 61bf 0533 2d3f cc6c 3c3f c088 3a3f
000000c0: faaf 53bf 5b2a 823f d9f4 353f 27c9 1d3f
000000d0: 36ce 06bf bb7a 92bf 1fa4 6fbf 9721 37bf
000000e0: e510 f1be 1805 03bf 53ec d5bd ec89 a73c
000000f0: 9039 813f 6235 8d3f 0612 19be bea8 353f
00000100: 3472 50bf 146a 893e 6886 673f 0440 51bf
00000110: cdb7 65be 481e 12bf 4827 10bf 25ed 263f
00000120: ff40 8bbf 8232 6b3f e0a2 70bf b41b 9b3f
00000130: 9f09 243f 6098 be3e 323a 6ebf 7c37 8cbf
00000140: 1263 8b3f a0dd 8d3f cc88 66bf dcca 11bc
00000150: e681 6abf 54ab 9bbf 9506 873f 1051 013f
00000160: 06b6 913d 82aa 223f 07b3 683e c45b 8c3f
00000170: 7c1f f33e 68b5 98bf 9885 c9bf a0bf 4cbf
00000180: afcc 503f 642f 94bf 9b2a aabf 5978 553e
00000190: a1ee a63e 20f0 173f 350e db3c dd54 b3be
000001a0: eb09 92bd e800 733f 17d9 f33e 50d6 4ebf
000001b0: b210 263f 94f1 77bf 0683 90bf 1483 85bf
000001c0: 16a8 193f 80c7 fabe d8eb 613f 4ba6 c03f
000001d0: 667b 7a3e 4be6 603f f823 4ebf 7c2e 8a3f
000001e0: fecb 81bf bb89 a63f aa19 a0bf 3c74 c73e
000001f0: 11e9 99bf f8d2 6d3d 1bdf 953f 4e83 8cbf
00000200: e707 89bf 1395 a13f 8516 51bc 9713 7fbf
00000210: a37b 67bf 406e 08bf ef1e 79bf bc34 7a3f
00000220: a047 61bf b0c9 873f 69a8 0bbf 9d77 413e
00000230: 3f63 7abf 8bd3 2dbe e81c 2fbf d15f 8abf
00000240: d311 a33f 7506 57bf 7bc1 a0bf aa5c d23e
00000250: 80b2 77bf b7bc 94bf d22c b3bf faa8 4fbf
00000260: ca33 153f e811 583f 3df9 5ebf a700 a3bf
00000270: 094d ac3f 9a9f 8fbf d877 693f 8700 c93d
00000280: adf3 9fbe 38eb 64be 9324 3b3f 004c e53e
00000290: 7d8b 9d3f 6baa 6fbe eb5b 86bf 3834 fbbe
000002a0: 84e3 d53e 6b04 933f 01a9 9cbf c536 873f
000002b0: 4cf7 713f e027 b8bf 9b18 713f 2a4e a63f
000002c0: a79f 623d 6b63 eabd cb9d b8bf 7978 7c3e
000002d0: 263f 51bf 117e a83e 0c1f 52bf 73e7 28bf
000002e0: 1a1c 97bf 50b0 51bf 52c3 9abf 31ee 243f
000002f0: 62e8 e43c c37c 7fbe ed09 2ebf df8e 42bf
00000300: 5e8c d3be e25f 9abf 2382 67bf c07a 01bf
00000310: a29e 6a3f c988 64bf 6e09 453f 471f c93e
-0.5700117 -0.8279569 1.0938877 0.8437356 -0.32893613 -0.9409493 0.92858404 -0.34205142
1.000919 -1.1506741 1.1545491 1.1502473 -1.4307644 0.3052028 1.0189238 -0.9956865
1.2549202 0.581306 0.57396334 0.9424997 0.91865826 -1.314717 -0.7545516 1.1929672
-0.76328725 0.005610278 -0.63498926 -0.022010667 -0.33926672 -1.1757799 -1.3875505 0.83052444
0.79836726 -1.0056661 -0.4780116 -1.3665824 0.5911644 -0.23202632 -0.79777455 0.57623816
0.9420676 -1.0082397 0.93800396 0.06110763 -0.87909144 0.67655975 0.7360351 0.72864914
-0.82690394 1.0169176 0.7107673 0.6163506 -0.526584 -1.1443704 -0.93609804 -0.7153563
-0.47083202 -0.5117965 -0.10445466 0.020451508 1.0095692 1.1031916 -0.14948282 0.70960605
-0.8142426 0.26838744 0.9043946 -0.81738305 -0.22433396 -0.57077456 -0.5630994 0.65205604
-1.087921 0.91873944 -0.9399853 1.2117829 0.6407718 0.37225628 -0.9305755 -1.0954432
1.0889609 1.108326 -0.90052485 -0.008898463 -0.9160446 -1.216166 1.0548884 0.50514317
0.07114796 0.63541424 0.22724544 1.0965505 0.47484958 -1.1930361 -1.5743895 -0.79979897
0.8156232 -1.1576962 -1.3294252 0.2084669 0.32603934 0.59350777 0.026740173 -0.35025683
-0.07130798 0.9492326 0.47626564 -0.80795765 0.64869225 -0.96852994 -1.1289985 -1.0430627
0.60022104 -0.4898033 0.88250494 1.5050749 0.24461135 0.878514 -0.80523634 1.0795436
-1.0140378 1.3010782 -1.2507832 0.38955867 -1.2024251 0.058062524 1.1708711 -1.0977571
-1.0705537 1.2623619 -0.012761717 -0.99639267 -0.9042303 -0.5329323 -0.97312826 0.97736716
-0.87999916 1.0608425 -0.5455385 0.18893285 -0.9780769 -0.16975228 -0.6840348 -1.0810491
1.2739815 -0.8399423 -1.2559046 0.41086322 -0.96756744 -1.1620091 -1.3998053 -0.8111721
0.5828215 0.8440232 -0.8709906 -1.2734574 1.3461009 -1.1220582 0.9119849 0.09814554
-0.31240597 -0.22355354 0.7310268 0.44784546 1.2308193 -0.23404853 -1.0496801 -0.49063277
0.41775143 1.1485723 -1.2239076 1.0563589 0.9451797 -1.4387169 0.9417817 1.2992604
0.055328038 -0.11444744 -1.4423155 0.24655332 -0.8173698 0.3290868 -0.82078624 -0.65978163
-1.1805451 -0.81909657 -1.2090857 0.6442595 0.02794284 -0.24949937 -0.67983896 -0.75999254
-0.4131803 -1.2060511 -0.9043295 -0.50577927 0.91648304 -0.8927122 0.76967514 0.39281675

weight f4 [200, 1]
00000000: f6b0 833f c67e b5bf dd39 d53f f899 ab3f
00000010: f3f2 c13e c7de a33f f4d4 8abe f321 a23e
00000020: 09e6 a4bf ca46 c6bf 22d3 80bf 7c8d e8bf
00000030: 50af d1bf 7ff8 2cbf 665f ddbf fb20 ed3f
00000040: b669 ae3f 0d7c 3f3e a308 0ebd 52e3 c23f
00000050: 4f06 9cbf 614d f03f 2239 ba3f 0976 a2bf
00000060: e7d5 093e 2a4d 253f 9ac8 91bf 62f1 e6bd
00000070: f0d9 8bbf 8f27 b33f 7eba dc3f dc3c 913f
00000080: 5219 ac3e 15ff 9ebf c9b1 e73e 50a6 d73f
00000090: 4738 89bf dcb9 d2bd f026 e3bf 345d ba3f
000000a0: 0000 0080 e08a e13f 69ad b0bf 0000 0080
000000b0: f649 bbbf 11ad 8e3d 2805 9b3f d003 c9be
000000c0: 0000 0080 4f32 abbf ee30 543f 53e8 dc3e
000000d0: 3965 1bbf 79e6 c63f 0000 0080 0000 0080
000000e0: db0c d93d 7e46 9fbf 7e61 663f 8ee1 bbbe
000000f0: 2d15 aa3f d639 cb3f 0000 0000 9949 b03f
00000100: e032 e43f e8ff f13d cc91 843f 3580 d3bf
00000110: 0000 0080 8174 743e 26dc 5c3f 9e35 89bf
00000120: 8c1a b73f f6de a43f 9752 843f a456 89bf
00000130: a49d c63e 4850 92be 3f7e c9bf 1576 dcbf
00000140: 0323 b93f ad8d 97bf e60d 23be af7b 793f
00000150: 81e1 3c3d beda bfbf 9ab7 c63f 181e e43e
00000160: 3f22 823f 3800 48be 68e7 26bf 6c26 cf3f
00000170: 5306 863e d3f9 dbbf db23 0340 d07c c63f
00000180: 9e55 84bf b3d4 bcbf 16dd c63f acdb a4be
00000190: aaef 8a3e a3c9 c5be 8db5 aebe 0000 0000
000001a0: 4c6d 54bf a474 d0be d7a3 053e 503d 85bf
000001b0: db7b b6bf 0000 0000 0124 a03f d1f8 9cbf
000001c0: 4c64 e3be 61c3 b6bf 3fbe c0be 3adc dfbf
000001d0: 294a bf3e 3690 cb3f 4bf3 7c3f 97bf 713f
000001e0: 1cfe c3bf d665 bf3f 2c20 dd3f 7a5e 9b3f
000001f0: 488e e8bf b5e1 953e c2cc c63f 428c cbbf
00000200: 5d77 90bf fb54 b3bf 64c0 8dbe 1272 c43f
00000210: 5d0a fbbd f317 783f 68cc ae3f e561 8b3f
00000220: 9a1c 973f 8fb6 a5bf 0000 0080 42a2 94bf
00000230: 7cac d43d 658e 86bd 812c 363d 4d0b a1bf
00000240: 387d d73f 0a62 a3bf 86b9 f33f 0000 0080
00000250: b9b3 c03f d71e cdbf 1a81 cbbf 2ef4 913f
00000260: 39ed 7a3f 7530 abbf 5c79 8fbf e853 db3f
00000270: b0fc ba3f 07fd babf bff4 c9bf 768d 4c3f
00000280: 1cd8 cbbd 160b 8fbf b621 56bf 6170 cb3e
00000290: eae0 aabf e67e d53e 8dfa 913f cc51 adbf
000002a0: 0000 0000 926e ce3f 464d ac3f 4ede 96bf
000002b0: 7608 a53f 252f ed3f 354b 9ebf 5b58 c33f
000002c0: ad91 a3bd 3fee a5be 1a1d e63f f281 883e
000002d0: 35fe 863f 77f2 a43e 67d5 9bbf 1215 c8bf
000002e0: f0be d2bf e8c8 ff3f a725 d13f 0000 0080
000002f0: 9ac8 14bd a734 13be 3b58 e93f 89f6 973f
00000300: 1d60 36bf 405c d33f 334e c13f 5907 8e3f
00000310: 596b 98bf 99d1 dc3f 8a69 9b3f 5fdd d4be
1.0288379 -1.4179313 1.6658283 1.3406363 0.37880668 1.2802361 -0.27115595 0.31666526
-1.2882701 -1.5490353 -1.0064433 -1.8168178 -1.6381626 -0.67566675 -1.7294738 1.852569
1.362601 0.18699665 -0.034676205 1.5225623 -1.2189425 1.8773614 1.4548686 -1.2692271
0.13460504 0.6457087 -1.1389344 -0.11276509 -1.0925884 1.3996447 1.7244413 1.1346698
0.33613068 -1.2421595 0.45252827 1.684763 -1.07203 -0.10289356 -1.7746258 1.4559693
-0.0 1.7620506 -1.380292 -0.0 -1.4631946 0.069666035 1.2110949 -0.3926072
-0.0 -1.3374728 0.8288716 0.43146 -0.6070133 1.5539085 -0.0 -0.0
0.10598155 -1.2443388 0.8999251 -0.36695522 1.3287712 1.5877025 0.0 1.377246
1.7828026 0.11816388 1.0356994 -1.6523501 -0.0 0.23872568 0.8627342 -1.0719488
1.4304976 1.2880542 1.0337704 -1.0729566 0.38792145 -0.28576875 -1.5741652 -1.7223536
1.446381 -1.1840111 -0.1592327 0.9745435 0.046113495 -1.498863 1.5524781 0.4455421
1.0166701 -0.19531333 -0.6519685 1.61836 0.261767 -1.7185615 2.0490634 1.550684
-1.0338628 -1.4752411 1.553622 -0.32198846 0.27135974 -0.386304 -0.34122887 0.0
-0.82979274 -0.4071399 0.13050781 -1.0409336 -1.4256548 0.0 1.2510988 -1.2263433
-0.44412458 -1.4278375 -0.37645146 -1.7489083 0.37361267 1.5903385 0.98808736 0.9443297
-1.5311923 1.4952953 1.7275443 1.2138207 -1.8168421 0.29273763 1.5531237 -1.5902178
-1.1286427 -1.4010309 -0.27685845 1.5347311 -0.12257836 0.96911544 1.365613 1.088925
1.1805604 -1.2946337 -0.0 -1.1612017 0.10384461 -0.06570128 0.044476036 -1.2581574
1.6835089 -1.2764294 1.9040992 -0.0 1.5054847 -1.6025037 -1.5898774 1.1402643
0.98018223 -1.3374163 -1.1208911 1.7134981 1.4608364 -1.4608468 -1.5777816 0.7990335
-0.09953329 -1.1175258 -0.8364519 0.39734176 -1.3349888 0.41698378 1.1404587 -1.3540587
0.0 1.6127493 1.3461082 -1.1786592 1.2893207 1.8530012 -1.2366701 1.5261339
-0.0798677 -0.3240833 1.7977631 0.2666164 1.0546328 0.32216236 -1.21745 -1.563143
-1.646452 1.9983187 1.6339616 -0.0 -0.03632412 -0.14375554 1.8230051 1.1872112
-0.7124041 1.6512527 1.510199 1.1095992 -1.190776 1.7251464 1.2141583 -0.41575143

bias f4 [300]
00000000: 9e1b 63bd f072 bfbc ae54 223d 5f8b 163d
00000010: 8865 99bc a319 7abd 64ef 95bd 3ae1 3b3d
00000020: 1119 acbc b73d 61bc 312d 3e3d 378c 5e3d
00000030: b40a 3d3d adbf 8cbd 4238 053c 56aa 313c
00000040: 298a 7e3c 5b97 77bd 73d5 203c 4cc9 203d
00000050: becc 833c 8a46 ae3c 2023 40bc 220c dfbc
00000060: 4d1a 91bd 365a b53a a8cb 0a3d 8397 553d
00000070: e0e0 d3bd 6602 10bc fd6a df3b 3d8f 233c
00000080: acd4 a5bd 696a 87bd 8c27 813c 9bbe 86bd
00000090: 26fb 233c 6767 0abc 8c16 99bd fbd1 07be
000000a0: ecd9 40bd 4a5d 65bd 15e9 8cbc c120 87bc
000000b0: eddc b23c 07a2 0abd 628a 45bd 9df1 d4bc
000000c0: 6c0a dbbc ffa5 bd3c 638a cebd 3858 76bd
000000d0: 946a 73bd bbb6 8dbd 992a bbbc 8f57 5c3d
000000e0: 233f e9bd e6d1 6d3d dc3b dabd 207a 60bd
000000f0: a15f aabd c2c2 8abc 57a7 74bc 305f 2dbd
00000100: fdb0 3e3d 60b3 e3bd 7842 8abd d388 1bbe
00000110: 1707 69bd f39c 8dbc 379d 1dbd 0bef bb3c
00000120: 3474 5f3c ec50 f03b 0e8e 3cbd 3c4e 9fbb
00000130: cbba 24bd 17d1 08bd 3111 4dbd ab3c 323d
00000140: 5e98 1cbd 16f5 b3bd 2552 adbd 8560 3bbd
00000150: 9343 4ebd 9a83 083d 98d0 94bc 3082 3c3d
00000160: 6449 c9bd 82c0 a0bd 089f 3bbd 48da e63c
00000170: 294d e7bb 7075 a6bd f76d 593d f335 65bd
00000180: d05e 783d 939a fe3a 139c 8dbd 5ed8 383d
00000190: 4710 4dbd 33e8 65bd 1209 b4bc 352b d9bb
000001a0: 62a7 6bbc eaf8 de3c fb11 aabd e99d 80bd
000001b0: 2b77 bdbd 9514 00bd 1d29 abbd 9012 a03c
000001c0: fa85 91bc d37d 65bd 1608 80bb 9c0e 85bc
000001d0: c47c f43c dec9 b4bd fc9f 0cbd 0834 05bd
000001e0: 7bce 323d b778 5dbd 3d6b 97bd 5253 01bd
000001f0: 50b8 85bc aaed 98bc 30ee 0d3c 2976 b23b
00000200: 5b05 8dbc f815 52bd fde7 493c 4a3d 70bd
00000210: d9c5 98bd 22c3 453d 603e 5a3c 3c79 58bd
00000220: 82d9 99bd 653a 0cbd 0a20 c13a 72b7 02be
00000230: c2c0 063d 0de5 bc3c 93ce a5bd 4cb7 9cbc
00000240: 0e64 26be 2d5a 99bd 4eb0 30bd 9815 283c
00000250: 0e11 73bd 0e4d f53c 12ee 5fbc b172 94bd
00000260: b083 e13c e4ee c7bd 54dc 113d 0c5f 04be
00000270: 9597 26bd a386 aabc 08f0 82bc f187 983c
00000280: bfff 183b 75fe ff3b 481f bdbd 4493 24bc
00000290: 91db ef3c 9eff 2e3b f1d9 19bd 112f d93c
000002a0: 0c88 61bd 6d64 81bd 1de9 93bd f539 35bd
000002b0: 8fc2 97bd 2a61 a1bd aae6 34bd 107c cbbc
000002c0: 495a bb3b 9f17 84bd 519c d1b9 2067 92bd
000002d0: 15c4 a9bb 06b5 0e3d f941 94bc 7779 073d
000002e0: 0d66 aa3c 17c6 67bd 1a18 563d 9758 a5bd
000002f0: 113f e03a 439f c0bc 3842 9dbd 66be bbbd
00000300: f53e 713d 6cbb 223d 2f20 153c 2932 eabb
00000310: d553 0cbd 2823 1d3d a6b1 56bd 3f81 c83c
00000320: 3411 d63c 2011 0fbc 1163 07bc 10e8 68bd
00000330: b6ab 6abc c2c1 6a3c 6f8b 45bd 398e 76bd
00000340: b26f 11bc 279a f9bd cb79 a2bd f79e 3bbd
00000350: 0383 ad3c e397 593c 31a5 93bd aeb7 fabc
00000360: 0c7b bf3b 27ab 79bd 5a69 98bd bde6 9fbd
00000370: 209d e33b bef9 c8bd 4f20 efbc f686 5fbc
00000380: eccc aabc c364 b23c 63cc f53c 5968 78bd
00000390: ae09 b43b 4422 a3bd f849 f73c 1b67 a1bd
000003a0: 8295 89bd ae76 b4bc 6b0b 143c d70f c23c
000003b0: 0352 45bd a9a1 233c 9156 343d 5238 b3bc
000003c0: 4ab6 87bd feb4 c6bd 92ec 9c3b b8aa 70bd
000003d0: bbbe b0bd 2eb2 a13c 968e e0bc 66c5 f9bc
000003e0: 11af 103d 8e33 1ebd b810 a9bd 6710 0ebc
000003f0: c23d 8cba 1ae3 29bd 8984 c53b cd1a abbd
-0.05544626 -0.023370236 0.039631538 0.03675401 -0.018725172 -0.061059605 -0.07321051 0.04586909
-0.021008046 -0.013747624 0.046429817 0.054332938 0.046152785 -0.06872497 0.008131089 0.010843834
0.01553587 -0.06044708 0.009816515 0.03925447 0.01608884 0.02127387 -0.011727124 -0.027227465
-0.070850946 0.0013836089 0.033885628 0.052146446 -0.10345626 -0.008789634 0.006818174 0.009982881
-0.080972046 -0.06612093 0.015765928 -0.06579324 0.010008609 -0.008447505 -0.074750036 -0.13263695
-0.047082826 -0.05599717 -0.017200986 -0.01649511 0.021833861 -0.033845928 -0.048227675 -0.025994116
-0.026738368 0.023150442 -0.10084989 -0.060142726 -0.059427813 -0.06919619 -0.02284746 0.05379444
-0.113889955 0.058061503 -0.106559485 -0.054803967 -0.08319021 -0.01693857 -0.014932475 -0.042327106
0.046555508 -0.111181974 -0.06750959 -0.15188913 -0.056891527 -0.017286753 -0.03848001 0.022941133
0.013638545 0.0073338654 -0.04603391 -0.004861621 -0.040217202 -0.03340253 -0.050065223 0.04351489
-0.038231246 -0.08786981 -0.084629335 -0.045746345 -0.050357413 0.03332863 -0.018165872 0.046022594
-0.09828451 -0.07849218 -0.04580596 0.028180256 -0.0070587588 -0.08127868 0.053083386 -0.055959653
0.060637295 0.0019424729 -0.069145344 0.04512822 -0.05006435 -0.056129646 -0.021976981 -0.006627465
-0.014383169 0.0272183 -0.08304211 -0.06280119 -0.09251245 -0.03126963 -0.08357451 0.019540101
-0.01776408 -0.0560282 -0.003907214 -0.016242318 0.02984465 -0.088275656 -0.03433226 -0.032520324
0.043653946 -0.0540702 -0.07393501 -0.0315736 -0.016323239 -0.018668015 0.008662745 0.0054462147
-0.017214468 -0.051290482 0.012323377 -0.0586522 -0.074596114 0.048281796 0.013320535 -0.052849993
-0.075121894 -0.034235377 0.001473428 -0.12765291 0.032898672 0.023058439 -0.080960415 -0.019130372
-0.16249105 -0.07487903 -0.043136887 0.010259055 -0.059342436 0.02994397 -0.0136676 -0.07248438
0.027528614 -0.09762362 0.035610512 -0.12926883 -0.040671904 -0.020816153 -0.015983596 0.01861951
0.0023345796 0.007812316 -0.09234482 -0.0100448765 0.029279502 0.0026702653 -0.03756136 0.0265117
-0.055061385 -0.06317983 -0.07222197 -0.044244725 -0.07410156 -0.07879861 -0.04416529 -0.024839431
0.00571755 -0.06449818 -0.0003998005 -0.07148576 -0.0051808455 0.034840606 -0.018097864 0.033074822
0.020800615 -0.056585398 0.05226908 -0.08073538 0.0017108639 -0.023513442 -0.07678646 -0.09167175
0.05889793 0.03972952 0.009101911 -0.007147093 -0.034259636 0.038363606 -0.052415513 0.024475692
0.02613125 -0.00873211 -0.008263365 -0.056861937 -0.014323166 0.014328422 -0.048228677 -0.060194228
-0.008876728 -0.12187605 -0.079333864 -0.045805898 0.021180635 0.0132808415 -0.07209242 -0.030605163
0.0058435258 -0.06095424 -0.07441969 -0.07807682 0.006946221 -0.098132595 -0.02919021 -0.013643017
-0.020849667 0.021776563 0.030004686 -0.06064639 0.005494318 -0.0796552 0.030186638 -0.07880994
-0.067179695 -0.022029247 0.009035925 0.023689194 -0.048173916 0.009987273 0.04402787 -0.021877442
-0.06626566 -0.0970249 0.0047889436 -0.05875656 -0.08630129 0.019738283 -0.02741174 -0.030489635
0.035323206 -0.038623385 -0.08255142 -0.008670903 -0.0010699558 -0.041476347 0.0060277623 -0.08354721

weight f4 [300, 200]
00000000: 0000 0080 0000 0000 0000 0080 0000 0080
00000010: 0000 0080 0000 0080 0000 0000 0000 0080
00000020: 0000 0000 0000 0000 0000 0000 8e9e 5d3d
00000030: 0000 0000 0000 0000 0c87 a9bd 0000 0080
00000040: 63d9 acbd 0000 0000 0000 0080 0000 0080
00000050: 0000 0000 0000 0080 0000 0080 0000 0000
00000060: 0000 0080 0e14 a8bd 0000 0000 0000 0080
00000070: 0000 0000 0000 0080 0000 0080 0000 0080
00000080: 0000 0000 0000 0000 0000 0080 0000 0080
00000090: 0000 0000 0000 0080 0000 0000 0000 0080
000000a0: 0000 0080 0000 0080 0000 0000 0000 0080
000000b0: 0000 0000 0000 0000 0000 0080 0000 0000
000000c0: 0000 0080 0000 0000 0000 0000 0000 0000
000000d0: 0000 0080 0000 0080 0000 0080 0000 0080
000000e0: 0000 0080 0000 0000 0000 0080 0000 0000
000000f0: 0000 0080 ad45 b5bd 0000 0080 0000 0080
00000100: 0000 0080 0000 0000 0000 0080 0000 0000
00000110: 0000 0080 0000 0080 b1e3 a7bd 0000 0000
00000120: 0000 0080 0000 0080 0000 0080 0000 0000
00000130: 0000 0000 0000 0000 0636 a3bd 0000 0000
00000140: 0000 0080 0000 0000 0000 0080 0000 0080
00000150: 0000 0080 0000 0000 0000 0080 0000 0000
00000160: 0000 0080 0000 0000 0000 0000 0000 0080
00000170: 0000 0000 0000 0000 0000 0080 0000 0080
00000180: 0000 0000 0000 0000 0000 0080 0000 0000
00000190: 0000 0000 0000 0000 0000 0000 0000 0080
000001a0: 0000 0000 0000 0000 0000 0000 0000 0000
000001b0: 0000 0000 0000 0080 0000 0080 0000 0000
000001c0: 0000 0000 0000 0000 0000 0000 0000 0000
000001d0: 0000 0080 0000 0080 0000 0080 0000 0000
000001e0: 0000 0000 0000 0080 0000 0080 0000 0080
000001f0: 0000 0000 0000 0080 0000 0080 0000 0000
00000200: 0000 0000 0000 0000 0000 0000 0000 0080
00000210: 0000 0080 0000 0080 0000 0080 0000 0080
00000220: 0000 0080 0000 0000 0000 0080 0000 0000
00000230: 0000 0080 0000 0080 0000 0080 d3d9 92bd
00000240: 0000 0080 0000 0000 0000 0080 0000 0080
00000250: 0000 0080 0000 0000 0000 0000 0000 0080
00000260: 0000 0080 0000 0000 0000 0000 0000 0080
00000270: 0000 0080 0000 0000 0000 0000 0000 0080
00000280: 0000 0080 0000 0000 0000 0000 0000 0000
00000290: 0000 0000 0000 0080 0000 0080 0000 0000
000002a0: 0000 0080 0000 0080 0000 0080 0000 0000
000002b0: 0000 0080 0000 0080 0000 0000 087f b8bd
000002c0: 0000 0080 0000 0000 0000 0080 0000 0000
000002d0: 0000 0080 0000 0000 0000 0000 0000 0000
000002e0: 0000 0000 0000 0080 0000 0080 0000 0080
000002f0: 0000 0080 0000 0080 0000 0080 0000 0080
00000300: 0000 0000 0000 0080 0000 0080 1616 aabd
00000310: 0000 0000 0000 0080 0000 0080 0000 0000
00000320: 0000 0000 1c8f 933e 7ca2 d3be 9be0 98be
00000330: 0000 0080 a9be 4c3e 0000 0000 0000 0080
00000340: f696 81be b43d df3e 69de 4dbe 536f cebe
00000350: 0a25 0a3f 0000 0000 55a2 bbbe 396b 9b3e
00000360: 0533 0dbf 0000 0080 0000 0080 d1c1 eabe
00000370: d44c 72be d32e db3e 0000 0000 7ef7 61be
00000380: 0000 0080 0000 0080 0000 0000 0000 0000
00000390: 0000 0000 03cd e73e 7aeb f83e 208b 79be
000003a0: 0000 0080 5ca0 cd3e 0000 0080 3b40 fa3e
000003b0: 53a6 f7bd 0000 0000 ebf0 593e 0000 0080
000003c0: 0000 0080 596c a33e 823d 77be 0000 0080
000003d0: 8fb4 a23e 0000 0080 f1f5 8cbe 0000 0000
000003e0: 0000 0080 c3c6 1bbe 0000 0080 0000 0080
000003f0: 0000 0000 27a2 d43e 0000 0080 0000 0080
-0.0 0.0 -0.0 -0.0 -0.0 -0.0 0.0 -0.0
0.0 0.0 0.0 0.054106288 0.0 0.0 -0.08277711 -0.0
-0.08439901 0.0 -0.0 -0.0 0.0 -0.0 -0.0 0.0
-0.0 -0.0820695 0.0 -0.0 0.0 -0.0 -0.0 -0.0
0.0 0.0 -0.0 -0.0 0.0 -0.0 0.0 -0.0
-0.0 -0.0 0.0 -0.0 0.0 0.0 -0.0 0.0
-0.0 0.0 0.0 0.0 -0.0 -0.0 -0.0 -0.0
-0.0 0.0 -0.0 0.0 -0.0 -0.0885118 -0.0 -0.0
-0.0 0.0 -0.0 0.0 -0.0 -0.0 -0.081977256 0.0
-0.0 -0.0 -0.0 0.0 0.0 0.0 -0.079692885 0.0
-0.0 0.0 -0.0 -0.0 -0.0 0.0 -0.0 0.0
-0.0 0.0 0.0 -0.0 0.0 0.0 -0.0 -0.0
0.0 0.0 -0.0 0.0 0.0 0.0 0.0 -0.0
0.0 0.0 0.0 0.0 0.0 -0.0 -0.0 0.0
0.0 0.0 0.0 0.0 -0.0 -0.0 -0.0 0.0
0.0 -0.0 -0.0 -0.0 0.0 -0.0 -0.0 0.0
0.0 0.0 0.0 -0.0 -0.0 -0.0 -0.0 -0.0
-0.0 0.0 -0.0 0.0 -0.0 -0.0 -0.0 -0.07170453
-0.0 0.0 -0.0 -0.0 -0.0 0.0 0.0 -0.0
-0.0 0.0 0.0 -0.0 -0.0 0.0 0.0 -0.0
-0.0 0.0 0.0 0.0 0.0 -0.0 -0.0 0.0
-0.0 -0.0 -0.0 0.0 -0.0 -0.0 0.0 -0.09008604
-0.0 0.0 -0.0 0.0 -0.0 0.0 0.0 0.0
0.0 -0.0 -0.0 -0.0 -0.0 -0.0 -0.0 -0.0
0.0 -0.0 -0.0 -0.08304994 0.0 -0.0 -0.0 0.0
0.0 0.2882012 -0.41334903 -0.2985886 -0.0 0.19994606 0.0 -0.0
-0.25310487 0.43601763 -0.20104374 -0.4031931 0.5396277 0.0 -0.36647287 0.30355242
-0.55155975 -0.0 -0.0 -0.45850995 -0.2366212 0.42809162 0.0 -0.22067067
-0.0 -0.0 0.0 0.0 0.0 0.452736 0.48617154 -0.24369478
-0.0 0.40161407 -0.0 0.4887713 -0.12092271 0.0 0.21283309 -0.0
-0.0 0.319186 -0.24144557 -0.0 0.3177838 -0.0 -0.27531388 0.0
-0.0 -0.1521254 -0.0 -0.0 0.0 0.41529962 -0.0 -0.0

weight f4 [1, 300]
00000000: 0000 0000 3366 093e 0000 0080 eb22 563e
00000010: 0000 0080 0000 0000 0000 0080 0000 0000
00000020: 0000 0000 0000 0080 0000 0080 0000 0080
00000030: 0000 0080 0000 0000 d838 3c3e 0000 0080
00000040: 0000 0080 0000 0080 0000 0000 0000 0000
00000050: 0000 0000 0000 0080 0000 0080 0000 0000
00000060: 0000 0080 0000 0080 0000 0000 0000 0000
00000070: 0000 0080 0000 0000 0000 0080 0000 0000
00000080: 0000 0080 0000 0000 0000 0000 0000 0000
00000090: 0000 0000 0000 0080 0000 0080 0000 0000
000000a0: 0000 0080 0000 0000 0000 0080 0000 0080
000000b0: 0000 0080 0000 0000 0000 0080 0000 0080
000000c0: 0000 0080 0000 0080 0000 0000 0000 0080
000000d0: 0000 0080 0000 0000 542a 333e 0000 0080
000000e0: 0000 0080 0000 0080 0000 0000 0000 0000
000000f0: cc20 593e 0000 0000 0000 0080 0000 0080
00000100: 0000 0000 0000 0000 0000 0080 0000 0000
00000110: 0000 0080 0000 0000 0000 0000 0000 0000
00000120: 0000 0000 0000 0080 0000 0000 0000 0000
00000130: 0000 0080 0000 0080 0000 0080 0000 0000
00000140: 0000 0000 0000 0000 0000 0000 0000 0080
00000150: 0000 0080 0000 0000 0000 0080 0000 0080
00000160: 0000 0080 0000 0080 6f5e 29be 0000 0080
00000170: 0000 0080 0000 0080 0000 0080 0000 0000
00000180: 0000 0080 0000 0000 0000 0000 0000 0080
00000190: 0000 0080 0000 0080 0000 0000 0000 0080
000001a0: 0000 0000 0000 0080 0000 0000 0000 0080
000001b0: 0000 0080 0000 0000 0000 0000 0000 0080
000001c0: 0000 0080 0000 0080 0000 0000 0000 0080
000001d0: 0000 0080 0000 0000 0000 0000 0000 0000
000001e0: 0000 0080 0000 0080 0000 0000 0000 0000
000001f0: 0000 0000 0000 0080 0000 0000 0000 0080
00000200: 0000 0000 0000 0000 0000 0000 0000 0080
00000210: 0000 0080 0000 0000 0000 0000 0000 0080
00000220: 0000 0000 0000 0000 0000 0000 0000 0000
00000230: 0000 0080 0000 0000 0000 0080 0000 0080
00000240: 0000 0000 0000 0080 0000 0080 0000 0000
00000250: 0000 0080 0000 0000 0000 0080 0000 0080
00000260: 0000 0000 0000 0000 0000 0080 0000 0080
00000270: 0000 0080 0000 0000 0000 0000 0000 0080
00000280: 0000 0000 0000 0000 0000 0000 0000 0000
00000290: 0000 0000 0000 0080 0000 0080 0000 0080
000002a0: 0000 0080 0000 0000 0000 0080 0000 0000
000002b0: 0000 0080 0000 0000 0000 0000 0000 0000
000002c0: 0000 0080 0000 0080 0000 0080 0000 0080
000002d0: 0000 0080 0000 0080 0000 0000 0000 0080
000002e0: 0000 0080 0000 0080 0000 0080 0000 0000
000002f0: 0000 0080 0000 0000 0000 0080 3128 483e
00000300: 0000 0080 0000 0080 0000 0080 0000 0080
00000310: 0000 0080 0000 0080 0000 0000 0000 0080
00000320: 0000 0000 0000 0080 0000 0080 0000 0000
00000330: 0000 0080 0000 0080 0000 0000 0000 0080
00000340: 0000 0000 0000 0000 0000 0000 0000 0000
00000350: 0000 0000 0000 0000 0000 0080 0000 0080
00000360: 0000 0000 0000 0000 0000 0000 0000 0080
00000370: 0000 0080 0000 0000 0000 0000 0000 0000
00000380: 0000 0080 3863 773e 0000 0000 0000 0000
00000390: 0000 0080 0000 0000 0000 0000 0000 0080
000003a0: 0000 0000 0000 0000 0000 0000 0000 0000
000003b0: 0000 0080 0000 0000 0000 0080 0000 0000
000003c0: 0000 0080 0000 0000 0000 0080 0000 0000
000003d0: 0000 0000 0000 0000 0000 0080 0000 0000
000003e0: 0000 0080 0000 0000 0000 0000 0000 0000
000003f0: 0000 0080 0000 0080 0000 0080 0000 0000
0.0 0.13417892 -0.0 0.20911758 -0.0 0.0 -0.0 0.0
0.0 -0.0 -0.0 -0.0 -0.0 0.0 0.18381059 -0.0
-0.0 -0.0 0.0 0.0 0.0 -0.0 -0.0 0.0
-0.0 -0.0 0.0 0.0 -0.0 0.0 -0.0 0.0
-0.0 0.0 0.0 0.0 0.0 -0.0 -0.0 0.0
-0.0 0.0 -0.0 -0.0 -0.0 0.0 -0.0 -0.0
-0.0 -0.0 0.0 -0.0 -0.0 0.0 0.17496616 -0.0
-0.0 -0.0 0.0 0.0 0.21203917 0.0 -0.0 -0.0
0.0 0.0 -0.0 0.0 -0.0 0.0 0.0 0.0
0.0 -0.0 0.0 0.0 -0.0 -0.0 -0.0 0.0
0.0 0.0 0.0 -0.0 -0.0 0.0 -0.0 -0.0
-0.0 -0.0 -0.1653993 -0.0 -0.0 -0.0 -0.0 0.0
-0.0 0.0 0.0 -0.0 -0.0 -0.0 0.0 -0.0
0.0 -0.0 0.0 -0.0 -0.0 0.0 0.0 -0.0
-0.0 -0.0 0.0 -0.0 -0.0 0.0 0.0 0.0
-0.0 -0.0 0.0 0.0 0.0 -0.0 0.0 -0.0
0.0 0.0 0.0 -0.0 -0.0 0.0 0.0 -0.0
0.0 0.0 0.0 0.0 -0.0 0.0 -0.0 -0.0
0.0 -0.0 -0.0 0.0 -0.0 0.0 -0.0 -0.0
0.0 0.0 -0.0 -0.0 -0.0 0.0 0.0 -0.0
0.0 0.0 0.0 0.0 0.0 -0.0 -0.0 -0.0
-0.0 0.0 -0.0 0.0 -0.0 0.0 0.0 0.0
-0.0 -0.0 -0.0 -0.0 -0.0 -0.0 0.0 -0.0
-0.0 -0.0 -0.0 0.0 -0.0 0.0 -0.0 0.19546582
-0.0 -0.0 -0.0 -0.0 -0.0 -0.0 0.0 -0.0
0.0 -0.0 -0.0 0.0 -0.0 -0.0 0.0 -0.0
0.0 0.0 0.0 0.0 0.0 0.0 -0.0 -0.0
0.0 0.0 0.0 -0.0 -0.0 0.0 0.0 0.0
-0.0 0.24158943 0.0 0.0 -0.0 0.0 0.0 -0.0
0.0 0.0 0.0 0.0 -0.0 0.0 -0.0 0.0
-0.0 0.0 -0.0 0.0 0.0 0.0 -0.0 0.0
-0.0 0.0 0.0 0.0 -0.0 -0.0 -0.0 0.0
