figures/TS_partial_8/theta=0.1_s=0.6_step=1/best_model.pth (torch, 249766 bytes, 6 tensors)

weight f4 [200, 2]
00000000: 3915 be3d aaa5 1cbf 69cb 5f3e bafa 23bf
00000010: e63c 083e 5ced 43bf 636a 44bf b158 df3e
00000020: 9f5d 473f c67b c6be c218 71be 5320 503e
00000030: 73af bfbe 9c2a 0fbd 0d09 29bf 0705 4a3f
00000040: 3272 b13e d624 913e 9833 85bd 7085 77bd
00000050: faca 913e e013 7abe 17bb f33e 6753 283f
00000060: 5ec1 ecbe 1d2d 973e 8395 25bf bb4e e23e
00000070: 4816 733e 2296 3cbf a4f6 2dbf 5cc0 cc3c
00000080: c962 323f 9004 05bf 0575 373f 74ee 7f3d
00000090: 9ff8 b3be 0af9 f0be 8843 b23d 656f 9f3e
000000a0: 2fc8 1cbe e7c9 4a3e 168e 063f 695f 0c3e
000000b0: f088 20be d402 f4be 9128 223f e2e8 f5be
000000c0: 3d18 d13e 5515 323f 53e9 0e3f 74ce d7bd
000000d0: 534c 66be 0a59 df3e 1af9 b33e 9441 e4be
000000e0: cf1e 32bd c752 ff3e c0f9 133f fb77 4bbe
000000f0: 90fe 51bd 60fc 853c 584e 9a3e 02aa ef3d
00000100: 9ae3 18bf cba3 1bbe 3349 ed3e 55db 24bf
00000110: cf85 883e 91f4 0bbf f1ab d6be 5e7f dbbe
00000120: a3b2 39bf d0f2 1c3f 632a ce3e 7d53 3e3e
00000130: 0669 a03e 2602 a33e d16b 89be 1d63 4b3f
00000140: 1f47 bdbe 3489 a63e 244a 0e3f 926a 27bf
00000150: d444 303f b477 81bd e812 663e 80af 9e3d
00000160: 1370 6f3e 8152 d7be 1518 10bd 3191 bb3e
00000170: 6678 c53e c269 8f3e 2d6d 4abf 84d0 8cbe
00000180: 2a63 6a3e 290b 14bf e579 5ebd a035 e53e
00000190: eda7 fc3e 9822 fabe 0da7 adbd f0fb 533e
000001a0: d2db 43bf ab1d 47be 2a46 b23e 3fec 68be
000001b0: 1dd4 153d 068b 0a3f 68c0 15be 5e71 be3e
000001c0: fbda 2bbf d7b0 663e 564b 123f db45 fd3e
000001d0: 28e3 153f 4ef6 02be 678d 08bf 1d76 6abd
000001e0: 170b 073f f60f 00bf d0e9 983e db5c f2be
000001f0: d116 07bf 7c0a 2c3f d6f2 d43e c134 1abf
00000200: f956 fcbe 1bc0 443f dc88 c4be ba86 b93c
00000210: c455 53bf 2ce8 2dbf 5540 343f 79b3 a93e
00000220: 84aa cabe 54e3 163f 00c6 69bd 8621 b53e
00000230: f95d e6be a1f6 14bf aedc a1be 9950 33bf
00000240: cc24 c83e 44d4 17bf ddd8 b7be bdc2 35bf
00000250: ae1e 20bf 06a1 08bf 32f6 4a3f 0aca 253f
00000260: 37de 02bf a6a4 a5be f6b6 313f 6aba 783e
00000270: 1fc9 2e3f 162e a23e c087 33bf 950b c2be
00000280: 2a36 d2be a04d 393e d9f3 313f 192f 9c3d
00000290: 6db9 ee3e c08e d83d 110c 073f a45c 5d3e
000002a0: 5459 d8be eae6 31bf 0381 833e c048 d0be
000002b0: 289f c5be 642f 1c3f 8a03 c43e 8c20 e2be
000002c0: 2430 8e3e 1b43 40bf bc12 473f d670 bcbe
000002d0: b6a2 06bd c8b8 17bf d85f b73b 3705 2f3d
000002e0: ab7c 693e 26e9 cc3e e057 753e 9d78 a73e
000002f0: 8d6f 333f af82 23bf 5776 a2bd 53e9 2b3f
00000300: e7d8 253e 8eee 1ebf 0403 73be 8504 c43d
00000310: 8400 223f e6a2 babd 2641 1cbf a701 afbe
00000320: 67a4 d7be 7b6e 28be 3ec0 86be f4df f53e
00000330: a89a 13bf fb73 d83e d101 c3be 989b 0c3e
00000340: cd13 cf3e 0b44 e03e d72e 453e 2971 4f3f
00000350: 07c8 403e 1067 ff3e 1cc8 34bf c2e0 c13e
00000360: 6238 0bbf 2f2e c1bd f905 17be 3dea 443f
00000370: dbd4 45bf e8cd 9bbc d2f8 3f3f 9568 363f
00000380: 5973 1abf 25a2 83be 6c63 9c3e 718c 1c3f
00000390: 23d8 76bd bf7e 4abf 90a0 593e 408a 52bc
000003a0: c152 18bf 6dce 2c3e 70f7 43bf a54c 063f
000003b0: c95f 11bf ed54 5fbe 7c92 333e 2a58 e13e
000003c0: 39ac 3cbf 5939 2abf 2e6d 483f d960 cbbe
000003d0: 04c0 16bf b0fc 26bf 44d7 293f 80e5 46be
000003e0: 626a 163f b37b 35bf db6c 91be 2e03 3a3f
000003f0: 31d2 3bbf 1832 7abe 89dc e83e f350 133f
0.09281392 -0.61190283 0.21854939 -0.64054453 0.13304481 -0.76534057 -0.76724833 0.43622354
0.7787723 -0.38766307 -0.235446 0.2032483 -0.37438545 -0.034952745 -0.66029435 0.7891392
0.34657437 0.28348416 -0.06503981 -0.06042999 0.2847517 -0.24421644 0.47603676 0.6575226
-0.46241277 0.29526606 -0.6468126 0.44200692 0.23738968 -0.73666584 -0.6795447 0.024994068
0.69681984 -0.51960087 0.7166293 0.062483266 -0.3515062 -0.47065002 0.08704287 0.31139675
-0.15310739 0.19803582 0.52560556 0.13708271 -0.15677238 -0.47658408 0.6334315 -0.48029238
0.40838805 0.695638 0.55824775 -0.10537425 -0.22490053 0.4362262 0.35150987 -0.44581282
-0.043486413 0.49867842 0.57802963 -0.19869988 -0.05126816 0.016355693 0.30137897 0.11702348
-0.5972229 -0.15199201 0.4634491 -0.64397174 0.26664588 -0.54670054 -0.41928056 -0.4287061
-0.72538203 0.61308 0.40266714 0.18586536 0.31330127 0.31837577 -0.2684007 0.7944811
-0.36968324 0.32526553 0.5558188 -0.6539699 0.68855023 -0.0632166 0.2246815 0.07748318
0.23382597 -0.42055133 -0.035179216 0.3663421 0.3856842 0.28010374 -0.7907284 -0.27502835
0.2288939 -0.5782953 -0.054315466 0.44767475 0.49346867 -0.48854518 -0.08479128 0.20701575
-0.76507294 -0.19444911 0.34819156 -0.2274637 0.03657924 0.5411838 -0.14624178 0.37195867
-0.6713101 0.22528397 0.57146204 0.49467358 0.5854974 -0.1278927 -0.5334076 -0.057241548
0.52751297 -0.50024354 0.29865885 -0.47336468 -0.5276919 0.672035 0.4159152 -0.60236746
-0.49285105 0.7685563 -0.38385665 0.02264725 -0.8255274 -0.6793239 0.7041066 0.3314474
-0.39583218 0.58940625 -0.057073593 0.3537714 -0.4499357 -0.58188826 -0.31613678 -0.7004486
0.39090574 -0.59308267 -0.3590764 -0.7100027 -0.62546813 -0.533707 0.79281914 0.6476141
-0.5112032 -0.3235218 0.694198 0.24289861 0.68275636 0.31675786 -0.70129013 -0.3789946
-0.4105695 0.18096018 0.69512707 0.07626171 0.46625844 0.105741024 0.52752787 0.21617371
-0.42255652 -0.6949297 0.25684366 -0.40680504 -0.3859799 0.6100981 0.3828395 -0.44165456
0.27771103 -0.75102395 0.7776296 -0.36804837 -0.032870017 -0.5926633 0.0055961423 0.042729583
0.22801463 0.40021628 0.23959303 0.32709208 0.7009209 -0.6387128 -0.07932728 0.671529
0.16196023 -0.62082756 -0.23731619 0.095711745 0.63282037 -0.09113102 -0.6103691 -0.34180948
-0.42117617 -0.16448395 -0.26318544 0.48022425 -0.5765786 0.42275986 -0.38087323 0.1373123
0.40444794 0.43801913 0.19256149 0.81032044 0.18826304 0.49883318 -0.7061784 0.3786679
-0.5438291 -0.09432637 -0.14748372 0.7691992 -0.77277917 -0.019019082 0.74989045 0.7125333
-0.60332257 -0.25709644 0.30544603 0.61151797 -0.060264718 -0.7909965 0.21252656 -0.012850344
-0.5950127 0.1687562 -0.76549435 0.524607 -0.5678678 -0.2180974 0.17536348 0.44012576
-0.7370029 -0.66493756 0.78291595 -0.39722326 -0.5888674 -0.6522932 0.66344094 -0.19423485
0.5875608 -0.70891875 -0.28403363 0.726611 -0.733676 -0.24433172 0.45480755 0.57545394

bias f4 [200]
00000000: e895 87be f0fd 183e b1d0 983e 6d1d fbbe
00000010: 7c3c 4d3e 0fbd 043f 390d f93d 7bfa 11bf
00000020: 0b9e 06bf 0434 10bf c40f eabe 32be c63e
00000030: 8e1a 35be 5dc8 43be cd1c 983e d637 81be
00000040: a9ad f2be 4e53 2dbe 04c5 ac3e c8ca b53e
00000050: c52c a43d bb67 fcbd 1549 10bf a049 2a3f
00000060: 260c 423e 941c c13e 2e49 203f f34a 13bf
00000070: bdae 74be dc09 283f 103a c1bd 9a58 d13e
00000080: b3c4 d93e 41cf 9cbe 6d83 ff3e 850c b8be
00000090: 4b8b 06bf e7cf 0c3f 2890 16bf de65 c83e
000000a0: a834 27be 754a 78be 6784 b33e 94ed 5dbe
000000b0: 7c1e 383f b8ab 173e a5d6 cdbe 115d 283e
000000c0: ff27 2f3e 4ad4 44be c470 2c3f 19eb be3d
000000d0: 60f3 e3be df77 c9be efa0 0a3f 34b6 2abf
000000e0: 83da 53be a974 c33d 5358 54be d27c 5e3e
000000f0: 6168 a3be 3121 4fbe 5464 d63e 70ed 283f
00000100: 889f abbe 12f5 933e daa3 e73d 6515 393f
00000110: a56f 82be f286 08bf dc98 d4bd 9981 bc3e
00000120: 67dd 4cbe 15b8 dbbe 9f1d 123f 2b61 8ebe
00000130: 9843 7a3e f979 25be 4113 c33e fc73 23be
00000140: 0839 b53e 5502 173f f0d0 4b3e c90a 05bf
00000150: 13f2 333f d4b3 df3e 8772 943e 31dd 363f
00000160: d1d3 9ebe 86db 7ebe fb9a 5fbd 04af 673e
00000170: 4a0d 81bd cf74 78bd c4f7 a4be eed7 913e
00000180: 7067 173f 7ebc 653e a882 c33e fcac 38be
00000190: 3e9a b9bd a61a e63e a0e7 71be 4b91 2dbf
000001a0: 9241 b7be 35fc aabd facb 87bd f75f 2bbe
000001b0: 4bde cfbd 0016 a73e 6aa4 553e 60df aabe
000001c0: a039 3d3e fdca b9bd 7c37 0dbf 8ba3 29bf
000001d0: 8854 2f3f f5c0 b8be aedc 0a3f 73c0 0cbf
000001e0: ade7 40be b634 87be 0352 b93e ad1a 0d3f
000001f0: 3e9b edbd c632 db3e a470 80be 7def f63e
00000200: e6fc 04bf d88a f03e 675e b53e 451b a03e
00000210: 2315 c5bd e03b 0d3f be27 95bd bc09 1d3f
00000220: 184d 21bc 12e3 5e3e 4180 243f 406a 25bf
00000230: 445d c5be 6181 89bd df8e 95be dc6c f6bd
00000240: 6cc1 88be 8cbb a33e daae f9be cb08 cbbe
00000250: a01c 04bd 61d4 d0be 9454 c33e 9e71 78be
00000260: 3aa0 a8be 5028 06bf e2a0 5bbe 722a 9c3e
00000270: c3f0 0b3f dd30 56be 2224 04bf ce1a a0be
00000280: 4339 2a3f a360 33be 95ec b13e c4e9 04bf
00000290: f492 2fbf a6d0 03bf da86 0e3e 1a22 cfbe
000002a0: 34f6 183f ba71 02be c856 2e3f d67e 02bf
000002b0: 01d7 3c3e fed9 0dbf a6cf 10be 7a38 07bf
000002c0: 866b 2fbe 7e4e 133f c341 1b3f fed1 2bbf
000002d0: 14cf 21bd 01ee f1bd 3c9e f13e 04bf e03e
000002e0: 576f 8e3e 4cce 0b3f 89dd 843e bdfd 3a3e
000002f0: 0cdd a0bd 87c5 873e fc2a db3e b7ae b1bd
00000300: c58d cbbe d433 fcbe 2bb0 8dbe 50ad 193f
00000310: f2a4 86be 2a82 8dbe 1509 f3bd 9f3e 4a3e
-0.26481557 0.1494062 0.2984672 -0.49045888 0.20042604 0.5185098 0.12160725 -0.5702283
-0.52584904 -0.5632937 -0.45715153 0.38816983 -0.17685911 -0.19119401 0.29709473 -0.25237912
-0.47398117 -0.1692631 0.3374406 0.35506272 0.080163516 -0.123244725 -0.56361514 0.6651859
0.18949947 0.37717116 0.62611663 -0.5753624 -0.23894782 0.65640044 -0.09434903 0.4088791
0.42532882 -0.30626872 0.49904957 -0.35947052 -0.52556294 0.55004734 -0.58813715 0.39140218
-0.1632868 -0.24247153 0.35061952 -0.2167266 0.71921515 0.14811599 -0.40202823 0.16441752
0.17105101 -0.19221607 0.67359567 0.09322185 -0.44521618 -0.39349267 0.54151815 -0.6668427
-0.20688824 0.095437355 -0.20736818 0.21727303 -0.31915572 -0.20227505 0.4187342 0.659873
-0.3352015 0.2889791 0.11310549 0.7229827 -0.25475803 -0.5333091 -0.10380718 0.36817625
-0.20006333 -0.4291388 0.5707645 -0.27808508 0.24439847 -0.1615981 0.38100627 -0.15962213
0.35395074 0.58987933 0.19903922 -0.5196958 0.7029125 0.43691885 0.28993627 0.7143126
-0.31020978 -0.24888429 -0.05459116 0.22625357 -0.06301363 -0.060658272 -0.3222028 0.28485054
0.5914221 0.22435185 0.3818562 -0.18034738 -0.090626225 0.44942206 -0.23623514 -0.67799824
-0.35792214 -0.08348886 -0.06630702 -0.16735826 -0.10149821 0.32633972 0.208635 -0.33373547
0.18479013 -0.0907192 -0.5516279 -0.6626517 0.6848836 -0.36084715 0.5424298 -0.54981154
-0.18838377 -0.26407403 0.36195382 0.5511883 -0.11601876 0.42812175 -0.25085938 0.4822959
-0.5194839 0.4698093 0.35423586 0.31270805 -0.09623172 0.55169487 -0.07282971 0.6134298
-0.009845041 0.21766308 0.642582 -0.6461525 -0.3854772 -0.0671413 -0.29210564 -0.12032482
-0.2671007 0.31979024 -0.48766214 -0.39655146 -0.03225386 -0.40787032 0.38150465 -0.24262092
-0.32934743 -0.5240526 -0.2144809 0.30501133 0.5466425 -0.20917077 -0.51617634 -0.3127045
0.66493624 -0.17517333 0.3475081 -0.519192 -0.6858361 -0.5149025 0.1391863 -0.40455705
0.59750676 -0.12738696 0.6810117 -0.50974786 0.18441392 -0.55410755 -0.14141712 -0.5282055
-0.1713086 0.57541645 0.6064722 -0.671173 -0.039504126 -0.11812974 0.47191036 0.43895733
0.2781932 0.5461166 0.25950268 0.18260856 -0.07854661 0.2651789 0.42806232 -0.08675902
-0.397566 -0.49258292 -0.27673468 0.6003008 -0.26297718 -0.2763837 -0.11866967 0.1975045

bias f4 [300]
00000000: 567e 893c 13e8 993c f80e 09bd ee1a 3bbd
00000010: a45a 083d 0e18 3bbd acdf 3abc f8ff 813d
00000020: 1c94 a6bd e746 a33d 0284 9b3b 1e68 083c
00000030: 953b 44bd 4bde 5dbd 0886 6e3c 6453 0a3d
00000040: a7ea 373d 2600 0b3d 281d 4b3c bea5 083c
00000050: feaf ddbc c233 8d3d 3a09 8bbd e674 bfbc
00000060: e855 ed3c 2566 21bd 1e35 7d3d f001 763d
00000070: 21f1 7f3d 0ba0 6e3d d6bf 4a3d 7ab9 eabc
00000080: 5493 223d 1cc4 bd3c bd99 7cbc 673d c53c
00000090: fab7 39bd ded9 103d db89 1ebd bfc9 49bd
000000a0: bc70 65bd 7be6 b33c fd4f 933d e16e 0b3d
000000b0: 4fdd 14bd 77db 153d f421 5ebd 2477 7bbd
000000c0: d569 4fbd 1e57 57bc e0cb de3c c93d 3c3d
000000d0: 3c6d 7f3d 8177 90bd 8536 06bb 9578 b73c
000000e0: 4352 88bb 3070 4ebc 1a6c 433d 9e16 a0bc
000000f0: 9f11 d1bb d15e a6ba 25cc 1e3d 4daf 703d
00000100: 7022 c73c 642c 64bd 3095 a8bc 43c9 34bd
00000110: 192b 74bc b292 7ebd 8a9c b63c 4dc1 a03b
00000120: 81c9 063c 2639 633d e403 21bc f30d 883d
00000130: 20e0 483c 7f51 6b3c 90db 52bd edc4 333d
00000140: 36c3 943c 5c87 37bd 6487 adbd 8de8 933a
00000150: 1f2c 42bc 6efc 2e3d bdc1 47bd 86eb 8bbc
00000160: dbeb ecbc 0b45 b8bc 1341 983d 97b0 2fbd
00000170: 5095 50bd c79e d03c d8fb 103d 70cb 03bc
00000180: 7697 90bd 4836 503d 2aa1 eebc d8b7 283d
00000190: 2ff2 653d 698c 30bd 8e2b 96bd 443b a73c
000001a0: e434 243d 5061 51bc a422 d9bc a68f 01bd
000001b0: a91d d5bc 36d3 403d 28a7 f93b 8797 b3bd
000001c0: cbba 463d ce0f 593b 5bce 133d c2ab 3c3d
000001d0: 40a8 0e3d 66b6 ad3b a8e2 723d e6d7 183d
000001e0: 1f14 bf3c c55a 043d 5dc6 94bd 34ba 613d
000001f0: fdc1 02bd 6e05 a639 ae0a 623d c3b2 163d
00000200: 9b8f 3bbd 6006 823d ba39 94bd 0bb9 41bb
00000210: a852 a0bc 9823 5bbc ac50 56bc 8d20 813d
00000220: acfc 6cbd fa1c 97bd b4fd 51bd 1b0c fc3a
00000230: b076 38bc 16f1 133d 41a8 77bd 1093 83bd
00000240: 0dee 9dbd ee53 173d 23c7 1f3d de71 a03b
00000250: bc8a b03c 0e13 1fbc 88cd 4b3c f6b0 203c
00000260: 9c4e 43bc b25a 7b3d c0da 3abd bda8 82bd
00000270: 985d 3c3d f898 5d3d a229 acbd 0d54 9c3d
00000280: fceb 6abd 4662 10ba 6ee1 a03c a8be 863d
00000290: 29eb 60bc d465 85bd 6605 603c 91e4 6f3c
000002a0: ccf5 2a3d 42e4 9bbd c1ab 02bd d392 383d
000002b0: e85e 1b3d 4ec1 823c 2177 b0bd 95ff 573d
000002c0: 07a6 7b3d 438e 1b3d aee5 31bd b9d5 963c
000002d0: 6f6a 6bbd c431 b53b 4b71 403c 020b 5e3d
000002e0: a33d 7f3d 70f8 a13b 0695 9a3d 893b e9bc
000002f0: ff5b 81bd 9250 ee3c 6cf3 d7bc e7a6 22bd
00000300: 655a b3bb 9df6 413c 1e53 e8bb dd5a 68bb
00000310: 63b5 3dbc 979e 11bd b5c0 b23c ada5 04bc
00000320: a53f 813d 26a1 1a3c f651 3c3d 2ea8 923d
00000330: 752d 21bd ec05 45bd 9a71 12bc a5b3 3ebd
00000340: a24d cdbc 7916 253c 6779 a4bc 4381 fc39
00000350: 1c4a f63c 2eda 323d b97c ac3c fe1b 99bd
00000360: dc5a 1c3d d692 d23d 2f21 9c3d c230 10bd
00000370: 60f7 1a3b a03f 45bd ff5b 3f3c 78c9 9cbd
00000380: c069 3dbd c6c2 af3c ea16 b2bc d363 84bd
00000390: 361a 1bbd 74b0 76bc 51d3 01bd f060 1d3c
000003a0: d7f9 b33c 8663 5dbd b045 f13c d101 96bd
000003b0: ba6d b3bc 1de0 213d 8f25 0fbd 43cb 97bd
000003c0: e4a6 25bd 06c2 8cbc 0255 1fbc 81b9 d0bb
000003d0: 0603 dcbc 60d3 283d bfff 193d d720 86bb
000003e0: 801a 2b3b 4c5a 1cbd 52ef 7d3d 2b5f 493d
000003f0: 494a 923d c0cf 323c a9b6 dabc ad5b 0fbd
0.016783874 0.01878742 -0.03346154 -0.04567998 0.033289567 -0.045677237 -0.011405867 0.0634765
-0.08133718 0.07972508 0.004745961 0.008325605 -0.047908384 -0.054167073 0.014558323 0.033770934
0.044901516 0.03393569 0.012397088 0.008340297 -0.027061459 0.06894638 -0.06788869 -0.023371171
0.028971627 -0.039404053 0.061818235 0.06006044 0.062485818 0.058258098 0.049499355 -0.028652895
0.039691284 0.023164801 -0.015417513 0.02407713 -0.04534147 0.035364024 -0.038705688 -0.049264666
-0.056015715 0.021960488 0.07192991 0.03404129 -0.03634387 0.03658625 -0.0542316 -0.06139292
-0.05063804 -0.013143329 0.027196825 0.04595736 0.062360033 -0.070540436 -0.0020479274 0.022396365
-0.004160197 -0.01259999 0.047710516 -0.019542035 -0.0063802744 -0.0012693052 0.038768906 0.05876093
0.024308413 -0.055706397 -0.02057895 -0.04413725 -0.014902853 -0.06215162 0.02229144 0.0049058557
0.008226753 0.055474423 -0.009827588 0.066432856 0.012260467 0.014362692 -0.051478922 0.043888975
0.01815949 -0.044806823 -0.08473089 0.0011284515 -0.01185134 0.042721204 -0.048768748 -0.01708008
-0.028921058 -0.02249386 0.07434287 -0.04289302 -0.050923645 0.025466336 0.035396427 -0.008044109
-0.07060139 0.050833017 -0.029129583 0.041190952 0.056139167 -0.043102656 -0.07332526 0.020414002
0.040089503 -0.012779549 -0.026505776 -0.031631134 -0.02601512 0.047076426 0.0076188035 -0.08769136
0.048517983 0.0033120993 0.036085468 0.04606224 0.034828424 0.0053012846 0.059298187 0.03731527
0.023325024 0.032313127 -0.07264397 0.055109218 -0.031923283 0.00031666033 0.055185966 0.036791574
-0.04579125 0.06348872 -0.07237573 -0.0029559757 -0.019570664 -0.013375185 -0.013080757 0.06305037
-0.057858154 -0.07378574 -0.05126734 0.0019229682 -0.011258766 0.03611859 -0.060463194 -0.06424534
-0.0771142 0.036945276 0.03900827 0.0048963865 0.021550529 -0.009709133 0.012439139 0.009807816
-0.011920597 0.06136579 -0.045618773 -0.063798405 0.045987695 0.05410096 -0.08406378 0.07633219
-0.05735396 -0.0005507808 0.019638743 0.065793335 -0.013727942 -0.06513563 0.013673162 0.014641897
0.041738316 -0.07611896 -0.03190208 0.045061897 0.037932307 0.015961315 -0.08616472 0.052733976
0.061437633 0.03797747 -0.04343193 0.018412458 -0.05747455 0.005529614 0.011745761 0.054209717
0.06231464 0.004942946 0.07547955 -0.028470771 -0.06316375 0.029091153 -0.02636119 -0.03970995
-0.0054734224 0.011838582 -0.0070899865 -0.003545455 -0.0115788905 -0.035551634 0.021820405 -0.008096141
0.06310967 0.009437835 0.0459766 0.07160984 -0.03934999 -0.04810135 -0.008938218 -0.04655804
-0.025061432 0.010076159 -0.02007742 0.00048161493 0.030064635 0.043665104 0.021055566 -0.07476042
0.038172588 0.10281913 0.07623517 -0.03520275 0.0023645982 -0.04815638 0.011679648 -0.076556146
-0.04624343 0.02145518 -0.021739442 -0.064643525 -0.037866794 -0.015056718 -0.031695668 0.009605631
0.021969719 -0.05404999 0.029452175 -0.07324565 -0.021902908 0.03952037 -0.034947928 -0.07411816
-0.040442362 -0.017182361 -0.009724857 -0.00636977 -0.02685691 0.041217208 0.037597414 -0.0040932703
0.0026108325 -0.03817205 0.06199581 0.049163025 0.07143075 0.010913789 -0.026698427 -0.03499954

weight f4 [300, 200]
00000000: 2b04 5ebd 0000 0080 0000 0080 0000 0000
00000010: 0000 0080 0000 0080 0000 0080 c572 723d
00000020: 0000 0080 0000 0000 0000 0000 51d0 0e3d
00000030: 945d 54bd 0000 0000 0000 0080 0000 0000
00000040: c626 71bd 0000 0080 e216 9fbd 0000 0080
00000050: 9fa4 93bd ea72 393d 0000 0000 0000 0080
00000060: 0000 0080 0000 0080 0ca8 0a3d 0000 0000
00000070: 0000 0000 0000 0080 2acf 713d 0000 0080
00000080: 0000 0080 aaaf 433d ffcb 90bd 0000 0080
00000090: 0000 0000 0000 0080 0000 0080 0000 0080
000000a0: 0000 0000 8be2 fd3c 5b94 403d 76f7 88bd
000000b0: 75b2 b0bd b58f 513d 0000 0000 0000 0080
000000c0: 0000 0080 0000 0000 0000 0080 0000 0080
000000d0: 0000 0080 0000 0080 0000 0080 0000 0080
000000e0: 0000 0000 0000 0080 0000 0080 bb47 8fbd
000000f0: 01ed 313d 0000 0080 6b81 4dbd 0000 0080
00000100: 5670 963d 293f 77bd 0000 0080 8311 513d
00000110: 0000 0000 0000 0080 0000 0080 0000 0080
00000120: 1ebd 90bd e2cc 9fbd a4b6 443d 0000 0080
00000130: 0000 0080 0000 0080 c47a 053d ae7f 7fbd
00000140: 0000 0080 0000 0080 0000 0080 0000 0000
00000150: 0000 0080 ed39 fe3c 9efb 81bd 0000 0080
00000160: 0000 0080 a29b 89bd 0000 0080 0000 0080
00000170: 0000 0080 0000 0080 0000 0080 0633 423d
00000180: 0000 0080 a9e5 9abd 0000 0080 0000 0080
00000190: 16d3 443d 0000 0080 f862 613d 0000 0000
000001a0: c1bd 813d 0000 0080 0000 0080 f236 9a3d
000001b0: 291e 3ebd 0000 0080 0000 0080 0000 0080
000001c0: 0000 0080 e60d b1bd 2da8 8abd 0000 0000
000001d0: 0000 0080 0000 0000 c08c 66bd 0000 0000
000001e0: 0000 0080 0000 0080 1386 74bd 0000 0080
000001f0: 0000 0080 0000 0080 0000 0080 0000 0080
00000200: 0000 0080 0000 0080 116b 0c3d 0000 0080
00000210: 0000 0080 0000 0080 0000 0080 0000 0080
00000220: 0000 0080 48eb 6abd 0000 0080 0000 0000
00000230: 0000 0080 7319 163d 0000 0080 0000 0080
00000240: 0000 0080 0000 0080 0000 0000 0000 0000
00000250: 0000 0080 0000 0000 0000 0080 0000 0080
00000260: 0000 0080 1976 80bd 2887 4a3d 0000 0080
00000270: 0000 0080 ff1a 293d 0000 0080 0000 0080
00000280: 0000 0080 fa85 533d 0000 0080 0000 0080
00000290: 0000 0000 0000 0000 0000 0080 0000 0000
000002a0: 0000 0080 0000 0080 0000 0080 0000 0000
000002b0: 0000 0080 ca75 4bbd 0000 0000 0000 0000
000002c0: 4f75 91bd 0000 0080 d647 85bd 0000 0080
000002d0: bd46 103d 3558 aabd 24a9 acbd 0000 0080
000002e0: 0000 0080 0000 0080 0000 0000 4c31 513d
000002f0: 1e78 89bd 47b8 573d 0469 b5bd 0000 0080
00000300: 0000 0000 56c6 78bd 0000 0080 0000 0080
00000310: 0000 0080 865a 413d 0000 0000 bc5a 3c3d
00000320: 8696 0f3e 561a c43d 0000 0080 b0ee 86bd
00000330: 0000 0000 6e27 e2bd 0000 0080 a1a9 69bd
00000340: 52ac 613d 0000 0000 8bc9 4dbd 0000 0000
00000350: 0000 0080 0000 0080 0000 0000 553e 733d
00000360: 3095 c83d 0000 0000 0000 0080 0000 0080
00000370: 0000 0000 0000 0000 0000 0080 0000 0000
00000380: 0000 0000 0000 0000 0000 0080 0000 0080
00000390: 0000 0080 0000 0000 0000 0080 0000 0000
000003a0: 13fd 553c 0000 0000 0000 0000 0000 0000
000003b0: 0000 0080 7db3 83bd b60b 86bd 0000 0000
000003c0: 0000 0080 7b4a 033e c81f af3d 1ff6 8d3d
000003d0: 893a 47bd 018b 32bc 269a 473d aec3 c23d
000003e0: e0c1 c03d fd80 a4bd b570 a53d 0000 0000
000003f0: 0000 0000 0000 0000 0656 733c 0000 0080
-0.054203194 -0.0 -0.0 0.0 -0.0 -0.0 -0.0 0.059191484
-0.0 0.0 0.0 0.034866635 -0.051847056 0.0 -0.0 0.0
-0.058874868 -0.0 -0.077680364 -0.0 -0.07209133 0.045275606 0.0 -0.0
-0.0 -0.0 0.03385167 0.0 0.0 -0.0 0.059035458 -0.0
-0.0 0.04777495 -0.07070159 -0.0 0.0 -0.0 -0.0 -0.0
0.0 0.030991813 0.047016483 -0.066878244 -0.08627788 0.05116244 0.0 -0.0
-0.0 0.0 -0.0 -0.0 -0.0 -0.0 -0.0 -0.0
0.0 -0.0 -0.0 -0.069961034 0.043438915 -0.0 -0.05017225 -0.0
0.07345645 -0.06036297 -0.0 0.05104209 0.0 -0.0 -0.0 -0.0
-0.07067321 -0.0780275 0.048025742 -0.0 -0.0 -0.0 0.03258778 -0.062377624
-0.0 -0.0 -0.0 0.0 -0.0 0.03103348 -0.0634682 -0.0
-0.0 -0.06719138 -0.0 -0.0 -0.0 -0.0 -0.0 0.04741194
-0.0 -0.075633354 -0.0 -0.0 0.04805287 -0.0 0.055026025 0.0
0.06335021 -0.0 -0.0 0.07530011 -0.04641548 -0.0 -0.0 -0.0
-0.0 -0.08645229 -0.06770358 0.0 -0.0 0.0 -0.056286573 0.0
-0.0 -0.0 -0.059698176 -0.0 -0.0 -0.0 -0.0 -0.0
-0.0 -0.0 0.034281794 -0.0 -0.0 -0.0 -0.0 -0.0
-0.0 -0.057353288 -0.0 0.0 -0.0 0.036645364 -0.0 -0.0
-0.0 -0.0 0.0 0.0 -0.0 0.0 -0.0 -0.0
-0.0 -0.06272525 0.0494453 -0.0 -0.0 0.04128551 -0.0 -0.0
-0.0 0.051641442 -0.0 -0.0 0.0 0.0 -0.0 0.0
-0.0 -0.0 -0.0 0.0 -0.0 -0.04967288 0.0 0.0
-0.07102453 -0.0 -0.06507842 -0.0 0.03522371 -0.083176054 -0.084306985 -0.0
-0.0 -0.0 0.0 0.051072404 -0.06712364 0.052665975 -0.08857921 -0.0
0.0 -0.060736023 -0.0 -0.0 -0.0 0.04720547 0.0 0.04598497
0.14022264 0.09575336 -0.0 -0.06588495 0.0 -0.11042677 -0.0 -0.057046536
0.055095978 0.0 -0.050241034 0.0 -0.0 -0.0 0.0 0.059385616
0.0979408 0.0 -0.0 -0.0 0.0 0.0 -0.0 0.0
0.0 0.0 -0.0 -0.0 -0.0 0.0 -0.0 0.0
0.013060826 0.0 0.0 0.0 -0.0 -0.06430719 -0.065452024 0.0
-0.0 0.12821381 0.08550984 0.069317095 -0.048639808 -0.010897399 0.04873099 0.09509979
0.09411979 -0.08032415 0.08078138 0.0 0.0 0.0 0.014852053 -0.0

weight f4 [2, 300]
00000000: 7323 053d bebd 0ebe f945 d03d bc10 3bbd
00000010: c0ea 663c 0f68 193e 70d8 cbbc 7417 a9bd
00000020: f758 10be 42fe d73d c41a d3bd 5fb3 e23d
00000030: 1044 f9bd 5024 adbd 188a 0b3e d0e2 cc3b
00000040: c225 e6ba b189 c93d c06b 233b 6b6f 09bd
00000050: c735 dd3d ed84 d63d d106 43bd 4b8b 63bc
00000060: d868 df3c 103a 113e 074a 4dbd 7edc a83d
00000070: 48c5 d83d e0ef c03d ebd5 e83d 333e 55bd
00000080: 83cf d63b 4aec 873d d755 a5bd 7a21 17be
00000090: e741 633a 2fdb 063e 56c6 dcbd 5fb7 e03b
000000a0: 3efb c5bc 8ddb 983d 3226 983d d4ff 66bd
000000b0: 3a55 913c 25b3 eebd 1c22 2a3d 6cf8 fbbc
000000c0: 1dbc d93d a58c ae3c 7074 13bc c0df d23d
000000d0: 3305 313d b6e8 7a3c 752a 993d 2379 f9bd
000000e0: 8c57 89bd 6b19 583d d4dd 01bd 01ba 303d
000000f0: 3f6e c53d 8568 8f3b 1889 5e3d f4bc b5bd
00000100: a68c 063d 70f8 ccbb 905f 383b 45f9 113d
00000110: 6c0e 13be 3452 e03c 5363 023c 0254 a83d
00000120: 4913 9fbd 7105 7b3d 27bf a1bd a92c be3d
00000130: 9b29 05be 9dbd 9b3d dd84 bbbd 830a cdbd
00000140: 2ffd afbc 2401 143e 240e e3bd 3210 9f3d
00000150: 034a 8abd b37a 29bd bb74 ca3d 0de3 27bd
00000160: 45e9 153d 321f 3bbc 882a 6bbd 1478 f3bc
00000170: 6678 56bd 5b84 3a3b e02d 02bc 506c 3fbc
00000180: 6c64 10bc e745 50bd b69c 93bd a9d2 703d
00000190: bca8 983d 6c34 003e eac8 ebbd 4863 023e
000001a0: 5cda f43c 2378 23bd 8ea9 3dbd e17b 52bd
000001b0: 1d4a 08be b653 9c3d 3b6f b3bc 7493 003e
000001c0: 6137 65bc aeac d73d e99f 82bd 0f88 4d3d
000001d0: 2261 8b3d 1972 29be 051d 213d d9fa b9bd
000001e0: adc8 bd3d f663 ac3c 85cf 0e3e 6d44 5abd
000001f0: cc5f 08be ed74 02be 935a c73c bff2 8fbd
00000200: d4d0 8ebd eedb ecbc ce34 06be 0edc 033d
00000210: cd78 cdbd f243 17bd 2cf7 3abd 89a9 25be
00000220: 3ec1 02be eaeb b93d e1c9 de3d e2aa f83d
00000230: fe4a 143e 1677 a1bd 1789 f83d 6d70 40bd
00000240: 93c2 a53d 8e9d 8cbd dc9d 63bb e4ae ad3c
00000250: c14b 133d 04ce cbbd fc1d 423d fa7c 213d
00000260: 0d2e 86bd 993c 9c3d 98e9 13be 23c5 c83c
00000270: 4ce5 40bd f4f7 ad3d 0141 063e f159 b6bd
00000280: 8049 3d3d c2e6 b0bd 0fb9 2ebd 1875 893d
00000290: 2956 fdbd f6c1 92bd 1707 be3d b1f9 f4bb
000002a0: 518e 57bc 91b4 ac3d b4c9 b9bc e7d7 933d
000002b0: 3680 983d 04d7 923d 84f9 253d f539 543d
000002c0: c365 a6bd b69a 9a3d 1ed7 c6bd 372c 043e
000002d0: 5065 173e 23f4 a33c 9969 55bd c19d 3cbd
000002e0: 158e 55bd 9dab 2dbd d170 6b3d f5e0 ab3d
000002f0: 149b 8bbd 6583 823d 41f6 933c b662 0dbe
00000300: 2332 efbd 6b61 0f3d ffc3 48bd 0eeb 12bd
00000310: 442b 133e ea03 0dbd 4e1f 813d 5ddd 943b
00000320: b8e5 49bd 52f2 03bd 9e29 0c3e ffe9 093d
00000330: f5b9 b0bd 0c42 aebc 48cd e13c 52e6 21be
00000340: 9150 e6bd a68c 603d 5889 91bd c7f8 003c
00000350: 487f 5a3c c885 59bc b2fe f53d 12cb 133e
00000360: c6fc 343c 7769 ce3d 6cfe 85bd 204f bf3d
00000370: ba43 363d 9133 cb3d 77a8 633c 2d9f bf3d
00000380: 482d 9b3b a15e a9bd 34ba d93d 15f4 293d
00000390: d196 a6bd d07e 71bc 2c87 d23c b66b 00bd
000003a0: ae25 98bd ae78 4dbd f47c 90bd fc9e ff3d
000003b0: 8c22 42bd 9ecf 2f3d 6edf c8bc 29a1 febb
000003c0: 6a0b 1c3d 82a4 823d 82ce 9abd ad97 5f3d
000003d0: f092 d13d 09de b83d 3d16 c4bd 3292 1a3d
000003e0: f86d a9bb abc4 f5bb 2182 30bd 6d11 9dbd
000003f0: 901b 93bd 0c61 c73c b20d 92bd e1df 00bd
0.03250451 -0.13939568 0.10169596 -0.045670256 0.014094055 0.14981101 -0.024883479 -0.082564265
-0.14096437 0.10546543 -0.103078395 0.110693686 -0.12171185 -0.08454192 0.13626897 0.006252624
-0.001755886 0.09840716 0.002493605 -0.033553522 0.10801273 0.10474572 -0.047613923 -0.0138881905
0.027271673 0.14182305 -0.050119426 0.082451805 0.105845034 0.094207525 0.113689266 -0.05206127
0.006555499 0.066368654 -0.08073013 -0.14758864 0.0008669183 0.1316955 -0.10780017 0.006857797
-0.024167653 0.07463751 0.0742916 -0.05639632 0.017740835 -0.11655263 0.041536435 -0.030758105
0.10631583 0.021307299 -0.008999929 0.10296583 0.04321785 0.015314272 0.07478801 -0.12181308
-0.06706151 0.052758615 -0.031705692 0.043146137 0.096401684 0.0043764734 0.05432996 -0.088739306
0.032848977 -0.006255202 0.0028133132 0.035638113 -0.1436097 0.027382948 0.007958251 0.08219148
-0.0776735 0.061284486 -0.078977875 0.09285862 -0.13004152 0.07604525 -0.09156201 -0.100117706
-0.021483032 0.1445356 -0.110866815 0.07766761 -0.06752398 -0.04137678 0.09885546 -0.040988017
0.036599416 -0.011421012 -0.057413608 -0.029720344 -0.052360915 0.0028460238 -0.007945508 -0.011683539
-0.008813005 -0.050847914 -0.072076246 0.05879465 0.074540585 0.12519997 -0.11512931 0.12733185
0.029889278 -0.039909493 -0.046304278 -0.05138767 -0.13309522 0.07633154 -0.021903625 0.12556249
-0.013990254 0.10530983 -0.06378157 0.050178584 0.06805636 -0.16547431 0.039334316 -0.090810485
0.092667915 0.021043759 0.1394635 -0.053287912 -0.13317794 -0.12739916 0.024335181 -0.07028722
-0.069734246 -0.028913464 -0.13106081 0.032192282 -0.100328065 -0.036930032 -0.045645878 -0.16177954
-0.12769029 0.090782 0.10878349 0.12141968 0.14481732 -0.07884042 0.12135523 -0.046982218
0.08093753 -0.06865989 -0.0034731543 0.021201558 0.035960916 -0.09951404 0.047391877 0.039425828
-0.06551752 0.076287456 -0.14444578 0.024508065 -0.047093675 0.08494559 0.13110735 -0.08903874
0.046212673 -0.086377636 -0.042656954 0.06711787 -0.12369949 -0.07165901 0.09278696 -0.0074760546
-0.0131564895 0.08432878 -0.022679187 0.072189145 0.07446329 0.07169917 0.04052116 0.051813085
-0.08124878 0.0754904 -0.09708999 0.12907492 0.14784741 0.020013874 -0.05210266 -0.046048883
-0.052137453 -0.04239999 0.057480637 0.083925165 -0.06816688 0.06372718 0.018061759 -0.13807186
-0.11679485 0.035005014 -0.04901504 -0.035868697 0.14371973 -0.03442756 0.06304799 0.00454299
-0.049291342 -0.032213517 0.1368775 0.03367042 -0.086292185 -0.021271728 0.027563706 -0.15810516
-0.112458356 0.054821633 -0.07106274 0.007871813 0.01333601 -0.013276525 0.1201147 0.14432934
0.011046594 0.100787096 -0.06542668 0.09341264 0.044498183 0.09921945 0.013895146 0.09356532
0.0047356226 -0.08270002 0.106312186 0.04149254 -0.08134235 -0.014739707 0.02569922 -0.03135272
-0.07429062 -0.050163917 -0.07055083 0.12481496 -0.047396228 0.04292261 -0.024520602 -0.0077706766
0.038096823 0.063790336 -0.075589195 0.05458801 0.10233104 0.09026725 -0.09574554 0.03773708
-0.00517058 -0.0075002513 -0.04309285 -0.07669339 -0.071829915 0.024338268 -0.071315184 -0.031463508

bias f4 [2]
00000000: 1523 0a3c 19d6 15bc
0.008431216 -0.009145283
