figures/Illu_large_global_2/theta=0.1_s=0_step=100/best_model.pth (torch, 246949 bytes, 5 tensors)

bias f4 [200]
000000 ac da 6c bf 56 0d c6 be 8e 9f 4c 3f 05 c2 2b bf
       -0.92521167 -0.3868205 0.7993096 -0.67092925
000010 56 7c a6 be a2 44 03 bf ea 13 87 3f 26 4e d1 be
       -0.32516736 -0.512766 1.0552952 -0.40879935
000020 1e 17 c6 be 21 c1 25 bf 56 fe 7d 3d 07 50 84 3e
       -0.38689512 -0.64747816 0.06201013 0.25842306
000030 8c e5 7c be 29 73 50 bf cb 0f db 3e 75 29 cc be
       -0.2469694 -0.8142572 0.42785487 -0.3987538
000040 f2 52 80 3f 57 09 9c be 5b 6e 58 3f f3 f4 ae 3e
       1.0025313 -0.30475876 0.8454339 0.34171256
000050 57 ba 08 bf 02 6c 3f 3f 1e 01 46 bf 43 5b 2c bf
       -0.5340933 0.7477418 -0.77345455 -0.67326754
000060 66 70 f5 3e b7 5a 1b 3f 79 73 60 3f c6 1c ae 3f
       0.47937316 0.60685295 0.876762 1.3602531
000070 e6 e8 0d bf db 15 02 3f 3b d9 25 bf ec a9 49 3f
       -0.554335 0.508146 -0.6478459 0.78774905
000080 94 d3 27 3f a3 f4 72 bf 0c 18 8e 3f 3d 01 8d be
       0.6555722 -0.94904536 1.1101089 -0.27540007
000090 fd 1c 39 bf dd 8d 55 3f 5a 3e 08 3f b3 fe 13 bf
       -0.7230986 0.8341959 0.5322014 -0.57810515
0000a0 a9 a0 d4 3e 1b 0d bd be da 69 bc 3f 86 8e c4 be
       0.41528824 -0.3692406 1.4719803 -0.38389987
0000b0 81 cf 35 3b 73 de b4 3f 31 72 81 3f 00 94 2f bf
       0.002774209 1.4130386 1.0112973 -0.68585205
0000c0 dc b7 91 3f 7a d8 69 3e 4e 2b 29 bf 94 be 59 bf
       1.1384234 0.22836486 -0.660817 -0.85056424
0000d0 6b 7b 91 3f 5a e0 50 bf 30 cb ac 3f 60 75 bb 3f
       1.1365789 -0.81592333 1.3499508 1.4645195
0000e0 ec 8a 19 3f 15 44 25 bd 79 23 86 3f 30 86 ad 3f
       0.599776 -0.04034813 1.0479575 1.3556576
0000f0 ec 0c c8 3d 3d ca 1e be c5 dc 47 bf 80 29 1c 3f
       0.0976809 -0.15506835 -0.7807124 0.61000824
000100 ec b4 31 bf 03 6a 51 3f 4c 5f fc be 4b 4c 35 bf
       -0.6941669 0.81802386 -0.49291456 -0.7081954
000110 1d eb 0f 3f a2 43 f9 be bb cc 19 3f 71 af f7 be
       0.5621813 -0.48684412 0.6007802 -0.4837604
000120 56 3f 51 be 1a 53 74 bf 3f 62 cf 3f fb 06 10 3f
       -0.20434317 -0.954393 1.6201857 0.5626065
000130 9e 99 20 bf 8e d3 17 bf e6 35 a3 3f 63 9c 93 3f
       -0.627344 -0.5930718 1.2750823 1.15321
000140 6e 45 14 bf ae 8f 19 3f d3 68 aa 3f 6a de e6 be
       -0.5791844 0.5998486 1.331324 -0.45091563
000150 08 8e 6b 3f 00 d9 95 3f f6 4e 74 bf 56 bf 4e 3f
       0.920136 1.1706848 -0.95432985 0.80760705
000160 a5 40 04 be d9 b7 cd be 81 9d 24 bf 46 6e 86 3f
       -0.12915285 -0.40179327 -0.6430283 1.0502403
000170 61 c2 49 3f 0d f9 12 bf e7 0a 45 bf 62 7e a5 be
       0.78812224 -0.5741127 -0.7696976 -0.32322985
000180 56 2d 72 3f 09 f4 60 bf bb 63 2a bf f7 47 a5 3f
       0.9460043 -0.8787237 -0.66558427 1.2912587
000190 d9 f9 3f 3e 08 71 2e bf 7b 70 21 bf 70 7f 53 3d
       0.18747653 -0.6814122 -0.63062257 0.051635206
0001a0 19 0f 5d 3f 3a 56 92 3f 06 4c 3f 3f 6f 4d 64 3f
       0.8635116 1.1432564 0.7472538 0.89180654
0001b0 a0 28 36 3f 39 69 6e bf 1f ec 99 be 30 d0 a4 3f
       0.7115574 -0.9312931 -0.3006296 1.2876034
0001c0 7d 1e 1b 3f ce 78 8e 3f 77 c3 3d 3e 3f 04 ff 3e
       0.60593396 1.1130617 0.18531595 0.49807927
0001d0 a0 a2 eb bd 9e 90 c6 3f f4 97 25 3f 7e 6f 61 bf
       -0.11505628 1.5512884 0.6468499 -0.8806075
0001e0 60 a4 8b be c8 ba fa 3e e7 9b 49 bf 36 46 1d 3f
       -0.27273846 0.48970628 -0.78753513 0.6143526
0001f0 c7 5b 9c 3f ad 5d af be 77 34 7e 3f a1 d8 7e 3f
       1.2215508 -0.34251156 0.99298805 0.995493
000200 d7 99 28 3f 84 5a 62 bf 7e 53 87 3f 16 e9 fc be
       0.6585974 -0.88419366 1.0572355 -0.4939658
000210 7d f4 7c 3f 06 fd 2b 3f 5a ea 01 bf ce db 02 bf
       0.9881056 0.6718296 -0.5074822 -0.51116645
000220 10 77 35 bf 16 61 23 bf 1c f1 67 3f 07 f2 3d 3f
       -0.708848 -0.63820016 0.9060228 0.7419743
000230 a5 ce b8 3f cf 1d 28 bf 52 d2 b3 3f da 74 74 3f
       1.4438063 -0.65670484 1.404856 0.954908
000240 5f ab 24 be b1 2d a3 be b3 21 af 3f de 33 c6 be
       -0.16080998 -0.31870797 1.3682159 -0.38711447
000250 b5 26 8a 3f ee bd 24 be 19 24 46 bf cf 16 85 3e
       1.0793062 -0.16088077 -0.7739883 0.25993964
000260 f8 1d 09 3f fb be 7c bf 28 07 5c 3f 28 2b d3 3f
       0.53561354 -0.98728913 0.8594842 1.6497545
000270 d9 da 4a 3f ae cb 6b 3f a1 d4 2c bf 71 6b 80 3f
       0.79240185 0.92107666 -0.67511946 1.0032789
000280 35 c3 2b 3f 53 cf ab 3f 4a 17 8a 3f d4 df 4e 3f
       0.6709474 1.3422645 1.0788357 0.80810285
000290 78 b1 48 3f 7e 9d f6 3d 8b 0c c8 3f 2c 36 1d 3f
       0.78395796 0.12041758 1.5628828 0.61410785
0002a0 13 63 20 3f 1f c3 30 be 3f 0b 36 be 49 ce 81 3f
       0.62651175 -0.17261933 -0.17777728 1.0141078
0002b0 e9 b4 45 3f 2e e8 87 3f 81 a5 38 bf 38 d0 4b 3f
       0.7722917 1.0617731 -0.7212754 0.7961459
0002c0 0e 76 1f bf 84 48 21 3e 4b 6f 3b 3f 8d 7e 7d 3f
       -0.6228951 0.15750319 0.73216695 0.99021226
0002d0 f8 38 49 bf 70 66 de be 3d 31 64 3f 7d 87 2c 3f
       -0.7860255 -0.4343753 0.8913763 0.6739424
0002e0 dc 6a 7e 3f 84 65 bb be c7 88 57 bf f0 58 36 bf
       0.99381804 -0.36600888 -0.8419308 -0.7122946
0002f0 5f 0f 32 3e ef 81 cf bf 77 59 7a be c5 5e c5 3f
       0.17388676 -1.6211528 -0.2444819 1.5419546
000300 55 96 2d bf a5 95 50 be e1 09 e4 be a7 d5 3d bf
       -0.67807513 -0.20369585 -0.44538787 -0.7415413
000310 97 c9 1e bf 4f 32 4c be f0 ab ce 3f c2 bc 4d 3f
       -0.6202635 -0.19941066 1.6146221 0.80366147

weight f4 [200, 1]
000000 06 11 b5 3f be cc b3 3f d4 b5 b2 3f e2 9e 95 bf
       1.414582 1.4046857 1.396174 -1.1689112
000010 1e f9 65 bf 79 e1 84 bf 31 85 e5 be fa 07 a7 3f
       -0.8983325 -1.0381309 -0.4482818 1.3049309
000020 d2 5d 8d bf 9e 9d cb 3e bf c4 95 bf 32 84 b3 be
       -1.1044257 0.3976869 -1.1700667 -0.35061795
000030 c7 68 51 bf d6 bf 4c 3f aa 65 ae 3f a1 9b 94 bf
       -0.818005 0.7998022 1.3624775 -1.1609994
000040 6e ac e8 be 09 9e ae 3f 1e 78 c2 3f 19 3c ac 3e
       -0.45444053 1.3641979 1.5192907 0.336396
000050 77 35 ad 3f 84 49 a7 3f cc c6 33 3f c3 ad 92 3f
       1.3531941 1.306931 0.70225215 1.1459278
000060 67 67 60 bf 8e 5e 9e bf 02 27 9f bf cf 95 fa 3e
       -0.8765778 -1.2372606 -1.2433779 0.4894242
000070 97 64 ae bf 25 7b a4 bf db da 6b bf ac 04 a7 bf
       -1.3624448 -1.2850081 -0.9213082 -1.3048301
000080 23 f3 cf 3f dd e2 b3 3f 61 e3 03 3f 13 14 4b bf
       1.6246074 1.4053608 0.5151883 -0.79327506
000090 cd 09 b2 3f 55 71 90 bf db 66 10 bf 0b 7e b9 3f
       1.3909241 -1.1284586 -0.56406945 1.449159
0000a0 d3 c7 91 bf 4e 9f fd be 81 37 86 bf 4d d8 b1 3f
       -1.1389107 -0.49535602 -1.0485688 1.3894135
0000b0 0c 97 85 3f 55 ab ad bf d6 9f 99 bf a9 7b b1 3f
       1.0436721 -1.3567911 -1.2001903 1.3865863
0000c0 26 77 a3 bf 2d 44 9d 3e 32 b1 95 3f 1e 27 8a bf
       -1.2770736 0.30716076 1.1694701 -1.0793188
0000d0 aa cc a0 bf 0b 1a ae 3f 96 72 7e bf 87 92 aa bf
       -1.2562459 1.3601698 -0.99393594 -1.3325967
0000e0 69 d2 c2 3f 9f eb 74 bf 4b 13 2a 3f 26 6d 04 3f
       1.5220462 -0.9567203 0.6643569 0.5172905
0000f0 ad d1 83 bf 17 ef ae 3e 73 1c 7e 3f 13 63 a6 bf
       -1.0298363 0.34166786 0.9926216 -1.2998985
000100 d7 da 84 bf 44 44 9a 3f b9 99 cd bf 0a 90 d0 3e
       -1.0379285 1.2052083 -1.6062537 0.40734893
000110 7a 34 9c bf 00 ee 68 bf 95 e6 a4 bf cf 52 b0 3f
       -1.2203515 -0.9098816 -1.2882868 1.3775271
000120 2e e2 e0 3f b8 94 8e bf 30 17 a9 bf 7e 3f a0 bf
       1.7569025 -1.1139135 -1.3210201 -1.2519376
000130 f2 22 b0 3f cb 45 70 bf 43 29 fc 3e 13 62 a6 bf
       1.3760664 -0.93856496 0.4925023 -1.299868
000140 46 ce ab 3f 56 dc 73 3f 32 32 9a bf 0f 80 af bf
       1.3422325 0.9525808 -1.2046568 -1.3710955
000150 97 51 91 3f a6 de 05 3f 8e 81 8d bf ed 70 a8 3f
       1.1353024 0.5229286 -1.1055162 1.3159462
000160 03 ea ad 3e ff fd 74 bf a1 36 9a bf 51 0c e7 be
       0.339676 -0.9570007 -1.2047921 -0.45126584
000170 dc 23 57 3f 32 e1 91 bf 30 d3 86 bf 41 e7 96 bf
       0.8403909 -1.1396849 -1.0533199 -1.1789323
000180 c9 8a a6 bf 66 40 84 bf 16 2a c2 bf 69 f0 04 3f
       -1.3011104 -1.0332153 -1.5169094 0.51929337
000190 36 95 99 bf 93 a3 c0 3f cf 15 89 bf 65 ce 8b bf
       -1.199866 1.5049919 -1.070978 -1.0922362
0001a0 e8 99 a3 bf 52 eb 00 3f e6 33 a0 bf 06 23 94 3f
       -1.2781343 0.5035907 -1.2515838 1.1573188
0001b0 17 89 b3 3f 6a c9 ad 3f c2 f1 72 bf 1c c5 9f 3f
       1.4026212 1.3577092 -0.94900143 1.2482028
0001c0 ad 8f ae 3f 0a 99 a6 bf e3 26 a8 3e ca e7 a3 bf
       1.3637596 -1.3015454 0.32842168 -1.2805111
0001d0 15 14 b3 3f c0 a6 0b 3f e7 d6 b7 3f 1e 16 92 bf
       1.3990504 0.54551315 1.4362458 -1.1413
0001e0 28 14 20 3f 5e 5b 9c bf 7a f8 9c bf e7 aa 9c bf
       0.62530756 -1.2215383 -1.2263329 -1.2239655
0001f0 20 90 f6 3e 35 93 b9 3e 1d bc a0 bf cb ac fd 3e
       0.48156834 0.36245123 -1.2557408 0.49545893
000200 b1 02 9f bf be 6a e5 3e 6c 71 0a 3f 0a 9e c2 3e
       -1.2422696 0.44808 0.5407932 0.380112
000210 31 08 a4 bf 20 11 ac 3f da a2 be 3f be 0a 8f bf
       -1.2815 1.3442726 1.4893448 -1.1175153
000220 c5 43 b6 3f f5 9b 86 bf b8 72 fb 3e 4f 68 e6 3f
       1.4239432 -1.0516344 0.4911096 1.8000582
000230 63 4f a2 bf ed 79 9e bf d3 27 a2 bf 59 17 a5 bf
       -1.2680477 -1.2380959 -1.2668403 -1.289775
000240 31 8e 65 bf 79 77 06 bf 8b c1 95 bf 64 7c 9a bf
       -0.8967009 -0.5252605 -1.169969 -1.2069211
000250 15 68 fe 3e dc c4 b4 3f 98 7e b2 3f 85 9d 82 bf
       0.49688783 1.4122577 1.3944883 -1.0204321
000260 6e 1b 1f 3f 55 e8 92 bf 3b 5a e4 3e db 80 0e 3f
       0.6215123 -1.1477152 0.4460009 0.5566537
000270 b4 0f 8d bf dd c6 fa 3e 11 99 b1 3f 31 89 95 3f
       -1.1020417 0.48979846 1.3874837 1.1682492
000280 c7 f2 a3 3f a5 73 86 bf 52 83 a3 bf 1e 16 9b bf
       1.2808465 -1.0504042 -1.2774451 -1.2116125
000290 42 0c e4 3e 82 80 a2 3e c9 f1 a5 bf 21 1e 92 bf
       0.44540602 0.3173867 -1.2964412 -1.1415445
0002a0 22 cc a3 bf bb 5e f9 be e5 28 94 bf e4 85 a1 bf
       -1.2796671 -0.48705086 -1.157498 -1.2618985
0002b0 b8 ae ed 3e 48 15 94 3f 80 cd 99 bf 9c d5 8e 3f
       0.46422362 1.1568995 -1.2015839 1.1158938
0002c0 42 8e b0 3f 95 82 9a bf c5 a9 a0 3f 83 d6 3c bf
       1.3793414 -1.20711 1.255181 -0.7376482
0002d0 33 5b af 3f bd 31 af 3f 24 9c 02 3f ea 09 b2 3f
       1.3699707 1.3687054 0.510195 1.3909276
0002e0 ce c9 06 3f 40 67 0f bf 24 a6 c0 3f 12 c4 ad 3f
       0.5265168 -0.5601692 1.5050702 1.3575461
0002f0 10 95 b0 3e 8a 98 b8 3f 12 b8 40 bf b0 e1 0b 3f
       0.34488726 1.4421551 -0.7528087 0.54641247
000300 f2 77 87 bf ad 15 a4 bf d3 30 ab 3f e7 d4 b2 bf
       -1.058348 -1.2819115 1.3374275 -1.3971223
000310 c4 2b ae 3f 1a 93 59 bf fa d9 a7 bf cb fb 9d 3f
       1.3607106 -0.84990084 -1.3113396 1.2342466

bias f4 [300]
000000 eb 82 0f 3d 0f 21 ea bc 1f 26 7e bd 07 e6 be bc
       0.035036962 -0.028580217 -0.062048074 -0.023303045
000010 35 3d d1 3a 59 ea ac 3b 8f e2 7b 3c 8a 40 24 3d
       0.0015963676 0.00527696 0.01537384 0.04010061
000020 57 d3 8a bd f0 3f f4 3c a3 29 d7 bc 5e 2c 7a bd
       -0.06778591 0.029815644 -0.026264971 -0.061077468
000030 ad 57 59 bd 9e a9 54 bd 0c 48 99 3a 8f 18 ae be
       -0.05306213 -0.051919572 0.0011694445 -0.34003112
000040 70 3d 53 bd 3f 1e b7 bc ea 22 08 be 73 4d 5b 3d
       -0.051572263 -0.02235329 -0.13294569 0.05354066
000050 0a 7e 85 3c a5 0c 08 3b a8 e4 7a bc c4 a1 76 3d
       0.016295452 0.002075949 -0.015313305 0.060212865
000060 93 82 8a bd 62 08 7f 3c ad 6f 71 bd ff d1 61 bc
       -0.06763186 0.015565963 -0.058944393 -0.013782977
000070 79 0e a0 bc 69 32 98 3d 68 8c 07 3d 49 8b 1b 3d
       -0.019538151 0.0743149 0.033092886 0.03797463
000080 e2 71 61 3d 7e a4 16 bd f0 e0 5c 3d 0f 40 60 3d
       0.055040248 -0.036777966 0.053925455 0.05474859
000090 74 fc 8c bd b8 6b 3e bd 8f cd 8e bd e0 69 7f 3d
       -0.06884089 -0.046489447 -0.06972801 0.06235683
0000a0 e0 62 70 bd 41 1f 89 bc 5a 14 75 bd 1b b7 07 3d
       -0.058688045 -0.016738536 -0.059833862 0.033133607
0000b0 48 63 3d 3d b3 98 0c 3c 5c c5 e8 3b 1f de e4 3b
       0.04623726 0.008581328 0.007103605 0.0069844867
0000c0 2f a1 7a 3d 7b 54 52 3d 2d 8a 81 3d 43 6d 5d bd
       0.061188873 0.051350098 0.06325183 -0.05405928
0000d0 32 fc 12 3d 33 63 68 bd 72 5d 0f 3d a5 26 a8 bd
       0.035885043 -0.05673523 0.035001226 -0.08210496
0000e0 13 88 56 3d 51 0c dc 3c 17 23 99 bd dc cf c9 3c
       0.052375864 0.026861342 -0.07477396 0.024635248
0000f0 34 2d 76 3d fc 2e 53 3d 5e 40 62 3e 82 f9 06 bd
       0.060101703 0.05155848 0.22094867 -0.032952793
000100 4f f8 18 3d ea 90 3b bd 70 37 92 bd 4e c4 ec bc
       0.03734618 -0.045792498 -0.0713948 -0.0289022
000110 13 f9 3e 3d 4b 6e b0 bd fa c9 97 bd f5 77 97 bc
       0.046624254 -0.08614787 -0.07411571 -0.018489817
000120 7d 1d 1f 3c 74 e4 52 3d 56 53 29 3d 98 be a3 bd
       0.00971162 0.0514874 0.04133924 -0.07995337
000130 9c 20 1e bd b2 a7 0e bb e9 35 d5 3c ad 2c 3d bc
       -0.038605317 -0.0021767435 0.026026683 -0.011546296
000140 f9 00 e6 3c e0 11 45 3d 41 bf 00 3c 3b e7 56 bd
       0.028076636 0.04811275 0.0078580985 -0.052466612
000150 ff 85 fe bc fe a5 ec bc cd b1 5e bd 20 29 8b 3c
       -0.031069754 -0.028887745 -0.054368783 0.016987383
000160 82 0f 6c bd 1b 5a 04 3d 53 92 68 bd 19 de 69 3d
       -0.057631977 0.032312494 -0.05678017 0.057096574
000170 95 b2 3a 3c 9e 01 13 3d cf 98 52 bd a5 b9 55 bc
       0.011395116 0.035890214 -0.05141526 -0.013044749
000180 51 23 06 3c ec cb e9 bc 4b 0e 25 bd 5f ff 59 bd
       0.008187131 -0.02853962 -0.040296834 -0.053222056
000190 2c c4 88 bd 4d 98 64 3c 4a 2f ca 3c 8c ae ac bb
       -0.06678042 0.013952327 0.024680752 -0.005269831
0001a0 f9 09 10 3d da c8 96 ba de 8f 81 bd 1c 5e 77 3c
       0.03516576 -0.001150395 -0.063262686 0.015098121
0001b0 85 b5 63 3d 98 bd 27 bd 4f f3 9b bd a3 b2 63 be
       0.055593032 -0.040952295 -0.07614767 -0.22236113
0001c0 4d 48 f0 bc 8d b1 93 bd fe d6 a8 bd 54 ca 6d bd
       -0.02933135 -0.072115995 -0.082441315 -0.058054283
0001d0 d5 0d 00 bc de 0f fc 3c cb 5d 89 bd a1 84 12 bd
       -0.007815798 0.030769285 -0.06707343 -0.035771016
0001e0 25 e9 cd 3c da 82 1c bd 87 3a b9 bc f1 50 52 3c
       0.025135586 -0.038210727 -0.022610916 0.012836681
0001f0 61 03 ac 3d f3 e7 e1 bc 91 8f 02 3d 68 2c ff bc
       0.08399082 -0.027576422 0.031875197 -0.031149104
000200 b0 95 89 bb f7 a0 1c 3d 07 58 25 bd 5b 9a 05 bd
       -0.0041987523 0.038239446 -0.040367153 -0.032617908
000210 6b a3 88 3c f9 34 fb 3c cf 20 e9 3b 1c cf 5b 3d
       0.016679486 0.030664908 0.007114507 0.05366431
000220 0c c9 39 be fa ef d3 bc 56 ab a3 bc e4 b0 b3 bb
       -0.181431 -0.025871266 -0.01997916 -0.0054837335
000230 42 e5 9b bd 68 ca 85 3d ad 2f 40 bc 7f 22 ad bc
       -0.07612087 0.065327466 -0.011730117 -0.021134613
000240 59 8a cb bc f5 5e 2e bd 88 10 5f bd 7d bd 69 bd
       -0.024846243 -0.042571027 -0.054459125 -0.057065476
000250 bd 80 83 bc 93 d7 ec bb 69 1f 35 bd 1a de fb 3a
       -0.016052598 -0.007227847 -0.04421941 0.0019215972
000260 74 fd e1 bc ce e6 dd 3d f3 4b d7 3c 9b 0f 8e 3d
       -0.027586676 0.10835038 0.026281333 0.0693657
000270 83 0a 49 bd a5 41 46 bd ed e0 b9 bd 40 3e fc 3d
       -0.04908229 -0.048402447 -0.09076104 0.12316561
000280 45 82 db 3c 30 fc 54 bb 67 1b 55 bd b5 40 48 bd
       0.026795516 -0.0032498948 -0.052028086 -0.048889834
000290 3d 49 32 bd fb 3e 19 3b 3c 89 1a bd b3 d8 95 3d
       -0.043526877 0.0023383487 -0.037728533 0.07316723
0002a0 96 71 63 bd 76 40 5d bc 0d c2 40 bd d1 20 35 3d
       -0.055528246 -0.013504138 -0.04706006 0.04422075
0002b0 47 a8 46 3c 2e 15 c2 bc 5f dc cb 3c 2a 37 80 bd
       0.012125081 -0.02369174 0.024885355 -0.06260522
0002c0 70 50 0b 3d cb e3 bb 3d 91 38 2b 3c f1 ce 5f bd
       0.034012258 0.091743074 0.010450498 -0.054640714
0002d0 27 a2 0e 3d d0 57 2b bd da cd 4f bd 11 f5 d8 3b
       0.03482261 -0.04183179 -0.050733425 0.006621011
0002e0 db 86 55 bd f9 8f e4 bc 5c 9d 19 3d 5f 94 03 3d
       -0.05213056 -0.027900683 0.037503585 0.03212392
0002f0 00 6a 94 bd d3 26 02 bc 8d 4d 67 3c 41 6e 44 bc
       -0.072467804 -0.007943827 0.014117611 -0.011989177
000300 e4 24 5c 3d 05 9b a1 3d 0d 0b 99 bd 95 9a 77 bd
       0.05374612 0.07890896 -0.07472811 -0.060450155
000310 42 09 e5 3c 6e 5b d8 bc 2c cd 59 bd a8 72 1d 3c
       0.027958516 -0.026410785 -0.053174183 0.009609856
000320 f3 6c 2d 3d a7 54 ae 3d e0 ab 85 bd 32 5f f8 bc
       0.04234023 0.0851224 -0.06526923 -0.03031883
000330 b7 64 fe ba 77 29 be bc 37 cd 6a bc 83 09 b3 3c
       -0.0019408677 -0.023213131 -0.014331154 0.021855121
000340 f0 09 0e bc b0 d1 dd 3c 51 40 6c 3d c8 30 0e 3d
       -0.0086693615 0.027077526 0.057678524 0.03471449
000350 ec f3 3b bd 0f f8 1f 3d 1e ae 18 3d 18 58 34 bb
       -0.04588692 0.039054926 0.037275426 -0.0027518328
000360 f2 7e 05 3d 0b a7 69 3c cc 48 3d bd bd eb 45 3c
       0.032591768 0.014261018 -0.046212003 0.01208013
000370 34 4f d1 3c a9 8c fd 3b dd 40 aa bd 45 dd 2f bc
       0.025550462 0.0077377153 -0.08313153 -0.010733907
000380 5a da 4f bd 34 ad 3c bd 2f ef 70 bd 72 0f 95 3b
       -0.050745346 -0.046063617 -0.058821853 0.0045489604
000390 0b db dc 3d 5a b7 be 3c 31 44 b4 3c 40 0f 47 bd
       0.10783967 0.023280788 0.022005172 -0.048598528
0003a0 50 ce 8c bd 48 0f 77 3d 5b 88 30 3d d8 92 43 bd
       -0.068752885 0.060317308 0.04309879 -0.047747463
0003b0 52 93 06 3d 51 8a 14 bd 51 12 5e 3d 5e 3a f1 3a
       0.03285534 -0.03626472 0.054216687 0.0018404236
0003c0 cc 67 ee bc 50 97 f2 3b b5 ba 23 3d 3f 38 14 bd
       -0.029102229 0.0074032918 0.03997298 -0.036186453
0003d0 e3 f5 f7 bc 9e aa 94 bc a9 3a af bc 31 78 b8 be
       -0.030268615 -0.018147763 -0.021390276 -0.360292
0003e0 29 8a 2e bd db ed 93 bc d0 02 f3 3c b2 7f 2b bd
       -0.04261223 -0.018057754 0.029664427 -0.041869827
0003f0 e6 d6 a0 3c 38 25 9f bc 5c a0 87 bd ef 9d 12 3c
       0.019633722 -0.019426927 -0.06622383 0.008948787

weight f4 [300, 200]
000000 d7 d7 49 bd 88 5e c2 bd e4 5e 26 bd 55 d2 20 bc
       -0.049278107 -0.09490687 -0.04061784 -0.009815772
000010 9f 4c c3 3a 7f f5 0f 3d 7b c2 f9 3c cf 9a 46 3d
       0.0014900154 0.035146233 0.030488243 0.04848748
000020 4f c4 a4 bc fa fc 58 3c 18 95 48 bc ce 9f ee 3c
       -0.020113138 0.013243908 -0.012242578 0.029128935
000030 c3 1b 97 bd 43 0c 8f bd 67 19 4c 3c 2e f2 1e 3c
       -0.07378342 -0.069847606 0.012457228 0.009701295
000040 06 37 92 bd a6 a4 f2 bb fa 12 9e bd d9 9b d4 bc
       -0.07139401 -0.0074048815 -0.07718463 -0.02595322
000050 4b 8e 15 bd 6d 72 0d 3d 2b 4e 22 bd 82 4e 27 bc
       -0.036512654 0.034532953 -0.039625328 -0.010211589
000060 ac 7c 01 bd bb fe 83 bd c4 60 bb bc 04 4a 3f bd
       -0.031613037 -0.0644507 -0.02287329 -0.046701446
000070 b8 55 42 3c 91 b3 4a bc 1e 3d 8b bd 1c 28 12 3d
       0.011861257 -0.0123719135 -0.067987666 0.035682783
000080 3c 14 77 3d fe 32 19 3c 35 f4 90 3c 54 15 c7 bb
       0.06032203 0.009350536 0.017694572 -0.0060755406
000090 f9 1b 8b bd e4 fa 72 3d e7 04 b5 3b 15 63 f4 3c
       -0.06792445 0.0593213 0.005524266 0.029832402
0000a0 b3 33 8a 3c 72 75 b0 bc 52 9b 86 bd 01 71 26 3c
       0.016870355 -0.021540377 -0.06572594 0.010158778
0000b0 4f ba cd 3c 71 13 42 3d 6d f6 f3 bb f8 0c fe bd
       0.025113253 0.047381822 -0.0074451477 -0.12404817
0000c0 22 0b 9b 3d f3 59 40 3c a7 93 df bc 49 37 10 bd
       0.07570483 0.011740196 -0.027292086 -0.035208974
0000d0 ea cc 47 3d b7 95 d4 bd 93 cb 83 3d 3a 94 13 bd
       0.048779406 -0.10380118 0.06435313 -0.03603003
0000e0 2a 1d 7b 3b 12 81 89 bc ee 05 83 bd ae db 9a bd
       0.0038316944 -0.016785178 -0.063976154 -0.07561432
0000f0 7d 6b 6b bd 00 0c 84 bd 87 72 a2 bd 19 56 10 3d
       -0.057475556 -0.06447601 -0.079320006 0.03523836
000100 b1 13 32 bd d2 2c 2d bd 1a 22 97 bd d1 ce 12 3d
       -0.04347581 -0.042279072 -0.07379551 0.035841767
000110 cf 13 e1 bb fb 97 96 bd 14 aa 4a bc 00 ae 7d bd
       -0.0068688164 -0.07353207 -0.012369651 -0.061933517
000120 9d 39 15 bd d0 1f d0 3c df 6b 8d bb 0a 52 91 3d
       -0.036431897 0.025405794 -0.0043158378 0.07095726
000130 de 23 b7 bc 9d 00 71 bc 4a 47 b3 bc b6 46 f7 bc
       -0.02235597 -0.014709619 -0.02188458 -0.030185085
000140 16 49 6b bd 67 70 3f bd 83 69 ad 3c 8f 04 89 bd
       -0.057442747 -0.046738055 0.021168476 -0.066903226
000150 ea ee 58 bd 8f 00 66 bd 70 5f e7 3c 51 18 2b bd
       -0.05296222 -0.056152876 0.02824375 -0.041771237
000160 c9 e8 c8 bc 85 a7 f1 bc 44 e6 17 bc 67 59 93 bd
       -0.024525063 -0.029498825 -0.009271208 -0.071947865
000170 ec e1 6b bd ff 6c 9b bd c9 cb 43 bc a2 4b 01 bd
       -0.057588503 -0.07589149 -0.011950442 -0.03156627
000180 d8 5d 59 bc 46 ad a2 3c 71 79 12 bd 9b a8 6d 3a
       -0.013267003 0.019858014 -0.035760347 0.00090659567
000190 d3 19 49 bd 88 a0 90 bd d7 6d 31 bd 65 1d 81 bd
       -0.049096894 -0.07061869 -0.043317642 -0.06304435
0001a0 fd 48 53 3d 42 8e 07 3b 53 91 80 3b f0 2b 4b 3d
       0.05158328 0.0020684157 0.003923574 0.04960245
0001b0 9c f4 0c bb b4 9d 9d bd c5 9b 54 3d 2f 51 bd bc
       -0.0021508103 -0.07696095 0.051906366 -0.02311
0001c0 a2 79 28 3d 7a 4a 2d 3c b8 a1 32 bd 96 a0 c4 bc
       0.041131623 0.010576839 -0.04361126 -0.024002355
0001d0 4a 54 23 3c f2 6a 7b bd 33 52 95 bc ef e7 6c 3c
       0.009968827 -0.061381288 -0.018227672 0.014459594
0001e0 28 a5 81 bd a9 0a a7 3d 86 f5 45 3c 8d 6a 35 3d
       -0.06330329 0.0815633 0.012082463 0.044291068
0001f0 2f d4 db 3b 6f 12 99 3d cc 7d 82 bd 73 76 96 bd
       0.006708644 0.07474219 -0.0637165 -0.07346811
000200 ea b0 71 3d 82 e5 5d bd c5 e5 27 bd f5 8e e2 bc
       0.05900661 -0.054173954 -0.04099061 -0.027656058
000210 80 c4 81 3a 5f 28 eb 3b ec 26 95 bd d6 49 3e bd
       0.000990048 0.0071764435 -0.072828144 -0.046457134
000220 fa 86 1a be e2 37 2c bd 19 35 8f bd 86 32 0e 3d
       -0.15090552 -0.04204548 -0.069925494 0.03471615
000230 3a 00 92 bc f9 9f f5 bc dc 9d 03 3d d3 59 a3 3d
       -0.017822374 -0.029983507 0.03213297 0.07976117
000240 04 92 93 bd d3 8a 3c 3a 53 47 ce 3c 93 80 42 bd
       -0.07205585 0.0007192317 0.025180494 -0.0474859
000250 d0 8b 93 bb ab 35 bf bd 1e ce b3 bd 86 03 65 3d
       -0.004502751 -0.09336408 -0.08779548 0.055911563
000260 b6 5f f3 3b 06 76 70 bd 8b 9f d8 bd 74 24 01 be
       0.007427181 -0.058706306 -0.105773054 -0.12611562
000270 ac 26 9a ba 53 16 de 3b 42 f6 0f 3c 1e d7 29 bd
       -0.0011760793 0.0067775636 0.00878674 -0.041464917
000280 40 58 66 bd aa 5a ed bb 0b ee a1 3d 03 34 39 3c
       -0.056236506 -0.007243474 0.07906731 0.0113039045
000290 70 13 e3 bd 37 fa 34 3d 0c c1 b8 3c 6e c5 46 bc
       -0.11087692 0.044183936 0.02255299 -0.012132032
0002a0 bd 89 a7 bc 9d 7e 80 bd 7e 1f 10 3d d1 f9 e6 bb
       -0.02045142 -0.062741496 0.035186283 -0.0070488234
0002b0 78 94 70 bb 95 7a 87 3c e3 3b a0 bd 38 fa 8e ba
       -0.0036709588 0.016537944 -0.078239225 -0.0010908311
0002c0 e2 5a 1e bd 78 e1 86 bd 76 0c eb bc f6 e2 12 3d
       -0.03866089 -0.065859735 -0.028692465 0.035860978
0002d0 03 12 9c bd de 93 45 bd a4 b4 f4 3c c4 25 25 3b
       -0.07620623 -0.04823672 0.029871292 0.0025199512
0002e0 42 ac 84 bd 92 d3 51 3d d0 9d 57 3c 79 dc cf bd
       -0.06478168 0.05122716 0.013160184 -0.10149474
0002f0 75 e4 94 bd 5a 61 c9 bd 7c 80 3e bd 31 83 e3 bd
       -0.07270137 -0.098330215 -0.04650925 -0.11109007
000300 05 13 1d 3d 2b 6f 99 bd 62 90 38 3c b6 f4 64 bd
       0.038348217 -0.07491907 0.011264892 -0.055897437
000310 00 25 6e 3c 5f 2c 4a bd 01 b7 44 3d 9f 9e 1f bc
       0.014535189 -0.04935872 0.04802609 -0.009742408
000320 46 e8 d3 bd f4 22 a1 bd f0 8c a7 bd 8a 3c ac 3d
       -0.10347037 -0.07867995 -0.081811786 0.084099844
000330 30 7a 23 bc 00 7f c4 3c b6 d5 bd bc 07 73 eb 3b
       -0.009977862 0.02398634 -0.023173194 0.007185343
000340 e6 5c 4f 3d db 8a 44 be 17 77 4d 3d 66 4e b9 3d
       0.050625704 -0.19193594 0.0501624 0.090481564
000350 f6 e7 75 3c 1d 48 c8 bd d3 c8 df bd fb d7 2b 3c
       0.015008917 -0.097793795 -0.10926976 0.0104885055
000360 e8 7f 1e bd f4 ba 25 bd 05 4a 00 bc 59 9a 89 be
       -0.0386962 -0.040461496 -0.007830148 -0.2687557
000370 4b e4 00 bd 4e 71 49 bd 50 12 e6 bc 13 b5 0c 3c
       -0.031467717 -0.04918032 -0.028084904 0.008588093
000380 c0 b6 91 3d 99 fc 45 3d 1d f6 f6 3b 55 be 94 be
       0.07114935 0.0483366 0.007536663 -0.29051462
000390 f9 80 86 3d 4f b0 a4 bb 29 81 ef 3c f6 14 d7 3c
       0.06567568 -0.0050259004 0.029236393 0.026255112
0003a0 f6 96 3c bd 20 fc 72 bd 3e 86 a0 be 2b cc d4 3c
       -0.046042405 -0.059322476 -0.3135242 0.025976261
0003b0 c2 eb 75 3c 37 3a 32 bd 02 6c ae 3b 07 6a 54 bd
       0.015009822 -0.04351255 0.005322934 -0.051858928
0003c0 0c 19 40 3d 2b 19 87 3d 9b 99 c7 3c 94 76 46 bd
       0.046898887 0.06596597 0.024365237 -0.04845293
0003d0 6c 24 19 be 77 51 6c 3d f0 52 89 bd a8 19 24 be
       -0.149553 0.05769488 -0.06705272 -0.16025412
0003e0 22 bb 8d bd df f1 78 be 89 ce 92 bc 45 9d 96 3c
       -0.069204584 -0.24311016 -0.01792075 0.018385539
0003f0 0a 18 6f 3d 83 85 8f bd d2 19 89 bd 3e f3 eb 3b
       0.058372535 -0.07007887 -0.06694378 0.0072006276

weight f4 [1, 300]
000000 8f c6 56 3d 9e c3 d3 3d f6 76 81 3d 4c ce 73 3d
       0.052435454 0.103400454 0.06321518 0.059522912
000010 b5 49 0e 3d f8 70 2f 3d 04 d9 ab 3c fb 6d 7b 3d
       0.03473826 0.042832345 0.020977505 0.061384182
000020 22 50 67 3c b0 a7 52 3d e3 1f cd 3d 5e ed 26 bd
       0.014118226 0.05142945 0.100158475 -0.040753715
000030 0c 39 d7 3d 49 4b cb bd c3 3d 43 3d 48 75 c7 be
       0.10508928 -0.09926469 0.047666322 -0.38956666
000040 b6 87 84 bd a3 38 7f ba 8c f6 7c 3e 0a 16 0b bd
       -0.06471197 -0.00097359176 0.24703425 -0.033956565
000050 7e d6 06 3e 2e dd 46 bd e9 e0 bd bd 11 9f f3 bc
       0.1316776 -0.048550777 -0.09271414 -0.029738935
000060 99 b0 92 3d c8 48 a1 3d 33 01 ff 3c 03 cc 54 bd
       0.071625896 0.0787521 0.031128502 -0.051952373
000070 fb 7c ab 3e c9 df 2d bd 73 b8 2f 3d 93 e5 88 3d
       0.3349379 -0.042449746 0.042900514 0.06684413
000080 44 ab 68 3d 19 08 04 bd 9d 3c 18 3d a9 e5 22 3d
       0.056803957 -0.032234285 0.03716718 0.039769802
000090 ed 50 d0 bd 5c 0a 38 bd 40 76 87 bd c8 80 b7 3c
       -0.10171685 -0.044931754 -0.06614351 0.022400275
0000a0 b8 6e 7b bd ad 2e 90 3d 48 d8 30 bd 9a 3c 3d 3d
       -0.061384887 0.07040153 -0.043175012 0.046200372
0000b0 96 54 68 3d df 93 b6 bb c4 39 c3 3c a6 d0 2e 3e
       0.056721292 -0.005571827 0.023831256 0.1707178
0000c0 67 0d 38 3d 8e d9 87 bd 3e 08 87 bd 0c 33 42 bd
       0.044934656 -0.06633292 -0.06593369 -0.047411963
0000d0 00 6f 6c bd ca fb 92 3d af f8 ef 3c 12 3f 18 be
       -0.057723045 0.07176931 0.029293386 -0.1486781
0000e0 39 a8 74 bd 0e b5 ae 3c 2e 61 52 bd ca 43 56 3d
       -0.059730742 0.021326568 -0.05136221 0.052310742
0000f0 d6 39 d6 bc 36 bd e2 bc a5 f3 aa be 68 4c b8 3d
       -0.026150625 -0.027678113 -0.3338901 0.08998948
000100 e5 24 24 3d 05 93 8d 3d f7 d5 86 bd 2c c7 cc bb
       0.040074248 0.069128074 -0.06583779 -0.006249329
000110 6a 21 87 3d c3 bd 89 3d 90 80 ea bc e5 20 cc bc
       0.0659817 0.06725647 -0.028625757 -0.02491803
000120 1a 03 42 bd 19 3b ff 3c bd 05 c4 bb 4b 62 c5 3c
       -0.04736624 0.03115611 -0.0059821294 0.024094721
000130 d1 17 db bd bd 10 8b 3d a9 f4 53 bd 58 47 55 bd
       -0.10697902 0.06790302 -0.051746998 -0.05206999
000140 6a 45 64 3d 48 fd 59 3d 08 78 3e 3d c4 94 75 3d
       0.05573026 0.053220063 0.04650119 0.059956327
000150 0c 1b be 3c fe b3 19 bd 04 b0 13 3d c2 39 c0 bc
       0.023206256 -0.03752517 0.036056533 -0.023465041
000160 cc 2f f5 3c 29 9d c3 bb 4e 17 35 bd 3d 44 3e 3d
       0.029930018 -0.0059696627 -0.04421168 0.046451796
000170 bf ac 1a 3d 8c ca ae bd 71 81 24 bd d4 f6 9d 3d
       0.0377624 -0.085347265 -0.040162507 0.07713094
000180 73 44 0a bd f7 73 02 bc cf 75 1b bd 93 5c 94 bc
       -0.033756685 -0.0079622185 -0.037954148 -0.01811055
000190 22 bd ff bd 8c a5 62 bd 85 f4 29 bd 08 12 cd bc
       -0.12487246 -0.05533366 -0.041492958 -0.025033012
0001a0 49 94 a9 3d 93 d4 45 bd 86 4c 94 bd 75 10 81 3d
       0.08280236 -0.04829843 -0.07241158 0.06301967
0001b0 a9 d1 7a 3d 2b 9c 4f bd 18 f9 1d 3d b6 e3 08 be
       0.061235104 -0.050686043 0.038567632 -0.13368115
0001c0 c8 68 83 bc ae 4f 55 bd e4 df 48 3d fc 5d 09 bd
       -0.016041175 -0.05207794 0.049041644 -0.033536896
0001d0 89 11 77 bd f3 ae 9e bd 54 20 56 3d 32 31 70 bc
       -0.060319457 -0.07748213 0.052276924 -0.014660167
0001e0 5d 71 6f bd 2c f5 85 3d 3d 10 f8 3c b6 77 f3 3c
       -0.05845772 0.065409034 0.03028118 0.029720169
0001f0 82 1e 12 3d 28 59 82 3d a7 9b de 3c 0c 51 05 3c
       0.035673626 0.063646615 0.02717383 0.008136999
000200 27 65 f0 3c 75 6b 81 bd d9 8d b9 3d ce 24 2f bd
       0.029345108 -0.06319324 0.090602584 -0.04275971
000210 c7 32 ee bc 55 98 2e bd b2 62 b1 bc 81 ef 1c 3d
       -0.029076947 -0.042625744 -0.021653507 0.038314346
000220 a9 2f da 3e 1c 48 4d bd bc d4 a2 3c 78 18 68 3d
       0.42614487 -0.050117597 0.01987683 0.05666396
000230 cd 76 0f be 9a 29 87 3d 71 0f 47 3c 76 78 87 3d
       -0.14010163 0.06599732 0.012149678 0.06614773
000240 4a 47 8a bd 7d ce 1f bd a5 e1 80 bd 55 6e 63 3d
       -0.067518786 -0.039015282 -0.06293038 0.055525143
000250 65 90 69 bd 54 8c b7 3c 0f 42 c7 bc e5 b2 5e bd
       -0.05702247 0.02240578 -0.024323491 -0.054369826
000260 48 2b 8f bd 01 e9 85 3e ec 0c a2 bd 9a 0c 16 bd
       -0.06990677 0.2615433 -0.07912621 -0.03663311
000270 94 20 8c bd f6 f6 44 3d 67 a6 0b 3d 91 af f1 3d
       -0.06842151 0.048087083 0.03409424 0.11801065
000280 fa 11 6c 3d b9 8a 0a bd 97 b6 5d 3d 05 7c c8 3c
       0.05763433 -0.033823702 0.05412921 0.0244732
000290 a6 ea 21 bd 40 31 7a bd 67 cd a2 3d 6f 2d 1c bd
       -0.03953042 -0.061082125 0.07949334 -0.038129266
0002a0 7d 20 df bc 01 53 90 bc 81 ff 1f 3d 29 19 70 3d
       -0.027237171 -0.017617704 0.039062027 0.058617745
0002b0 fc d2 29 bd 61 62 90 3c 5c 4f 6a 3d 49 85 4f 3d
       -0.041460976 0.017625036 0.05720459 0.05066422
0002c0 49 b2 01 be b5 7b 1d 3e 2a 08 5c bd 02 7e d7 3c
       -0.12665667 0.15379222 -0.053718723 0.026305202
0002d0 3c 21 4e 3d 06 28 34 bd b7 4b 51 3c 64 3e 82 bd
       0.050324664 -0.04398348 0.0127743995 -0.06359556
0002e0 ae d6 c4 bd 19 ab 76 bd 0a 60 06 bd ff 41 73 3d
       -0.096112594 -0.060221765 -0.032806434 0.05938911
0002f0 63 15 64 3d 9b 36 74 bd b2 92 69 3d 7f ea 66 3d
       0.05568446 -0.05962239 0.057024665 0.056375977
000300 2f ad a0 3c 0e 82 b8 3c c6 d9 30 bd 89 28 8f 3d
       0.01961383 0.022522952 -0.043176435 0.06990153
000310 6a 4f a4 3d 86 51 a0 3d eb 09 fb bc 77 54 f4 3c
       0.080229595 0.07828049 -0.030644378 0.029825432
000320 46 59 26 bd 39 e3 9f 3d 6c 9e 10 3d 86 38 4d 3d
       -0.04061248 0.07807011 0.035307333 0.050102733
000330 2c 5c b7 3c fd bc 29 3d fc 12 43 bd 85 76 47 bd
       0.022382818 0.04144 -0.047625527 -0.048697013
000340 10 01 52 3c a2 d6 3e bd 34 4b 95 bd c6 18 ea bc
       0.012817636 -0.04659141 -0.072897345 -0.028576266
000350 a2 17 42 3d 4e a3 08 3d 9b 9a 43 bd 63 5b 8e bc
       0.04738582 0.033358864 -0.047754865 -0.017377561
000360 a9 f6 5f 3d dc 97 50 bd 77 92 77 3d 97 74 a6 3d
       0.054678593 -0.050926074 0.060442414 0.081277065
000370 5a 48 d2 bd 42 e4 0a 3d c9 9c 4c bd 4e 9d 61 bd
       -0.10267706 0.03390909 -0.04995421 -0.055081658
000380 d6 3d 55 3c f2 c3 aa be 74 24 63 3d 78 60 1c 3e
       0.013015231 -0.3335262 0.055454686 0.15271175
000390 02 f6 3b 3e 21 4d 0c 3d 91 62 5d 3d cd b9 9b 3d
       0.18355563 0.034253243 0.05404908 0.07603798
0003a0 ff 3a 3f 3c c4 39 6a bd 66 40 68 3d a5 8a 9d bc
       0.011671781 -0.057183996 0.05670204 -0.01923115
0003b0 92 de 71 3d 87 01 8d 3d 49 34 b1 3d a0 d8 b3 3c
       0.05905015 0.06885057 0.08652551 0.02195388
0003c0 8e 9b 52 be f2 e0 28 3d 24 ff 26 bd 19 31 42 3d
       -0.20567152 0.04123015 -0.040770665 0.047410104
0003d0 fb 24 d2 bd 7f ce 9a 3d 65 3d c3 bd 38 fa 86 be
       -0.1026096 0.07558917 -0.095331945 -0.26362777
0003e0 99 dc 36 bd a1 d5 aa bd 07 41 2c 3d 8e a3 1e 3d
       -0.044643972 -0.08341528 0.042054202 0.038730197
0003f0 eb 09 fe 3c 1a b9 cc 3c 0c 3c c0 bd 16 17 84 3d
       0.031010589 0.024990607 -0.09386453 0.06449716
