figures/TS_partial_7/theta=0.1_s=0.8_step=1/best_model.pth (torch, 249766 bytes, 6 tensors)

weight f4 [200, 2]
00000000: de73 d43c 9043 2cbf 1041 d73e 1249 e8be
00000010: 65cf 963e db67 29bf d67a 58bf 49fe 0d3f
00000020: 7296 833f fbbd 85be 6a67 f3be e8c0 073e
00000030: 9fa4 13bf 39c0 71be 7cd6 14bf 141c 6f3f
00000040: 3272 b13e d624 913e 9833 85bd 7085 77bd
00000050: faca 913e e013 7abe 0e02 1d3f 068a 7e3f
00000060: d8e2 dfbe 4982 a83e 6139 04bf 003d 073f
00000070: d6f6 ca3e 16fd 2abf f754 45bf 210b 453d
00000080: f881 4a3f 935d 21bf 8cb4 533f 20eb 1f3e
00000090: e07a d9be c918 0fbf d578 733e 8c6a bb3e
000000a0: eb49 b4be 8425 f43d 10d0 1b3f 8d9c 963e
000000b0: f088 20be d402 f4be 7b85 3b3f 0cb8 e8be
000000c0: 6964 263f 4e15 8a3f 0347 2b3f 1c75 04be
000000d0: 3d94 bbbe 58c9 ca3e 1af9 b33e 9441 e4be
000000e0: b03f e4bc 9d93 0f3f db11 443f 86bd 19be
000000f0: 90fe 51bd 60fc 853c dd2d 643e ad9e d93d
00000100: 7190 5ebf 17fe 91be d634 ac3e fb98 37bf
00000110: 9968 cb3e 9d44 07bf a345 efbe 7019 14bf
00000120: 9876 41bf c102 343f 544c d83e 0bfb 6b3e
00000130: 0669 a03e 2602 a33e 7a86 ddbe 9bfe 423f
00000140: d32f 5abe ddf2 d43e c80c e93e ddc3 31bf
00000150: a044 2a3f efed 1cbd e812 663e 80af 9e3d
00000160: 6d4a 25be bfa0 f6be 7979 49be 1603 b43e
00000170: 6678 c53e c269 8f3e 25ed 89bf 65d5 11bf
00000180: 11a7 d93e 0da1 e1be c4b5 c6bc 09c2 013f
00000190: 0907 1e3f 5142 01bf 485e 87be cf03 3b3e
000001a0: 01f1 75bf 62f6 07be 2146 b23e 28ec 68be
000001b0: ca60 7a3e bd1f 143f 68c0 15be 5e71 be3e
000001c0: a667 30bf 2b93 703e 472f 693f 1d96 553f
000001d0: 75f6 343f eaa9 8cbd 1b25 4bbf fa3c 28be
000001e0: 852a d63e 11af 1bbf e71f 2e3e a91d 0cbf
000001f0: 3f28 3cbf f40b 073f 52db 0b3f 9c62 1ebf
00000200: 5690 c6be a759 573f 94ab 34bf 98cf b6bd
00000210: bab5 9abf b766 8abf f2b6 673f 7d78 f43e
00000220: 027b 84be 4bd7 293f 00c6 69bd 8621 b53e
00000230: fe86 03bf f78f 58bf a61f 8ebe 88ba 41bf
00000240: f727 8b3e 7895 23bf a691 c2be 3aae 50bf
00000250: 450e 4ebf dfe7 2cbf 6555 603f 0d0a 5c3f
00000260: 4356 41bf a3e0 13bf d983 473f 9d11 ba3e
00000270: 30fc 423f 32d1 dc3e dbc9 3cbf 9eb7 0dbf
00000280: 6ff1 02bf 5105 063e b08a 7d3f 5c50 663e
00000290: 5788 2f3f 6aa5 953e 110c 073f a45c 5d3e
000002a0: f0fb e3be 188b 36bf ed19 ed3e 67b2 abbe
000002b0: 2611 0fbf 3a3f 163f 99a0 163f 8d7c f2be
000002c0: 9e20 393e c0f1 4ebf f878 573f 46d4 abbe
000002d0: 6501 06bd b47b 61bf 1fc8 01bd 256c b03d
000002e0: 5e69 8e3e 04e9 0d3f a0c6 853e c609 ff3e
000002f0: e108 153f 3208 3cbf 79e5 81be b58f 283f
00000300: 07a2 85ba 9029 23bf a5d4 f0be a3bf 97bd
00000310: c7c4 3f3f 1ea9 a5bc da50 28bf dfaa f6be
00000320: ffb9 f3be 3cfd a6be 375c f5be 49f4 dc3e
00000330: 0aa2 0abf 0062 e83e d101 c3be 989b 0c3e
00000340: 92ef a33e 62f1 133f 1f0f 9e3e 8d45 8b3f
00000350: a094 6e3e e5dc 433f 7bb6 27bf 19c0 c03e
00000360: 7911 1fbf 4d78 a1be 7b30 a4be dd38 303f
00000370: 047c 82bf 42ad 5abe abaa 603f 0d9a 6e3f
00000380: 1c06 38bf ce25 edbe d96c db3e 3bb3 563f
00000390: 0559 20be 67b5 6abf 90a0 593e 408a 52bc
000003a0: 7793 2bbf d2de f93d 7da4 44bf 8602 0f3f
000003b0: 79c2 5abf c970 a4be 7c92 333e 2a58 e13e
000003c0: 0217 46bf 206e 62bf 366b 513f d83b c8be
000003d0: 7cf8 22bf 8c72 4ebf 5472 393f 8134 58be
000003e0: 54fb 003f 0186 4abf 7556 f3be 297f 3f3f
000003f0: 468e 53bf 63c6 e4be 9941 2f3f 54b8 3e3f
0.025934156 -0.6729059 0.42041826 -0.45368248 0.29455104 -0.66174096 -0.8456243 0.55466133
1.0280287 -0.26121506 -0.47539836 0.13257182 -0.57673067 -0.23608483 -0.5813978 0.9340222
0.34657437 0.28348416 -0.06503981 -0.06042999 0.2847517 -0.24421644 0.6133126 0.9942936
-0.43727756 0.329119 -0.51650053 0.52827454 0.39641446 -0.6679243 -0.7708277 0.048106316
0.79104567 -0.6303341 0.8269737 0.15617037 -0.4247656 -0.55897194 0.23776563 0.36604726
-0.35212645 0.11921218 0.60864353 0.29416314 -0.15677238 -0.47658408 0.7325055 -0.45452917
0.64996964 1.0787752 0.6690523 -0.12935299 -0.36636534 0.39606738 0.35150987 -0.44581282
-0.0278624 0.56084615 0.76589745 -0.15013704 -0.05126816 0.016355693 0.2228312 0.10625968
-0.8693915 -0.28514168 0.3363406 -0.71717805 0.3972824 -0.5283907 -0.46732816 -0.57851315
-0.75571585 0.703167 0.42245734 0.23044984 0.31330127 0.31837577 -0.4326666 0.7616975
-0.21307306 0.4159154 0.45517564 -0.6943949 0.66510963 -0.03831285 0.2246815 0.07748318
-0.16141672 -0.48169515 -0.19675244 0.35158604 0.3856842 0.28010374 -1.0775496 -0.5696624
0.42510274 -0.44068184 -0.024256594 0.506867 0.61729485 -0.50491816 -0.26439118 0.18263172
-0.9607087 -0.13277581 0.3481913 -0.22746336 0.24450985 0.5786093 -0.14624178 0.37195867
-0.68908155 0.2349364 0.91087765 0.8343218 0.70688564 -0.06868346 -0.79353493 -0.1642951
0.41829315 -0.60814005 0.17004357 -0.5473276 -0.7349891 0.52752614 0.5463153 -0.61869216
-0.38781995 0.84121174 -0.7057431 -0.08926314 -1.2086709 -1.0812596 0.9051353 0.47748175
-0.25875098 0.66344136 -0.057073593 0.3537714 -0.51377857 -0.8459467 -0.2775852 -0.7567525
0.27178928 -0.63899946 -0.38001746 -0.8151585 -0.80490524 -0.6754131 0.876303 0.85952836
-0.7552225 -0.57764643 0.7793556 0.36341563 0.7616606 0.43128353 -0.73745507 -0.553583
-0.5114965 0.13087966 0.99039745 0.22491592 0.68567413 0.29227763 0.52752787 0.21617371
-0.4452815 -0.7130599 0.46308842 -0.33534548 -0.5588554 0.58690226 0.588388 -0.4736065
0.18078849 -0.8083763 0.8416896 -0.3356039 -0.032716174 -0.8807938 -0.03168499 0.08614377
0.27814764 0.5543368 0.261281 0.49812144 0.58216673 -0.73450005 -0.25370386 0.6584428
-0.0010195383 -0.63735294 -0.47037235 -0.07409599 0.74909633 -0.020222243 -0.6574837 -0.4817724
-0.4760284 -0.32615077 -0.47921917 0.43155125 -0.541535 0.45387268 -0.38087323 0.1373123
0.32018715 0.57790196 0.3087091 1.08806 0.23298883 0.76508933 -0.6551282 0.3764656
-0.62136036 -0.31537095 -0.32068238 0.68836766 -1.0194097 -0.21355155 0.8776042 0.9320381
-0.7188432 -0.46317905 0.42856482 0.83867234 -0.15658958 -0.9168305 0.21252656 -0.012850344
-0.6702189 0.12200703 -0.7681349 0.55863225 -0.8545299 -0.32117298 0.17536348 0.44012576
-0.7737886 -0.8844929 0.81804216 -0.39108157 -0.6366041 -0.80643535 0.72440076 -0.21113779
0.50383496 -0.79110724 -0.475269 0.74803406 -0.8263897 -0.44682607 0.6845947 0.7450001

bias f4 [200]
00000000: 7b17 a2be 2316 613e 2798 a93e a5ba c6be
00000010: eb26 823e 3cce 0d3f 7b47 c53d 7efe e6be
00000020: 0b9e 06bf 0434 10bf c40f eabe adfa ae3e
00000030: 0c15 5ebe 5711 74be 5552 aa3e ef80 48be
00000040: 87fe bdbe 800e 1abe 78e1 b73e c9cd d43e
00000050: 7994 cc3d 5771 a0bd 1549 10bf b4ac 273f
00000060: a41f 0a3e 6d04 cb3e 1e6c 2b3f f34a 13bf
00000070: f63a 8fbe b2e3 2b3f 103a c1bd 8ef9 cb3e
00000080: 1079 d33e b0e4 a8be fc9d 033f a31c 98be
00000090: f20d e5be 9ce8 133f 2890 16bf 5fd1 bf3e
000000a0: fa93 4bbe 997a 97be 63f7 b43e 94ed 5dbe
000000b0: 221e 333f 8b3b 363e a5d6 cdbe 75ff 203e
000000c0: 19de 743e 3688 80be 2dff 2a3f 3997 dd3d
000000d0: cf58 90be e977 c9be 9dd9 193f 34b6 2abf
000000e0: c10b 68be 6c80 0c3e a6ed 32be 3742 7e3e
000000f0: 80fb 8dbe 10aa 85be 47aa e03e d2a9 2b3f
00000100: 4cf7 bebe 80b4 923e e023 373e f2a6 413f
00000110: d94a a0be f286 08bf f50f eabd 72f9 c33e
00000120: e362 96be 2d59 cdbe 7e91 093f 0c7f 0dbe
00000130: dfe2 783e bdca d7bd d8d2 c73e 1a07 e1bd
00000140: 47ff bb3e 2fe8 153f aae4 403e c90a 05bf
00000150: 33fa 483f f252 df3e 9975 9b3e 479e 363f
00000160: 72ca c5be e96e 8abe f246 a7bd 8b90 553e
00000170: b788 7ebd fc05 68bd 5cf2 abbe efa0 a53e
00000180: 39a8 143f 6ee6 533e 10ac c23e 6fbd c8bd
00000190: 74b1 88bd 58b0 e63e 57e2 91be 4b91 2dbf
000001a0: 946d aabe 39fe dcbd 6697 9fbd 8838 6ebe
000001b0: 4b90 bebd b553 af3e a58b 4f3e ded6 12be
000001c0: 8bcd 2f3e 6b8c c2bd 8db4 00bf 8ba3 29bf
000001d0: 87f7 2f3f 0743 b9be b777 073f 73c0 0cbf
000001e0: 1da5 10be b4ef 97be b965 b23e 13d9 0a3f
000001f0: 218d 1dbe 5490 c73e 6bf3 ebbd 1cda f13e
00000200: e6fc 04bf aa3c fd3e 0f64 be3e 5558 ad3e
00000210: 1b52 fbbd 0b56 113f 13d1 acbd d556 363f
00000220: 7866 433e ed1d 8e3e cdcf 263f 406a 25bf
00000230: 445d c5be 2dd1 66bd 6072 f9bd e767 e0bd
00000240: 9d88 aebe 7214 ac3e daae f9be 9a61 d3be
00000250: 8b9e c13d 13b2 d1be bd0c c03e 7c96 e2bd
00000260: a5ed b7be 5028 06bf 0031 93be 62b6 ad3e
00000270: f927 0f3f 3bb1 64be 2224 04bf 7f2a 99be
00000280: 7bcf 2e3f e42c 75be 3f90 b33e c4e9 04bf
00000290: f492 2fbf a6d0 03bf 4408 0b3e 718a dfbe
000002a0: 5f0a 203f a92e 10be e211 363f d67e 02bf
000002b0: c542 723e fed9 0dbf 9974 c8bd 7a38 07bf
000002c0: 7f74 12be 9d6a 223f c592 233f fed1 2bbf
000002d0: c4b8 2dbd d8ac dfbd df59 003f bd08 e33e
000002e0: a25f 8d3e e080 0b3f 97bf 833e 2083 7c3e
000002f0: 2261 77bd 80a9 963e b097 d63e 0071 cbbd
00000300: c58d cbbe d433 fcbe 6bf6 9abe 8bdc 0f3f
00000310: f2a4 86be e4c1 85be 5663 00be 3f6a 7f3e
-0.3165854 0.219811 0.33123896 -0.38814273 0.25420317 0.55392814 0.096327744 -0.45116037
-0.52584904 -0.5632937 -0.45715153 0.34175625 -0.21687716 -0.2383474 0.3326594 -0.19580434
-0.3710825 -0.15044594 0.35914207 0.41563252 0.099892564 -0.07834118 -0.56361514 0.654979
0.13488632 0.39651814 0.6696185 -0.5753624 -0.2797467 0.6714431 -0.09434903 0.39838833
0.413033 -0.32986975 0.5141294 -0.29709348 -0.44737202 0.5777681 -0.58813715 0.37464425
-0.19880667 -0.29585722 0.3534499 -0.2167266 0.69967854 0.17796151 -0.40202823 0.15722449
0.23912849 -0.2510392 0.6679562 0.10819859 -0.28192756 -0.39349297 0.60097677 -0.6668427
-0.22660734 0.13720864 -0.17473468 0.24829946 -0.27730942 -0.2610631 0.4387991 0.67056
-0.37298048 0.28653336 0.17884779 0.75645363 -0.31307104 -0.5333091 -0.11428825 0.3827625
-0.2937232 -0.40107098 0.5373763 -0.13817996 0.24305294 -0.10536716 0.3902805 -0.10987683
0.367182 0.5855741 0.18837228 -0.5196958 0.78506774 0.4361797 0.30363157 0.7133526
-0.38631016 -0.27037743 -0.081678286 0.2085592 -0.0621421 -0.056646332 -0.33583343 0.32349345
0.5806919 0.2069337 0.38021898 -0.098017566 -0.066744715 0.45056415 -0.28492996 -0.67799824
-0.33286726 -0.107906766 -0.07792549 -0.23263752 -0.093048654 0.3424355 0.20268114 -0.14339778
0.17168252 -0.09499439 -0.502755 -0.6626517 0.6873707 -0.3618395 0.52917045 -0.54981154
-0.14125486 -0.29675066 0.34843233 0.5423748 -0.15385868 0.389773 -0.11521038 0.47236717
-0.5194839 0.49460346 0.37185714 0.33856454 -0.1227152 0.56771916 -0.08438315 0.71226245
0.19082057 0.27757207 0.6516083 -0.6461525 -0.3854772 -0.05635183 -0.121800184 -0.10957318
-0.34088603 0.3360935 -0.48766214 -0.41285402 0.09454068 -0.40956172 0.3750972 -0.11063859
-0.35923496 -0.5240526 -0.28748322 0.3392821 0.5592037 -0.22333233 -0.51617634 -0.29915234
0.6828534 -0.23942906 0.3507099 -0.519192 -0.6858361 -0.5149025 0.13577372 -0.4366031
0.62515825 -0.140803 0.71121037 -0.50974786 0.23658283 -0.55410755 -0.09787864 -0.5282055
-0.14302252 0.6344393 0.6389583 -0.671173 -0.042412534 -0.10921639 0.5013713 0.44342604
0.27612025 0.5449352 0.2573211 0.24659395 -0.060395367 0.29426193 0.41912603 -0.099336624
-0.397566 -0.49258292 -0.30266127 0.56195897 -0.26297718 -0.2612449 -0.12537894 0.24942873

bias f4 [300]
00000000: 3fb4 9e3c 3e3f 7cbc b793 bebd ee1a 3bbd
00000010: ea5e 013d 79cc 6cbd acdf 3abc 81c7 e03d
00000020: 324a c8bd 9559 5f3d f6e1 853c 9d4d 943c
00000030: da04 0fbd 58a4 7bbd d0ce feba 6453 0a3d
00000040: 6245 4d3d 4506 1e3d 281d 4b3c a958 24bc
00000050: aaf8 5d3c 3116 6a3d e7be 93bd 7cdb 4bbd
00000060: e855 ed3c 2f7c 4abd 1e35 7d3d e4e5 853d
00000070: 4564 163d 95b6 8e3d 0369 533d df8a 263c
00000080: e967 a83d 636e cbba f5ec d2bb 1bbf c03c
00000090: 1275 c8bb 268d a13c 3247 ddbb fece a9bb
000000a0: 64ca 4cbd 14f3 ac3c 0f38 933d 11a2 5e3d
000000b0: 2769 24bc e7e8 083d 21df 5cbd 0680 88bd
000000c0: 5709 bdbc 1c59 57bc e0cb de3c a8c8 a03d
000000d0: 126d 7f3d 322d 98bd 38ae 2ebd 2277 1f3d
000000e0: 038a 68bb 4e24 6fbc c12f a53d d117 a0bc
000000f0: be29 44bd ea68 a6ba e237 443d d459 8a3d
00000100: 0620 013d c32c 64bd 3095 a8bc d0c3 9abc
00000110: 770f 843c b292 7ebd c29b b63c 080d 233d
00000120: 86d7 d33c fda5 663d f358 8abc 2fb7 bc3d
00000130: 2f03 253d 8cbc fcbc a158 26bd addd 813d
00000140: 9f00 04bc f208 45bd f971 d3bd e158 a43c
00000150: 226b aebc 889f 233d 7ee8 e6bc 0da1 abbc
00000160: 5af5 a2bc c72a 553b a4cc a53c cab0 2fbd
00000170: 8d64 94bd e59d d03c d11c be3c 70cb 03bc
00000180: 18b3 a2bd 5cc7 9d3d e01c 2dbc 9583 3b3d
00000190: 2a43 8b3d 907f 61bd 5636 c5bd 06cd a53c
000001a0: e434 243d 4699 92bc a422 d9bc d7fe fb3a
000001b0: a991 4ebc b8b3 673d 8ea5 f93b 4d00 a7bd
000001c0: efcc 693d daa2 47bc b376 1e3d beef 4a3d
000001d0: 0375 403d 71c6 e2bc 31c0 8a3d 3086 113c
000001e0: 9c42 4e3b 3a6b ec3d bd8e c9bd 88c2 793d
000001f0: 870d 31bc a71a 5c3c c3a3 8c3d ada8 5e3d
00000200: ffe1 60bc d59e 963d 50bc c6bd 976f 42bb
00000210: 4c71 0bbd 9823 5bbc ac50 56bc ac94 5f3d
00000220: 8171 58bd bc52 86bd 8d7a 12bd 5b66 373a
00000230: 4988 ef3c f569 623d 6754 acbd 3f93 83bd
00000240: edef fcbd 2b38 903c e578 5a3d 98da abbc
00000250: e9e0 e33c 5b58 0d3d 88cd 4b3c 2489 283c
00000260: 8581 0bbc 1217 ad3d 1caa 5cbd d0a8 82bd
00000270: e582 003d 8bcb dd3d 7aab bcbd f6d5 933d
00000280: fceb 6abd dcfe 8d3b 51e3 6b3c ec16 c73d
00000290: c36c 19bd 9281 46bd cecc c0bb 5edb 283d
000002a0: 794b a83d 2877 313c c087 e8bc a0f8 943d
000002b0: 1c1d e23c b7ba 123d 60dd a5bd 744b 6a3d
000002c0: 0d98 693d 84da f53c 0fa8 ccbc f9f1 843d
000002d0: 8d4a adbd fef9 99ba dbdd 3a3d a10a 5e3d
000002e0: 3ba9 9c3d 5cf6 513d d885 b33d e157 84bd
000002f0: f586 77bd 4392 2e3d c5f3 d7bc 34e5 60bd
00000300: fe1c d1bb 7df5 413c 6bf8 b73b 6e5f 68bb
00000310: b452 b23c 3e16 b8bd 4da9 4cbb 8906 34bc
00000320: f5a5 863d 6f2c 853c 3a80 023c ad47 9b3d
00000330: ecc2 cdbc ec05 45bd a872 12bc 4278 a9bd
00000340: 75fa 9cbd e7fb c43c 0238 34bc a685 e83b
00000350: 1c4a f63c c1f7 803d d211 543d 8b5b 88bd
00000360: fa18 2d3d 5baf d03d cb61 933d 9240 6fbc
00000370: 60f7 1a3b 0e2b 5dbd 8dd5 753c 5675 76bd
00000380: c069 3dbd f7b8 80bb 9899 bcbb e663 84bd
00000390: 168c 14bd 74b0 76bc 34ca 80bc cecc 943c
000003a0: 555d dd3d c904 6fbd f0e4 2d3d f6c0 8ebd
000003b0: ba6d b3bc dcdf 213d be25 0fbd 4754 b0bd
000003c0: a3b1 9abc 5981 95bc f04c 79bc 5fed 53bd
000003d0: 0cf1 3abd 6c80 1d3d 05ab 113d 4822 86bb
000003e0: 6908 c0bc 8c5d 07bd 1bd1 a03d 3baf 613d
000003f0: d3cf 843d 965a 013d 0ff6 933c 0ae3 8e3d
0.019373057 -0.0153959375 -0.09305518 -0.04567998 0.031584658 -0.057812188 -0.011405867 0.10975552
-0.09779777 0.05452879 0.016343098 0.018103415 -0.034916736 -0.061436027 -0.0019440297 0.033770934
0.050114997 0.038580198 0.012397088 -0.010030904 0.013548056 0.05715007 -0.07214146 -0.049769863
0.028971627 -0.049434837 0.061818235 0.06537989 0.03671672 0.069684185 0.05161382 0.010164945
0.08222944 -0.0015520569 -0.006436939 0.023528626 -0.0061174715 0.019720625 -0.006752872 -0.005182146
-0.049997702 0.021112002 0.07188427 0.054353777 -0.010034836 0.033425238 -0.05392373 -0.066650435
-0.023075743 -0.013143804 0.027196825 0.07850772 0.062359877 -0.07430495 -0.042646617 0.038931973
-0.0035482652 -0.014596058 0.08065749 -0.019542607 -0.04789137 -0.0012696062 0.047904857 0.067554146
0.03152468 -0.05570675 -0.02057895 -0.018892199 0.016120655 -0.06215162 0.022291068 0.03980735
0.025859606 0.056310643 -0.016888117 0.09214627 0.04028624 -0.030851625 -0.040611867 0.063411094
-0.008056789 -0.048104234 -0.10324473 0.020061912 -0.02129132 0.039947063 -0.028187033 -0.020950818
-0.019892383 0.0032526718 0.020239182 -0.04289321 -0.07245741 0.025465915 0.0232071 -0.008044109
-0.07944316 0.077040404 -0.010565966 0.045779783 0.0679992 -0.055053294 -0.096295044 0.020239364
0.040089503 -0.017895352 -0.026505776 0.0019225728 -0.01260797 0.056567878 0.0076186126 -0.08154354
0.057080206 -0.012184823 0.03868742 0.049545042 0.04698659 -0.027682515 0.06774939 0.00888209
0.0031472808 0.11543889 -0.09841678 0.060976535 -0.010806448 0.013434089 0.068671726 0.05436008
-0.013725757 0.073545136 -0.097038865 -0.0029668564 -0.034043595 -0.013375185 -0.013080757 0.054585144
-0.05284262 -0.06558749 -0.035761405 0.0006996148 0.02923979 0.05527683 -0.08414536 -0.06424569
-0.1235045 0.017604908 0.05333795 -0.020978257 0.027817206 0.03450809 0.012439139 0.010286603
-0.008514767 0.08451666 -0.053873166 -0.06379855 0.03137483 0.10829838 -0.09212394 0.07218544
-0.05735396 0.00433336 0.014397458 0.09721169 -0.03745724 -0.04846341 -0.0058837896 0.04122483
0.0821752 0.010831632 -0.028385043 0.07273984 0.027601771 0.035822596 -0.080988646 0.057200864
0.057029773 0.030011423 -0.02498248 0.06491465 -0.08461485 -0.0011747477 0.045621734 0.054209355
0.07649466 0.051260337 0.08765763 -0.06462074 -0.06043144 0.042619955 -0.026361356 -0.054906085
-0.00638163 0.011838314 0.0056143305 -0.003545727 0.021767952 -0.08988617 -0.003122884 -0.010987886
0.065746225 0.01625654 0.007965142 0.075820304 -0.02511736 -0.04810135 -0.008938469 -0.082748905
-0.076649584 0.024045898 -0.010999681 0.0070960103 0.030064635 0.06297255 0.051774807 -0.066580854
0.042260148 0.101896964 0.07196387 -0.014602797 0.0023645982 -0.05399614 0.015004528 -0.060170494
-0.04624343 -0.0039282995 -0.0057556145 -0.064643666 -0.03626641 -0.015056718 -0.015721418 0.018164065
0.10808817 -0.058354173 0.04245466 -0.06970398 -0.021902908 0.03952013 -0.034948103 -0.08609825
-0.018883532 -0.018250154 -0.015216097 -0.051740047 -0.045640036 0.03845255 0.035563488 -0.004093442
-0.02344151 -0.033048198 0.07852384 0.055098753 0.06484952 0.03158053 0.018061666 0.06976898

weight f4 [300, 200]
00000000: 0000 0080 0000 0080 0000 0080 0000 0000
00000010: 0000 0080 0000 0080 0000 0080 0000 0000
00000020: 0000 0080 0000 0000 0000 0000 0000 0080
00000030: d162 54bd 0000 0000 0000 0080 0000 0000
00000040: 0000 0080 0000 0080 8d44 9cbd 0000 0080
00000050: 7c86 93bd 1af9 473d 0000 0000 0000 0080
00000060: 0000 0080 0000 0080 0000 0080 0000 0000
00000070: 0000 0000 0000 0080 2acf 713d 0000 0080
00000080: 0000 0080 d39e 4f3d c39c 88bd 0000 0080
00000090: 0000 0000 0000 0080 0000 0080 0000 0080
000000a0: 0000 0000 0000 0080 882b 503d 76f7 88bd
000000b0: a02d aabd 64e2 563d 0000 0000 0000 0080
000000c0: 0000 0080 0000 0000 0000 0080 0000 0080
000000d0: 0000 0080 0000 0080 0000 0080 0000 0080
000000e0: 0000 0000 0000 0080 0000 0080 3bf5 90bd
000000f0: 0000 0080 0000 0080 0000 0080 0000 0080
00000100: 01b5 953d 7e96 7ebd 0000 0080 cea0 5d3d
00000110: 0000 0000 0000 0080 0000 0080 0000 0080
00000120: 7dc4 87bd 1ccd 9fbd 0000 0080 0000 0080
00000130: 0000 0080 0000 0080 0000 0080 8e7b 7fbd
00000140: 0000 0080 0000 0080 0000 0080 0000 0000
00000150: 0000 0080 0000 0080 c747 83bd 0000 0080
00000160: 0000 0080 0000 0080 0000 0080 0000 0080
00000170: 0000 0080 0000 0080 0000 0080 0000 0080
00000180: 0000 0080 cc06 9bbd 0000 0080 0000 0080
00000190: 0000 0080 0000 0080 0000 0000 0000 0000
000001a0: 55b6 783d 0000 0080 0000 0080 8547 993d
000001b0: 0000 0080 0000 0080 0000 0080 0000 0080
000001c0: 0000 0080 fffd acbd 67a8 8abd 0000 0000
000001d0: 0000 0080 0000 0000 0000 0080 0000 0000
000001e0: 0000 0080 0000 0080 0000 0080 0000 0080
000001f0: 0000 0080 0000 0080 0000 0080 0000 0080
00000200: 0000 0080 0000 0080 0000 0080 0000 0080
00000210: 0000 0080 0000 0080 0000 0080 0000 0080
00000220: 0000 0080 0000 0080 0000 0080 0000 0000
00000230: 0000 0080 0000 0080 0000 0080 0000 0080
00000240: 0000 0080 0000 0080 0000 0000 0000 0000
00000250: 0000 0080 0000 0000 0000 0080 0000 0080
00000260: 0000 0080 1976 80bd 22e3 5b3d 0000 0080
00000270: 0000 0080 0000 0080 0000 0080 0000 0080
00000280: 0000 0080 c031 5a3d 0000 0080 0000 0080
00000290: 0000 0000 0000 0000 0000 0080 0000 0000
000002a0: 0000 0080 0000 0080 0000 0080 0000 0000
000002b0: 0000 0080 0000 0080 0000 0000 0000 0000
000002c0: 983c 89bd 0000 0080 0000 0080 0000 0080
000002d0: 0000 0080 b68c a4bd 1d33 a5bd 0000 0080
000002e0: 0000 0080 0000 0080 0000 0080 5e56 663d
000002f0: 4e6a 88bd 21db 673d ca7a afbd 0000 0080
00000300: 0000 0000 56c6 78bd 0000 0080 0000 0080
00000310: 0000 0080 e96e 523d 0000 0000 3979 463d
00000320: 0000 0000 41bd a63d 0000 0080 b0ee 86bd
00000330: 0000 0080 b93a 19be 0000 0000 0000 0080
00000340: 0000 0000 0000 0000 0000 0080 0000 0080
00000350: 0000 0080 0000 0080 0000 0080 29b3 633e
00000360: 8c62 3f3e 0000 0000 0000 0080 0000 0080
00000370: 0000 0080 0000 0080 0000 0080 0000 0080
00000380: 0000 0080 0000 0080 0000 0080 0000 0080
00000390: 0000 0080 0000 0080 0000 0080 0000 0080
000003a0: 0000 0080 0000 0000 0000 0080 0000 0000
000003b0: 0000 0080 b267 debd b60b 86bd 0000 0080
000003c0: 0000 0080 9f53 2c3e fec0 6e3d 1ff6 8d3d
000003d0: 0000 0080 0000 0080 0000 0000 d490 a63d
000003e0: 7383 a03d 0000 0080 0d44 5d3d 0000 0080
000003f0: 0000 0000 0000 0000 0000 0080 0000 0080
-0.0 -0.0 -0.0 0.0 -0.0 -0.0 -0.0 0.0
-0.0 0.0 0.0 -0.0 -0.05185205 0.0 -0.0 0.0
-0.0 -0.0 -0.076302625 -0.0 -0.07203385 0.048821546 0.0 -0.0
-0.0 -0.0 -0.0 0.0 0.0 -0.0 0.059035458 -0.0
-0.0 0.050688576 -0.06670525 -0.0 0.0 -0.0 -0.0 -0.0
0.0 -0.0 0.050822765 -0.066878244 -0.083094835 0.052461997 0.0 -0.0
-0.0 0.0 -0.0 -0.0 -0.0 -0.0 -0.0 -0.0
0.0 -0.0 -0.0 -0.07078024 -0.0 -0.0 -0.0 -0.0
0.073099144 -0.06215524 -0.0 0.054108433 0.0 -0.0 -0.0 -0.0
-0.06629274 -0.078027934 -0.0 -0.0 -0.0 -0.0 -0.0 -0.06237369
-0.0 -0.0 -0.0 0.0 -0.0 -0.0 -0.06410175 -0.0
-0.0 -0.0 -0.0 -0.0 -0.0 -0.0 -0.0 -0.0
-0.0 -0.07569656 -0.0 -0.0 -0.0 -0.0 0.0 0.0
0.06072076 -0.0 -0.0 0.074843444 -0.0 -0.0 -0.0 -0.0
-0.0 -0.084468834 -0.067704014 0.0 -0.0 0.0 -0.0 0.0
-0.0 -0.0 -0.0 -0.0 -0.0 -0.0 -0.0 -0.0
-0.0 -0.0 -0.0 -0.0 -0.0 -0.0 -0.0 -0.0
-0.0 -0.0 -0.0 0.0 -0.0 -0.0 -0.0 -0.0
-0.0 -0.0 0.0 0.0 -0.0 0.0 -0.0 -0.0
-0.0 -0.06272525 0.053683408 -0.0 -0.0 -0.0 -0.0 -0.0
-0.0 0.0532701 -0.0 -0.0 0.0 0.0 -0.0 0.0
-0.0 -0.0 -0.0 0.0 -0.0 -0.0 0.0 0.0
-0.067010105 -0.0 -0.0 -0.0 -0.0 -0.08034651 -0.0806639 -0.0
-0.0 -0.0 -0.0 0.05623471 -0.06660901 0.056605462 -0.08568342 -0.0
0.0 -0.060736023 -0.0 -0.0 -0.0 0.051375303 0.0 0.04845545
0.0 0.08141566 -0.0 -0.06588495 -0.0 -0.14963807 0.0 -0.0
0.0 0.0 -0.0 -0.0 -0.0 -0.0 -0.0 0.22236313
0.18689936 0.0 -0.0 -0.0 -0.0 -0.0 -0.0 -0.0
-0.0 -0.0 -0.0 -0.0 -0.0 -0.0 -0.0 -0.0
-0.0 0.0 -0.0 0.0 -0.0 -0.10859622 -0.065452024 -0.0
-0.0 0.16828774 0.05828952 0.069317095 -0.0 -0.0 0.0 0.081330925
0.07837572 -0.0 0.054019976 -0.0 0.0 0.0 -0.0 -0.0

weight f4 [2, 300]
00000000: 96b7 083d 71d2 43be 2530 6a3e bc10 3bbd
00000010: a322 573c f665 5c3e 70d8 cbbc a738 7abe
00000020: e5cf 6abe 68d0 533e 6559 42be 2fdc 303e
00000030: 04e5 4bbe 37c5 07be d907 403e d0e2 cc3b
00000040: 3b01 3bbd 2e09 2b3e c06b 233b 960a 61be
00000050: 86b8 0d3e aad0 1b3e 68a9 37bd 265c 6dbe
00000060: d868 df3c d22c 813e 074a 4dbd f099 223e
00000070: 2fb0 fc3c 70ec 2a3e 2002 2a3e ef39 a63e
00000080: 84f8 f7bd 6acf 223e bd22 b5bd 61c8 8bbe
00000090: 9507 ec3d 1987 3a3e 5a71 6ebe 95a5 50bd
000000a0: 67f6 fabd dd33 263e 1ed6 d03d e399 d3bd
000000b0: eddd 493d a857 33be d633 2a3d 9250 a1bd
000000c0: fd33 293e 5d8d ae3c 7074 13bc f55f 4c3e
000000d0: 0905 313d e335 52bd 9089 2c3e 1209 2dbe
000000e0: 1082 febd ad79 8b3d d501 93be 94b9 303d
000000f0: 91d7 613e 7866 8f3b ccb2 f33d b52e 2fbe
00000100: 0e19 be3d c5fb ccbb 905f 383b c684 e13d
00000110: 7ed3 98be 3452 e03c 7b64 023c e84b 183e
00000120: 2f02 38be f9b3 0a3e 9d9e 1cbe 81e1 353e
00000130: 53ea 35be e0b7 07bd 7b85 0cbe d3e4 12be
00000140: a44f 80be cb44 b53e 2941 27be 2321 e53d
00000150: c33a ebbd ea27 b3bd df05 2b3e 133f 15bd
00000160: 8da9 093e 0579 d0bd e923 10be 8678 f3bc
00000170: aecd 3dbe a07e 3a3b 7e3e 5abd 506c 3fbc
00000180: 3d6f 87bc 9704 c2be 9d1c 1dbe a688 073e
00000190: 5b59 233e 24e0 1e3e e923 2cbe ecdd 1d3e
000001a0: 5cda f43c 1b87 0ebd 8ea9 3dbd dadd cdbe
000001b0: c973 3abe 9bfc 4d3e dd6e b3bc d4da 303e
000001c0: 5746 68bd 5553 513e 8341 b4bd 3536 673e
000001d0: 588f 003e 9238 85be e661 f73d c65b 08bb
000001e0: 5baf 563e 2ad1 9dbe 2ba8 493e 90b9 55be
000001f0: 913e 46be ea66 27bd 40e7 033d cc59 b8bd
00000200: 2175 fdbd 1fe5 dcbd bbf1 57be f9e5 e93c
00000210: bf8d 81be f243 17bd 2cf7 3abd e532 39bd
00000220: 34a7 2fbe 9d8d 2e3e 5ff3 d53d cd70 353e
00000230: 8443 553e fb16 38be a3fa 4c3e 2170 40bd
00000240: ffd3 1a3e 1a0a 2bbd 4f39 d9bd b943 893e
00000250: a7d8 ef3d 1f94 34be fc1d 423d 1cfc f03d
00000260: c1d0 88bd 2a18 0e3e 7589 83be 7cc5 c83c
00000270: 5415 27bd d719 3d3e be52 523e 48c8 b5bd
00000280: 8049 3d3d 6a49 2cbe 185c b7bd 964a 1c3e
00000290: 7d7a 34be b4ea 25be 553e 163d 2c1a 89be
000002a0: 4e42 763e 1dc0 6ebe 6b34 88bd 73f7 603e
000002b0: 4c31 c13c a16f b93d 2326 c43d 865b c43d
000002c0: b250 25be 8438 193e 527c 47be a058 8c3e
000002d0: 62a4 4b3e bc1f 2cbe 04cd 54bd 6c9d 3cbd
000002e0: ab24 01be 7f2e 69be 8954 443d dac0 533e
000002f0: 9412 e9bd 17de 44bc e8f5 933c 4b95 62be
00000300: fa48 2fbe 2661 0f3d 9e18 25be d4ea 12bd
00000310: 41d4 143e 0454 56be a6a9 2a3e 07fb d83b
00000320: a92d d2bd 6ad1 c5bc 9c2b 4e3e f744 673d
00000330: 2e0c 82be 0c42 aebc e1cc e13c 3a83 93be
00000340: ab70 4dbe 5bfa 333e 509c 4bbe fc72 513d
00000350: 487f 5a3c ad08 57be d4cc f13d 7b52 523e
00000360: 249d f73c 5373 543e 7bc0 9abd 3cf4 513e
00000370: ba43 363d 5ab0 133e b960 db3c 673e 1b3e
00000380: 482d 9b3b e0d6 75bc 5059 613e ebf3 293d
00000390: b437 1ebe d07e 71bc 6321 993d 4fcc 92be
000003a0: 7080 8a3e fbe9 60bd 6c00 33be e782 3a3e
000003b0: 8c22 42bd 6fcf 2f3d f4de c8bc 7599 2ebc
000003c0: 9035 e53d 0d1e 143e f296 18be ba57 0a3e
000003d0: 8d60 2f3e e8bb f43d 3a29 0ebe 0892 1a3d
000003e0: 001a 4fbe 304e 1cbb 3eab c9bd 80eb e6bd
000003f0: 8cf1 a5bd b75f 363e 19aa 2abe 3359 593e
0.033378206 -0.19123246 0.22869928 -0.045670256 0.013130817 0.2152327 -0.024883479 -0.24435674
-0.22930868 0.2068497 -0.18979414 0.17271493 -0.19911581 -0.13258825 0.18752994 0.006252624
-0.04565547 0.1670272 0.002493605 -0.21976694 0.13839921 0.15216318 -0.044839293 -0.23179683
0.027271673 0.25229508 -0.050119426 0.15879035 0.03084573 0.16691756 0.16602373 0.32466075
-0.121079475 0.15899435 -0.088445164 -0.27301314 0.11524884 0.18215598 -0.23285428 -0.05093916
-0.12254029 0.16230722 0.101970896 -0.10332086 0.04928391 -0.17513907 0.04155334 -0.07876696
0.16523738 0.021307642 -0.008999929 0.1995848 0.043217693 -0.05132092 0.16849351 -0.16897991
-0.12427151 0.06810317 -0.28712335 0.04314573 0.22054888 0.004376229 0.11899337 -0.17107661
0.092821226 -0.006255599 0.0028133132 0.11011653 -0.29848856 0.027382948 0.007958527 0.14872706
-0.17969583 0.13545217 -0.15294881 0.17761804 -0.17765169 -0.03313434 -0.13722794 -0.14345102
-0.2506076 0.35404047 -0.1633345 0.11187961 -0.11485817 -0.087478474 0.16701458 -0.036437105
0.13443585 -0.10179333 -0.14076199 -0.029720556 -0.18535492 0.0028456822 -0.053282253 -0.011683539
-0.016532535 -0.37894127 -0.15342946 0.13235721 0.15952055 0.1551519 -0.16810574 0.15416688
0.029889278 -0.034796815 -0.046304278 -0.40208322 -0.18208231 0.20115893 -0.02190345 0.17270976
-0.056707706 0.20441945 -0.08801558 0.22579272 0.12554681 -0.26019722 0.120792195 -0.0020806654
0.2096533 -0.30823642 0.19693057 -0.20871568 -0.19359805 -0.04086963 0.03220296 -0.090015024
-0.12375856 -0.10785889 -0.21088307 0.028552042 -0.25303456 -0.036930032 -0.045645878 -0.045214552
-0.17153627 0.17046209 0.1044681 0.17718811 0.20826536 -0.17977516 0.20017485 -0.046981934
0.15119933 -0.04175768 -0.10606634 0.2680948 0.11711245 -0.17634629 0.047391877 0.11766836
-0.06680442 0.13876405 -0.2569081 0.02450823 -0.040791824 0.18466888 0.20539376 -0.08876091
0.046212673 -0.1682488 -0.08953112 0.15262827 -0.1762485 -0.16202813 0.03668054 -0.2677778
0.2404873 -0.23315473 -0.06650623 0.21969394 0.023583077 0.09054495 0.095775865 0.09587769
-0.16144064 0.14962965 -0.19481018 0.27411366 0.19886926 -0.1680898 -0.05195333 -0.046048567
-0.12611644 -0.22771643 0.04793218 0.20679036 -0.113804966 -0.012015841 0.018061593 -0.22127263
-0.17117682 0.035004757 -0.16122672 -0.03586848 0.14534093 -0.20930487 0.16666278 0.0066217217
-0.10262615 -0.024147708 0.20133823 0.056462254 -0.25399917 -0.021271728 0.027563514 -0.28811055
-0.2006251 0.17575972 -0.19883847 0.05113505 0.01333601 -0.20999403 0.11806646 0.20539276
0.030226298 0.20747118 -0.07556244 0.20503324 0.044498183 0.14422742 0.02677952 0.15160523
0.0047356226 -0.0150048435 0.22006726 0.041492384 -0.15450937 -0.014739707 0.07477071 -0.286715
0.27051115 -0.05491064 -0.1748063 0.18213998 -0.047396228 0.042922433 -0.024520375 -0.010656704
0.11191857 0.14464588 -0.14901331 0.13510028 0.17126675 0.11949903 -0.13882914 0.037736923
-0.20224762 -0.0023850314 -0.09847115 -0.11275387 -0.08102712 0.1780995 -0.1666645 0.21225433

bias f4 [2]
00000000: e565 433c 4119 4fbc
0.011926149 -0.012640298
