figures/Illu_large_global_2/theta=0.1_s=0.95_step=100/best_model.pth (torch, 246949 bytes, 5 tensors)

bias f4 [200]
0.9914478 0.35381737 -0.31347016 -0.7143054 0.29945722 0.071993075 0.5522381 0.7896652
0.5307594 0.58504504 0.023721553 0.9178128 -0.5905653 0.3161175 0.11319347 -0.6685571
0.445142 0.7870935 -0.9627632 0.21508321 0.8940756 0.4023936 0.06754835 -0.7082504
0.32250446 0.28586775 0.52018625 0.928827 0.94595677 -0.21601859 0.94953287 0.79612845
-0.6901796 0.79545474 -0.39703587 -0.39079705 -0.70325756 0.69979334 0.6926665 0.750501
-0.5609319 0.20312555 -0.8600106 -0.133508 0.94981265 -0.5596183 -0.92038155 -0.9293666
0.6211058 -0.6435914 0.5614542 -0.85168797 0.25665376 0.099732935 0.4742271 0.1801693
0.7644162 0.086860776 0.23347996 -0.003645699 -0.43938687 0.043114968 -0.60321695 -0.44098777
0.5269357 0.78683424 -0.29071435 0.6260959 -0.8843502 0.9752618 0.59499085 0.3545836
0.054221623 0.25958964 0.13252981 -0.42062116 -0.6572994 -0.08506187 -0.15059097 -0.7271925
0.91038483 -0.30666718 -0.4029314 -0.62697107 -0.92939377 -0.7470268 0.7557428 -0.99116904
0.23370409 -0.39228353 -0.3364839 -0.45881975 -0.05827656 -0.26830754 0.5887514 0.24795374
0.5161394 0.29749817 -0.55529934 0.29660368 0.12863135 0.40189323 -0.93 0.82861775
-0.984444 0.083003156 -0.9113851 -0.708038 0.77724576 0.78854793 0.37276426 0.49596462
-0.3004274 0.79886734 0.62182456 0.94944096 -0.41330075 -0.10422678 -0.54796517 -0.49570844
0.1762413 -0.44126242 0.821056 0.969517 -0.78094566 -0.63495916 -0.49224362 -0.26523197
0.017318469 -0.2645193 -0.6532573 0.21642219 -0.797076 -0.6303845 -0.3525225 0.5421627
0.54771525 -0.71464443 0.36481997 0.27709275 -0.33022186 0.8715462 0.58692116 -0.1326295
-0.48113322 0.25311694 -0.6052214 -0.45687255 -0.48798788 0.05227651 -0.83509076 -0.37572885
0.7041396 0.008585011 -0.64985883 0.9161117 0.010912636 -0.5724754 -0.069561094 -0.14539185
-0.08218022 0.5558778 0.66138047 -0.23394458 -0.017879728 0.47048876 0.15077583 0.76075685
0.123571366 0.38826367 -0.6995507 0.23812248 -0.8771676 -0.3350535 0.76919043 0.18748762
0.9504741 0.14021805 -0.2684788 -0.39050046 -0.021197073 0.19018972 -0.5054045 0.29087088
0.9056693 0.9561255 -0.07240637 -0.4738217 -0.7840235 -0.22360757 0.5226982 -0.31563115
0.4162611 0.83473647 0.3454599 -0.4255037 0.4786396 -0.42025667 -0.5570837 0.626508
00000000: 86cf 7d3f 8d27 b53e 297f a0be b8dc 36bf
00000010: 7552 993e 1b71 933d 7a5f 0d3f 8027 4a3f
00000020: d9df 073f 83c5 153f b453 c23c c8f5 6a3f
00000030: 4a2f 17bf 27da a13e fad1 e73d 8f26 2bbf
00000040: a7e9 e33e f67e 493f a677 76bf c63e 5c3e
00000050: 23e2 643f 8906 ce3e ca56 8a3d e64f 35bf
00000060: 4e1f a53e 425d 923e ed2a 053f 9bc7 6d3f
00000070: 392a 723f fa33 5dbe 9614 733f 13cf 4b3f
00000080: 9caf 30bf eca2 4b3f 4948 cbbe 8d16 c8be
00000090: b008 34bf a825 333f 9752 313f d520 403f
000000a0: 3c99 0fbf 2500 503e a829 5cbf 52b6 08be
000000b0: ec26 733f 2543 0fbf 209e 6bbf f8ea 6dbf
000000c0: ca00 1f3f 68c2 24bf 76bb 0f3f 3908 5abf
000000d0: 1f68 833e c840 cc3d e5cd f23e 4d7e 383e
000000e0: c8b0 433f 10e4 b13d 5f15 6f3e aeec 6ebb
000000f0: 51f7 e0be 5299 303d 6d6c 1abf 26c9 e1be
00000100: 42e5 063f f86d 493f 83d8 94be d247 203f
00000110: c664 62bf c2aa 793f 5251 183f fb8b b53e
00000120: 7e17 5e3d efe8 843e e5b5 073e a85b d7be
00000130: c644 28bf eb34 aebd 8534 1abe 4a29 3abf
00000140: fb0e 693f 7b03 9dbe 064d cebe 2d81 20bf
00000150: c0ec 6dbf 263d 3fbf 5c78 413f 41bd 7dbf
00000160: 2050 6f3e 63d9 c8be 9e47 acbe 6cea eabe
00000170: 67b3 6ebd 9b5f 89be 69b8 163f 96e7 7d3e
00000180: b621 043f ae51 983e 1928 0ebf 70dc 973e
00000190: f0b7 033e f3c4 cd3e 7b14 6ebf 4b20 543f
000001a0: 8604 7cbf 8ffd a93d 8950 69bf fa41 35bf
000001b0: 94f9 463f 47de 493f f5da be3e 13ef fd3e
000001c0: 9fd1 99be 9282 4c3f e52f 1f3f 900e 733f
000001d0: 289c d3be da74 d5bd 7247 0cbf 7fcd fdbe
000001e0: 9978 343e 26ed e1be ba30 523f 4432 783f
000001f0: 0eec 47bf af8c 22bf 5b07 fcbe 7ccc 87be
00000200: 76df 8d3c 136f 87be df3b 27bf c79d 5d3e
00000210: 2c0d 4cbf e160 21bf d47d b4be 2dcb 0a3f
00000220: 1137 0c3f f0f2 36bf afc9 ba3e 1adf 8d3e
00000230: d712 a9be a71d 5f3f 7740 163f 07d0 07be
00000240: 1857 f6be 8b98 813e caef 1abf 33eb e9be
00000250: 8cd9 f9be e51f 563d 82c8 55bf 885f c0be
00000260: 7e42 343f 25a8 0c3c 265d 26bf 4c86 6a3f
00000270: eaca 323c bf8d 12bf 0c76 8ebd 9ae1 14be
00000280: 1a4e a8bd 024e 0e3f 3b50 293f 2b8f 6fbe
00000290: 8278 92bc e7e3 f03e fb64 1a3e f6c0 423f
000002a0: fc12 fd3d 7fca c63e c115 33bf 61d6 733e
000002b0: 0e8e 60bf 228c abbe aae9 443f c1fc 3f3e
000002c0: 4552 733f 5295 0f3e 0e76 89be adef c7be
000002d0: 7ca5 adbc 18c1 423e 3062 01bf 07ed 943e
000002e0: f1d9 673f a4c4 743f ca49 94bd c298 f2be
000002f0: c4b5 48bf 62f9 64be 8dcf 053f 689a a1be
00000300: 2d20 d53e 4ab1 553f 1fe0 b03e 9fdb d9be
00000310: 4010 f53e e22b d7be 0a9d 0ebf d462 203f

weight f4 [200, 1]
-0.0 0.8215292 -0.8682048 -0.97994095 0.23069265 -0.6192975 0.7397875 0.4315334
0.0 0.60869133 0.19042002 -0.6888171 -0.0 0.2651213 -0.0 -0.0
0.0 0.40689722 0.37075552 -0.2843391 -0.078552715 0.5082283 -0.7920141 0.7220035
0.863672 0.44032225 -0.93596184 0.5785143 0.53998506 0.0 0.73364055 0.09069084
-0.910972 -0.17725463 -0.34072676 0.7349811 -0.3203754 0.33464307 -0.26695704 0.29539272
-0.9809013 0.4024604 -0.80478156 -0.91302764 -0.86094296 -0.14873704 0.47981167 0.79059446
0.0 -0.72570807 0.7258907 -0.6168443 0.7856162 -0.86600155 0.078569144 0.4324334
0.37409297 0.59909153 -0.8956317 0.64647526 0.0 -0.0 -0.63134646 0.6058767
-0.5500608 -0.8886248 -0.20439848 0.09432933 -0.36770952 -0.8966444 0.69199896 -0.11710594
0.0 -0.8150976 0.93642837 0.74511963 -0.6065254 0.0 -0.51592875 -0.0
0.7535401 -0.40080056 0.19683692 -0.4812576 0.28095686 0.4507815 0.1937435 0.2216154
0.5383187 0.608866 -0.49883184 0.0 -0.81326777 0.37631667 0.5889676 -0.5009903
0.9981144 -0.81521535 0.56226474 0.7948296 -0.0 0.19451416 0.28300902 -0.9752806
0.19312568 0.44622284 -0.5550085 -0.4838278 0.0 -0.35449678 -0.3811933 -0.5334748
-0.27501476 0.7036125 -0.97597224 -0.8920726 -0.5685702 0.99050575 -0.41631302 0.18367133
-0.5745957 0.1582491 -0.7102174 -0.9673112 0.82402295 -0.40226683 0.34216693 -0.2984614
0.0 0.7505798 0.9768322 -0.5152681 0.26963758 0.3929623 0.53260124 0.61605966
-0.7603918 0.57237 0.78226435 0.51645017 0.5040205 -0.8765651 0.104018316 0.62495685
0.62516445 -0.89551663 -0.49098507 -0.11126216 0.17009065 0.577835 -0.61369145 -0.17358816
-0.0 -0.2924552 0.6232649 -0.31354368 0.7302988 0.92760813 -0.15441069 -0.24956094
-0.98124176 0.089674845 -0.11881648 -0.75998175 0.796128 0.51749945 -0.30685744 0.0
-0.9377144 0.31760132 -0.34831107 -0.19674045 0.473436 0.86668 0.5713246 -0.18335998
0.63052875 0.2655224 0.43846482 0.4531822 -0.43102628 -0.25117123 -0.07088028 0.26271906
0.09027582 -0.82978094 -0.669929 0.83637923 -0.19080205 -0.80647486 0.5017397 0.328661
0.06883931 0.41829738 0.6597798 -0.18579398 0.6866066 -0.70954335 0.1674393 0.18707067
00000000: 0000 0080 bd4f 523f ab42 5ebf 69dd 7abf
00000010: b23a 6c3e 488a 1ebf b762 3d3f f2f1 dc3e
00000020: 0000 0000 32d3 1b3f 77fd 423e 5156 30bf
00000030: 0000 0080 fbbd 873e 0000 0080 0000 0080
00000040: 0000 0000 d554 d03e abd3 bd3e e594 91be
00000050: 3fe0 a0bd 401b 023f 70c1 4abf 39d5 383f
00000060: 9c19 5d3f eb71 e13e 329b 6fbf 8319 143f
00000070: 763c 0a3f 0000 0000 decf 3b3f 1ebc b93d
00000080: 7635 69bf 3d82 35be bd73 aebe b927 3c3f
00000090: 3f08 a4be 5656 ab3e 98ae 88be b73d 973e
000000a0: 591c 7bbf 4a0f ce3e 2a06 4ebf 2ebc 69bf
000000b0: c266 5cbf 864e 18be e0a9 f53e 6664 4a3f
000000c0: 0000 0000 01c8 39bf f9d3 393f 82e9 1dbf
000000d0: 251e 493f 47b2 5dbf dce8 a03d e967 dd3e
000000e0: 1d89 bf3e 105e 193f 1e48 65bf 677f 253f
000000f0: 0000 0000 0000 0080 ec9f 21bf bc1a 1b3f
00000100: c9d0 0cbf ea7c 63bf d64d 51be bc2f c13d
00000110: 6c44 bcbe 7d8a 65bf d826 313f 3dd5 efbd
00000120: 0000 0000 3caa 50bf c5b9 6f3f 29c0 3e3f
00000130: 4045 1bbf 0000 0000 e813 04bf 0000 0080
00000140: 01e8 403f bb35 cdbe 9e8f 493e 6567 f6be
00000150: 94d9 8f3e d5cc e63e b264 463e 26ef 623e
00000160: 41cf 093f a4de 1b3f e366 ffbe 0000 0000
00000170: 5132 50bf 94ac c03e 95c6 163f e640 00bf
00000180: 6d84 7f3f f4b1 50bf 95f0 0f3f f479 4b3f
00000190: 0000 0080 b82e 473e 8fe6 903e fdab 79bf
000001a0: bdc2 453e 5277 e43e 0915 0ebf 47b8 f7be
000001b0: 0000 0000 9a80 b5be c52b c3be ce91 08bf
000001c0: bcce 8cbe f31f 343f 51d9 79bf df5e 64bf
000001d0: d18d 11bf c991 7d3f fb26 d5be 5614 3c3e
000001e0: b418 13bf 0d0c 223e cfd0 35bf b5a1 77bf
000001f0: 2bf3 523f ebf5 cdbe 8130 af3e efcf 98be
00000200: 0000 0000 ff25 403f ad11 7a3f 9ce8 03bf
00000210: f00d 8a3e 5b32 c93e 8e58 083f 16b6 1d3f
00000220: 09a9 42bf d786 123f 7a42 483f 1436 043f
00000230: 7d07 013f 9266 60bf 8e07 d53d 2cfd 1f3f
00000240: c70a 203f 9440 65bf 6562 fbbe 6add e3bd
00000250: 3e2c 2e3e ffec 133f e21a 1dbf 18c1 31be
00000260: 0000 0080 b0bc 95be 4a8e 1f3f cc88 a0be
00000270: ddf4 3a3f ba77 6d3f d61d 1ebe e78c 7fbe
00000280: a932 7bbf 72a7 b73d 0e56 f3bd 2a8e 42bf
00000290: 0bcf 4b3f d87a 043f 6b1c 9dbe 0000 0000
000002a0: 0d0e 70bf a49c a23e d455 b2be 5476 49be
000002b0: 3466 f23e bede 5d3f 5442 123f b8c2 3bbe
000002c0: 556a 213f 8df2 873e 767e e03e 7f07 e83e
000002d0: 7aaf dcbe 8499 80be ae29 91bd 1d83 863e
000002e0: 87e2 b83d 866c 54bf 7880 2bbf f31c 563f
000002f0: 9d61 43be 2375 4ebf 0372 003f 4146 a83e
00000300: a0fb 8c3d 132b d63e 54e7 283f c740 3ebe
00000310: 73c5 2f3f a2a4 35bf 3575 2b3e 748f 3f3e

bias f4 [300]
0.039824225 0.044769898 0.023712521 0.025281899 -0.055596344 0.06559799 0.005182373 0.026137054
-0.04317929 -0.02557327 0.007592359 0.028370768 0.020625373 -0.06769405 0.0056541422 0.07087459
-0.024302434 0.03756939 -0.057040237 0.03674765 0.04482734 -0.050634064 -0.05655121 -0.03967573
0.04607697 0.011104179 -0.032836124 -0.062455256 -0.07166474 0.06131075 -0.0017300659 -0.0608641
0.07081014 0.067429096 0.038791496 -0.00057087094 0.038663823 -0.05230272 0.053540576 -0.069300495
-0.036355052 0.04625883 0.014115938 0.0019771492 -0.048265904 -0.02715569 -0.025304569 0.014580578
0.040417124 0.04974148 0.024855362 -0.025094 -0.046249546 -0.066221565 0.0436292 -0.062304206
-0.025921714 -0.054114334 0.03362048 -0.04142556 0.0618388 0.021023689 -0.016270744 0.011021793
0.05988363 0.020446368 -0.009086438 0.041583657 -0.018506391 0.012034313 -0.04162398 -0.012130259
-0.04225251 -0.06921057 -0.061862763 -0.031355698 -0.053050566 -0.0308213 -0.060017835 0.01185756
0.035058368 -0.027911622 -0.043250754 -0.03210187 0.044859774 -0.042375475 -0.059439782 -0.013968262
-0.03804801 0.053300086 0.042328868 0.017070232 -0.060564324 -0.024346415 0.003998199 -5.6632096e-05
0.028073926 -0.06583178 0.03684803 -0.015345351 -0.06546154 -0.043490365 -0.052751318 0.007951353
-0.011896988 0.033880755 0.045972403 0.043297783 0.040166356 0.024538659 -0.01412449 -0.008497087
0.00797058 -0.013316508 0.0036212916 -0.0074226977 0.014113941 -0.012328343 -0.06440637 -0.004681449
-0.0265774 -0.044269774 0.017327258 -0.006923061 0.0074996552 0.018607106 -0.06832127 -0.062687874
0.069150545 0.020563334 -0.047911204 0.04319883 0.06785594 0.038309086 0.032695074 0.032741915
0.055931963 0.04733225 -0.016536107 -0.0082073985 -0.059610736 0.04071135 -0.067410626 -0.034076255
-0.04424451 0.06743347 0.022838457 0.009738681 -0.047565024 0.058420856 -0.067980476 0.027914038
0.062545516 -0.014042495 0.012461176 0.015130923 0.05637446 -0.0042107315 -0.059028544 -0.049446058
0.0490069 0.06542446 -0.0016262482 0.056904852 -0.041426778 -0.04532614 0.06896297 0.0023310413
-0.032483045 -0.048901726 0.041487046 -0.01746591 0.021299195 0.0017682416 0.030653857 -0.014880873
0.022635896 0.059088584 -0.071607016 0.019155005 0.06805076 0.059082855 -0.039228246 -0.02939103
0.06755212 -0.05819173 0.0060514086 0.008431797 0.027542666 0.009736475 0.050733346 0.044921555
-0.04506206 -0.05888296 -0.06471369 -0.06601903 0.060764253 0.07019589 -0.001800771 0.01729793
-0.06819573 -0.027552385 0.05397139 -0.032929853 0.026897877 0.04874573 -0.022056162 -0.04583135
0.061404873 0.062039696 0.002458744 0.038810167 -0.028463252 -0.060957905 0.04147634 0.05746845
0.03938044 -0.040444367 -0.047646414 0.01894157 0.0004908777 0.021971868 -0.035161573 0.057036325
0.005619985 -0.039321337 -0.05679104 0.017952759 -0.021503802 -0.05008766 0.0327967 0.040372826
0.03406801 0.03192223 0.024807995 -0.063339554 -0.020409625 -0.052441694 0.0057596234 0.031409815
-0.03999649 -0.037905466 -0.03940686 -0.010045681 -0.04226332 -0.03560119 0.06836274 0.048984695
-5.605479e-05 -0.06741938 -0.050599255 0.012420007 0.00018701758 -0.03925962 -0.03866373 0.06545053
00000000: ba1e 233d a460 373d c340 c23c fc1b cf3c
00000010: feb8 63bd 3d58 863d e5d0 a93b 601d d63c
00000020: c4dc 30bd 097f d1bc 53c9 f83b d069 e83c
00000030: 8bf6 a83c 2ea3 8abd 6246 b93b b226 913d
00000040: e615 c7bc 5ce2 193d 06a3 69bd b484 163d
00000050: df9c 373d aa65 4fbd 3ea2 67bd 0583 22bd
00000060: 34bb 3c3d 4dee 353c 2c7f 06bd 15d1 7fbd
00000070: f7c4 92bd fb20 7b3d 61c3 e2ba a24c 79bd
00000080: e804 913d 4418 8a3d d5e3 1e3d 80a6 15ba
00000090: f55d 1e3d 603b 56bd 5d4d 5b3d 6bed 8dbd
000000a0: 09e9 14bd e679 3d3d 8946 673c 0f93 013b
000000b0: 78b2 45bd 9c75 debc 874b cfbc 60e3 6e3c
000000c0: 6d8c 253d b9bd 4b3d 799d cb3c ef91 cdbc
000000d0: 2a70 3dbd 2c9f 87bd 88b4 323d b232 7fbd
000000e0: c659 d4bc fea6 5dbd a1b5 093d d9ad 29bd
000000f0: ae4a 7d3d df39 ac3c 394a 85bc c094 343c
00000100: 8a48 753d 247f a73c 49df 14bc a053 2a3d
00000110: b79a 97bc 912b 453c e87d 2abd febd 46bc
00000120: f810 2dbd 45be 8dbd cf63 7dbd d56e 00bd
00000130: 8d4b 59bd f37c fcbc 43d5 75bd 3646 423c
00000140: 5d99 0f3d eaa6 e4bc b427 31bd 407d 03bd
00000150: e2be 373d e891 2dbd 2177 73bd 23db 64bc
00000160: 3bd8 1bbd 3151 5a3d 0961 2d3d dfd6 8b3c
00000170: 4c12 78bd 2272 c7bc 5303 833b 4088 6db8
00000180: 4afb e53c d0d2 86bd f6ed 163d 116b 7bbc
00000190: b310 86bd f422 32bd c411 58bd 6446 023c
000001a0: 96eb 42bc 8cc6 0a3d 8f4d 3c3d 0459 313d
000001b0: 7a85 243d 4c05 c93c 686a 67bc 5e37 0bbc
000001c0: 0997 023c 7c2d 5abc 3153 6d3b 1a3a f3bb
000001d0: 293e 673c d1fc 49bc 7de7 83bd d766 99bb
000001e0: d9b8 d9bc 3954 35bd e5f1 8d3c d8da e2bb
000001f0: abbf f53b ee6d 983c 06ec 8bbd 8062 80bd
00000200: cd9e 8d3d 7074 a83c 8a3e 44bd 42f1 303d
00000210: 0ef8 8a3d fde9 1c3d 45eb 053d 631c 063d
00000220: ea18 653d 76df 413d bb76 87bc 5378 06bc
00000230: 632a 74bd f2c0 263d 950e 8abd 8b93 0bbd
00000240: bb39 35bd 8f1a 8a3d b717 bb3c fd8e 1f3c
00000250: 8bd3 42bd b54a 6f3d 5939 8bbd fbab e43c
00000260: dd17 803d 7e12 66bc f629 4c3c b1e7 773c
00000270: e8e8 663d 2dfa 89bb eac7 71bd f387 4abd
00000280: 76bb 483d 42fd 853d d627 d5ba 1015 693d
00000290: 20af 29bd e7a7 39bd 753c 8d3d 62c4 183b
000002a0: f10c 05bd 2d4d 48bd 52ee 293d ab14 8fbc
000002b0: a67b ae3c 58c4 e73a cc1d fb3c e8ce 73bc
000002c0: ea6e b93c df06 723d b3a6 92bd f5ea 9c3c
000002d0: 325e 8b3d dd00 723d ccad 20bd 75c5 f0bc
000002e0: c458 8a3d 745a 6ebd e54a c63b 8525 0a3c
000002f0: 28a1 e13c bc85 1f3c c5cd 4f3d aaff 373d
00000300: ff92 38bd 422f 71bd 9c88 84bd fc34 87bd
00000310: f0e3 783d ddc2 8f3d d907 ecba 63b4 8d3c
00000320: 34aa 8bbd 8ab5 e1bc 1b11 5d3d 74e1 06bd
00000330: f058 dc3c 9aa9 473d 20af b4bc a7b9 3bbd
00000340: ad83 7b3d 561d 7e3d e122 213b 69f7 1e3d
00000350: c42b e9bc ffae 79bd 18e3 293d 0a64 6b3d
00000360: 624d 213d fea8 25bd e328 43bd 5a2b 9b3c
00000370: 3fae 003a 59fe b33c 9505 10bd ec9e 693d
00000380: da27 b83b 690f 21bd b99d 68bd aa11 933c
00000390: be28 b0bc b828 4dbd d555 063d fa5d 253d
000003a0: e68a 0b3d e2c0 023d 233a cb3c 2bb8 81bd
000003b0: 1632 a7bc 1acd 56bd 39bb bc3b 94a7 003d
000003c0: 5cd3 23bd c342 1bbd 1669 21bd a496 24bc
000003d0: 4e1c 2dbd 8ed2 11bd c401 8c3d 2da4 483d
000003e0: 5f1c 6bb8 2c13 8abd 2a41 4fbd 497d 4b3c
000003f0: 261a 4439 b2ce 20bd dc5d 1ebd ed0a 863d

weight f4 [300, 200]
-0.0 -0.0 -0.0 -0.0 0.0 -0.0 -0.0 0.0
-0.0 -0.0 0.0 -0.0 -0.0 0.0 -0.0 -0.0
0.0 0.07069986 0.0 -0.0 -0.0 -0.0 -0.0 0.0
0.0 0.0 0.0 0.0 -0.0 -0.0 0.0 -0.0
-0.0 0.0 -0.0 -0.0 -0.0 0.0 0.0 -0.0
0.0 -0.0 0.0 0.0 -0.0 0.0 0.0 -0.068811186
0.0 -0.0 -0.0 -0.0 -0.0 -0.0 -0.0 0.0
0.0 0.0 0.0 0.0 -0.0 -0.0 -0.0 -0.0
-0.0 0.0 -0.0 -0.0 0.0 0.0 -0.0 -0.0
-0.0 0.0 0.0 -0.0 -0.0 -0.0 0.0684998 0.0
0.0 0.0 -0.0 0.0 -0.0 0.0 -0.0 -0.0
0.0 -0.0 0.0 0.0 -0.0 -0.0 -0.0 0.0
0.0 0.0 0.0 -0.0 -0.0 -0.0 -0.0 -0.0
0.0 0.0 -0.0 -0.0 0.0 -0.0 0.0 -0.0
0.0 -0.0 0.0 0.0 0.0 -0.0 -0.0 -0.0
0.0 -0.0 0.0 -0.0 0.071491376 -0.0 -0.0 -0.0
0.0 -0.0 0.0 0.0 -0.0 0.0 -0.0 0.0
0.0 0.0 -0.0 -0.0 -0.0 0.0 0.0 -0.0
0.0 -0.0 0.0 0.0 -0.069367886 0.0 -0.0 -0.0
-0.0 -0.0 -0.0 -0.0 0.0 0.0 -0.0 -0.0
-0.0 0.0 0.0 -0.0 0.0 0.0 0.0 0.0
0.0 0.06860477 -0.0 -0.0 -0.0 -0.0 0.0 -0.0
-0.0 -0.0 -0.0 0.0 0.0 -0.0 0.0 0.0
0.0 -0.0 0.0 0.0 0.0 0.0 0.0 -0.0
-0.0 -0.0 -0.0 0.0 -0.0 0.0 -0.0 0.0
0.0 -0.0 0.0 0.0 0.0 0.0 0.0 0.0
0.0 -0.0 -0.069723725 0.0 -0.0 0.0 -0.0 0.0
0.0 0.0 0.0 0.0 0.0 0.06873107 0.0 0.0
0.0 0.0 0.0 0.0 0.0 -0.0 0.0 -0.0
0.0 -0.0 -0.0 0.0 -0.0 -0.0 0.0 -0.0
-0.0 0.0 -0.0 -0.06832982 -0.0 0.0 -0.0 -0.0
-0.0 0.0 -0.0 0.0 0.0 0.0 0.0 -0.0
00000000: 0000 0080 0000 0080 0000 0080 0000 0080
00000010: 0000 0000 0000 0080 0000 0080 0000 0000
00000020: 0000 0080 0000 0080 0000 0000 0000 0080
00000030: 0000 0080 0000 0000 0000 0080 0000 0080
00000040: 0000 0000 17cb 903d 0000 0000 0000 0080
00000050: 0000 0080 0000 0080 0000 0080 0000 0000
00000060: 0000 0000 0000 0000 0000 0000 0000 0000
00000070: 0000 0080 0000 0080 0000 0000 0000 0080
00000080: 0000 0080 0000 0000 0000 0080 0000 0080
00000090: 0000 0080 0000 0000 0000 0000 0000 0080
000000a0: 0000 0000 0000 0080 0000 0000 0000 0000
000000b0: 0000 0080 0000 0000 0000 0000 e1ec 8cbd
000000c0: 0000 0000 0000 0080 0000 0080 0000 0080
000000d0: 0000 0080 0000 0080 0000 0080 0000 0000
000000e0: 0000 0000 0000 0000 0000 0000 0000 0000
000000f0: 0000 0080 0000 0080 0000 0080 0000 0080
00000100: 0000 0080 0000 0000 0000 0080 0000 0080
00000110: 0000 0000 0000 0000 0000 0080 0000 0080
00000120: 0000 0080 0000 0000 0000 0000 0000 0080
00000130: 0000 0080 0000 0080 a049 8c3d 0000 0000
00000140: 0000 0000 0000 0000 0000 0080 0000 0000
00000150: 0000 0080 0000 0000 0000 0080 0000 0080
00000160: 0000 0000 0000 0080 0000 0000 0000 0000
00000170: 0000 0080 0000 0080 0000 0080 0000 0000
00000180: 0000 0000 0000 0000 0000 0000 0000 0080
00000190: 0000 0080 0000 0080 0000 0080 0000 0080
000001a0: 0000 0000 0000 0000 0000 0080 0000 0080
000001b0: 0000 0000 0000 0080 0000 0000 0000 0080
000001c0: 0000 0000 0000 0080 0000 0000 0000 0000
000001d0: 0000 0000 0000 0080 0000 0080 0000 0080
000001e0: 0000 0000 0000 0080 0000 0000 0000 0080
000001f0: 126a 923d 0000 0080 0000 0080 0000 0080
00000200: 0000 0000 0000 0080 0000 0000 0000 0000
00000210: 0000 0080 0000 0000 0000 0080 0000 0000
00000220: 0000 0000 0000 0000 0000 0080 0000 0080
00000230: 0000 0080 0000 0000 0000 0000 0000 0080
00000240: 0000 0000 0000 0080 0000 0000 0000 0000
00000250: c010 8ebd 0000 0000 0000 0080 0000 0080
00000260: 0000 0080 0000 0080 0000 0080 0000 0080
00000270: 0000 0000 0000 0000 0000 0080 0000 0080
00000280: 0000 0080 0000 0000 0000 0000 0000 0080
00000290: 0000 0000 0000 0000 0000 0000 0000 0000
000002a0: 0000 0000 a880 8c3d 0000 0080 0000 0080
000002b0: 0000 0080 0000 0080 0000 0000 0000 0080
000002c0: 0000 0080 0000 0080 0000 0080 0000 0000
000002d0: 0000 0000 0000 0080 0000 0000 0000 0000
000002e0: 0000 0000 0000 0080 0000 0000 0000 0000
000002f0: 0000 0000 0000 0000 0000 0000 0000 0080
00000300: 0000 0080 0000 0080 0000 0080 0000 0000
00000310: 0000 0080 0000 0000 0000 0080 0000 0000
00000320: 0000 0000 0000 0080 0000 0000 0000 0000
00000330: 0000 0000 0000 0000 0000 0000 0000 0000
00000340: 0000 0000 0000 0080 50cb 8ebd 0000 0000
00000350: 0000 0080 0000 0000 0000 0080 0000 0000
00000360: 0000 0000 0000 0000 0000 0000 0000 0000
00000370: 0000 0000 e0c2 8c3d 0000 0000 0000 0000
00000380: 0000 0000 0000 0000 0000 0000 0000 0000
00000390: 0000 0000 0000 0080 0000 0000 0000 0080
000003a0: 0000 0000 0000 0080 0000 0080 0000 0000
000003b0: 0000 0080 0000 0080 0000 0000 0000 0080
000003c0: 0000 0080 0000 0000 0000 0080 81f0 8bbd
000003d0: 0000 0080 0000 0000 0000 0080 0000 0080
000003e0: 0000 0080 0000 0000 0000 0080 0000 0000
000003f0: 0000 0000 0000 0000 0000 0000 0000 0080

weight f4 [1, 300]
0.0 -0.0 0.0 -0.0 -0.0 -0.0 0.0 0.0
-0.0 -0.0 0.0 0.0 -0.0 0.0 -0.0 0.0
-0.0 -0.0 0.0 0.0 -0.0 0.0 0.0 0.0
0.0 0.0 -0.0 0.0 -0.0 0.0 0.0 -0.0
0.0 0.0 -0.0 -0.0 -0.0 -0.0 -0.0 -0.0
0.0 0.0 -0.0 0.0 -0.0 -0.0 -0.0 0.0
-0.0 -0.0 -0.0 -0.0 -0.0 -0.0 0.0 -0.0
0.0 0.0 -0.0 -0.0 0.0 -0.0 0.0 -0.0
-0.0 0.0 0.0 -0.0 0.0 0.0 -0.0 0.0
0.0 -0.0 0.0 0.0 0.0 -0.0 -0.0 0.0
-0.0 -0.0 -0.0 0.0 -0.0 -0.0 0.0 0.0
-0.0 -0.0 0.0 0.0 -0.0 0.0 0.0 -0.0
0.0 0.0 0.0 0.0 -0.0 -0.0 -0.0 0.0
0.0 0.0 -0.0 0.0 -0.0 -0.0 -0.0 -0.0
0.0 0.0 0.0 -0.0 -0.0 -0.0 0.0 0.0
0.0 -0.0 -0.0 -0.0 0.0 0.0 0.0 -0.0
0.0 -0.0 0.0 -0.0 0.0 0.0 0.0 0.0
0.0 0.0 -0.0 -0.0 -0.0 0.0 0.0 -0.0
0.0 -0.0 0.0 0.0 0.0 0.0 0.0 0.0
-0.0 0.0 -0.0 0.0 -0.0 -0.0 -0.0 -0.0
0.0 0.0 0.0 0.0 0.0 -0.0 0.0 0.0
-0.0 0.0 -0.0 0.0 -0.0 0.0 -0.0 -0.0
-0.0 0.0 -0.0 0.0 -0.0 0.0 0.0 0.0
-0.0 0.0 -0.0 -0.0 0.0 0.0 -0.0 -0.0
0.0 -0.0 0.0 -0.0 0.0 0.0 0.0 0.0
0.0 0.0 0.0 0.0 0.0 -0.0 -0.0 -0.0
0.0 0.0 0.0 -0.0 0.0 0.0 0.0 -0.0
0.0 -0.0 0.0 0.0 -0.0 -0.0 0.0 -0.0
-0.0 -0.0 -0.0 -0.0 -0.0 0.0 0.0 -0.0
-0.0 0.0 0.0 -0.0 0.0 -0.0 -0.0 -0.0
-0.0 0.0 -0.0 -0.0 0.0 0.0 0.0 0.0
-0.0 -0.0 -0.0 0.0 -0.0 -0.0 0.0 0.0
00000000: 0000 0000 0000 0080 0000 0000 0000 0080
00000010: 0000 0080 0000 0080 0000 0000 0000 0000
00000020: 0000 0080 0000 0080 0000 0000 0000 0000
00000030: 0000 0080 0000 0000 0000 0080 0000 0000
00000040: 0000 0080 0000 0080 0000 0000 0000 0000
00000050: 0000 0080 0000 0000 0000 0000 0000 0000
00000060: 0000 0000 0000 0000 0000 0080 0000 0000
00000070: 0000 0080 0000 0000 0000 0000 0000 0080
00000080: 0000 0000 0000 0000 0000 0080 0000 0080
00000090: 0000 0080 0000 0080 0000 0080 0000 0080
000000a0: 0000 0000 0000 0000 0000 0080 0000 0000
000000b0: 0000 0080 0000 0080 0000 0080 0000 0000
000000c0: 0000 0080 0000 0080 0000 0080 0000 0080
000000d0: 0000 0080 0000 0080 0000 0000 0000 0080
000000e0: 0000 0000 0000 0000 0000 0080 0000 0080
000000f0: 0000 0000 0000 0080 0000 0000 0000 0080
00000100: 0000 0080 0000 0000 0000 0000 0000 0080
00000110: 0000 0000 0000 0000 0000 0080 0000 0000
00000120: 0000 0000 0000 0080 0000 0000 0000 0000
00000130: 0000 0000 0000 0080 0000 0080 0000 0000
00000140: 0000 0080 0000 0080 0000 0080 0000 0000
00000150: 0000 0080 0000 0080 0000 0000 0000 0000
00000160: 0000 0080 0000 0080 0000 0000 0000 0000
00000170: 0000 0080 0000 0000 0000 0000 0000 0080
00000180: 0000 0000 0000 0000 0000 0000 0000 0000
00000190: 0000 0080 0000 0080 0000 0080 0000 0000
000001a0: 0000 0000 0000 0000 0000 0080 0000 0000
000001b0: 0000 0080 0000 0080 0000 0080 0000 0080
000001c0: 0000 0000 0000 0000 0000 0000 0000 0080
000001d0: 0000 0080 0000 0080 0000 0000 0000 0000
000001e0: 0000 0000 0000 0080 0000 0080 0000 0080
000001f0: 0000 0000 0000 0000 0000 0000 0000 0080
00000200: 0000 0000 0000 0080 0000 0000 0000 0080
00000210: 0000 0000 0000 0000 0000 0000 0000 0000
00000220: 0000 0000 0000 0000 0000 0080 0000 0080
00000230: 0000 0080 0000 0000 0000 0000 0000 0080
00000240: 0000 0000 0000 0080 0000 0000 0000 0000
00000250: 0000 0000 0000 0000 0000 0000 0000 0000
00000260: 0000 0080 0000 0000 0000 0080 0000 0000
00000270: 0000 0080 0000 0080 0000 0080 0000 0080
00000280: 0000 0000 0000 0000 0000 0000 0000 0000
00000290: 0000 0000 0000 0080 0000 0000 0000 0000
000002a0: 0000 0080 0000 0000 0000 0080 0000 0000
000002b0: 0000 0080 0000 0000 0000 0080 0000 0080
000002c0: 0000 0080 0000 0000 0000 0080 0000 0000
000002d0: 0000 0080 0000 0000 0000 0000 0000 0000
000002e0: 0000 0080 0000 0000 0000 0080 0000 0080
000002f0: 0000 0000 0000 0000 0000 0080 0000 0080
00000300: 0000 0000 0000 0080 0000 0000 0000 0080
00000310: 0000 0000 0000 0000 0000 0000 0000 0000
00000320: 0000 0000 0000 0000 0000 0000 0000 0000
00000330: 0000 0000 0000 0080 0000 0080 0000 0080
00000340: 0000 0000 0000 0000 0000 0000 0000 0080
00000350: 0000 0000 0000 0000 0000 0000 0000 0080
00000360: 0000 0000 0000 0080 0000 0000 0000 0000
00000370: 0000 0080 0000 0080 0000 0000 0000 0080
00000380: 0000 0080 0000 0080 0000 0080 0000 0080
00000390: 0000 0080 0000 0000 0000 0000 0000 0080
000003a0: 0000 0080 0000 0000 0000 0000 0000 0080
000003b0: 0000 0000 0000 0080 0000 0080 0000 0080
000003c0: 0000 0080 0000 0000 0000 0080 0000 0080
000003d0: 0000 0000 0000 0000 0000 0000 0000 0000
000003e0: 0000 0080 0000 0080 0000 0080 0000 0000
000003f0: 0000 0080 0000 0080 0000 0000 0000 0000
