figures/Illu_large_partial_6/theta=0.1_s=0.6_step=100/best_model.pth (torch, 246949 bytes, 5 tensors)

weight f4 [200, 1]
1.1544448 -0.46430582 1.4994348 1.3565958 -1.4563698 -1.1388274 0.49855766 1.4199277
0.40405446 -1.3919007 -0.43953255 0.40293792 1.3921143 1.0270448 -0.37749404 1.1170349
1.362175 0.75215954 -0.53469586 -1.0974636 -1.0454681 -1.0659404 -1.4162476 0.40407762
1.1143435 -0.4522983 -1.4641371 0.3962951 -2.7699544 -1.1552188 -0.45877743 -1.5122654
1.3745377 -1.0540619 1.1186696 0.531384 -1.0622722 -1.4591013 1.3548244 -1.0568523
1.1579528 0.8882496 1.3701853 0.9922987 -1.432896 -0.4042367 0.50108045 1.320352
0.44883952 -1.4441972 0.28124532 -0.4668485 1.1945969 1.041402 -1.3465102 -1.3918991
-1.1693264 1.1384325 0.5273183 -1.065133 1.3128102 1.1048094 0.47034198 1.2901144
-1.3729005 0.35474932 1.0796616 -0.49640954 -0.3955199 -0.8320705 0.9460462 -1.1409589
1.360801 1.5629286 -1.3856393 -1.4082844 1.1278329 -1.0813828 -1.433333 1.1276655
-1.0922966 -1.3451623 -0.81336904 -1.427706 1.182103 1.3825544 -1.0983791 -0.37156472
-0.41668105 -1.3125192 0.456839 -0.3651836 1.0893654 -1.3760102 -2.395609 1.506205
1.3672957 -1.1530579 -0.8602116 -0.7865078 1.3876274 2.4522288 1.3345398 -0.9841194
-0.12170893 1.1212174 0.8034968 1.3562888 1.3544648 -1.0241628 -1.3935245 1.4226712
1.1413587 -1.0737205 1.1093595 -0.4103119 -1.0700432 -1.0193703 -0.5881596 -0.93827647
0.46505308 -1.1490746 1.0768896 1.3309385 -0.9531582 -0.4416126 -0.41667217 2.1239576
-1.4319537 0.27957788 0.7441003 -1.1264656 -0.51606643 -2.5729203 1.1444274 1.3675941
-0.50013274 -1.166091 1.3670615 1.4902499 1.383887 0.45539868 1.1275615 0.9535214
-1.5531237 -1.4531684 -1.0472236 1.2248933 0.55462086 -0.97186494 0.49471012 -0.94564015
1.3302317 -1.4287882 1.1100557 1.267896 1.140249 -0.4785856 1.1623348 0.40934747
-0.8467353 -1.3068964 1.0935642 0.4194178 -1.1048841 -1.3792489 1.3433207 -1.410024
-0.9887569 -1.3447379 -0.54384017 -1.3903934 1.7659656 1.3554143 -1.1210524 -2.7658737
0.83860606 1.3256688 -1.1756815 -1.4123387 1.1711279 -1.0688398 1.3061724 -2.4552035
-0.84886444 1.3624543 0.27521893 -0.44441095 -1.4279214 1.366635 1.0356326 1.0340955
1.1564801 0.45176864 1.2642897 -1.3416266 1.1836313 0.6524989 -3.2093377 -0.46510643
00000000: d9c4 933f 7eb9 edbe 7bed bf3f eea4 ad3f
00000010: 536a babf 19c5 91bf f342 ff3e 31c0 b53f
00000020: 3ae0 ce3e cd29 b2bf 690a e1be e14d ce3e
00000030: cd30 b23f 3476 833f e646 c1be 00fb 8e3f
00000040: c05b ae3f 878d 403f d4e1 08bf b079 8cbf
00000050: e6d1 85bf bc70 88bf 9a47 b5bf 43e3 ce3e
00000060: cfa2 8e3f a593 e7be d868 bbbf 31e7 ca3e
00000070: ef46 31c0 36de 93bf e0e4 eabe ea91 c1bf
00000080: daf0 af3f 80eb 86bf 9130 8f3f c808 083f
00000090: 89f8 87bf d5c3 babf e36a ad3f f046 87bf
000000a0: cc37 943f 5364 633f 3b62 af3f 4a07 7e3f
000000b0: 2369 b7bf 1df8 cebe cf46 003f 4b01 a93f
000000c0: 4bce e53e 74db b8bf 63ff 8f3e c406 efbe
000000d0: 8de8 983f a94c 853f 725a acbf c029 b2bf
000000e0: 7dac 95bf 28b8 913f 55fe 063f 4756 88bf
000000f0: 2a0a a83f 656a 8d3f aad0 f03e 7822 a53f
00000100: 34bb afbf b4a1 b53e 5a32 8a3f 6429 febe
00000110: 9681 cabe 9302 55bf 1530 723f f10a 92bf
00000120: ba2e ae3f 0b0e c83f a15c b1bf aa42 b4bf
00000130: d45c 903f c06a 8abf 7577 b7bf 5857 903f
00000140: 60d0 8bbf 472e acbf f438 50bf 12bf b6bf
00000150: 274f 973f 8bf7 b03f b097 8cbf bb3d bebe
00000160: 3857 d5be a100 a8bf cde6 e93e 58f9 babe
00000170: 5370 8b3f 1a21 b0bf a851 19c0 53cb c03f
00000180: 8c03 af3f 6797 93bf d436 5cbf 9358 49bf
00000190: c69d b13f 51f1 1c40 33d2 aa3f 40ef 7bbf
000001a0: 8842 f9bd 0d84 8f3f f7b1 4d3f df9a ad3f
000001b0: 1a5f ad3f c417 83bf 035f b2bf 171a b63f
000001c0: 0b18 923f ac6f 89bf 7eff 8d3f 6714 d2be
000001d0: 2df7 88bf ba7a 82bf a191 16bf e332 70bf
000001e0: 701b ee3e e014 93bf 85d7 893f 315c aa3f
000001f0: 2d02 74bf 0c1b e2be 0e56 d5be ecee 0740
00000200: 424a b7bf d524 8f3e 5b7d 3e3f 0630 90bf
00000210: ee1c 04bf baaa 24c0 997c 923f 530d af3f
00000220: b308 00bf 7842 95bf dffb ae3f 82c0 be3f
00000230: 3623 b13f 042a e93e ef53 903f fa19 743f
00000240: c2cc c6bf 6c01 babf 6c0b 86bf 4ec9 9c3f
00000250: a2fb 0d3f 24cc 78bf a54a fd3e 7915 72bf
00000260: 0845 aa3f 88e2 b6bf 4e16 8e3f 6b4a a23f
00000270: aef3 913f 2c09 f5be 63c7 943f fe95 d13e
00000280: a5c3 58bf 6248 a7bf e9f9 8b3f eebd d63e
00000290: d86c 8dbf 3a8b b0bf eff1 ab3f ab7b b4bf
000002a0: 2c1f 7dbf 5f20 acbf 1c39 0bbf 69f8 b1bf
000002b0: 290b e23f 377e ad3f a57e 8fbf 1304 31c0
000002c0: e3ae 563f 84af a93f bb7c 96bf 84c7 b4bf
000002d0: 85e7 953f becf 88bf a830 a73f 0e22 1dc0
000002e0: 2e4f 59bf e764 ae3f 7fe9 8c3e d589 e3be
000002f0: 21c6 b6bf e5ed ae3f 9c8f 843f 3e5d 843f
00000300: 8a07 943f 384e e73e 3fd4 a13f 6cba abbf
00000310: 3b81 973f 2b0a 273f ca65 4dc0 6e22 eebe

bias f4 [200]
-1.1128037 0.96899873 0.74397784 1.2480752 -0.76210064 -0.15265687 -1.3239838 1.8789241
-0.6122839 -0.8116597 -0.46687347 0.59543216 1.4942642 -0.21906143 -0.07334345 -0.9474617
1.7700676 0.06966476 0.6634949 1.3152981 0.68639994 1.0236095 -1.312949 0.1132763
-0.9279963 0.3344854 -0.5837089 0.085305 -1.0690494 1.268713 -0.92206234 -0.6595893
1.2669885 0.5969198 -1.0320942 -0.8262821 0.9943897 -1.0037847 1.0955361 1.000672
-0.8209228 0.06197978 0.9387638 -0.5660669 -1.3102847 -0.57684183 -1.3464149 1.302129
-0.9452143 -1.1371046 -0.5981019 1.1640921 -0.75041354 2.3894253 -0.59375256 -0.64689857
2.0901995 0.6640351 1.4528652 1.2926716 0.90584743 -0.80843925 -1.1215496 2.1480663
-0.98516107 -0.010895526 -0.7426027 1.3249815 -0.35526842 1.2245446 0.07232228 1.3108729
1.0334646 2.5456572 -0.87133765 -0.9445673 -0.6063316 0.9104669 -0.8178917 -0.9785281
0.8418454 -0.7545573 0.5598964 -0.8645329 -0.84515464 1.6831827 1.3491744 0.33749273
0.07196579 -0.5477776 0.98676246 -0.35372615 -0.7550642 -0.8669548 -0.31323364 0.7586295
1.0533291 1.3821311 0.3812484 1.2951239 1.4838301 1.4982387 1.0751565 0.6932078
0.68018097 1.6908726 -0.8634866 0.7849705 1.3395605 0.5814907 -0.6998967 1.7723776
-1.0186934 1.3443062 -0.98634344 0.49885404 0.7848476 0.725345 0.37311852 0.58784324
-1.1311013 1.4536301 0.028762769 1.8754001 0.51832485 -0.79343945 -0.6332705 0.99104685
-0.87095076 -0.42805135 0.031314407 1.3994203 1.4599915 -0.8547287 -0.9033483 1.2585874
1.3464228 1.5846733 1.2204745 2.503411 1.5830356 -0.60981256 -0.7432197 1.1454955
-0.5951697 -1.210241 1.2153296 0.9525285 -1.176714 0.7485825 -0.32524574 0.51262945
0.7175152 -1.230946 -1.1141814 0.9703666 0.8168311 1.129858 -0.82551455 -0.69090605
0.40676466 0.6079684 -0.7960149 0.67473453 1.0726272 -0.8193322 0.92392504 -1.2418733
0.66438144 -0.41861945 -0.42952383 -0.8547908 0.67160577 0.98140335 1.0738437 -1.1234318
-0.9217863 0.9905239 1.8008742 -0.8651692 -0.8828221 0.8691072 1.1997494 -0.87165445
1.0896956 2.6146984 -0.87233037 0.8173171 -1.1122708 1.8142053 -0.9318495 0.6397417
-0.9058727 0.91457814 -0.6579644 -0.3359846 -0.8830882 0.026328735 -1.0730526 -0.9704609
00000000: 5a70 8ebf 4d10 783f 5575 3e3f eec0 9f3f
00000010: 0719 43bf 1552 1cbe 4d78 a9bf 9680 f03f
00000020: a3be 1cbf eec8 4fbf 0a0a efbe 3e6e 183f
00000030: 0d44 bf3f a451 60be 1735 96bd da8c 72bf
00000040: 9391 e23f 66ac 8e3d cdda 293f b05b a83f
00000050: e8b7 2f3f a305 833f b60e a8bf 68fd e73d
00000060: 2a91 6dbf ac41 ab3e f26d 15bf 63b4 ae3d
00000070: 9cd6 88bf 3065 a23f 470c 6cbf d8da 28bf
00000080: ae2c a23f bccf 183f aa1b 84bf 3987 53bf
00000090: 5390 7e3f 047c 80bf 873a 8c3f 0516 803f
000000a0: ff27 52bf 83de 7d3d d352 703f c3e9 10bf
000000b0: 69b7 a7bf e8ab 13bf 5357 acbf 2aac a63f
000000c0: 90f9 71bf a58c 91bf 351d 19bf f800 953f
000000d0: 1a1b 40bf 58ec 1840 2b00 18bf 259b 25bf
000000e0: d4c5 0540 34fe 293f 7df7 b93f 4376 a53f
000000f0: 9ee5 673f e0f5 4ebf f08e 8fbf eb79 0940
00000100: 8433 7cbf 2683 32bc 361b 3ebf fe98 a93f
00000110: bee5 b5be e1bd 9c3f b41d 943d afca a73f
00000120: 9148 843f 0cec 2240 fc0f 5fbf 2acf 71bf
00000130: 8c38 1bbf 5c14 693f 5a61 51bf d180 7abf
00000140: 2e83 573f ab2a 41bf 5f55 0f3f 0752 5dbf
00000150: 0e5c 58bf 8872 d73f bfb1 ac3f d9cb ac3e
00000160: cd62 933d 273b 0cbf 779c 7c3f 981b b5be
00000170: e34b 41bf c0f0 5dbf 2960 a0be 8b35 423f
00000180: 7dd3 863f ace9 b03f fe32 c33e 9fc6 a53f
00000190: 25ee bd3f 49c6 bf3f ba9e 893f 1176 313f
000001a0: 5720 2e3f 836e d83f 750d 5dbf d4f3 483f
000001b0: b876 ab3f 93dc 143f 6e2c 33bf 45dd e23f
000001c0: 8c64 82bf 3a12 ac3f 0181 7cbf cc69 ff3e
000001d0: c6eb 483f 36b0 393f 6409 bf3e e57c 163f
000001e0: edc7 90bf 8d10 ba3f e69f eb3c 1c0d f03f
000001f0: f0b0 043f d91e 4bbf 041e 22bf 3fb5 7d3f
00000200: a1f6 5ebf 8c29 dbbe 8943 003d 3420 b33f
00000210: 00e1 ba3f 80cf 5abf d641 67bf 6419 a13f
00000220: 9557 ac3f 93d6 ca3f 8238 9c3f e337 2040
00000230: e9a0 ca3f ad1c 1cbf a543 3ebf 999f 923f
00000240: 0b5d 18bf 2de9 9abf ec8f 9b3f e8d8 733f
00000250: 909e 96bf 1aa3 3f3f 9c86 a6be af3b 033f
00000260: 13af 373f a38f 9dbf 7f9d 8ebf f269 783f
00000270: d81b 513f 309f 903f ec54 53bf 38df 30bf
00000280: 7543 d03e d1a3 1b3f a2c7 4bbf 67bb 2c3f
00000290: d94b 893f c1bf 51bf 5a86 6c3f b4f5 9ebf
000002a0: e714 2a3f 4a55 d6be 8cea dbbe 92d3 5abf
000002b0: 5bee 2b3f 403d 7b3f b673 893f 9dcc 8fbf
000002c0: 30fa 6bbf f992 7d3f 0c83 e63f bb7b 5dbf
000002d0: a100 62bf cf7d 5e3f 6391 993f bf24 5fbf
000002e0: 257b 8b3f 3857 2740 0b51 5fbf b23b 513f
000002f0: e45e 8ebf e137 e83f b08d 6ebf 1dc6 233f
00000300: 46e7 67bf cb21 6a3f 5b70 28bf 2c06 acbe
00000310: 1112 62bf 5caf d73c ca59 89bf 2070 78bf

bias f4 [300]
-0.07371236 0.029833969 0.017642245 -0.017040238 -0.011907136 -0.04516477 -0.052270215 -0.005372861
0.02254558 0.062976316 0.0002906005 -0.05697897 -0.08598357 0.06280903 -0.043311846 0.033326134
-0.00016947855 -0.08556981 -0.08708086 0.006119028 0.0056966986 -0.052594997 -0.049110368 0.02579093
-0.08169035 -0.0407111 0.04230008 -0.004595071 0.021888029 -0.064272344 0.00911471 -0.07169605
-0.025949243 -0.006047692 0.038246058 -0.049691264 -0.07258513 0.026762046 -0.07728355 0.039878298
-0.007390904 -0.0658112 0.058973707 -0.08845168 -0.0010384667 -0.0043338942 -0.02579035 0.026025152
-0.061624628 -0.018032243 -0.08525396 0.02210447 -0.0039040155 -0.036048375 0.04660279 -0.037672848
-0.048144665 0.032795895 -0.032019835 -0.04432128 -0.027462028 0.02739394 -0.073479116 0.10398117
-0.007859242 0.04735059 0.06024665 -0.040941156 -0.033631273 0.011580217 -0.026875969 0.030455803
-0.026368678 0.018705023 -0.08330493 -0.010519143 -0.041157234 0.093172856 -0.12629575 -0.06620387
0.02276182 -0.008552119 -0.018312836 -0.012308813 0.0178972 0.053798348 -0.004321403 0.028809337
-0.011674129 -0.040768657 -0.011658579 0.022073263 -0.06936028 -0.06592101 0.0038014788 -0.09322915
-0.018265529 -0.017044762 0.042589527 0.004597201 0.033297993 -0.073791124 -0.03060349 0.028922377
0.051018693 -0.02594222 -0.047330104 0.010454723 -0.15081403 0.0150687825 0.054761965 -0.115659334
0.024306731 -0.04718871 0.005261906 -0.019314764 0.038163222 0.026999515 -0.020977363 0.0066968664
-0.023766762 -0.08089585 -0.041650616 0.0069014602 0.034945577 -0.041215133 0.014228204 0.104069635
-0.06874541 -0.03312759 -0.029619992 0.009645829 -0.012396625 -0.07265508 -0.050258487 -0.06666821
0.035099775 -0.0691452 -0.019864375 -0.04603665 0.015003011 -0.037326418 0.007902044 0.049101315
0.06260095 0.0026597101 0.0048650852 -0.033832528 -0.033225454 0.018616172 0.0047798213 -0.06647774
-0.023965837 -0.01499396 0.0020137983 0.011834595 -0.058054607 -0.067401096 0.03194333 -0.076089256
-0.03881171 0.046407603 -0.010595548 -0.068118274 -0.061249025 -0.104024954 0.028346986 -0.02246051
-0.06472876 -0.07422806 -0.068031006 -0.048358098 -0.010169325 -0.034880158 -0.12939717 -0.07566982
0.04326171 0.0400961 -0.007770767 -0.0637536 -0.017817372 0.044849575 0.035148982 -0.07150784
-0.08120226 0.017453618 -0.034856644 -0.06471632 -0.046641286 -0.024624033 0.039984167 -0.02929393
0.047115758 0.005104308 0.05718903 -0.06268451 0.05714785 -0.06923211 0.0044283816 0.038957156
0.038973313 -0.05877343 0.01107857 -0.0033696878 -0.012221355 0.02656613 -0.03415057 -0.05100145
-0.047858562 -0.043907855 0.046312273 0.0031272464 -0.016416464 0.04445047 0.06492251 0.041788016
-0.00921935 -0.06353329 0.052643698 0.0075764866 -0.017204458 0.036115464 0.018369015 -0.044739623
-0.10236456 -0.08090132 -0.03626557 0.046489827 -0.09146056 0.018559815 -0.07582434 0.011181704
0.009640116 0.0045420304 -0.07550692 -0.055239692 -0.038032565 -0.011811846 0.051083747 0.021174872
-0.0008629291 -0.004681528 -0.02431233 0.033449028 0.02247926 0.043654047 -0.045893684 0.028131718
0.01993019 -0.004626403 0.04554822 -0.051396504 0.040523443 -0.05508176 0.043830633 -0.011904799
00000000: 81f6 96bd 5e66 f43c 7886 903c f897 8bbc
00000010: 2616 43bc b2fe 38bd 4b19 56bd d30e b0bb
00000020: 82b1 b83c baf9 803d bd5b 9839 c862 69bd
00000030: 2718 b0bd 05a2 803d c367 31bd fc80 083d
00000040: 0db6 31b9 393f afbd 7357 b2bd 2182 c83b
00000050: 5fab ba3b da6d 57bd f427 49bd 8047 d33c
00000060: 454d a7bd afc0 26bd d942 2d3d 4092 96bb
00000070: 864e b33c 38a1 83bd dd55 153c 61d5 92bd
00000080: 8293 d4bc b82b c6bb e6a7 1c3d 1189 4bbd
00000090: 83a7 94bd 143c db3c d646 9ebd 6d57 233d
000000a0: 652f f2bb 06c8 86bd 6a8e 713d 2826 b5bd
000000b0: 291d 88ba 5703 8ebb 4946 d3bc b332 d53c
000000c0: 1b6a 7cbd 5bb8 93bc a199 aebd 6f14 b53c
000000d0: 83da 7fbb 76a7 13bd 91e2 3e3d d84e 1abd
000000e0: 5733 45bd fd54 063d 3b27 03bd 3b8a 35bd
000000f0: 0cf8 e0bc 4269 e03c 387c 96bd 14f4 d43d
00000100: 0dc4 00bc b1f2 413d 31c5 763d eab1 27bd
00000110: f2c0 09bd f3ba 3d3c fe2a dcbc 737e f93c
00000120: 2003 d8bc 473b 993c c69b aabd 7c58 2cbc
00000130: 7d94 28bd 69d1 be3d ac53 01be e595 87bd
00000140: ff76 ba3c 301e 0cbc cd04 96bc e7aa 49bc
00000150: 269d 923c a85b 5c3d 8e9a 8dbb 8f01 ec3c
00000160: d944 3fbc 09fd 26bd a003 3fbc fdd2 b43c
00000170: c30c 8ebd 9801 87bd 3b22 793b edee bebd
00000180: 97a1 95bc 75a1 8bbc 5b72 2e3d 1ea4 963b
00000190: 7a63 083d cd1f 97bd 2cb4 fabc 9fee ec3c
000001a0: faf8 503d c784 d4bc 36dd 41bd 494a 2b3c
000001b0: fe6e 1abe 0ee3 763c 154e 603d cdde ecbd
000001c0: e91e c73c f348 41bd 116c ac3b ff39 9ebc
000001d0: 0a51 1c3d 162e dd3c b8d8 abbc 6371 db3b
000001e0: 83b2 c2bc b9ac a5bd d699 2abd a525 e23b
000001f0: 1823 0f3d 33d1 28bd 6a1d 693c 7622 d53d
00000200: 65ca 8cbd ccb0 07bd a0a5 f2bc 8a09 1e3c
00000210: 371b 4bbc 30cc 94bd d8db 4dbd 5889 88bd
00000220: c8c4 0f3d 009c 8dbd 9dba a2bc ed90 3cbd
00000230: 30cf 753c 96e3 18bd 9377 013c 761e 493d
00000240: ed34 803d 884e 2e3b 4b6b 9f3b fa93 0abd
00000250: 6a17 08bd f180 983c 0ca0 9c3b 7b25 88bd
00000260: 0154 c4bc 3aa9 75bc eef9 033b e4e5 413c
00000270: abca 6dbd 9609 8abd 02d7 023d afd4 9bbd
00000280: 07f9 1ebd e615 3e3d f398 2dbc 9881 8bbd
00000290: 42e0 7abd 090b d5bd f037 e83c 1aff b7bc
000002a0: 8390 84bd e204 98bd d753 8bbd 2413 46bd
000002b0: 3e9d 26bc 7fde 0ebd b180 04be c7f8 9abd
000002c0: 3133 313d cf3b 243d eba1 febb 3f91 82bd
000002d0: bdf5 91bc 30b4 373d 61f8 0f3d b472 92bd
000002e0: 5f4d a6bd e4fa 8e3c d7c5 0ebd fd89 84bd
000002f0: ef0a 3fbd 57b8 c9bc 70c6 233d d3f9 efbc
00000300: 74fc 403d 0a42 a73b 0b3f 6a3d bd60 80bd
00000310: dd13 6a3d 91c9 8dbd f51b 913b 8a91 1f3d
00000320: 7ba2 1f3d 68bc 70bd e482 353c fbd5 5cbb
00000330: 143c 48bc 36a1 d93c 78e1 0bbd e5e6 50bd
00000340: 5707 44bd b9d8 33bd f0b1 3d3d 7df2 4c3b
00000350: d27b 86bc b211 363d 18f6 843d e929 2b3d
00000360: c20c 17bc be1d 82bd eba0 573d 2d44 f83b
00000370: 5df0 8cbc cfed 133d 9e7a 963c e540 37bd
00000380: 83a4 d1bd 97af a5bd 358b 14bd 1e6c 3e3d
00000390: ad4f bbbd c10a 983c cb49 9bbd 7733 373c
000003a0: 94f1 1d3c 50d5 943b 5fa3 9abd 0443 62bd
000003b0: 09c8 1bbd 7986 41bc 313d 513d ed76 ad3c
000003c0: 3136 62ba 8167 99bb a72a c7bc d901 093d
000003d0: 6d26 b83c 96ce 323d 04fb 3bbd 7d74 e63c
000003e0: a344 a33c 1599 97bb c590 3a3d 2485 52bd
000003f0: e9fb 253d 699d 61bd c087 333d 590c 43bc

weight f4 [300, 200]
-0.05637961 -0.0 -0.0 -0.0 -0.0 -0.0 -0.15544039 -0.111069486
0.011048783 -0.035427444 -0.0 -0.0 -0.0 -0.0 -0.0 -0.0
0.022660797 -0.0 0.04509325 -0.0 -0.10519456 -0.0 -0.0 -0.0
-0.0 -0.0 -0.0 -0.04610118 -0.0 -0.0 -0.1744457 -0.0
-0.0 -0.0 -0.0 -0.101173095 0.005227542 0.054140095 -0.0 -0.0
-0.0 -0.06495264 -0.0 -0.0 -0.0 -0.0 -0.18545611 -0.0
-0.0 -0.0 0.031107217 -0.0 0.12325755 0.0 -0.0 -0.0
-0.1078246 -0.0 0.0 -0.0 -0.0 -0.0 -0.0 -0.07823677
0.12630124 -0.0 -0.0 0.15383716 -0.0 0.036307022 -0.0 -0.0
-0.0 -0.12999615 -0.0 0.06764871 -0.0 -0.0 -0.0 -0.013737437
-0.0 -0.0 -0.0 -0.0 0.07021954 -0.0 0.015680091 0.02331988
0.027734611 -0.0 0.0 -0.0 0.07965102 0.11224209 -0.0 -0.0
-0.0 -0.0 -0.10083114 -0.0 -0.0 -0.0 -0.0 -0.0
-0.0 -0.06891102 -0.0 -0.0 -0.0 -0.12193527 -0.0 -0.0
-0.008624052 -0.0 -0.0 -0.0 -0.0 -0.0 -0.0 -0.10408349
-0.0 -0.0 -0.0 -0.0 -0.0 -0.106303275 -0.03413571 -0.0
-0.0 -0.043229632 -0.04454188 -0.11550663 0.14798792 -0.10809826 0.14061399 -0.0
-0.0 -0.111681715 -0.0 -0.0 -0.13912228 -0.0 -0.0 -0.0
0.05323981 -0.0 -0.08739858 -0.0 -0.0 -0.0 -0.0 -0.0
-0.091761075 -0.034493953 -0.0 -0.0 -0.0 -0.0 0.15002656 -0.13663498
-0.0 -0.0 -0.0 0.0 -0.0 -0.0 -0.0 -0.0
-0.10573612 -0.0 -0.0 0.050518602 -0.099663615 -0.11990013 -0.0 -0.12311022
-0.0 -0.0 -0.11950807 -0.0 0.067465454 -0.0 -0.0 -0.09828962
0.010679378 0.018480426 -0.07122157 -0.0107726175 -0.050468687 -0.0 0.072882235 0.037330635
0.06420407 0.0 0.12529963 0.05104 0.100047044 0.061566155 -0.0 -0.21435843
-0.0 -0.12694025 -0.0 -0.0 0.005270253 -0.0 -0.0 0.070519075
-0.05219211 -0.0 0.0 -0.0 -0.0 0.033598818 0.0 -0.0
-0.0 -0.0 0.047184423 -0.0 -0.0 0.07214848 -0.0 -0.0
-0.0 -0.0 -0.06643878 -0.0 -0.0 -0.04221303 0.11011796 -0.0
-0.0 -0.0 -0.107675746 -0.0 -0.0 -0.0 -0.0 -0.0
-0.16377705 -0.05979751 -0.0 -0.10596104 -0.0 0.0 -0.0 -0.060554516
-0.0 -0.10938671 -0.07215262 -0.0 -0.0 -0.0 -0.0 -0.0
00000000: 4eee 66bd 0000 0080 0000 0080 0000 0080
00000010: 0000 0080 0000 0080 c42b 1fbe 6678 e3bd
00000020: f405 353c 5e1c 11bd 0000 0080 0000 0080
00000030: 0000 0080 0000 0080 0000 0080 0000 0080
00000040: 23a3 b93c 0000 0080 b3b3 383d 0000 0080
00000050: 3f70 d7bd 0000 0080 0000 0080 0000 0080
00000060: 0000 0080 0000 0080 0000 0080 97d4 3cbd
00000070: 0000 0080 0000 0080 e5a1 32be 0000 0080
00000080: 0000 0080 0000 0080 0000 0080 d733 cfbd
00000090: cd4b ab3b 01c2 5d3d 0000 0080 0000 0080
000000a0: 0000 0080 e405 85bd 0000 0080 0000 0080
000000b0: 0000 0080 0000 0080 35e8 3dbe 0000 0080
000000c0: 0000 0080 0000 0080 90d4 fe3c 0000 0080
000000d0: 746e fc3d 0000 0000 0000 0080 0000 0080
000000e0: 25d3 dcbd 0000 0080 0000 0000 0000 0080
000000f0: 0000 0080 0000 0080 0000 0080 9a3a a0bd
00000100: 1d55 013e 0000 0080 0000 0080 7d87 1d3e
00000110: 0000 0080 acb6 143d 0000 0080 0000 0080
00000120: 0000 0080 b61d 05be 0000 0080 688b 8a3d
00000130: 0000 0080 0000 0080 0000 0080 fd12 61bc
00000140: 0000 0080 0000 0080 0000 0080 0000 0080
00000150: 43cf 8f3d 0000 0080 8973 803c 5509 bf3c
00000160: b233 e33c 0000 0080 0000 0000 0000 0080
00000170: 1320 a33d 2edf e53d 0000 0080 0000 0080
00000180: 0000 0080 0000 0080 8f80 cebd 0000 0080
00000190: 0000 0080 0000 0080 0000 0080 0000 0080
000001a0: 0000 0080 3921 8dbd 0000 0080 0000 0080
000001b0: 0000 0080 33b9 f9bd 0000 0080 0000 0080
000001c0: e54b 0dbc 0000 0080 0000 0080 0000 0080
000001d0: 0000 0080 0000 0080 0000 0080 ba29 d5bd
000001e0: 0000 0080 0000 0080 0000 0080 0000 0080
000001f0: 0000 0080 88b5 d9bd e3d1 0bbd 0000 0080
00000200: 0000 0080 8e11 31bd 8c71 36bd bd8e ecbd
00000210: 258a 173e 9f62 ddbd 1dfd 0f3e 0000 0080
00000220: 0000 0080 62b9 e4bd 0000 0080 0000 0080
00000230: 1276 0ebe 0000 0080 0000 0080 0000 0080
00000240: fd11 5a3d 0000 0080 07fe b2bd 0000 0080
00000250: 0000 0080 0000 0080 0000 0080 0000 0080
00000260: 3bed bbbd 8849 0dbd 0000 0080 0000 0080
00000270: 0000 0080 0000 0080 90a0 193e 0aea 0bbe
00000280: 0000 0080 0000 0080 0000 0080 0000 0000
00000290: 0000 0080 0000 0080 0000 0080 0000 0080
000002a0: 2e8c d8bd 0000 0080 0000 0080 98ec 4e3d
000002b0: 701c ccbd 338e f5bd 0000 0080 3621 fcbd
000002c0: 0000 0080 0000 0080 a6c0 f4bd 0000 0080
000002d0: 542b 8a3d 0000 0080 0000 0080 114c c9bd
000002e0: 8ff8 2e3c 4364 973c 9ddc 91bd a27f 30bc
000002f0: 41b8 4ebd 0000 0080 4843 953d 02e8 183d
00000300: 6c7d 833d 0000 0000 8c4e 003e 520f 513d
00000310: 77e5 cc3d cb2c 7c3d 0000 0080 c780 5bbe
00000320: 0000 0080 a0fc 01be 0000 0080 0000 0080
00000330: 16b2 ac3b 0000 0080 0000 0080 4e6c 903d
00000340: 65c7 55bd 0000 0080 0000 0000 0000 0080
00000350: 0000 0080 ea9e 093d 0000 0000 0000 0080
00000360: 0000 0080 0000 0080 7444 413d 0000 0080
00000370: 0000 0080 95c2 933d 0000 0080 0000 0080
00000380: 0000 0080 0000 0080 0e11 88bd 0000 0080
00000390: 0000 0080 92e7 2cbd 8685 e13d 0000 0080
000003a0: 0000 0080 0000 0080 1a85 dcbd 0000 0080
000003b0: 0000 0080 0000 0080 0000 0080 0000 0080
000003c0: 2cb5 27be 3cee 74bd 0000 0080 1a02 d9bd
000003d0: 0000 0080 0000 0000 0000 0080 0308 78bd
000003e0: 0000 0080 2406 e0bd c1c4 93bd 0000 0080
000003f0: 0000 0080 0000 0080 0000 0080 0000 0080

weight f4 [1, 300]
-0.032074034 0.053196467 -0.020444797 -0.045228977 0.1195774 -0.021994472 -0.041691586 0.039900802
-0.34731647 -0.06457428 0.047320034 0.010757655 -0.12192714 -0.06690346 0.05714549 -0.028292254
0.053411543 0.07761921 0.02071777 0.0635404 -0.06815053 0.038334418 -0.0015256822 0.043973736
0.097990744 0.19826624 -0.042940672 0.0477425 -0.020670138 -0.050868824 -0.046034046 -0.056572028
0.044306766 0.019523313 0.022398854 -0.0645094 0.06373756 -0.049051624 -0.07148267 0.0647813
0.040719777 -0.03947336 -0.05843509 0.22615427 0.023910789 0.020806389 -0.031734146 0.07662927
0.01409433 0.06948058 0.016806096 0.06743424 -0.06079433 -0.087064855 0.037404977 -0.051187802
0.048746753 0.018965425 -0.05594447 0.07962663 0.019760612 -0.050586946 -0.34480688 0.2679553
-0.03738988 0.037235323 0.035273436 -0.02651867 -0.055804536 -0.068601295 -0.06444536 -0.13699637
-0.025292229 -0.07622399 -0.06067188 0.089893915 -0.02072815 0.18914375 -0.0030212183 -0.056643575
0.018539142 -0.044451002 -0.028151313 0.036883693 -0.058763325 0.04407651 0.023553023 -0.06187785
-0.058350023 0.06695602 -0.08371669 0.07637479 -0.07745086 -0.043413606 0.051669773 -0.042564075
0.045078073 -0.06321265 0.04711098 -0.05115854 -0.044295482 0.044709522 -0.06772884 -0.025943652
-0.080252185 -0.05986631 0.014803432 0.03111757 0.6266265 -0.032823153 -0.06340502 -0.034665354
0.030391889 0.04120477 0.053664636 0.0224124 -0.045878716 -0.051779184 -0.037138596 -0.03548397
0.044713356 -0.019289918 0.03311617 -0.059721954 -0.06744803 0.023558974 -0.027318079 -0.056382224
0.056030758 -0.06545303 -0.027565751 -0.052050997 0.030340023 0.017752748 0.018721743 -0.035884805
0.029917667 -0.034639113 0.040584773 0.02650297 0.033578042 0.06643624 0.06694502 -0.0558702
-0.018629365 0.0028875696 0.061400175 -0.0018883571 0.03861568 -0.078930795 -0.075545326 -0.057038117
-0.057615798 0.0663481 -0.06212345 -0.03673963 -0.044287995 0.04220791 0.06892371 -0.13783365
-0.047929015 -0.03977752 -0.065180056 0.062024005 0.03895914 0.2754018 0.022093978 -0.072606206
-0.01552907 0.030748362 0.03643759 -0.05182791 -0.078413196 -0.06453864 -0.31165758 -0.062470835
-0.07459471 0.047563273 0.026659131 -0.09994979 0.027946081 -0.06920461 0.116792805 -0.057352904
0.047772486 -0.04356925 -0.07645963 -0.05981734 0.041570727 -0.041273773 0.034101892 -0.062270552
-0.025914047 -0.059174094 -0.061869424 0.048479434 0.038713917 0.04558204 0.13573052 -0.0272962
-0.07262851 0.070395656 0.04783525 -0.054627564 0.047741916 0.04765303 0.0607188 -0.060088675
0.036912438 0.046732463 -0.06605424 0.09500222 -0.07846281 -0.10115941 0.034446243 -0.053552873
0.042459935 0.03885168 -0.040227126 0.074177854 0.033074945 0.021801729 -0.036787737 -0.057379555
-0.2025121 -0.0264813 0.04907626 -0.056688752 0.0910472 -0.06102738 -0.069913834 0.026896395
-0.058134247 0.032894764 0.043708757 0.018796183 0.06891339 -0.07552451 0.052569773 -0.060362518
-0.04165384 -0.046429906 0.052059487 0.052966528 -0.33056936 0.05978805 0.07041536 -0.06992139
-0.03021923 -0.051893327 0.02251893 0.26229164 -0.060752712 0.02238888 0.061972834 -0.06163598
00000000: 1060 03bd 8ae4 593d d97b a7bc 0542 39bd
00000010: ffe4 f43d c02d b4bc ccc4 2abd 066f 233d
00000020: 77d3 b1be 853f 84bd a7d2 413d e040 303c
00000030: f0b4 f9bd ae04 89bd 6411 6a3d 28c5 e7bc
00000040: 10c6 5a3d d2f6 9e3d 50b8 a93c 7821 823d
00000050: 8192 8bbd 8d04 1d3d 66f9 c7ba ce1d 343d
00000060: 5faf c83d 4e06 4b3e 8fe2 2fbd a48d 433d
00000070: 6c54 a9bc d45b 50bd 328e 3cbd 12b8 67bd
00000080: 037b 353d 5bef 9f3c cd7d b73c 811d 84bd
00000090: d688 823d 5bea 48bd 8265 92bd 0fac 843d
000000a0: c8c9 263d d1ae 21bd a259 6fbd fc94 673e
000000b0: 8fe0 c33c 2972 aa3c aafb 01bd cfef 9c3d
000000c0: e8eb 663c d64b 8e3d f0ac 893c f61a 8a3d
000000d0: 7a03 79bd 0f4f b2bd f635 193d 4daa 51bd
000000e0: adaa 473d 615d 9b3c 0726 65bd 4913 a33d
000000f0: 02e1 a13c 4234 4fbd 878a b0be 7031 893e
00000100: 2126 19bd 1184 183d e17a 103d af3d d9bc
00000110: 4c93 64bd d67e 8cbd eefb 83bd c748 0cbe
00000120: a631 cfbc 531b 9cbd 1483 78bd 4d1a b83d
00000130: 15ce a9bc e6ae 413e a2ff 45bb 1803 68bd
00000140: 66df 973c 4112 36bd 959d e6bc 5b13 173d
00000150: d0b1 70bd 9289 343d 45f2 c03c a173 7dbd
00000160: 6f00 6fbd 3d20 893d a873 abbd 636a 9c3d
00000170: 8e9e 9ebd 77d2 31bd afa3 533d ab57 2ebd
00000180: c9a3 383d a275 81bd 71f7 403d 9e8b 51bd
00000190: 2e6f 35bd 5521 373d 6bb5 8abd c887 d4bc
000001a0: 425b a4bd 6036 75bd 188a 723c 46ea fe3c
000001b0: 986a 203f 9271 06bd 7eda 81bd 42fd 0dbd
000001c0: 69f8 f83c 55c6 283d 73cf 5b3d 369a b73c
000001d0: 52eb 3bbd 6916 54bd a41e 18bd a457 11bd
000001e0: 5a25 373d e405 9ebc d2a4 073d 029f 74bd
000001f0: 3122 8abd c0fe c03c 2aca dfbc 0cf1 66bd
00000200: 8280 653d 3d0c 86bd 92d1 e1bc 6d33 55bd
00000210: a48b f83c 366e 913c 575e 993c f2fb 12bd
00000220: e515 f53c bee1 0dbd 383c 263d c21c d93c
00000230: 2189 093d b90f 883d 781a 893d 27d8 64bd
00000240: 9c9c 98bc 613d 3d3b c07e 7b3d c082 f7ba
00000250: 7a2b 1e3d 78a6 a1bd 82b7 9abd cda0 69bd
00000260: 8bfe 6bbd 83e1 873d 2975 7ebd 4b7c 16bd
00000270: 5467 35bd 34e2 2c3d e027 8d3d 4424 0dbe
00000280: 3751 44bd c1ed 22bd 1f7d 85bd e20c 7e3d
00000290: 9f93 1f3d 7701 8d3e 6efe b43c 90b2 94bd
000002a0: a46d 7ebc fde3 fb3c 953f 153d 8149 54bd
000002b0: 1997 a0bd d62c 84bd 9591 9fbe 6be1 7fbd
000002c0: 1cc5 98bd b5d1 423d 4064 da3c 7ab2 ccbd
000002d0: 2eef e43c 26bb 8dbd 1131 ef3d e1ea 6abd
000002e0: 15ad 433d ab75 32bd de96 9cbd 0703 75bd
000002f0: 1146 2a3d b00e 29bd 6dae 0b3d 680f 7fbd
00000300: b249 d4bc 8960 72bd cb6a 7dbd 5f92 463d
00000310: 7c92 1e3d 3cb4 3a3d f1fc 0a3e 489c dfbc
00000320: 42be 94bd 992b 903d e5ee 433d 27c1 5fbd
00000330: 078d 433d d32f 433d 47b4 783d 8b1f 76bd
00000340: 7f31 173d 8a6a 3f3d 7247 87bd 8690 c23d
00000350: 1cb1 a0bd aa2c cfbd 8117 0d3d 425a 5bbd
00000360: 78ea 2d3d f022 1f3d 33c5 24bd 8fea 973d
00000370: 9879 073d 8a99 b23c bdae 16bd d306 6bbd
00000380: 555f 4fbe 50ef d8bc 3004 493d 7732 68bd
00000390: f476 ba3d d9f7 79bd fc2e 8fbd d455 dc3c
000003a0: 2d1e 6ebd a9bc 063d f407 333d 74fa 993c
000003b0: 7722 8d3d 98ac 9abd 6753 573d b03e 77bd
000003c0: 389d 2abd 492d 3ebd 543c 553d 6ef3 583d
000003d0: 6340 a9be 50e4 743d ee35 903d f232 8fbd
000003e0: 528e f7bc 198e 54bd 9e79 b83c 174b 863e
000003f0: d6d7 78bd e268 b73c 3ad7 7d3d 0276 7cbd
