figures/TS_partial_6/theta=0.1_s=0.3_step=1/best_model.pth (torch, 249766 bytes, 6 tensors)

weight f4 [200, 2]
00000000: edb5 1b3d 17b9 1cbf a0ae 893e fa72 06bf
00000010: a792 273e cf29 2fbf d58d 4dbf 1f45 ea3e
00000020: 1064 623f c6bd 7bbe b1c7 6fbe d7c0 353e
00000030: b895 02bf 51ec 5dbe 8f1e 2cbf 768d 4c3f
00000040: 3272 b13e d624 913e 9833 85bd 7085 77bd
00000050: faca 913e e013 7abe aab0 2b3f 5a02 5c3f
00000060: 8c62 f3be 73e6 8c3e ba0c 25bf 9e33 cc3e
00000070: 181a 8e3e a960 29bf 75c4 3abf 2a23 7b3c
00000080: 9f07 3c3f 44f0 07bf 6797 4b3f 2b7b c03d
00000090: 4d76 d8be ee92 05bf 6a64 1c3e 90ea a43e
000000a0: 445a 6dbe 52bb a73d acbf 143f a02b 7b3e
000000b0: f088 20be d402 f4be a7e4 2f3f 3c7e dbbe
000000c0: 174f 123f 09e3 6f3f bfd4 243f 34a4 87bd
000000d0: e13d 88be 64fe d13e 1af9 b33e 9441 e4be
000000e0: b7a9 973c 9088 033f b54a 203f 0e59 1fbe
000000f0: 90fe 51bd 60fc 853c c12d cb3e 8b7a 1e3e
00000100: 7e31 37bf 4267 4abe 0920 c93e 8644 2abf
00000110: 0a4d a43e d3ad 02bf a34d d5be 3103 fcbe
00000120: 4682 3ebf a8ed 1f3f 63ef df3e 26ed 623e
00000130: 0669 a03e 2602 a33e 5244 a2be 509d 3c3f
00000140: 870b 9dbe f60a b13e d0a9 063f 1129 29bf
00000150: 08d9 4d3f 2ab0 673d e812 663e 80af 9e3d
00000160: a75b a13d 809d ccbe a812 88bd c313 b43e
00000170: 6678 c53e c269 8f3e 568f 6dbf 86d5 f7be
00000180: de94 883e 1c74 e8be 0359 3cbc 76c0 e93e
00000190: cc39 1d3f 1f02 eabe f9df 1dbe 94ba 403e
000001a0: 35f1 4fbf 0fd1 11be 2146 b23e 28ec 68be
000001b0: ef0f 8f3d d4ad 0e3f 68c0 15be 5e71 be3e
000001c0: 086c 34bf 8d1d 2b3e 78ae 3e3f 7366 303f
000001d0: dafd 253f a670 80bd 5543 27bf 517a 46be
000001e0: c977 093f a29b 05bf d273 6d3e 3d47 f6be
000001f0: 10a8 19bf 51b2 1d3f 61b5 023f a127 14bf
00000200: b381 dabe b6a6 473f e8f6 03bf c6e0 55bd
00000210: 3766 79bf 1911 63bf c2d9 4c3f e053 dd3e
00000220: 7fc1 abbe 4a2c 1a3f 00c6 69bd 8621 b53e
00000230: b0fc 00bf 1e9f 33bf c7da afbe 9683 46bf
00000240: fc90 ba3e 58b1 14bf b7f6 bcbe 23c1 3cbf
00000250: 7fd0 37bf e991 15bf f081 5d3f 11b6 453f
00000260: be24 2cbf 68e9 f1be 33a3 3e3f b586 ad3e
00000270: b94f 453f df41 d03e 277f 3dbf 7fb8 01bf
00000280: 0c04 05bf 3c77 d73d 700c 4a3f 32a8 153e
00000290: 4ee4 1d3f 6bfd 9a3e 110c 073f a45c 5d3e
000002a0: ecc3 e2be cff2 37bf 6bd1 9b3e adc4 c5be
000002b0: c498 e3be 8ba6 073f 09be da3e fccb d2be
000002c0: 3883 603e 4b31 3fbf 1726 533f ceb6 98be
000002d0: 4f57 edbd a0b2 40bf 964c f23b eeff 3a3d
000002e0: b22a 8c3e 265d 073f 18da 8d3e c047 ee3e
000002f0: 7c20 373f d240 21bf d95e f3bd 3018 1c3f
00000300: 0c03 613e f59b 0dbf b23f 87be cf71 05bd
00000310: 8cb3 443f b452 323c c251 2abf 212d ebbe
00000320: a1e1 f0be 9c52 94be a3fa 9bbe ec92 e03e
00000330: f1ad 14bf 8359 cb3e d101 c3be 989b 0c3e
00000340: 6eee d03e 8469 023f a866 873e f8fb 703f
00000350: a180 803e 8500 1a3f db62 39bf 39ea a33e
00000360: 7daf 1dbf 1575 28be 8e87 3dbe b170 2e3f
00000370: 6553 5ebf 475b 31be dda3 563f bf0e 5a3f
00000380: 77f4 39bf 02e4 e7be 5522 b43e b953 3c3f
00000390: b92e 39be d6db 5bbf 90a0 593e 408a 52bc
000003a0: 71b7 1dbf d45a 053e 6d47 47bf 7018 063f
000003b0: 6ba6 36bf d35f a3be 7c92 333e 2a58 e13e
000003c0: 089c 47bf 49de 44bf b1e4 533f 2c3d b2be
000003d0: 547c 47bf 2bf9 53bf b5a9 3a3f b4e9 1dbe
000003e0: 4843 143f f24c 47bf a73e a9be 8045 1f3f
000003f0: ea0c 4dbf a7c2 99be 1244 073f b309 273f
0.038015295 -0.61219925 0.2689104 -0.5251919 0.16364537 -0.6842317 -0.80294544 0.4575586
0.88433933 -0.24584112 -0.2341602 0.17749344 -0.510097 -0.21672179 -0.6723413 0.7990335
0.34657437 0.28348416 -0.06503981 -0.06042999 0.2847517 -0.24421644 0.6706644 0.8594109
-0.47536123 0.2751957 -0.64472544 0.3988313 0.27754283 -0.66163117 -0.7295602 0.015328208
0.7344913 -0.5310099 0.79527897 0.093984924 -0.42277756 -0.5217732 0.1527268 0.32210207
-0.23178965 0.081900254 0.5810497 0.2452836 -0.15677238 -0.47658408 0.6870827 -0.42869747
0.5715193 0.93705803 0.64387125 -0.06623116 -0.2660971 0.41014397 0.35150987 -0.44581282
0.018513544 0.5138025 0.62613994 -0.15561315 -0.05126816 0.016355693 0.39683345 0.15476434
-0.71559894 -0.19765952 0.39282253 -0.6651081 0.32090026 -0.51046485 -0.41660795 -0.49221185
-0.7441753 0.6247201 0.43737325 0.22160777 0.31330127 0.31837577 -0.3169275 0.7367754
-0.30672857 0.34578675 0.52602863 -0.6607829 0.8040929 0.056564488 0.2246815 0.07748318
0.078788094 -0.39963913 -0.066441834 0.35171327 0.3856842 0.28010374 -0.9279684 -0.48405093
0.26676077 -0.45401084 -0.011495831 0.4565465 0.61416316 -0.45704743 -0.1541747 0.18821174
-0.8122743 -0.14239906 0.3481913 -0.22746336 0.06985461 0.5573399 -0.14624178 0.37195867
-0.7047734 0.16710491 0.7448497 0.68906325 0.6484047 -0.06271486 -0.65337116 -0.19382598
0.536984 -0.521906 0.23188713 -0.48101225 -0.6002207 0.61600214 0.5105801 -0.5787297
-0.42677078 0.77988756 -0.51548624 -0.052216314 -0.9742159 -0.88697964 0.8001977 0.43228054
-0.33546063 0.6022383 -0.057073593 0.3537714 -0.5038557 -0.7016467 -0.343466 -0.77544534
0.3643874 -0.58083105 -0.36906978 -0.73732203 -0.71802515 -0.58425766 0.86526394 0.77230936
-0.67243564 -0.47248387 0.7446777 0.33891836 0.7707477 0.40675256 -0.74022144 -0.50672144
-0.519593 0.10520789 0.7892523 0.14614943 0.6167649 0.30271468 0.52752787 0.21617371
-0.44290102 -0.7185487 0.3043321 -0.38626614 -0.44452488 0.529885 0.4272311 -0.41171253
0.21925056 -0.7468459 0.82479995 -0.2982697 -0.115889184 -0.7527256 0.0073943837 0.04565423
0.27376324 0.5287651 0.27705455 0.46539116 0.7153394 -0.6298953 -0.11883325 0.6097441
0.21973819 -0.55316097 -0.26415783 -0.03257924 0.76836467 0.010883976 -0.66531 -0.45932868
-0.4704714 -0.28969276 -0.30464658 0.43862092 -0.58077914 0.3971673 -0.38087323 0.1373123
0.40806907 0.50942254 0.26445508 0.94134474 0.25098136 0.6015704 -0.72416466 0.32014635
-0.615959 -0.16450913 -0.18508741 0.68140703 -0.86846 -0.17319976 0.83843786 0.8517875
-0.7263865 -0.45291144 0.35182443 0.7356525 -0.1808423 -0.8588232 0.21252656 -0.012850344
-0.61608034 0.1302293 -0.7784336 0.5238104 -0.71347684 -0.31909046 0.17536348 0.44012576
-0.7797246 -0.7690168 0.8277083 -0.34812295 -0.77924085 -0.82802075 0.729152 -0.15421182
0.57915163 -0.77851784 -0.33055612 0.62215424 -0.8009783 -0.3003132 0.5283824 0.65249175

bias f4 [200]
00000000: a033 9dbe 6e9c 353e 6311 a23e 3a35 e9be
00000010: 9746 4a3e e15b 013f 8731 b23d 74e9 0ebf
00000020: 0b9e 06bf 0434 10bf c40f eabe 646a b03e
00000030: f851 47be 48e1 5bbe e5c6 9f3e 7dc3 53be
00000040: af42 e3be 13f4 0bbe a967 a53e a77a b23e
00000050: ef6c 9a3d 7e79 86bd 1549 10bf ebab 293f
00000060: 6a38 083e f589 c13e 00f9 203f f34a 13bf
00000070: a725 87be f5e0 273f 103a c1bd c24a cc3e
00000080: 8332 dc3e 789a 9fbe 53a0 fa3e 22b2 aebe
00000090: de21 02bf 56a0 0a3f 2890 16bf 2b93 d43e
000000a0: 5b26 2cbe 4666 87be fe57 ae3e 94ed 5dbe
000000b0: 6dbe 353f f1ee 2e3e a5d6 cdbe 3051 0d3e
000000c0: f3cb 4b3e 7cf8 6cbe 5b04 283f 1bd6 c83d
000000d0: dcd6 e1be e977 c9be b967 0e3f 34b6 2abf
000000e0: 74b8 42be acb3 f33d 5d31 24be 6b18 563e
000000f0: de32 98be 8bde 68be a19e c63e 5611 293f
00000100: d62b bcbe 7649 893e 93ed 143e 5283 3a3f
00000110: 082a 91be f286 08bf f7e3 b8bd a25d ae3e
00000120: bf77 68be 11d2 e3be cab6 123f 2567 21be
00000130: 9f9e 6d3e 30c3 b7bd 9b17 c53e 3d94 d3bd
00000140: 4512 b93e 3ef0 153f 6802 0e3e c90a 05bf
00000150: 7271 333f c9fe dd3e 9069 943e 4f75 393f
00000160: cdb0 b3be 6a0a 6ebe a826 93bd f53e 693e
00000170: 5fe6 6abd 3519 58bd 8a3f abbe af01 9c3e
00000180: 865c 153f 7ebc 583e 0d1e bc3e 9511 c0bd
00000190: 68aa 63bd eaeb df3e fa8e 82be 4b91 2dbf
000001a0: bc07 abbe 76b7 b9bd 34f5 7abd d7a6 40be
000001b0: 7a87 98bd 9fbe af3e 8963 433e f645 53be
000001c0: 702d 163e 84a6 a3bd 7688 f9be 8ba3 29bf
000001d0: 2167 2f3f 6971 b6be c758 093f 73c0 0cbf
000001e0: 0664 03be 8fd1 7fbe 3bd7 a53e d047 0b3f
000001f0: 679f 5ebd cae2 ee3e 11a2 1cbe 98e8 fb3e
00000200: e6fc 04bf 8a10 f43e 6097 b43e f433 a63e
00000210: e02d 67bd 94ff 0a3f 7d3d 9bbd baf0 203f
00000220: d7ce 41bd 6629 5c3e 852b 203f 406a 25bf
00000230: 445d c5be f123 4abd 37d4 72be 2965 cbbd
00000240: 141b 97be 34cb a53e daae f9be fb77 cdbe
00000250: 7975 613d 1759 ccbe 9f49 c13e a281 52be
00000260: 89ab a4be 5028 06bf ba21 6ebe ef6e a23e
00000270: 4c95 0c3f 5715 42be 2224 04bf d674 9abe
00000280: 83d5 2a3f 76de 50be 58e3 b93e c4e9 04bf
00000290: f492 2fbf a6d0 03bf 80b1 fc3d 1c55 dabe
000002a0: cd9d 193f c2b5 e7bd 88b7 2f3f d67e 02bf
000002b0: c66d 623e fed9 0dbf 1b43 abbd 7a38 07bf
000002c0: 52f1 07be e74d 153f b8aa 183f fed1 2bbf
000002d0: 72d1 27bd 8ba9 d0bd 4847 ef3e 2f31 e33e
000002e0: 2521 913e 04b1 0d3f 4551 8b3e a097 633e
000002f0: 683c 63bd 3656 8c3e 3af4 d03e 84b8 abbd
00000300: c58d cbbe d433 fcbe 814e 94be fd39 1b3f
00000310: f2a4 86be 69e1 8bbe ebc8 bcbd 5303 673e
-0.3070345 0.17735454 0.3165389 -0.4554842 0.1975349 0.5053082 0.08700853 -0.5582497
-0.52584904 -0.5632937 -0.45715153 0.3445617 -0.19464862 -0.21472657 0.31206432 -0.20680042
-0.44386813 -0.13667326 0.3230565 0.348592 0.07540309 -0.065661415 -0.56361514 0.6627795
0.1330277 0.37800565 0.62879944 -0.5753624 -0.26395914 0.6557763 -0.09434903 0.39900786
0.43007287 -0.31172538 0.48950443 -0.3412028 -0.5083293 0.54150903 -0.58813715 0.4151853
-0.16811506 -0.26445216 0.34051508 -0.2167266 0.7099369 0.17083336 -0.40202823 0.13800502
0.19902019 -0.23141664 0.65631646 0.098064624 -0.44109237 -0.39349297 0.5562702 -0.6668427
-0.19015676 0.11899504 -0.16034456 0.20907752 -0.2972631 -0.22741143 0.387929 0.6604208
-0.36752194 0.2681386 0.14543752 0.7285663 -0.2835238 -0.5333091 -0.09027856 0.3405581
-0.2270193 -0.44496205 0.57310164 -0.15762003 0.2320504 -0.08972776 0.38494572 -0.103310086
0.3614675 0.58569705 0.13868105 -0.5196958 0.7009498 0.43358448 0.28986788 0.72444624
-0.35095826 -0.2324616 -0.071851075 0.22777922 -0.057348605 -0.052758414 -0.33446914 0.30470034
0.58344305 0.21165654 0.36741677 -0.093783535 -0.055582434 0.43734676 -0.25499707 -0.67799824
-0.33404338 -0.090681955 -0.061269 -0.18813644 -0.07447715 0.3432512 0.19080938 -0.20632157
0.1466577 -0.07990745 -0.48736924 -0.6626517 0.6851674 -0.356334 0.5365109 -0.54981154
-0.12831125 -0.24982284 0.3239077 0.5440645 -0.054351237 0.466574 -0.15296198 0.49200892
-0.5194839 0.47668868 0.3527174 0.32461512 -0.056440234 0.5429623 -0.07580087 0.6286732
-0.0473164 0.21500167 0.62566406 -0.6461525 -0.3854772 -0.049350683 -0.23713766 -0.09931404
-0.29512846 0.32381594 -0.48766214 -0.401306 0.05504367 -0.3991172 0.3775148 -0.20557263
-0.3216212 -0.5240526 -0.23255053 0.3172526 0.5491531 -0.18953453 -0.51617634 -0.30167264
0.66732043 -0.20397362 0.36306262 -0.519192 -0.6858361 -0.5149025 0.12338543 -0.42643058
0.6000641 -0.113139644 0.6863942 -0.50974786 0.22112188 -0.55410755 -0.08362409 -0.5282055
-0.1327565 0.58321995 0.59635496 -0.671173 -0.040971227 -0.10188588 0.4673407 0.44373462
0.283456 0.5534823 0.2721044 0.22225809 -0.05547753 0.27409524 0.4081133 -0.08384803
-0.397566 -0.49258292 -0.28966144 0.6063536 -0.26297718 -0.27320412 -0.092180096 0.22559862

bias f4 [300]
00000000: a65e 283d 3e3c c53c c10c 19bd ee1a 3bbd
00000010: 755a 083d 9aac 4abd acdf 3abc 1e09 453d
00000020: 5336 a5bd 8032 6a3d 4b13 ba3c 173a de3b
00000030: 305a 4fbd a26c 63bd c4b4 403c 6453 0a3d
00000040: 968d 3e3d 36cf 143d 281d 4b3c 1ada 003d
00000050: 6498 07b9 baff 983d 6309 8bbd 3f75 bfbc
00000060: e855 ed3c 367e 2dbd 1e35 7d3d c01c 813d
00000070: 04ec 803d 10e1 6e3d 457b 353d 5009 cebc
00000080: e59e 733d 3eb7 2ebb 0264 25bc c4cf 123d
00000090: 77e9 e9bc 13a2 223d 1250 88bd 7079 45bd
000000a0: 07d1 55bd 7b96 f43c 1cd6 903d be9d 1b3d
000000b0: 198f 10bd 5f85 343d 21df 5cbd 2cac 8cbd
000000c0: 16ec 82bd 1c59 57bc e0cb de3c 7949 333d
000000d0: 126d 7f3d 9977 90bd 0f62 41bb a5e5 ea3c
000000e0: d74e c1bb 9cb0 7dbc 1a6c 433d 5249 9fbc
000000f0: d721 dcbc ea68 a6ba e570 2a3d 7e77 693d
00000100: 7e6d e43c c32c 64bd 3095 a8bc 2586 2cbd
00000110: 80e3 433a b292 7ebd c29b b63c 14d7 033c
00000120: c438 d23b 66a7 cc3c 0516 4bbc 0cb9 a53d
00000130: d85d 043c 6104 dcbc 036a 4bbd 5500 053d
00000140: 58ec de3c 2dae 2dbd c8c9 afbd 7973 f03b
00000150: 1866 a4bc 2035 243d a297 5bbd ae72 b2bc
00000160: 22f6 a2b9 8ea6 debc 5f1f 993d cab0 2fbd
00000170: b848 73bd e59d d03c 5561 073d 70cb 03bc
00000180: 5dfb a0bd f2d0 6b3d 7058 a6bc 4ee7 3b3d
00000190: 8f4f 6f3d 7d15 e8bc e3d3 9abd 6b43 973c
000001a0: e434 243d 5061 51bc a422 d9bc d58f 01bd
000001b0: 5cdb 0bbc b1c1 4f3d 8ea5 f93b 305a b1bd
000001c0: e070 323d e0e3 f9bc da61 093d f04f 2d3d
000001d0: 7d32 0e3d 66e7 0f3a a344 733d c9ad 0c3d
000001e0: fa23 ed3b 7f33 253d 472b 7cbd 5eda 5f3d
000001f0: 5490 dabc 3bb3 033b 9a74 5f3d 31f1 ee3c
00000200: 8db1 39bd 7432 833d 3477 3bbd 4049 7abc
00000210: 0641 24bd 9823 5bbc ac50 56bc 7e97 5f3d
00000220: ee30 66bd 0964 4dbd 28fd 4ebd 4aef 40bc
00000230: 9f2a 81bb dd3b 0e3d 401a 58bd 3f93 83bd
00000240: 83e1 86bd 0884 f73c 2a25 2a3d 6f6f a03b
00000250: 0c93 a93c 53a4 70bc 88cd 4b3c b176 5b3c
00000260: c16b bbbc 03de 8b3d d57c 20bd d0a8 82bd
00000270: be7f 083d c976 553d c1ac aebd ab55 8e3d
00000280: fceb 6abd 084b e53b b1dd 9b3c ad8c 8e3d
00000290: 5454 d6bb 8a76 4bbd 0bd2 b43c 9c5b b93c
000002a0: 95f4 303d c650 31bd fd2c febc 3b58 b43c
000002b0: eb2c 413d 02ac 2c3d 4060 afbd 168a 4f3d
000002c0: 55ea 7d3d a8e0 993c 00c5 3fbd a4da c23c
000002d0: 9fe4 5dbd 5230 b53b d19d fb3c a10a 5e3d
000002e0: fd66 893d 70f8 a13b 2dff ae3d 9f8f 07bd
000002f0: 4b99 80bd 44d1 f53c c5f3 d7bc 97e5 3cbd
00000300: 21fd 05bb 7df5 413c 12f1 02bc 6e5f 68bb
00000310: 591b 1cbb 40d3 2fbd 9c61 793c bea6 04bc
00000320: ba00 903d 137a c43b 9229 573d 80e4 933d
00000330: 8225 eebc ec05 45bd a872 12bc b663 16bd
00000340: 3184 6abd ee52 3b3c 16d4 72bc a60c 85bb
00000350: 1c4a f63c 9cf4 483d a103 483d c26c a9bd
00000360: 2735 2c3d f86a 7f3d d9a0 983d 4346 29bd
00000370: 60f7 1a3b 9f61 41bd 16e9 383c a2db 54bd
00000380: 0380 64bd ed4d 113d 72ba 86bc e663 84bd
00000390: 73f3 24bd 74b0 76bc 4324 ecbc f060 1d3c
000003a0: 0bdc 8d3d 996e 3fbd e117 c63c 3d75 7fbd
000003b0: ba6d b3bc dcdf 213d be25 0fbd a040 bdbd
000003c0: 4c55 d9bb b85e 1bbc 983f 23bc 3351 88bc
000003d0: b512 91bc c3ce 1d3d d0e4 133d 4822 86bb
000003e0: 801a 2b3b 6c4f 1cbd 238a 853d 803f 393d
000003f0: 783c 2d3d c0cf 323c 8d23 c3bc 61a2 d0bc
0.04110589 0.024076577 -0.03736568 -0.04567998 0.03328939 -0.049481012 -0.011405867 0.048104398
-0.08067002 0.057177067 0.022714278 0.006781827 -0.05062312 -0.055523522 0.011761848 0.033770934
0.046521746 0.036330424 0.012397088 0.031457998 -0.00012931373 0.07470651 -0.067889 -0.023371337
0.028971627 -0.042356692 0.061818235 0.06304312 0.062950164 0.058320105 0.044307012 -0.025150925
0.059477706 -0.0026659514 -0.0100946445 0.035842672 -0.028553708 0.039705347 -0.06655897 -0.048211515
-0.052201297 0.02985691 0.07072088 0.03799223 -0.03529272 0.044072505 -0.05392373 -0.06868777
-0.06392686 -0.013143804 0.027196825 0.04377124 0.062359877 -0.070540614 -0.002950791 0.028673956
-0.005899291 -0.0154840015 0.047710516 -0.019444142 -0.026871605 -0.0012696062 0.04161157 0.056998722
0.027884241 -0.05570675 -0.02057895 -0.042120118 0.000747256 -0.06215162 0.022291068 0.008046884
0.0064154584 0.024982166 -0.012395387 0.080919355 0.008079015 -0.026857557 -0.049661648 0.03247102
0.027212307 -0.042402435 -0.085834086 0.007337984 -0.020068213 0.040089726 -0.053611405 -0.0217832
-0.0003108243 -0.027179029 0.07476687 -0.04289321 -0.059395522 0.025465915 0.033051807 -0.008044109
-0.07860444 0.057572313 -0.020305842 0.045874886 0.058425482 -0.028330559 -0.075599454 0.018464765
0.040089503 -0.012779549 -0.026505776 -0.03163131 -0.008536186 0.050721828 0.0076186126 -0.0865978
0.043564677 -0.030504167 0.033540584 0.042312562 0.034716118 0.0005489498 0.05939163 0.034345422
0.0072369548 0.040332314 -0.06156471 0.05465161 -0.02668015 0.0020095843 0.05455456 0.029167743
-0.04533534 0.064061075 -0.045767978 -0.015276253 -0.040101074 -0.013375185 -0.013080757 0.054587834
-0.056199007 -0.05014423 -0.050534397 -0.011775801 -0.0039418484 0.03472506 -0.05275941 -0.06424569
-0.06585982 0.030214325 0.04153935 0.0048960964 0.0207 -0.014687615 0.012439139 0.013394997
-0.02287853 0.06829455 -0.03918155 -0.06379855 0.03332495 0.052115235 -0.08529044 0.069499336
-0.05735396 0.00699747 0.01902661 0.069604255 -0.0065408144 -0.049673595 0.022072813 0.02262669
0.043202 -0.043289922 -0.031027311 0.022014728 0.047161978 0.042156227 -0.0856328 0.0506688
0.061991055 0.018783882 -0.046818733 0.023785897 -0.05417311 0.005529442 0.030714901 0.054209355
0.067090966 0.004942946 0.08544765 -0.033095952 -0.06279238 0.030007012 -0.026361356 -0.04611739
-0.0020445066 0.011838314 -0.007992046 -0.003545727 -0.0023820011 -0.042926073 0.015221026 -0.008096395
0.070313886 0.0059959977 0.05252988 0.07221317 -0.02907062 -0.04810135 -0.008938469 -0.036716186
-0.057254974 0.011433346 -0.014821073 -0.0040603457 0.030064635 0.049061403 0.048831586 -0.08272697
0.042042878 0.062357873 0.07452554 -0.041326772 0.0023645982 -0.04721224 0.011286041 -0.05196727
-0.055786144 0.035474706 -0.016446326 -0.064643666 -0.040271234 -0.015056718 -0.028825885 0.009605631
0.069267355 -0.046736334 0.024181308 -0.062367667 -0.021902908 0.03952013 -0.034948103 -0.09240842
-0.0066324826 -0.009483032 -0.009963892 -0.016640281 -0.017709116 0.03852726 0.036106884 -0.004093442
0.0026108325 -0.03816168 0.06520488 0.045226574 0.042293996 0.010913789 -0.023820663 -0.025468053

weight f4 [300, 200]
00000000: de5a d9bd 0000 0080 0000 0080 0374 043e
00000010: 9b03 ed3d 4de9 283d a186 1abe 6aa3 0f3e
00000020: d0c6 b8bc 0000 0000 0000 0000 c12a e53d
00000030: 0000 0000 0000 0080 0000 0080 b072 f43d
00000040: 3254 53be 0000 0080 9ea0 debd 0000 0000
00000050: ddb1 ebbd 0000 0080 78d0 103d 7783 7e3d
00000060: 589d 413d 6a16 a13d b835 523d 4c00 e93c
00000070: dd08 2a3e 0000 0000 2acf 713d 0000 0000
00000080: 0000 0080 0000 0000 0038 0bbd 3da3 08bd
00000090: 9426 113e 0000 0000 5ee4 b8bc 0715 f63c
000000a0: 0000 0000 0047 ce3c 455d 003e 76f7 88bd
000000b0: 204d 7fbd 5b57 aa3d 0000 0000 5b13 f5bd
000000c0: 0000 0080 8d64 f93d 0000 0000 0000 0000
000000d0: 0000 0000 fd48 a43c 0000 0000 ee05 b8bc
000000e0: 0000 0000 0e2e a93d 57b0 48be 016a 1ebe
000000f0: f2c4 49bd 0000 0000 ce21 8dbd 0000 0000
00000100: 967a 0c3e ace6 cabd 385e 18be 3be6 e03d
00000110: 0000 0000 0000 0080 ef14 bc3d 4c41 89bd
00000120: 9e86 89bd 17e5 09be 73e9 843c 336a 62bd
00000130: 05b8 f4bd 11c2 c3bd 9015 e53d 1ccc 843d
00000140: 0000 0080 0000 0000 0000 0000 7e41 073d
00000150: 0035 933c a2b8 8c3d 5db6 9ebd e49e 833d
00000160: 0000 0000 73d8 d3bd 2b66 623d 5d5b 2e3d
00000170: 0000 0080 f977 d7bd 0000 0080 3005 963d
00000180: 7f51 9ebc fb3a acbd 0000 0000 b179 293e
00000190: ec7c 8a3d b84e e93c d522 ce3d ca55 213d
000001a0: d5ea 5e3e 0000 0080 0000 0080 fdfd ab3d
000001b0: 3f7f a9bd 0000 0000 65c2 83bd 0000 0080
000001c0: c524 9fbd b496 13be 5510 14be 0000 0000
000001d0: 0000 0080 0000 0000 2d31 abbd 5c52 153d
000001e0: a142 833d 0000 0080 7785 0abe 0000 0000
000001f0: 0000 0000 0000 0000 3a72 923d 2349 be3d
00000200: 0688 14bd 0000 0080 e1b3 e33d b82e 223d
00000210: 1f51 02be 0000 0080 e078 bd3d 1181 863c
00000220: 0000 0000 3f1e c7bc 2211 493b 1c76 1f3d
00000230: 0000 0080 0000 0080 273e 473e 0000 0000
00000240: 3260 92bd 78c1 85bc ae5b 063d 0000 0000
00000250: aa7b 2f3d e1c2 113e 0000 0000 2b4b 24be
00000260: 0000 0000 1976 80bd 59e0 5e3d aa85 943d
00000270: 67b7 2fbc 74ca 843b 0000 0080 0000 0080
00000280: 1b27 31bd 190b ed3b 5b44 89bd 0000 0080
00000290: b8e9 ce3c 8001 e53c 0000 0000 6878 2a3e
000002a0: 0000 0080 0000 0080 cc2e 03bd 0000 0000
000002b0: 0000 0080 ca75 4bbd 5db4 c73d 7822 bb3c
000002c0: ec26 02be 0000 0000 a167 27bd 0000 0080
000002d0: 5815 d23d 7ff0 07be bbcf 5dbd 0000 0000
000002e0: 6317 a53c 9263 b23d 0000 0080 a3a3 c53d
000002f0: 8a4e a3bd c499 9e3d 66ba 1abc dab8 cf3c
00000300: 0000 0000 56c6 78bd 0000 0000 bb76 f63b
00000310: 0000 0080 0000 0080 0000 0000 fc0a 973d
00000320: b660 1b3e 245b ac3d 7534 0abd 2023 eabd
00000330: 4f94 843d 6da6 cabd 0000 0080 eef4 8cbd
00000340: 52ac 613d 0000 0000 8bc9 4dbd 0000 0000
00000350: 0000 0080 3db7 25bd 0000 0080 5e02 063e
00000360: 5f28 363e 0000 0000 17e3 9ebd 0000 0000
00000370: 0000 0000 4b8e de3d 0000 0080 d396 493d
00000380: 0000 0000 17da 3abc 0000 0000 0000 0080
00000390: 60d5 31be 35f6 073d ac8e ffbc 0000 0000
000003a0: 3301 833c 0000 0000 0000 0080 be4a f93d
000003b0: 0000 0080 cec5 6cbd b60b 86bd 568b 5c3d
000003c0: 0000 0080 9230 fd3d e501 ad3d 1ff6 8d3d
000003d0: a79d 4ebd 0000 0000 269a 473d 9397 ef3d
000003e0: 4d0b a43d a17c 29be 50e1 a13d f859 c43d
000003f0: b089 063d 0000 0000 6223 073d 0000 0080
-0.10613035 -0.0 -0.0 0.1293488 0.11572953 0.041238118 -0.1509042 0.14027181
-0.022555739 0.0 0.0 0.11189795 0.0 -0.0 -0.0 0.119359374
-0.20637587 -0.0 -0.10870479 0.0 -0.11508534 -0.0 0.03535506 0.062137093
0.047269195 0.07865603 0.05132076 0.028442524 0.16604944 0.0 0.059035458 0.0
-0.0 0.0 -0.033988953 -0.0333588 0.14174873 0.0 -0.022569831 0.030039323
0.0 0.02518034 0.1253558 -0.066878244 -0.06232941 0.08317443 0.0 -0.119665824
-0.0 0.12177382 0.0 0.0 0.0 0.020054335 0.0 -0.022463765
0.0 0.08260737 -0.19598518 -0.15470125 -0.049260087 0.0 -0.06891213 0.0
0.13718638 -0.099072784 -0.14879692 0.10981413 0.0 -0.0 0.0918368 -0.067019075
-0.06715129 -0.13466297 0.016224599 -0.05527706 -0.119491614 -0.095584996 0.11185753 0.06484243
-0.0 0.0 0.0 0.033021443 0.017969608 0.068711534 -0.07749627 0.0642679
0.0 -0.10344019 0.055273216 0.0425676 -0.0 -0.1052093 -0.0 0.07325208
-0.01932597 -0.08409687 0.0 0.16550328 0.06762108 0.028479919 0.100652374 0.039388455
0.21769269 -0.0 -0.0 0.08398054 -0.082762234 0.0 -0.06433562 -0.0
-0.07770685 -0.14412957 -0.14459355 0.0 -0.0 0.0 -0.08358989 0.036455497
0.06409193 -0.0 -0.13527475 0.0 0.0 0.0 0.07150693 0.092912935
-0.036262535 -0.0 0.111182936 0.039595336 -0.12726258 -0.0 0.09251571 0.016418966
0.0 -0.024306415 0.0030680378 0.038930997 -0.0 -0.0 0.19457303 0.0
-0.07147254 -0.016327605 0.032802276 0.0 0.042842545 0.14234497 0.0 -0.160443
0.0 -0.06272525 0.054413173 0.07252057 -0.010724879 0.0040524546 -0.0 -0.0
-0.043250185 0.007233989 -0.06702491 -0.0 0.02525793 0.027954817 0.0 0.16647494
-0.0 -0.0 -0.03202705 0.0 -0.0 -0.04967288 0.097511984 0.022843584
-0.1271016 0.0 -0.040870313 -0.0 0.10257977 -0.13275336 -0.054153185 0.0
0.020152753 0.08710398 -0.0 0.09650352 -0.079739645 0.07744172 -0.009443855 0.025356699
0.0 -0.060736023 0.0 0.007521478 -0.0 -0.0 0.0 0.07375142
0.15173611 0.08415821 -0.033741433 -0.11432481 0.064736 -0.098950244 -0.0 -0.06882654
0.055095978 0.0 -0.050241034 0.0 -0.0 -0.040457953 -0.0 0.1308684
0.17788838 0.0 -0.07758158 0.0 0.0 0.10866984 -0.0 0.049216103
0.0 -0.011404536 0.0 -0.0 -0.17366552 0.033193786 -0.031195961 0.0
0.015991783 0.0 -0.0 0.12172459 -0.0 -0.05780583 -0.065452024 0.05384382
-0.0 0.1236278 0.08447627 0.069317095 -0.050443318 0.0 0.04873099 0.11698832
0.08009968 -0.16551448 0.07904303 0.09587473 0.032846153 0.0 0.032992728 -0.0

weight f4 [2, 300]
00000000: f241 213e 33da 25be 6e14 213e bc10 3bbd
00000010: 08ea 663c d0b1 393e 70d8 cbbc 9052 96bd
00000020: bffc 21be 0763 333e 01d6 0cbe 894e fc3d
00000030: 8b89 14be 3c7c 09be 32cb 1c3e d0e2 cc3b
00000040: d0ca 84bd b964 083e c06b 233b 581a bcbd
00000050: e3ef c93d 849c 193e 8306 43bd 938a 63bc
00000060: d868 df3c 5850 263e 074a 4dbd 586a c53d
00000070: 789a 2c3e 937b fc3d 4d13 fc3d ba34 05be
00000080: 31e9 aebd a6b6 f13d f46a 16be 35f2 46be
00000090: 1870 b63d b36c 253e 5495 05be 223d 49bd
000000a0: c374 9bbd 782b 053e a369 c73d 7378 9fbd
000000b0: 16e8 973d fda8 09be d633 2a3d a710 4fbd
000000c0: bdce 8fbc 5d8d ae3c 7074 13bc cf35 113e
000000d0: 0905 313d 7be9 7a3c 1295 bf3d 7f9a 16be
000000e0: 820e afbd f019 a23d d4dd 01bd 52be 303d
000000f0: a38c 273e 7866 8f3b 8472 ad3d 31ad f1bd
00000100: 4fc2 963d c5fb ccbb 905f 383b 6bbe 883d
00000110: 7d4d 36bd 3452 e03c 7b64 023c 6f64 f23d
00000120: 9cdd f7bd a4c2 b53d 33d9 c0bd a8d9 053e
00000130: 9320 07be f983 e5bc 553d 03be 16b2 2cbe
00000140: 1ce7 ecbc 423d 483e 7ce8 00be 12a7 d93d
00000150: 8164 b2bd 02ab 82bd 91ce d83d 47f7 78bd
00000160: a024 f83d a679 6bbd 0745 edbd 8678 f3bc
00000170: 0a28 a0bd a07e 3a3b 939c d0bc 506c 3fbc
00000180: 932f 2cbc 85ff 66bd 1786 d3bd 5edc 22bd
00000190: 6e09 c03d 9754 1f3e 19bb 01be 67e4 243e
000001a0: 5cda f43c 2378 23bd 8ea9 3dbd b27b 52bd
000001b0: ef8f 34be 0460 fd3d dd6e b3bc 5388 243e
000001c0: 4c34 69bc 0f19 153e 66ff acbd e8be a63d
000001d0: cfd0 ed3d d7b0 53be cdbc cb3d 3e45 13be
000001e0: c528 203e 3e00 993d c072 253e 8186 87bd
000001f0: ccd9 1cbe 0a7a 12be cf7b a7ba 4c50 aebd
00000200: 7e65 debd 0815 87bd 04f1 35be bae3 8c3d
00000210: 67a6 3bbe f243 17bd 2cf7 3abd c635 39bd
00000220: 498f 2bbe 04d4 d43d d6e1 123e e176 0f3e
00000230: ce43 983c 8741 d6bd 37f2 223e 2170 40bd
00000240: 6374 da3d b126 53bd 94c6 86bd 4dae ad3c
00000250: ab3d 3a3d 31ed 1ebe fc1d 423d 98f1 7e3d
00000260: 0166 39be 1796 c93d 95a2 2dbe 7cc5 c83c
00000270: 62ec 0ebd 4aeb 073e b319 163e 2705 afbd
00000280: 8049 3d3d 90b0 0dbe 7960 95bd 9e96 aa3d
00000290: f25b 13be d78f bbbd a5ef 193e ac58 81bc
000002a0: 71e7 98bd daf1 9ebd 5383 72bd 9c81 0e3e
000002b0: e8c3 063e 0cbc 103e 3dd7 8f3d 4285 a83d
000002c0: 4a04 f5bd f448 cd3d e41d efbd 747a 2c3e
000002d0: 14d9 2c3e 7cf4 a33c 0fc2 7ebd 6c9d 3cbd
000002e0: a576 dfbd 9dab 2dbd fa32 e63d 3e3e 013e
000002f0: 6d0a cfbd 8e3d b63d e8f5 933c c6ac 35be
00000300: 6a3a 0bbe 2661 0f3d 7455 a9bd d4ea 12bd
00000310: e7f4 2e3e 3780 ddbc e583 b83d fbde 943b
00000320: 5046 e6bd b6e6 1ebd fa72 273e 01aa 973d
00000330: dc06 13be 0c42 aebc e1cc e13c 6978 4fbe
00000340: a513 47be a824 8b3d 9a46 d2bd 26c5 6b3d
00000350: 487f 5a3c f9ab 9ebd 414d d43d 14c6 303e
00000360: 6804 203d c59f 4dba 0e7b 95bd 3b33 e53d
00000370: ba43 363d 3bae e13d 6156 283d a7e9 523c
00000380: aebd 653c 954a 17be a917 253e ebf3 293d
00000390: 7854 e9bd d07e 71bc 7246 973d b66b 00bd
000003a0: 3e39 033e ab62 59bd 9758 ccbd 14a2 183e
000003b0: 8c22 42bd 6fcf 2f3d f4de c8bc 1eca da3d
000003c0: 9ec5 933d f232 dc3d 1129 f7bd 0f51 9f3d
000003d0: f263 0b3e 4f5c f23d daea e0bd 0892 1a3d
000003e0: f86d a9bb 8392 f5bb 23f5 98bd 3a8d adbd
000003f0: f8b6 08be 0c61 c73c 12f4 d0bd 5526 03bd
0.15747812 -0.16196518 0.1573045 -0.045670256 0.014093883 0.18134236 -0.024883479 -0.07339966
-0.15819071 0.17518245 -0.13753511 0.12319667 -0.14505593 -0.13426298 0.15311888 0.006252624
-0.06483996 0.13319673 0.002493605 -0.09184712 0.09860208 0.15001112 -0.047613632 -0.013888019
0.027271673 0.16241586 -0.050119426 0.09639424 0.168558 0.123282574 0.12308369 -0.13008395
-0.085405715 0.118024155 -0.14689237 -0.19428332 0.08908099 0.16154747 -0.13045245 -0.049130566
-0.0759063 0.13004863 0.097369455 -0.07786646 0.07417314 -0.1344337 0.04155334 -0.05055299
-0.017554635 0.021307642 -0.008999929 0.14180683 0.043217693 0.015314455 0.09354605 -0.14707373
-0.08547689 0.079151034 -0.031705692 0.043150254 0.16362242 0.004376229 0.08469108 -0.11800612
0.0736128 -0.006255599 0.0028133132 0.06676944 -0.044507492 0.027382948 0.007958527 0.118355624
-0.121028155 0.088750154 -0.094164275 0.1307131 -0.1319602 -0.028017031 -0.12816365 -0.1686481
-0.028918795 0.19554618 -0.12588686 0.10627569 -0.08710576 -0.063802734 0.105862744 -0.060782697
0.12116361 -0.05748906 -0.115854315 -0.029720556 -0.07820137 0.0028456822 -0.025465285 -0.011683539
-0.010509389 -0.056396026 -0.1032831 -0.03976094 0.093767986 0.15559612 -0.12669028 0.16102754
0.029889278 -0.039909493 -0.046304278 -0.051387496 -0.17633031 0.12371829 -0.02190345 0.16067629
-0.01423366 0.1456034 -0.08447151 0.08141881 0.11612093 -0.20672928 0.0994812 -0.14381883
0.15640552 0.07470749 0.16157055 -0.066174515 -0.15317458 -0.14304367 -0.0012777987 -0.08511409
-0.10859202 -0.06595808 -0.17767721 0.06879373 -0.18325196 -0.036930032 -0.045645878 -0.045217298
-0.16753878 0.10392001 0.14343962 0.14010192 0.01858702 -0.10461717 0.1591271 -0.046981934
0.1066673 -0.05155057 -0.065808445 0.021201277 0.045468967 -0.15520169 0.047391877 0.06224212
-0.18105318 0.098430805 -0.16956551 0.02450823 -0.0348934 0.1327335 0.14658241 -0.085459046
0.046212673 -0.13836884 -0.07293791 0.08329509 -0.14390543 -0.09158295 0.15032823 -0.015789352
-0.07466019 -0.07760973 -0.05920727 0.1391663 0.1316067 0.14134234 0.07023475 0.08228542
-0.11963709 0.1002368 -0.11675623 0.16843587 0.16879684 0.02001404 -0.062196787 -0.046048567
-0.109113015 -0.04239999 0.11240192 0.126214 -0.101094104 0.088984594 0.018061593 -0.17741689
-0.13596502 0.035004757 -0.08268252 -0.03586848 0.1708561 -0.027038677 0.09009532 0.004543183
-0.1124388 -0.03879424 0.16352454 0.074054725 -0.14358085 -0.021271728 0.027563514 -0.20260777
-0.19441088 0.06794101 -0.102673724 0.057561062 0.01333601 -0.07747645 0.103662975 0.17263061
0.039066702 -0.0007843937 -0.072988614 0.11191412 0.044498183 0.1101956 0.041098002 0.01287309
0.014022274 -0.14774545 0.16122307 0.041492384 -0.11393064 -0.014739707 0.07386483 -0.03135272
0.12814805 -0.053072613 -0.09977835 0.14905578 -0.047396228 0.042922433 -0.024520375 0.10683082
0.07215427 0.107519045 -0.1206838 0.077791326 0.13612345 0.11834013 -0.109822944 0.037736923
-0.00517058 -0.007494272 -0.07468631 -0.084742025 -0.13351047 0.024338268 -0.10202803 -0.03201898

bias f4 [2]
00000000: 5ef7 1c3c 99aa 28bc
0.009580461 -0.01029458
