figures/Illu_large_global_3/theta=0.1_s=0.3_step=100/best_model.pth (torch, 246949 bytes, 5 tensors)

bias f4 [200]
000000 f7 52 58 bf bd 19 a7 3f 8e fd b9 3f 2f be 59 3f
       -0.84501594 1.305473 1.4530504 0.8505582
000010 73 b6 de 3f 43 63 60 bf 54 6f 9e 3f 53 47 93 bf
       1.7399429 -0.8765146 1.2377725 -1.1506141
000020 ba b9 9c 3f da 79 3f bf 7f 62 4d bf 1c 25 5a bf
       1.2244179 -0.74795306 -0.8022842 -0.85212874
000030 4d fc b2 3f 30 17 04 3f 7a a9 35 bf 1d ff ce bf
       1.3983246 0.5159788 -0.70961726 -1.6171604
000040 78 a7 e2 3e c3 2d 12 bf 9f 33 81 3f 2f af 84 3f
       0.44268394 -0.57101077 1.0093879 1.0365962
000050 d7 ef ee be 35 43 5e bf d8 11 4f 40 ae b6 72 3f
       -0.46667358 -0.868213 3.235464 0.9481
000060 9a 3b cd 3f de 63 38 3d 6b 3f 71 bf 72 d5 bf 3f
       1.6033814 0.045017116 -0.94237393 1.4987013
000070 b5 db 7f 3f 11 48 2e bf 83 9e 23 3f b5 db 89 40
       0.9994462 -0.68078715 0.63913745 4.3080697
000080 f1 5d 99 3f 79 43 6a 3f 51 67 77 3f 98 ea 98 3f
       1.1981794 0.91509205 0.96642023 1.1946592
000090 9f 47 56 bf 98 a5 66 3f ee 34 86 3f ab bd dd 3f
       -0.83703035 0.90096426 1.0484903 1.7323507
0000a0 6a 01 bb be bc af 9a 3f 83 5e c1 bf 42 63 a3 3a
       -0.36524516 1.208488 -1.5106968 0.0012465494
0000b0 30 a4 13 3f 11 ab 34 3f 56 7a 36 40 7b 35 73 3f
       0.57672405 0.70573527 2.8512168 0.9500348
0000c0 43 b9 24 bf 08 75 97 bf 76 e0 9f 3f de 11 5c 3f
       -0.64345187 -1.183259 1.2490375 0.85964763
0000d0 38 b3 0c 40 d2 df 39 bf fa bd 8a 40 5e fa fa bf
       2.1984386 -0.7260715 4.3356905 -1.9607656
0000e0 9e 9f 7c 3f c7 83 54 3f 6e bb e5 3f c6 7c c0 bf
       0.98681056 0.83013576 1.7947824 -1.5038078
0000f0 51 aa 44 bf 08 ef 6c bf 84 4f c1 3f 38 0f dd 3f
       -0.7682238 -0.9255223 1.5102391 1.7270269
000100 9a 2b 12 bf ff a8 33 bf ff d8 c0 be 84 87 a8 3e
       -0.5709778 -0.7017974 -0.37665555 0.3291589
000110 92 e0 08 3f 41 84 c5 3f d7 29 cc 3e 71 58 37 bf
       0.5346767 1.5430986 0.3987567 -0.71619326
000120 3e f3 0f c0 4a c2 3c 3f b0 c9 0e bf 96 29 aa bf
       -2.2492213 0.7373396 -0.557765 -1.3293941
000130 c2 75 7c bf 3e 0c 39 bf b5 e3 1d 40 a8 d2 48 3f
       -0.98617184 -0.72284305 2.4670231 0.78446436
000140 91 9b 3f bf 14 c1 08 3f a5 bc 8f 3f d7 ff 13 c0
       -0.7484675 0.53419614 1.1229445 -2.3124902
000150 e3 53 5b 3f 24 db 2d bf 5b eb 90 be 15 fc 65 3f
       0.85674876 -0.6791251 -0.28304562 0.8983777
000160 da d3 9c 3f e5 f5 32 3f 0b 45 f2 bd d5 36 ba 3f
       1.2252152 0.69906455 -0.11829575 1.4547983
000170 14 68 38 bf 22 b4 b9 bf cf b8 ec 3f 7a 36 b7 bf
       -0.7203381 -1.4508097 1.8493899 -1.43135
000180 c0 ea 5b bf 91 93 bd 3f 3d a7 8e 3f 0f 10 6a 3f
       -0.85905075 1.4810659 1.1144787 0.91430753
000190 45 e7 90 3f 8f a6 36 bf 09 21 c1 be 82 d9 48 be
       1.1320578 -0.713479 -0.37720516 -0.19614223
0001a0 a8 e4 28 3f 86 8a 3b bf 97 c0 5f bf 7c d6 f2 bf
       0.659739 -0.73258245 -0.87403244 -1.8971705
0001b0 e7 68 b3 be 39 6d 38 bf f5 fa 7e 3f 03 f3 9c 3f
       -0.35040972 -0.7204166 0.9960168 1.2261661
0001c0 29 44 7d 3f a0 77 2f 40 9e ac 42 bf d2 0f 01 40
       0.9893213 2.7416763 -0.7604464 2.0165906
0001d0 bc cc e5 be f9 33 67 3f 7a de 5c 3f 40 fa 73 3f
       -0.44882762 0.9031368 0.8627697 0.95303726
0001e0 b2 fb 95 3f 6d a5 90 3f 06 c8 3b bf cb df 40 bf
       1.1717436 1.1300484 -0.73352087 -0.7534148
0001f0 0d e7 68 3f c9 d9 4c bf 2c 72 b6 3e 23 c3 56 3f
       0.90977556 -0.80019814 0.3563398 0.83891505
000200 35 22 5b 3f bf b6 e3 bf 10 e4 40 bf f9 61 27 3f
       0.8559907 -1.7790145 -0.75347996 0.6538387
000210 59 c5 14 bf 07 d2 9e 3e d5 2a 4c 3f d0 f6 83 3f
       -0.5811363 0.31019613 0.79752856 1.0309696
000220 46 b1 ac bf 1e ad c9 3f 31 fa 5e 3f 4f eb 73 3f
       -1.34916 1.5755956 0.8710051 0.9528093
000230 46 1f 57 bf fe 2c 87 bf 65 d3 dc 3f 39 a8 3f bf
       -0.84032094 -1.0560606 1.7252012 -0.7486606
000240 dc de b8 3d 58 c5 3f bf 4c 2b 45 bf cd e6 81 3f
       0.09026882 -0.749105 -0.7701919 1.014856
000250 d2 bf 71 bf a2 d8 a1 3f 0d 25 0c 40 49 7f 71 bf
       -0.9443332 1.2644236 2.1897614 -0.94334847
000260 f7 2a 70 bf 97 b5 54 bf cc d1 5f 3f 91 bc e0 3f
       -0.9381556 -0.83089584 0.874295 1.7557546
000270 81 d0 3a bf 23 39 9b be c0 12 b5 bf 9b d7 1d c0
       -0.729744 -0.3031703 -1.4146347 -2.4662845
000280 9f 3f 36 bf a7 da 90 3e 6f fa d4 bf c3 90 a9 3f
       -0.7119083 0.28291818 -1.6638926 1.3247303
000290 6e 23 68 3f a9 69 5c bf 87 30 cf 3f 80 26 5a bd
       0.9067906 -0.86098725 1.6186684 -0.053259373
0002a0 11 55 20 bf e4 24 1e 40 8d 73 fa bf 05 e3 0c 3f
       -0.626298 2.4710016 -1.9566513 0.55033904
0002b0 7b 61 19 3f 64 a5 58 3f b0 76 8c bf 21 15 e5 3f
       0.5991437 0.84627366 -1.097372 1.7897073
0002c0 28 5f 3b bf bc be 70 bf cc 97 b5 3f b2 48 0a 3e
       -0.7319207 -0.9404104 1.418695 0.13504294
0002d0 95 9c 59 bf 7e 03 f8 bf 41 1c 3c bf be 80 3a bf
       -0.8500455 -1.9376066 -0.7348061 -0.72852695
0002e0 eb ee 81 bf ee 8e ad bf 75 da 36 3f 57 54 75 bf
       -1.0151037 -1.3559244 0.7142709 -0.9583182
0002f0 96 f5 4e bf bd 40 b3 bf ce dc 59 3f ba 7a 03 40
       -0.80843484 -1.4004132 0.85102546 2.0543656
000300 98 5d b5 3e fa 10 93 3f 85 0d 94 3f ce 21 20 be
       0.3542297 1.1489556 1.1566626 -0.15637895
000310 70 65 0a bf b8 e4 a7 3e 0c c8 16 c0 cb a5 43 bf
       -0.5406103 0.32791686 -2.35596 -0.76424855

weight f4 [200, 1]
000000 6e 8c 23 c0 ae 32 11 c0 e1 3e 13 c0 3d dc af bf
       -2.5554461 -2.2687182 -2.3007128 -1.3739086
000010 ab 2d b1 3f 37 6d 1f c0 2f 7f 09 40 4e bf 11 40
       1.3842062 -2.491041 2.1483877 2.2773013
000020 a6 61 aa 3f d4 dd 9a 3f aa e7 05 c0 7e cd 9b 3f
       1.331105 1.2098947 -2.0922647 1.2172086
000030 29 d8 12 c0 08 53 9a bf fa c0 e2 bf f6 9e af bf
       -2.2944434 -1.2056589 -1.7715142 -1.3720386
000040 75 77 11 c0 6f 94 9a 3f a0 7b a9 3f e0 f9 a9 3f
       -2.272916 1.2076548 1.3240852 1.3279381
000050 53 9b 07 40 8a 13 05 c0 df fb 2e 40 ed 1d a8 bf
       2.1188552 -2.0793176 2.734123 -1.3134133
000060 43 d9 15 c0 7a 65 13 c0 95 fd 09 c0 34 85 0c 3f
       -2.3413856 -2.3030686 -2.1561024 0.5489075
000070 71 0f 0d c0 e4 4f ae bf dc 11 09 c0 f1 bf f2 3f
       -2.2040675 -1.3618131 -2.141715 1.8964826
000080 ba 92 9f bf c5 e6 9b bf 49 11 db bf 4e 4b 9f bf
       -1.2466652 -1.21798 -1.711465 -1.2444856
000090 6f 79 03 c0 93 6e 2d c0 62 66 0e c0 7d 17 12 40
       -2.0542867 -2.709874 -2.224999 2.2826836
0000a0 44 4e a7 3e df 03 a1 bf aa 0f ae bf 30 0d f8 be
       0.326769 -1.2579306 -1.359853 -0.4844756
0000b0 59 3c fa 3f 54 28 04 c0 63 30 27 c0 fc 0f 9c bf
       1.9549667 -2.0649614 -2.6123283 -1.2192378
0000c0 cb 89 a1 bf ab d3 5c 40 0c 95 09 40 9d fc 0b c0
       -1.2620176 3.4504192 2.149722 -2.1872933
0000d0 cc 01 1f c0 91 66 a8 3f 1e e1 f3 3f 3b 54 1c 40
       -2.4844847 1.3156301 1.9053075 2.442641
0000e0 00 88 06 c0 22 4f ac 3f 24 37 14 40 a4 d1 0f c0
       -2.1020508 1.346165 2.3158655 -2.2471704
0000f0 23 68 9b 3f 94 87 0e 40 3b c2 13 c0 8a 16 17 c0
       1.2141155 2.227025 -2.30873 -2.3607507
000100 ba c2 ff bf 80 c6 bb bf 64 b4 9a bf 73 b7 0e c0
       -1.9981301 -1.4669952 -1.2086301 -2.2299469
000110 7c 1f 01 40 eb 90 0e 40 af d9 9d 3f 4a 6a 13 40
       2.0175467 2.227595 1.2332057 2.3033624
000120 b1 fe 1c c0 43 05 93 bf 6e 75 8d 3f 5a b3 12 40
       -2.4530451 -1.1485981 1.1051462 2.2921968
000130 40 56 a0 3f 26 c5 9e 3f 45 29 bb 3f c8 ab 2d 3f
       1.2526321 1.2403915 1.462197 0.6784024
000140 d8 27 fa bf a3 ee 11 c0 4e 95 96 bf 25 dc 21 40
       -1.9543409 -2.2801902 -1.1764314 2.5290616
000150 fe a8 fb 3f c4 30 c0 bf 96 81 0b 40 6e 77 a0 bf
       1.9660947 -1.5014882 2.1797843 -1.2536447
000160 7b f5 10 c0 c3 86 09 c0 37 94 0a c0 c0 1c 0c 40
       -2.264983 -2.1488502 -2.1652963 2.1892548
000170 3d 18 b2 bf a8 75 7a 40 36 fb 13 40 85 d4 14 40
       -1.3913647 3.9134312 2.3122077 2.3254712
000180 a8 c0 a3 bf 87 a1 0d 40 c9 29 da be bf 70 0b c0
       -1.2793169 2.2129838 -0.42610005 -2.1787565
000190 d9 bd 1c 3f a9 7a 9e 3f 38 cf 9d 3f 18 9a cd bf
       0.61227185 1.2381183 1.2328863 -1.6062651
0001a0 86 7e 04 40 9b 17 07 c0 9f e4 07 c0 7b b0 16 c0
       2.0702224 -2.1108158 -2.123329 -2.3545215
0001b0 ef ae 04 40 0a bb 9c bf 6e fe af 3f 26 92 08 40
       2.073177 -1.224458 1.3749521 2.1339202
0001c0 f9 5f 10 c0 c7 3b 26 c0 e6 8f a1 bf 9a 7a 1b c0
       -2.2558577 -2.5973985 -1.2622039 -2.429358
0001d0 9c ad d8 3f 78 cd e5 3f 7a 94 0c c0 5b 81 1e 40
       1.6927981 1.7953329 -2.1965623 2.4766452
0001e0 0d d8 a9 3f 1d 43 dd be db 66 05 c0 44 c0 01 c0
       1.3269058 -0.43215266 -2.0844028 -2.02736
0001f0 87 05 a4 bf 92 47 08 c0 9b e4 07 40 86 3f 9e bf
       -1.2814187 -2.1293683 2.123328 -1.2363136
000200 69 b5 c8 be 84 d7 a7 3f c0 7f 1f 40 6d f6 89 bf
       -0.39200905 1.3112645 2.4921722 -1.0778328
000210 94 b2 0b 40 94 0c 01 c0 c8 cd 0b c0 c4 63 eb 3e
       2.1827745 -2.0163927 -2.184435 0.45974553
000220 ec 5e 14 40 dc bd 0e 40 a2 85 d6 bf 72 0d 9e bf
       2.3182936 2.230338 -1.6759531 -1.2347853
000230 4e 1c 1d c0 dc 2e a8 bf a7 62 ab 3f 50 6a 9c 3f
       -2.4548526 -1.31393 1.3389481 1.2219944
000240 08 a1 04 c0 34 a0 a3 bf ea d4 9e 3f c6 99 42 c0
       -2.0723286 -1.2783265 1.2408726 -3.0406356
000250 c0 ef 09 40 03 84 53 40 f3 b5 1e c0 1e 83 30 40
       2.1552582 3.3049324 -2.4798553 2.7580028
000260 37 66 a0 3f 42 8a 29 40 a8 3c e5 3f 62 de 17 c0
       1.2531193 2.6490636 1.7909136 -2.3729482
000270 89 12 e1 3f cd db 97 bf 11 e4 a3 3f 54 c8 20 c0
       1.7583781 -1.1863953 1.2803975 -2.512227
000280 b0 66 ba bf c5 69 b7 3e 73 31 18 40 d4 d7 0a 40
       -1.4562588 0.35822883 2.3780181 2.169423
000290 34 49 9d bf 94 f2 27 c0 2f 99 10 40 0b 54 96 be
       -1.2287965 -2.6241808 2.2593496 -0.29360995
0002a0 8b 3c bb 3e 01 94 b1 bf 7f 74 1c 40 54 fe a2 3f
       0.36569628 -1.3873292 2.4446104 1.2733865
0002b0 07 59 10 c0 17 d0 01 40 b0 98 a8 bf 3f 4b 14 40
       -2.2554338 2.0283258 -1.3171597 2.3170927
0002c0 5d c0 04 c0 b0 58 07 40 c6 b3 a9 3f 88 e9 d5 bf
       -2.074241 2.114788 1.3257987 -1.6711893
0002d0 94 98 fc 3f 2b 0f aa 3f 5a b1 a3 3f 6c f8 aa 3f
       1.9734063 1.3285879 1.2788498 1.3357062
0002e0 a4 9e a7 bf 00 fe 03 bf 60 a4 f3 3f 64 70 11 40
       -1.3095288 -0.5155945 1.9034538 2.2724848
0002f0 32 7c 15 c0 db ca a3 3f f5 8c 0d 40 c1 3e 1c c0
       -2.3357053 1.2796282 2.2117283 -2.4413302
000300 da 0e 80 bf 0f b0 07 40 75 c8 fa 3f fc ef fe 3f
       -1.0004532 2.1201208 1.9592425 1.9916987
000310 64 4e a0 bf 79 67 fb 3f d4 bc 1e c0 1f 96 10 40
       -1.2523923 1.9640952 -2.4802752 2.2591627

bias f4 [300]
000000 2b 8c 38 be aa 20 1f be 8e 24 6c 3d 4e 17 0e bd
       -0.1802222 -0.15539804 0.05765205 -0.034690194
000010 16 17 b6 bd 3e e5 2e 3d a3 75 32 bc ee 1b 21 bb
       -0.08891122 0.04269909 -0.010892305 -0.0024583298
000020 ce de 31 be c8 ab 88 3d 8d 6c ad 3d dc d8 b6 3d
       -0.1737015 0.0667339 0.0846797 0.089280814
000030 04 fc 84 3c 47 56 85 bc 83 51 1d be f3 e3 52 3d
       0.016233452 -0.016276492 -0.15363126 0.05148692
000040 c7 fb 5c bc a0 30 94 bd 0e b1 82 bd 69 46 ce bc
       -0.013487763 -0.07235837 -0.06381427 -0.025180059
000050 e0 a1 16 3c ff 05 d5 3b a3 ec dc bc 70 c1 3d be
       0.009193867 0.006500959 -0.026968306 -0.18530822
000060 23 59 1b be 56 15 e9 bc 39 06 1d bd 6c 98 a7 bb
       -0.15170722 -0.028452557 -0.038336013 -0.0051146057
000070 1a eb 7b bc d3 ec 3f bd b9 6a 5c bc 8f 9a 86 3c
       -0.015375877 -0.046856713 -0.013453179 0.016431121
000080 45 e3 b8 bc 7e f0 a6 bd 65 5d c2 3c f2 6d 62 3d
       -0.022569308 -0.08151339 0.023726175 0.055280633
000090 e9 05 8c 3d a7 60 3b be 54 c1 38 3c 8f ee 1e bd
       0.06837065 -0.18298589 0.011276562 -0.038801726
0000a0 9b 76 86 3c d2 99 a9 bd b9 c3 1a be 9b 36 08 3d
       0.016413977 -0.08281292 -0.15113725 0.0332552
0000b0 3d 54 ea bd e3 db 37 bd 08 96 09 be 75 3f 05 3d
       -0.114418484 -0.044887435 -0.13436139 0.03253122
0000c0 0a dd d4 bc be 9c 61 bd ad a4 f6 bd e9 ef aa bd
       -0.025984306 -0.05508112 -0.12043128 -0.083465405
0000d0 cd 43 79 3d a4 92 24 3d 85 eb 95 bd 5c 66 33 be
       0.060855675 0.04017891 -0.073203124 -0.17519516
0000e0 dc eb 96 3e 2b 55 de bd a1 ba 17 bd 5a 63 b1 3d
       0.2947682 -0.10856088 -0.037043218 0.08661528
0000f0 5b 9b 96 bc a5 71 27 bd d7 c2 8c bc 04 85 05 be
       -0.018384626 -0.040879864 -0.01718275 -0.13039023
000100 33 e6 e5 bc 9e c3 42 bc ca 79 66 bc 1d 51 9c bd
       -0.02806387 -0.011887459 -0.014067123 -0.07632659
000110 2d 20 61 3c a1 0e f0 bd e5 2c 8f bd c7 d0 02 3d
       0.013740581 -0.1172154 -0.06990985 0.031937387
000120 7c 7d aa 3c b6 ed 6d bd 42 d0 96 bd 95 18 6c bd
       0.020811789 -0.058088027 -0.07363941 -0.05764063
000130 10 92 93 3d 64 31 11 bd 00 f3 4d 3b 14 4e d3 bd
       0.072055936 -0.035447493 0.0031425357 -0.103176266
000140 1e bb 7c 3d b2 13 cc bd 5b 27 6d 3d 77 72 58 bd
       0.061701886 -0.09964694 0.05789886 -0.052843537
000150 b4 78 57 bb 5a 53 60 bd ab 09 e0 bd 06 3a 0f bd
       -0.003287834 -0.05476699 -0.10939344 -0.034967445
000160 f0 b6 3e be 3a 9d 34 3d 1c c8 17 3d 0e c6 62 bd
       -0.18624473 0.044095255 0.037056074 -0.05536466
000170 22 c9 32 3d 6b 21 2d be 9b f5 0e bd 3d d2 1a 3d
       0.043648846 -0.16907279 -0.034902196 0.037798155
000180 e9 42 1d bd f3 88 f0 bd c8 dc b1 bd 85 a4 b9 bd
       -0.03839389 -0.11744871 -0.08684689 -0.09064583
000190 62 27 2b be e0 b7 4e be 39 2c dd bc 62 39 e9 bb
       -0.16714242 -0.2018733 -0.026998626 -0.0071174363
0001a0 25 0e 1f be ba 13 02 be 46 d3 e8 bd 66 e5 09 be
       -0.1553274 -0.12702838 -0.11368422 -0.13466415
0001b0 26 74 18 be 0f ce 87 3d a3 aa 85 bd ed b1 5a bc
       -0.14888057 0.066310994 -0.06526687 -0.013348085
0001c0 91 fc 2c be 80 04 bc bd 61 54 29 be 57 d5 c2 bb
       -0.16893221 -0.09180546 -0.16536094 -0.0059458422
0001d0 7c 2c 18 be 92 28 2b ba 83 1b 86 bd ec 28 b7 bd
       -0.1486072 -0.0006529178 -0.06548216 -0.08943352
0001e0 25 f1 01 3d 6b 73 87 bd b4 3a 99 3a ee b0 3d be
       0.031724114 -0.06613811 0.0011690469 -0.18524525
0001f0 3a a6 a5 bc 6f d4 85 3d 98 5c 42 be 94 86 f0 bd
       -0.020220865 0.06534659 -0.18980634 -0.11744419
000200 19 c1 5c bc fe 58 95 bd 05 7f 3c bd a0 d7 04 bd
       -0.013473772 -0.072923645 -0.046019573 -0.0324322
000210 7b af 9c bd 49 43 1f 3d c6 3d 54 be 4b 6a b5 bd
       -0.07650658 0.038882528 -0.2072669 -0.088581644
000220 0a cd 7b bd c3 01 1a 3d bb a9 91 bd 09 0c 1c 3d
       -0.061474837 0.037599336 -0.07112452 0.038097415
000230 21 3a 38 be 9a da 06 be 7a c3 d3 bd 8c fa 3e be
       -0.17990924 -0.13169327 -0.103400186 -0.18650264
000240 93 87 c0 bb 29 7a dd bd 45 76 2f bd 4b aa e0 bb
       -0.0058755367 -0.10814316 -0.0428374 -0.006856238
000250 ff 13 db bc 88 50 65 3c 64 bd 3c bd 29 fb 43 3c
       -0.026742933 0.013996251 -0.046079054 0.011961737
000260 30 ee c2 3c f5 74 b0 3c 3a f0 8a 3d e9 c0 ac bc
       0.023795217 0.021540144 0.06784101 -0.02108808
000270 57 f3 44 be a2 e6 1b be 84 93 ae bd b3 a3 4a bd
       -0.19233452 -0.15224698 -0.0852423 -0.049472522
000280 0e 55 22 be 1d fd e0 3c 3b fc 32 be 8f 70 4d bd
       -0.15852758 0.027464444 -0.17479031 -0.050156172
000290 39 10 97 bb ca 46 13 3d 83 79 9e 3b d5 39 65 3d
       -0.004610088 0.03595618 0.0048362627 0.055963356
0002a0 f4 4f 4a bd c2 55 1c be 51 6a af 3b f8 8e ad bd
       -0.049392655 -0.15267089 0.00535325 -0.08474535
0002b0 bb 4b 39 be b3 ea 81 bd 98 d0 b0 bd a7 1c 98 3d
       -0.18095295 -0.063435934 -0.08633536 0.0742734
0002c0 4c 1a a0 bc b6 09 79 3d 38 b9 cd 3b 44 26 02 be
       -0.01954379 0.060800277 0.0062781833 -0.1270991
0002d0 d9 e8 65 bc 8a 33 0d be b1 10 f9 ba a4 0f 2d bd
       -0.014032566 -0.13789192 -0.0019002167 -0.042251244
0002e0 38 79 f1 3c 03 27 25 be 2b 9e 87 bc ba 8d 2a 3d
       0.029476747 -0.16128163 -0.016554913 0.041639067
0002f0 74 82 66 3d 28 39 c0 bd 86 ed ab bd 75 b9 22 3d
       0.056276754 -0.09385902 -0.083949134 0.039727647
000300 a4 0b 0f be 5c 19 97 3d 0c 04 ba bd 94 fc c7 bb
       -0.13969284 0.07377884 -0.09082803 -0.0061031077
000310 54 f5 b7 bd 05 77 75 3d 2a ff fb bc 13 f1 89 3b
       -0.089823395 0.05992796 -0.03076132 0.0042096465
000320 8b 90 d7 bd 74 d5 a9 bd 7f a9 50 3d e7 c5 a4 bd
       -0.10525616 -0.08292666 0.050942894 -0.080455594
000330 e7 94 13 bd 61 2d 84 bd 88 4e fb 3b c5 2d 8b bd
       -0.036030676 -0.06453968 0.0076692738 -0.06795839
000340 91 68 c0 bd ce 73 57 3d ed ab 47 3d 9a 63 59 bd
       -0.093949445 0.052600674 0.048747946 -0.053073503
000350 38 d3 1a 3d 22 78 b6 3d e8 2d 24 3d e7 1f 39 be
       0.03779909 0.08909632 0.040082842 -0.18078576
000360 5b f1 62 bd f6 2a 0b bb 77 74 bd bb 8d 49 8f 3b
       -0.055405956 -0.0021235324 -0.005781706 0.0043727816
000370 98 f2 cc bc 8c 6d 80 bd 57 53 05 3d cb 33 38 3d
       -0.025018021 -0.062708944 0.032550182 0.04497127
000380 aa 89 39 b8 4a 6f 2d be ec b7 2c bc b4 6b 8d 3c
       -4.4235647e-05 -0.16936985 -0.010541897 0.01726327
000390 5b 3e 94 bd c3 ee d7 bc 1d 2a e3 bd f8 94 1a bd
       -0.07238456 -0.026358968 -0.11092017 -0.037739724
0003a0 c4 65 90 bd 7f 29 8e 3d 69 35 9c 3c f7 7e 94 bd
       -0.0705066 0.069415085 0.019068437 -0.07250779
0003b0 e3 52 cd bd 82 1a e3 3b 8d c3 d3 bd ee c1 8d 3d
       -0.10025575 0.00693065 -0.10340033 0.06921755
0003c0 a8 34 2d be aa 99 2d be 07 23 d1 3b d3 21 b3 3c
       -0.16914618 -0.1695315 0.0063823494 0.021866715
0003d0 35 13 66 3d 10 3d 69 3d a8 6e 22 bc 0f 60 49 be
       0.05617066 0.056943 -0.009914078 -0.1966555
0003e0 a9 6b 3b 3d c7 90 eb 3b a3 b1 85 bd 8f 4e 5f 3d
       0.04575697 0.0071888897 -0.06528022 0.05451828
0003f0 6e 62 c1 bd 83 b4 aa 3c 11 c6 a0 3a 77 ea 06 be
       -0.09442602 0.020838028 0.001226606 -0.13175379

weight f4 [300, 200]
000000 00 00 00 80 00 00 00 80 00 00 00 80 00 00 00 80
       -0.0 -0.0 -0.0 -0.0
000010 00 00 00 80 00 00 00 80 00 00 00 80 4e f1 23 be
       -0.0 -0.0 -0.0 -0.16010019
000020 8d 47 2e be 9e b7 1f be 55 9e d6 bd a0 cf 22 bd
       -0.17019482 -0.15597388 -0.10479418 -0.039748788
000030 00 00 00 80 00 00 00 80 ec 14 0e be d4 2c c7 bd
       -0.0 -0.0 -0.13875169 -0.09725347
000040 00 00 00 80 fd 6d 26 be eb 96 63 bd e9 ef 0d be
       -0.0 -0.16252895 -0.05556385 -0.1386105
000050 93 65 f8 bd 87 46 87 bd ed 63 2c be 00 00 00 80
       -0.12128749 -0.06605249 -0.16834994 -0.0
000060 00 00 00 80 e8 49 2f be 00 00 00 80 6a 00 b5 bd
       -0.0 -0.17118037 -0.0 -0.088379696
000070 d0 69 1a be a8 3a 80 bd a5 c2 2a be 3d 97 83 bd
       -0.15079427 -0.06261188 -0.16675813 -0.06425331
000080 d8 13 1a be 00 00 00 80 5e 4b 2f bd 55 2c 0a be
       -0.15046632 -0.0 -0.042796485 -0.13493474
000090 8c 77 43 be ad 1c 0f be b3 0f 93 bd 65 18 1e be
       -0.19088572 -0.13975783 -0.07180729 -0.15438993
0000a0 82 e7 1c be 00 00 00 80 10 61 df bd 00 00 00 80
       -0.15322688 -0.0 -0.10907185 -0.0
0000b0 00 00 00 80 6e 59 09 be 19 79 b7 bd 00 00 00 80
       -0.0 -0.13413021 -0.089586444 -0.0
0000c0 d2 43 36 be 5a 93 16 be 00 00 00 80 00 00 00 80
       -0.17799309 -0.14704648 -0.0 -0.0
0000d0 45 1d 26 be 0f c3 c8 bd 90 24 c0 bd c1 dc 24 be
       -0.16222103 -0.098028295 -0.09381974 -0.16099836
0000e0 00 00 00 80 00 00 00 80 d3 aa 19 be 29 60 8b bd
       -0.0 -0.0 -0.1500657 -0.068054505
0000f0 00 00 00 80 43 ad ac bd 01 69 3d bd 79 6b 25 be
       -0.0 -0.084314846 -0.046242718 -0.16154279
000100 52 2c 09 be 1b 90 cb bd 00 00 00 80 00 00 00 80
       -0.13395813 -0.09939595 -0.0 -0.0
000110 1b 87 30 bd 00 00 00 80 de b4 2f be 00 00 00 80
       -0.043097597 -0.0 -0.17158839 -0.0
000120 66 ce 60 bd 98 b6 2f be d6 63 c3 bd 11 6d 41 be
       -0.054884337 -0.17159498 -0.095405266 -0.18889262
000130 00 93 26 be 1d 84 b9 bd e2 8b be bd 70 34 8a bd
       -0.16267014 -0.09058402 -0.09304024 -0.06748283
000140 10 9e 22 be 00 00 00 80 6b b1 dc bd db 44 88 bd
       -0.15880609 -0.0 -0.10776027 -0.06653758
000150 00 00 00 80 4b 35 cb bd 00 00 00 80 00 00 00 80
       -0.0 -0.09922274 -0.0 -0.0
000160 b8 63 26 be 00 00 00 80 cc 82 2c be 3f 04 ce bd
       -0.16248977 -0.0 -0.1684677 -0.10059404
000170 00 00 00 80 e2 b9 27 be 00 00 00 80 8d be 34 be
       -0.0 -0.16379502 -0.0 -0.17650814
000180 fb c0 ca bd 00 00 00 80 f1 00 38 bd 00 00 00 80
       -0.09900089 -0.0 -0.044922773 -0.0
000190 8c 7d 02 be 13 9a 23 bd 2e 32 27 bd 67 8d cb bd
       -0.12743205 -0.03994186 -0.04081934 -0.0993908
0001a0 69 3d 0a be 03 f8 1b be 00 00 00 80 69 f2 35 be
       -0.13499989 -0.15231328 -0.0 -0.17768253
0001b0 3a 96 1e be 9b 0c c2 bd a2 cd 9e bd 00 00 00 80
       -0.15486994 -0.094750606 -0.07754065 -0.0
0001c0 76 96 20 be 9e 27 36 be 6f 48 32 be a0 6e 4c be
       -0.15682396 -0.1778855 -0.17410444 -0.19964075
0001d0 00 00 00 80 1c 5e 0a be 00 00 00 80 00 00 00 80
       -0.0 -0.13512462 -0.0 -0.0
0001e0 ca a6 29 be b9 1d 45 be e5 68 2a be bf 51 33 be
       -0.16567531 -0.1924962 -0.16641577 -0.17511652
0001f0 00 00 00 80 00 f4 8c bd 00 00 00 80 00 00 00 80
       -0.0 -0.06882477 -0.0 -0.0
000200 a3 de 80 bd eb 0f 39 be f9 76 2e be 00 00 00 80
       -0.062924646 -0.18072478 -0.17037572 -0.0
000210 ba 67 32 be 00 00 00 80 b5 9f 2e be 69 bf 7f bd
       -0.17422381 -0.0 -0.17053111 -0.062438402
000220 00 00 00 80 00 00 00 80 00 00 00 80 00 00 00 80
       -0.0 -0.0 -0.0 -0.0
000230 00 00 00 80 38 a5 a2 bd 98 ea ad bd ff af 7a bd
       -0.0 -0.07941669 -0.08492011 -0.061203
000240 00 00 00 80 4c 54 85 bd d8 b9 c6 bd aa e9 91 bd
       -0.0 -0.06510219 -0.09703416 -0.07124646
000250 b1 8e 48 be 3b 20 cb bd 66 81 41 be 75 24 11 be
       -0.19585682 -0.09918257 -0.18897018 -0.14174064
000260 83 c3 1b be 00 00 00 80 99 3e 20 be a8 d1 ca bd
       -0.152113 -0.0 -0.15648879 -0.0990327
000270 02 07 1f be 00 00 00 80 34 ee 82 bd 3f 68 34 be
       -0.15530017 -0.0 -0.0639309 -0.17617892
000280 d2 5c c5 bd a6 45 e2 bd 24 e9 22 bd 72 d4 32 bd
       -0.09636845 -0.11048441 -0.03977312 -0.043659635
000290 8d ee 17 be 2a 0e 0c be 00 00 00 80 15 e6 96 bd
       -0.14837094 -0.13677278 -0.0 -0.073681034
0002a0 c8 be 15 be 3c 80 0e be 2e 40 3c be a6 f2 2d be
       -0.14623559 -0.13916105 -0.18383858 -0.16987094
0002b0 00 00 00 80 00 00 00 80 f9 ea 63 bd 6b d9 23 be
       -0.0 -0.0 -0.05564401 -0.16000907
0002c0 c2 4e d9 bd 00 00 00 80 00 00 00 80 5f 8b 22 be
       -0.10610725 -0.0 -0.0 -0.15873478
0002d0 00 00 00 80 46 d9 50 bd 59 1b 36 be 76 31 ab bd
       -0.0 -0.050988458 -0.1778387 -0.08359043
0002e0 00 00 00 80 00 00 00 80 00 00 00 80 00 00 00 80
       -0.0 -0.0 -0.0 -0.0
0002f0 00 00 00 80 0b 07 cf bd 00 00 00 80 27 e2 44 be
       -0.0 -0.10108765 -0.0 -0.19226895
000300 00 00 00 80 ae 0c 33 bd 00 00 00 80 59 9f 24 be
       -0.0 -0.043713264 -0.0 -0.16076411
000310 00 00 00 80 1a 14 b7 bd 86 57 61 bd 00 00 00 80
       -0.0 -0.08939381 -0.05501511 -0.0
000320 27 cc 01 be 00 00 00 80 00 00 00 80 00 00 00 80
       -0.12675534 -0.0 -0.0 -0.0
000330 00 00 00 80 00 00 00 80 00 00 00 80 a5 ed 0d be
       -0.0 -0.0 -0.0 -0.13860185
000340 12 10 d3 bd 00 00 00 80 62 cd 46 be 8b db 07 be
       -0.103057995 -0.0 -0.19414285 -0.13267343
000350 00 00 00 80 00 00 00 80 a8 fb 37 be 7c f8 20 be
       -0.0 -0.0 -0.17967093 -0.1571979
000360 00 00 00 80 00 00 00 80 00 00 00 80 30 8e 31 be
       -0.0 -0.0 -0.0 -0.17339396
000370 48 b6 71 bd 6e 5b 30 be 37 e0 9e bd 00 00 00 80
       -0.059011728 -0.17222378 -0.07757609 -0.0
000380 00 00 00 80 00 00 00 80 4b 87 26 be 5c f4 8c bd
       -0.0 -0.0 -0.16262548 -0.06882545
000390 58 a4 21 be 37 91 9c bd d8 45 9c bd 2c 24 8e bd
       -0.15785348 -0.07644885 -0.07630509 -0.06940493
0003a0 00 00 00 80 00 00 00 80 00 00 00 80 03 76 39 be
       -0.0 -0.0 -0.0 -0.18111424
0003b0 1d 75 38 be 70 ed 18 be 88 d3 6d bd 00 00 00 80
       -0.18013425 -0.14934325 -0.05806306 -0.0
0003c0 00 00 00 80 00 00 00 80 45 09 9e bd 00 00 00 80
       -0.0 -0.0 -0.07716612 -0.0
0003d0 ea f7 22 be 00 00 00 80 fc 77 3f be 42 04 33 be
       -0.15914884 -0.0 -0.18698114 -0.17482093
0003e0 00 00 00 80 8a 3b c8 bd 00 00 00 80 00 00 00 80
       -0.0 -0.09776981 -0.0 -0.0
0003f0 00 00 00 80 39 62 e5 bd 2a 44 3d be 62 c4 7b bd
       -0.0 -0.11200375 -0.18483034 -0.061466582

weight f4 [1, 300]
000000 00 00 00 00 00 00 00 00 bd bd 6c bd 74 b0 e2 3d
       0.0 0.0 -0.057798136 0.11068812
000010 00 00 00 00 7b c9 4b 3e 2b e7 a4 bd 99 5e 39 3e
       0.0 0.19901077 -0.08051904 0.18102492
000020 00 00 00 00 a4 dd 93 bd e7 2b b8 bd c3 b0 b9 bd
       0.0 -0.07220009 -0.08992749 -0.09066918
000030 42 41 99 bd 3a 60 be bd 00 00 00 80 35 9e f2 3d
       -0.0748315 -0.092956975 -0.0 0.11846582
000040 34 fb 1c 3e 00 00 00 00 00 00 00 00 6c b4 c8 bd
       0.15330201 0.0 0.0 -0.09800038
000050 57 82 25 3e af 89 2b 3e b8 43 f0 3e 00 00 00 00
       0.16163002 0.16751741 0.46926665 0.0
000060 00 00 00 00 af b6 a5 bd eb 60 a8 3d 16 11 a9 3d
       0.0 -0.08091485 0.08221611 0.08255212
000070 3e c4 23 3e 00 00 00 00 24 bf c4 bd 9f 33 0b 3e
       0.15992829 0.0 -0.0960677 0.1359391
000080 bb 43 31 3e f3 c5 16 3e f5 35 b1 3d a7 67 47 3e
       0.17310993 0.14723949 0.086528696 0.19473134
000090 12 dd a4 bd 00 00 00 00 b4 bd e1 bd b9 fa 23 3e
       -0.08049978 0.0 -0.11022511 0.16013612
0000a0 ba 42 01 3e 91 e8 2b be 00 00 00 00 db 6c 30 3e
       0.1262311 -0.16787936 0.0 0.17229025
0000b0 00 00 00 00 b3 14 b9 3d 00 00 00 00 47 c9 90 bd
       0.0 0.09037151 0.0 -0.070696406
0000c0 4b 0c ba 3d 26 8a 09 3e 00 00 00 00 f1 d4 8d 3e
       0.09084376 0.13431606 0.0 0.27701524
0000d0 7f 15 0f 3f 2b 09 9b bd 00 00 00 00 00 00 00 00
       0.55892175 -0.07570108 0.0 0.0
0000e0 65 2c a9 3e 00 00 00 00 52 11 ac 3d b5 cc 42 3e
       0.33041683 0.0 0.08401741 0.19023402
0000f0 7e 61 dd bd c0 d9 f5 3d 4e 50 c0 3d 00 00 00 00
       -0.10809611 0.12004423 0.09390317 0.0
000100 6f fa d1 3d d6 c6 bd 3d 20 82 2d 3e aa 68 a6 be
       0.102528445 0.092664406 0.1694417 -0.32501727
000110 c7 fe 20 3e 00 00 00 00 00 00 00 00 60 f5 4a 3e
       0.1572219 0.0 0.0 0.19820166
000120 c5 d2 22 3e bc bb 05 3e f3 c6 66 3e 00 00 00 00
       0.15900715 0.13059896 0.2253683 0.0
000130 0f 59 95 bd c3 78 39 3e 15 43 94 bd 00 00 00 00
       -0.07292377 0.18112473 -0.072393574 0.0
000140 50 7f d3 bd 00 00 00 00 12 1e b7 bd c0 d9 c4 3d
       -0.10327017 0.0 -0.08941282 0.09611845
000150 ad 29 14 3e 79 01 04 3e 00 00 00 00 bf 02 ed bd
       0.14469023 0.12891187 0.0 -0.115727894
000160 00 00 00 00 c3 bc ce 3d 4e 9c c3 3d af 4a 2f be
       0.0 0.10094597 0.09551297 -0.17118333
000170 5d 36 95 bd 00 00 00 00 f2 58 f4 3d 87 2b 83 bd
       -0.072857596 0.0 0.119310275 -0.064047866
000180 a4 b8 cf bd 00 00 00 00 29 09 4f 3e 00 00 00 00
       -0.10142639 0.0 0.20218338 0.0
000190 00 00 00 00 00 00 00 00 81 03 a0 bd 1d b2 a6 bd
       0.0 0.0 -0.07813168 -0.08139441
0001a0 00 00 00 00 00 00 00 00 00 00 00 00 00 00 00 00
       0.0 0.0 0.0 0.0
0001b0 00 00 00 00 7a 1d 98 bd 30 3e 43 3e 55 21 39 3e
       0.0 -0.07427497 0.19066691 0.18079121
0001c0 00 00 00 00 00 00 00 00 00 00 00 00 cf 22 e6 3d
       0.0 0.0 0.0 0.11237108
0001d0 00 00 00 00 c8 1d 9a bd c7 94 d7 bd 00 00 00 00
       0.0 -0.075252116 -0.10526424 0.0
0001e0 4f 6a d1 3d be 52 d1 3d c1 b5 b0 bd 00 00 00 00
       0.10225355 0.1022086 -0.08628417 0.0
0001f0 ac 86 92 bd 7f 86 91 bd 00 00 00 00 00 00 00 00
       -0.07154593 -0.07105731 0.0 0.0
000200 bc a7 a7 bd 93 a1 62 bd 0b b9 c7 3d 83 46 f0 3d
       -0.0818629 -0.05532987 0.09752091 0.11732199
000210 6f 08 8e 3d c7 75 bf bd 00 00 00 00 00 00 00 00
       0.06935202 -0.09348636 0.0 0.0
000220 00 00 00 00 12 9d 89 bd 00 00 00 00 1f 65 ca 3d
       0.0 -0.06719412 0.0 0.098825686
000230 00 00 00 00 00 00 00 00 00 00 00 00 00 00 00 00
       0.0 0.0 0.0 0.0
000240 89 0f f3 3d 00 00 00 00 c6 f4 3c 3e 7b 88 b8 3d
       0.118681975 0.0 0.18452749 0.090104066
000250 c4 26 6a bd 9b f9 29 3e ba f1 90 bd bf 1a 1b 3e
       -0.057165876 0.16599123 -0.07077356 0.15146922
000260 cb 30 4d 3e 37 26 71 bd b6 f0 a8 bd 09 1b 1b be
       0.20038144 -0.058874335 -0.08249037 -0.15147032
000270 00 00 00 00 00 00 00 00 2d d4 44 3e 00 00 00 00
       0.0 0.0 0.19221564 0.0
000280 00 00 00 80 3b 94 e6 3d 00 00 00 00 8e 5c af 3d
       -0.0 0.112587415 0.0 0.08562575
000290 09 58 bb bd 4a 69 3c 3e 9d dd a4 bd ab d9 e3 bd
       -0.09147651 0.1839954 -0.08050082 -0.11125501
0002a0 a7 25 d1 bd 00 00 00 00 90 b7 af 3e ea 05 0e 3e
       -0.1021226 0.0 0.34319735 0.13869444
0002b0 00 00 00 00 00 00 00 00 97 58 d5 bd 51 e6 bb bd
       0.0 0.0 -0.10417288 -0.09174789
0002c0 7b b0 75 bd 71 6d d7 bd a6 57 99 bd 00 00 00 00
       -0.059982758 -0.10518921 -0.07487421 0.0
0002d0 f0 bf d5 bd 00 00 00 00 cf 48 c9 3d c1 d8 00 3e
       -0.10437 0.0 0.0982834 0.12582685
0002e0 e4 dc 0d 3e 31 4f fb be 36 42 bc bd f2 e3 1c 3e
       0.13853794 -0.49083856 -0.09192316 0.15321329
0002f0 6e 5c c1 3d 00 00 00 00 34 55 3d be ac b8 ad bd
       0.09441458 0.0 -0.18489534 -0.08482489
000300 00 00 00 00 e0 86 c8 3d 00 00 00 00 a6 10 8a bd
       0.0 0.0979135 0.0 -0.06741457
000310 00 00 00 00 a5 9f b1 bd 38 8c dc 3d 1f c5 af bd
       0.0 -0.08673028 0.10768932 -0.0858252
000320 00 00 00 80 00 00 00 00 98 98 e5 3d a3 05 9d bd
       -0.0 0.0 0.112107456 -0.07667091
000330 46 7d 7a bd 00 00 00 00 6b a1 2f 3e 27 d4 21 be
       -0.061154626 0.0 0.1715142 -0.15803586
000340 00 00 00 00 42 9d 65 3e ec d5 16 3e 3e 0a 8b bd
       0.0 0.2242327 0.14730042 -0.06789063
000350 71 82 10 3e ca e0 b1 bd 40 6b d5 3d 00 00 00 00
       0.1411226 -0.08685453 0.10420847 0.0
000360 cd 5e 23 3e c6 16 b4 3d 3a 5c 35 3e cc 51 c0 3d
       0.15954132 0.08793406 0.17710963 0.093906015
000370 2f 72 0e 3e 00 00 00 00 92 cc de 3d 95 4d 3a 3e
       0.13910745 0.0 0.108788624 0.18193658
000380 08 ec 2d be 00 00 00 00 90 08 a3 3d 6e c6 a7 bd
       -0.1698457 0.0 0.079606175 -0.08192144
000390 67 67 fc bd 38 13 8c bd 00 00 00 00 88 d4 d3 3d
       -0.1232441 -0.06839603 0.0 0.103432715
0003a0 fd 63 a5 3d d6 36 a1 bd f5 12 ae bd 00 00 00 00
       0.08075712 -0.07871787 -0.084997095 0.0
0003b0 00 00 00 00 89 0f db bd 00 00 00 80 f9 2d a9 bd
       0.0 -0.106963225 -0.0 -0.08260722
0003c0 00 00 00 00 00 00 00 00 d5 63 37 3e 5f d0 a1 bd
       0.0 0.0 0.17909177 -0.07901072
0003d0 58 ea 84 bd e1 42 86 3d 5a 07 bd bd 00 00 00 00
       -0.0649001 0.06555725 -0.09229918 0.0
0003e0 1a 2e e9 bd 01 3e a1 bd 00 00 00 00 eb 95 bd 3d
       -0.11385746 -0.078731544 0.0 0.0925711
0003f0 00 00 00 00 25 66 d9 bd e0 17 17 3e 00 00 00 00
       0.0 -0.10615186 0.14755201 0.0
