figures/TS_global_3/theta=0.1_s=0.2_step=1/best_model.pth (torch, 249061 bytes, 6 tensors)

bias f4 [200]
0	0xbe9c9bad	-0.3058752
1	0x3e391003	0.18072514
2	0x3ea2fdb3	0.31834182
3	0xbee3b4c6	-0.44473857
4	0x3e4a69b5	0.19766887
5	0x3f01492b	0.5050227
6	0x3db78f55	0.08962885
7	0xbf0f57e7	-0.55993503
8	0xbf069e0b	-0.52584904
9	0xbf103404	-0.5632937
10	0xbeea0fc3	-0.4571515
11	0x3eb284ca	0.34866935
12	0xbe44ca5f	-0.19217823
13	0xbe58be83	-0.21166424
14	0x3e9d3325	0.30703083
15	0xbe552729	-0.2081572
16	0xbeed31d9	-0.46327093
17	0xbe143409	-0.14472975
18	0x3ea73043	0.32654008
19	0x3eb58019	0.35449293
20	0x3d931d71	0.0718335
21	0xbd8a705d	-0.06759713
22	0xbf104915	-0.56361514
23	0x3f2923bd	0.6607016
24	0x3dfbc33f	0.122930996
25	0x3ec2d460	0.38052654
26	0x3f206ff6	0.6267084
27	0xbf134af3	-0.5753624
28	0xbe82af6d	-0.25524464
29	0x3f280113	0.6562664
30	0xbdc13a0d	-0.094349004
31	0x3ed07cbf	0.40720174
32	0x3ed89ab0	0.42305517
33	0xbe9fb154	-0.31189978
34	0x3effc692	0.49956185
35	0xbeae4f80	-0.3404503
36	0xbf031554	-0.5120442
37	0x3f0d5259	0.5520378
38	0xbf169028	-0.58813715
39	0x3ed55e54	0.4167353
40	0xbe2bd85f	-0.16781758
41	0xbe812c56	-0.25229138
42	0x3eadb462	0.33926684
43	0xbe5ded93	-0.21672659
44	0x3f362244	0.71146035
45	0x3e265d0f	0.16246437
46	0xbecdd6a5	-0.40202823
47	0x3e06bb57	0.13157402
48	0x3e45750e	0.19282934
49	0xbe66068a	-0.22463432
50	0x3f2791b0	0.65456676
51	0x3dc45e49	0.09588296
52	0xbf078759	-0.529409
53	0xbe63c24f	-0.22242092
54	0x3f0fb1ac	0.5613048
55	0xbf2ab634	-0.6668427
56	0xbe42d3c8	-0.190261
57	0x3def9ffe	0.11700438
58	0xbe238b3a	-0.1597108
59	0x3e5778ff	0.2104225
60	0xbe9d72d5	-0.30751672
61	0xbe67f59d	-0.22652288
62	0x3ecac7e3	0.39605626
63	0x3f292cc1	0.66083914
64	0xbeba6c34	-0.36410677
65	0x3e8ecd40	0.27890968
66	0x3e142d43	0.14470391
67	0x3f38e1f1	0.7221976
68	0xbe91376f	-0.28362605
69	0xbf0886f2	-0.5333091
70	0xbdba2453	-0.090889595
71	0x3eac90f4	0.3370434
72	0xbe62367e	-0.220911
73	0xbee34db5	-0.44395223
74	0x3f11c1ca	0.56936324
75	0xbe2fb76f	-0.17159818
76	0x3e66ce4a	0.2253963
77	0xbdbfe47a	-0.0936975
78	0x3ec22e7e	0.37926096
79	0xbdd9a67e	-0.10627459
80	0x3ebaa76b	0.36455855
81	0x3f184d5e	0.5949305
82	0x3e124fcb	0.14288251
83	0xbf050ac9	-0.5196958
84	0x3f3384c0	0.70124435
85	0x3edef1c5	0.4354383
86	0x3e9d8c3a	0.30771047
87	0x3f36aa2e	0.71353424
88	0xbeb66c81	-0.35629657
89	0xbe6f29ae	-0.23355743
90	0xbd922a47	-0.0713697
91	0x3e6b0f1a	0.2295498
92	0xbd7f3015	-0.062301714
93	0xbd704d55	-0.0586675
94	0xbeac7d12	-0.3368917
95	0x3e9aac34	0.30209506
96	0x3f15c57f	0.5850448
97	0x3e4451f6	0.1917189
98	0x3ec1da62	0.37861925
99	0xbdc6bc7e	-0.09703921
100	0xbd6e553b	-0.05818675
101	0x3edee5de	0.4353475
102	0xbe831133	-0.2559906
103	0xbf2d914b	-0.67799824
104	0xbea664a6	-0.32498664
105	0xbdc77deb	-0.09740814
106	0xbd887790	-0.0666343
107	0xbe3941f7	-0.1809157
108	0xbd5d5d61	-0.05404413
109	0x3eab5b99	0.3346832
110	0x3e44e4d4	0.19227916
111	0xbe605c28	-0.21910155
112	0x3e163e62	0.14672235
113	0xbdb0d37a	-0.08634086
114	0xbef6abea	-0.48178035
115	0xbf29a38b	-0.6626517
116	0x3f3017a5	0.6878608
117	0xbeb6807c	-0.356449
118	0x3f0b0ec1	0.5431939
119	0xbf0cc073	-0.54981154
120	0xbe0569c0	-0.13028622
121	0xbe804e0e	-0.2505955
122	0x3e9f979e	0.31170362
123	0x3f0ceb59	0.5504661
124	0xbde2fb2a	-0.11083062
125	0x3ef69195	0.48157945
126	0xbe223b6a	-0.15842977
127	0x3ef8d44d	0.48599473
128	0xbf04fce6	-0.5194839
129	0x3ef7d5a0	0.4840517
130	0x3eb16e53	0.34654483
131	0x3ea65eda	0.3249424
132	0xbd59dd39	-0.05318949
133	0x3f0a1855	0.5394338
134	0xbd9b6adb	-0.075887404
135	0x3f21a60a	0.6314398
136	0xbd3e33cc	-0.046436116
137	0x3e63a5ce	0.22231218
138	0x3f1fdf62	0.6245023
139	0xbf256a40	-0.6461525
140	0xbec55d44	-0.3854772
141	0xbd60d53a	-0.05489085
142	0xbe796ab3	-0.24357109
143	0xbdd2ac1f	-0.10286736
144	0xbe948672	-0.29008824
145	0x3ea2fcd4	0.31833518
146	0xbef9aeda	-0.48766214
147	0xbecd8c65	-0.40146175
148	0xbd54ddca	-0.051969327
149	0xbec8b490	-0.39200258
150	0x3eb97e51	0.36229184
151	0xbe5b3de9	-0.21410336
152	0xbea4dadb	-0.32198223
153	0xbf062850	-0.5240526
154	0xbe6bad6e	-0.23015377
155	0x3e9bf42e	0.30459732
156	0x3f08a6ae	0.53379333
157	0xbe42aaf8	-0.19010532
158	0xbf042422	-0.51617634
159	0xbe9d1534	-0.3068024
160	0x3f294ab0	0.6612959
161	0xbe55e9f4	-0.20890027
162	0x3eb9d5ed	0.36296025
163	0xbf04e9c5	-0.51919204
164	0xbf2f92f4	-0.6858361
165	0xbf03d0a6	-0.5149025
166	0x3e0581b3	0.13037758
167	0xbed52e5c	-0.41636932
168	0x3f1939a8	0.598536
169	0xbde628d8	-0.11238259
170	0x3f2c7f64	0.6738188
171	0xbf027ed5	-0.5097478
172	0x3e610a30	0.21976542
173	0xbf0dd9fe	-0.55410755
174	0xbdb4d4ec	-0.08829674
175	0xbf07387a	-0.5282055
176	0xbdf57bf8	-0.11986536
177	0x3f1615cd	0.58627015
178	0x3f18aea6	0.5964149
179	0xbf2bd1fe	-0.671173
180	0xbd266bee	-0.040630274
181	0xbdd892d9	-0.10574884
182	0x3eed5d4e	0.46360248
183	0x3edfa9ff	0.43684384
184	0x3e937cff	0.28806302
185	0x3f0e7820	0.55652046
186	0x3e8af25c	0.2713803
187	0x3e568254	0.20948154
188	0xbd766fc1	-0.06016517
189	0x3e8af3a8	0.2713902
190	0x3ed535db	0.4164265
191	0xbdac29c3	-0.08406403
192	0xbecb8dc5	-0.397566
193	0xbefc33d5	-0.49258295
194	0xbe94a04e	-0.29028553
195	0x3f15499a	0.5831543
196	0xbe86a4f2	-0.26297718
197	0xbe8d411d	-0.2758874
198	0xbdbaa5a4	-0.09113625
199	0x3e744ebb	0.23858158

weight f4 [200, 2]
0	0x3d16cb4e	0.03681498
1	0xbf1c9976	-0.6117166
2	0x3e88c678	0.2671392
3	0xbf0829be	-0.53188694
4	0x3e2562a7	0.16150914
5	0xbf2d5b3a	-0.67717326
6	0xbf512370	-0.816947
7	0x3ee8fc76	0.45505112
8	0x3f61ebd7	0.8825049
9	0xbe76a91d	-0.24087949
10	0xbe818ac5	-0.25301185
11	0x3e4459de	0.19174907
12	0xbf034d4a	-0.5128981
13	0xbe5d0e66	-0.21587524
14	0xbf2bcf45	-0.67113143
15	0x3f4c15f1	0.7972098
16	0x3eb17232	0.34657437
17	0x3e9124d6	0.28348416
18	0xbd85339b	-0.065039836
19	0xbd77856e	-0.060429983
20	0x3e91caf9	0.28475168
21	0xbe7a13e1	-0.24421646
22	0x3f21a768	0.63146067
23	0x3f57a831	0.84241015
24	0xbef67741	-0.4813786
25	0x3e8b92aa	0.27260333
26	0xbf25e3f0	-0.6480093
27	0x3ecd7a6c	0.40132463
28	0x3e8b4e4f	0.27208182
29	0xbf27f5c2	-0.6560937
30	0xbf3aa2fc	-0.72904944
31	0x3c77985c	0.015112009
32	0x3f3793c3	0.7170984
33	0xbf0340c9	-0.5127073
34	0x3f4b914a	0.7951857
35	0x3d3ddf4c	0.04635553
36	0xbed16155	-0.4089457
37	0xbf0b5f1c	-0.54442
38	0x3daf318b	0.085543714
39	0x3eb17505	0.3465959
40	0xbe5e78da	-0.21725789
41	0x3d9b0a76	0.07570355
42	0x3f13ddae	0.5776013
43	0x3e75f40d	0.24018879
44	0xbe2088ef	-0.15677236
45	0xbef402d4	-0.47658408
46	0x3f2979d9	0.6620155
47	0xbee3d477	-0.44498035
48	0x3f0c05a3	0.546961
49	0x3f715bfb	0.94280976
50	0x3f30ed15	0.6911176
51	0xbd3c7272	-0.04600758
52	0xbe88291d	-0.26593867
53	0x3ed7de41	0.42161754
54	0x3eb3f919	0.35150984
55	0xbee44194	-0.44581282
56	0x3b14cb24	0.002270409
57	0x3f03f05f	0.5153865
58	0x3f219193	0.63112754
59	0xbe20f92f	-0.15720056
60	0xbd51fe96	-0.051268183
61	0x3c85fc56	0.016355675
62	0x3ea04a2b	0.31306586
63	0x3e0d3990	0.1379149
64	0xbf311da8	-0.69185877
65	0xbe4fdbed	-0.20298739
66	0x3ec7fb21	0.39058784
67	0xbf2a5a9f	-0.66544527
68	0x3e9c697e	0.30549234
69	0xbf021df1	-0.50826937
70	0xbed59418	-0.4171455
71	0xbefd62c4	-0.49489415
72	0xbf3ede93	-0.7455837
73	0x3f1dfee2	0.61717045
74	0x3efefa99	0.49800566
75	0x3e605f6c	0.219114
76	0x3ea06907	0.3133013
77	0x3ea30226	0.31837577
78	0xbe9de584	-0.3083917
79	0x3f3620fd	0.71144086
80	0xbe9f2b60	-0.3108778
81	0x3eb429af	0.35188052
82	0x3f07fdc5	0.53121597
83	0xbf2ab00c	-0.66674876
84	0x3f502b4e	0.8131608
85	0x3d925cb1	0.07146586
86	0x3e6612e6	0.22468147
87	0x3d9eaf81	0.077483185
88	0x3e516036	0.20446858
89	0xbec2939a	-0.38003236
90	0xbcbc1b05	-0.022962103
91	0x3ec439f9	0.3832548
92	0x3ec57866	0.3856842
93	0x3e8f69c2	0.28010374
94	0xbf6be6a1	-0.92148787
95	0xbef88ae7	-0.48543474
96	0x3e886876	0.26642197
97	0xbee370f2	-0.44422108
98	0xbc1c2e6a	-0.00953255
99	0x3eea1c20	0.45724583
100	0x3f214b2b	0.6300532
101	0xbee8b021	-0.45446876
102	0xbe19763c	-0.14986509
103	0x3e37bbed	0.17942782
104	0xbf2e25a5	-0.6802619
105	0xbe1a70ff	-0.15082167
106	0x3f112245	0.56692916
107	0xbe9f2eb2	-0.31090313
108	0x3c767636	0.015042832
109	0x3f0773fb	0.5291135
110	0xbe15c06a	-0.14624181
111	0x3ebe715e	0.37195867
112	0xbf347673	-0.7049324
113	0x3e2bf507	0.1679269
114	0x3f3cd616	0.7376417
115	0x3f2f1639	0.68393284
116	0x3f2613b2	0.648738
117	0xbd6f52ff	-0.05842876
118	0xbf28c2ce	-0.6592225
119	0xbe499e7e	-0.19689366
120	0x3f085a5e	0.5326289
121	0xbf022229	-0.50833374
122	0x3e67b058	0.22625864
123	0xbef7d651	-0.48405698
124	0xbf18432a	-0.59477484
125	0x3f1c5518	0.6106734
126	0x3efd24ac	0.4944204
127	0xbf14ddd9	-0.5815101
128	0xbedd4d15	-0.4322287
129	0x3f482af2	0.7819053
130	0xbf018a47	-0.5060162
131	0xbcd6ca7c	-0.026219599
132	0xbf74ba08	-0.9559636
133	0xbf5e5b33	-0.8685791
134	0x3f4fd5e2	0.81185734
135	0x3ed26843	0.4109517
136	0xbeadcc6f	-0.33945033
137	0x3f1a7b1f	0.6034412
138	0xbd69c5fb	-0.057073575
139	0x3eb52185	0.35377136
140	0xbeffd354	-0.49965918
141	0xbf31aa75	-0.6940072
142	0xbebae2ba	-0.36501104
143	0xbf4e7b17	-0.8065657
144	0x3eb81889	0.3595622
145	0xbf13c4a6	-0.57721937
146	0xbeb841de	-0.35987753
147	0xbf3e509d	-0.74341756
148	0xbf344cfd	-0.70429975
149	0xbf1a5703	-0.6028902
150	0x3f5d553c	0.8645818
151	0x3f458427	0.77154773
152	0xbf306def	-0.68917745
153	0xbeffe1b6	-0.4997689
154	0x3f3d77bf	0.74010843
155	0x3eaac82b	0.3335584
156	0x3f54718c	0.8298576
157	0x3ee28c82	0.44247824
158	0xbf3ceb68	-0.737967
159	0xbf071b5c	-0.5277612
160	0xbf063b83	-0.5243456
161	0x3de631a6	0.112399384
162	0x3f40df80	0.75341034
163	0x3e1393d8	0.14411867
164	0x3f1b8cf0	0.6076193
165	0x3e9c3aab	0.3051351
166	0x3f070c10	0.5275278
167	0x3e5d5ca4	0.21617371
168	0xbedca1a2	-0.43092066
169	0xbf3868ed	-0.72035104
170	0x3e9c3381	0.30508044
171	0xbec568b7	-0.38556454
172	0xbee1e752	-0.44121796
173	0x3ef93b93	0.48678264
174	0x3eda27cb	0.42608485
175	0xbed831e2	-0.42225558
176	0x3e577690	0.21041322
177	0xbf411815	-0.7542737
178	0x3f51d49e	0.81965053
179	0xbe94231a	-0.2893303
180	0xbe16430a	-0.14674011
181	0xbf3deac0	-0.74186325
182	0xbcb80981	-0.02246547
183	0x3d63a2f4	0.055575326
184	0x3e8d4631	0.27592614
185	0x3f0824f0	0.5318136
186	0x3e94de17	0.2907569
187	0x3ef11b9f	0.47091386
188	0x3f35c3c1	0.7100182
189	0xbf20ee02	-0.6286317
190	0xbdd6e9ce	-0.104938135
191	0x3f1ac43f	0.604557
192	0x3e473a0d	0.19455738
193	0xbf1005c1	-0.5625878
194	0xbe988420	-0.29788303
195	0xbcecffa1	-0.028930487
196	0x3f43ce8a	0.7648703
197	0x3bd1dfe0	0.006404862
198	0xbf28f29e	-0.65995204
199	0xbefd8f44	-0.49523365
200	0xbeea92d8	-0.45815158
201	0xbe9705ac	-0.29496515
202	0xbe9856cf	-0.2975373
203	0x3ee25dc0	0.4421215
204	0xbf153890	-0.5828943
205	0x3ecb943d	0.39761534
206	0xbec301d1	-0.38087323
207	0x3e0c9b9a	0.13731232
208	0x3ed5eb7a	0.41781217
209	0x3f00f82d	0.50378686
210	0x3e973e5f	0.29539773
211	0x3f6d8bec	0.9279163
212	0x3e802787	0.25030157
213	0x3f18991d	0.5960863
214	0xbf392cb8	-0.7233386
215	0x3ea5a470	0.32352018
216	0xbf1ef7f2	-0.62097085
217	0xbe2daf07	-0.16961299
218	0xbe30da61	-0.17270805
219	0x3f2c9323	0.6741201
220	0xbf6008d4	-0.8751347
221	0xbe3904d8	-0.18068254
222	0x3f566a97	0.83756393
223	0x3f57c822	0.84289753
224	0xbf399302	-0.7248994
225	0xbef46e48	-0.47740388
226	0x3eb842a7	0.35988352
227	0x3f3ea633	0.7447235
228	0xbe18a5dc	-0.1490702
229	0xbf5d6edd	-0.8649729
230	0x3e59a091	0.21252657
231	0x80000000	-0.0
232	0xbf1e901b	-0.6193864
233	0x3e052dd5	0.13005765
234	0xbf47bc9c	-0.7802217
235	0x3f053fd8	0.5205054
236	0xbf3514e9	-0.7073503
237	0xbea20f83	-0.3165246
238	0x3e33927e	0.17536351
239	0x3ee1582b	0.4401258
240	0xbf4684ba	-0.77546275
241	0xbf48546e	-0.7825383
242	0x3f5300cb	0.82423085
243	0xbeaf501b	-0.34240803
244	0xbf4ce65a	-0.8003899
245	0xbf581b5d	-0.84416753
246	0x3f3bf093	0.7341396
247	0xbe1e3475	-0.15449698
248	0x3f0f0b4b	0.55876607
249	0xbf3e137e	-0.7424849
250	0xbea36157	-0.31910202
251	0x3f1a541c	0.6028459
252	0xbf4c49bb	-0.79800004
253	0xbe993a39	-0.29927233
254	0x3f028191	0.5097895
255	0x3f2baf78	0.6706462

bias f4 [300]
0	0x3d311db2	0.04324121
1	0x3cad6882	0.021167997
2	0xbd1c79d7	-0.038202133
3	0xbd3b1aee	-0.04567998
4	0x3d094458	0.033512443
5	0xbd4dfd1b	-0.05029021
6	0xbc3adfaa	-0.011405865
7	0x3d5a3218	0.05327043
8	0xbda35178	-0.07974523
9	0x3d70be39	0.05877516
10	0x3cb1fab7	0.021725995
11	0x3c1bd3a3	0.009510907
12	0xbd84ba77	-0.06480878
13	0xbd5f21c4	-0.05447556
14	0x3c530f2d	0.012882036
15	0x3d0a5363	0.03377093
16	0x3d431ab8	0.047632903
17	0x3c17c2ea	0.00926278
18	0x3c4b1d2c	0.012397092
19	0x3ce3a795	0.02778987
20	0xbce7ffec	-0.028320275
21	0x3d8a1f13	0.06744208
22	0xbd8b0a71	-0.06789101
23	0xbcbf7481	-0.023370983
24	0x3ced55e8	0.028971627
25	0xbd30ef4d	-0.043196965
26	0x3d7d351e	0.061818235
27	0x3d80e5c6	0.06293826
28	0x3d795b91	0.06087834
29	0x3d6f172d	0.05837171
30	0x3d312c77	0.043255296
31	0xbca482d0	-0.020081908
32	0x3d7f7a09	0.06237224
33	0xbb832801	-0.0040025716
34	0x3c8294a4	0.015940018
35	0x3cf8117b	0.030281773
36	0xbcf2ba64	-0.029629894
37	0x3d391e80	0.045195103
38	0xbd8afb60	-0.06786227
39	0xbd34dfa1	-0.04415858
40	0xbd602911	-0.054726664
41	0x3cdc6fe3	0.02690882
42	0x3d92237f	0.071356766
43	0x3d28f865	0.041252512
44	0xbd164607	-0.036687877
45	0x3d814b7f	0.06313228
46	0xbd5d13dd	-0.05397402
47	0xbd8b9588	-0.0681563
48	0xbd5ccf66	-0.053908728
49	0xbc5f605a	-0.013633812
50	0x3cdecbdf	0.027196823
51	0x3d1a1c77	0.037624802
52	0x3d7f6d12	0.062359877
53	0xbd9257ac	-0.07145628
54	0xbb54f09a	-0.0032492043
55	0x3cbbe025	0.022934029
56	0xbbc4e5db	-0.006008846
57	0xbc8d2f24	-0.017234392
58	0x3d436c19	0.04771051
59	0xbc8df8e4	-0.017330594
60	0xbcc7fc02	-0.024412159
61	0xba0702f1	-0.00051502796
62	0x3d1cb99b	0.038262945
63	0x3d703a87	0.058649566
64	0x3ce7a7ec	0.028278314
65	0xbd53924b	-0.051653188
66	0xbca89530	-0.02057895
67	0xbd30adf4	-0.043134645
68	0x3a43e373	0.0007472552
69	0xbd7e92b2	-0.06215162
70	0x3ccda406	0.025102627
71	0x3bc3087f	0.0059519405
72	0x3bf1c47f	0.0073781605
73	0x3d1cc074	0.038269475
74	0xbc269ad2	-0.010168748
75	0x3d94ac24	0.07259396
76	0x3d491a77	0.049097504
77	0xbcebcc7c	-0.02878403
78	0xbd3b6f51	-0.045760456
79	0x3cf6afdb	0.030113151
80	0x3cdeec59	0.027212309
81	0xbcd482d6	-0.025941294
82	0xbd9faf8d	-0.077971555
83	0x3b33064b	0.0027316983
84	0xbc9ca5e6	-0.019122075
85	0x3d250f01	0.040297512
86	0xbd583610	-0.052785933
87	0xbca4cd65	-0.020117471
88	0xbb06e7a2	-0.0020584841
89	0xbcc6426a	-0.02420159
90	0x3d8dd25d	0.06924889
91	0xbd2e2344	-0.0425141
92	0xbd638223	-0.05554403
93	0x3cd0e2c0	0.025498748
94	0x3d0838cf	0.033257302
95	0xbc03cb6d	-0.008044106
96	0xbd9b2325	-0.07575063
97	0x3d6bd0f2	0.057572313
98	0xbca48e42	-0.020087365
99	0x3d3c4694	0.045965746
100	0x3d7091df	0.058732864
101	0xbca13ab1	-0.019681307
102	0xbd882b39	-0.06648869
103	0x3c7ba746	0.015359705
104	0x3d2434e4	0.040089503
105	0xbc516150	-0.012779549
106	0xbcd922a4	-0.026505776
107	0xbc6f8a86	-0.014620429
108	0xbbd3ab1e	-0.0064596077
109	0x3d4b3e45	0.04961993
110	0x3c0044ac	0.007828873
111	0xbdb793f7	-0.08963769
112	0x3d342b97	0.043986883
113	0xbd054129	-0.032532845
114	0x3d12bc5a	0.035824157
115	0x3d2a8215	0.041627962
116	0x3d0a084b	0.033699315
117	0x3b167924	0.002296039
118	0x3d63f416	0.0556527
119	0x3b38b5bf	0.00281845
120	0x3baf4c02	0.005349637
121	0x3d236e8b	0.039900344
122	0xbd8caf38	-0.06869358
123	0x3d6aba28	0.05730644
124	0xbd087f1e	-0.033324353
125	0x3b76a485	0.0037634682
126	0x3c2315da	0.00995394
127	0x3cdf447f	0.027254341
128	0xbd317269	-0.043322
129	0x3d82114d	0.06350956
130	0xbd3bc720	-0.045844197
131	0xbc78dd90	-0.015189543
132	0xbd2b620d	-0.041841555
133	0xbc5b2398	-0.013375185
134	0xbc5650aa	-0.013080755
135	0x3d5f977e	0.054587834
136	0xbd7600de	-0.06005942
137	0xbd4752b1	-0.048662845
138	0xbd5a5ff9	-0.053314183
139	0xbc986b43	-0.018605834
140	0xbb81196c	-0.003939798
141	0x3d0476c1	0.032339815
142	0xbd53b696	-0.0516878
143	0xbd84b8e0	-0.064805746
144	0xbd6adb94	-0.057338312
145	0x3cf78409	0.030214326
146	0x3d314c82	0.043285854
147	0x3b99320c	0.0046751555
148	0x3ca9af8a	0.020713586
149	0xbc1f6e5c	-0.009730902
150	0x3c4bcd86	0.012439137
151	0x3c270e12	0.010196226
152	0xbc9b4448	-0.018953457
153	0x3d81b34a	0.06333025
154	0xbd510106	-0.051026367
155	0xbd82a8e3	-0.06379869
156	0x3d68ddc0	0.056852102
157	0x3d7922f7	0.06082436
158	0xbdaf478c	-0.08558568
159	0x3d8eaf2a	0.06967004
160	0xbd6aebfc	-0.05735396
161	0x3be879f5	0.0070946165
162	0x3caa5da1	0.020796599
163	0x3d8be8b4	0.06831494
164	0xbbd907d0	-0.006623246
165	0xbd59032e	-0.052981548
166	0x3ce54d2c	0.0279909
167	0x3cb95b9b	0.022626689
168	0x3d38ae4c	0.045088097
169	0xbd27bbe2	-0.040950663
170	0xbce00878	-0.027347788
171	0x3d000781	0.031257156
172	0x3d369257	0.044573154
173	0x3c08f6e4	0.008359645
174	0xbdaf3778	-0.08555502
175	0x3d4fdb87	0.050746467
176	0x3d7e0d2f	0.06202429
177	0x3cbbc674	0.022921778
178	0xbd31f968	-0.043450743
179	0x3cac7240	0.021050572
180	0xbd549f11	-0.05190951
181	0x3bb53056	0.0055294437
182	0x3c6074cf	0.013699724
183	0x3da296a8	0.07938892
184	0x3d8e4e8f	0.069485776
185	0x3ba1f876	0.004942949
186	0x3d9d4807	0.07679754
187	0xbd163823	-0.03667463
188	0xbd7d55c4	-0.06184937
189	0x3ce671cd	0.028130436
190	0xbcd7f385	-0.026361236
191	0xbd3bee93	-0.04588182
192	0xbb82631b	-0.0039790994
193	0x3c522435	0.012826015
194	0xbbfa9aa0	-0.0076478273
195	0xbb97e806	-0.0046358136
196	0xba214d7f	-0.00061532104
197	0xbd2b8639	-0.04187605
198	0x3c5e2b3d	0.0135601135
199	0x3cc0df80	0.023544073
200	0x3d92bfd0	0.071654916
201	0x3bfe7dd6	0.0077664657
202	0x3d66243b	0.056186896
203	0x3d906ebd	0.07052372
204	0xbccc8e0a	-0.024970073
205	0xbd4505ec	-0.04810135
206	0xbc09df6d	-0.008415085
207	0xbd2babae	-0.041911773
208	0xbd3b7db9	-0.045774195
209	0x3c31e4ff	0.01085782
210	0xbca12813	-0.01967243
211	0xbbbd9814	-0.0057859514
212	0x3cf64a1e	0.030064639
213	0x3c2b2725	0.0104463445
214	0x3d452c0a	0.048137702
215	0xbda33444	-0.07968953
216	0x3d2b3f4e	0.04180842
217	0x3d869a26	0.0657237
218	0x3d9b897d	0.07594583
219	0xbd280419	-0.041019533
220	0x3b1af761	0.0023645984
221	0xbd435e1c	-0.04769717
222	0x3c2970cc	0.010341834
223	0xbd5b1383	-0.053485405
224	0xbd5e3eab	-0.054258984
225	0x3c3ff413	0.011715907
226	0xbc9232a4	-0.017846413
227	0xbd8464b2	-0.064645186
228	0xbd22da60	-0.03975904
229	0xbc76b074	-0.015056718
230	0xbd0d053a	-0.034428813
231	0x3c1d60ee	0.009605629
232	0x3d74bf27	0.05975261
233	0xbd486f82	-0.048934467
234	0x3c9e7aa4	0.019345589
235	0xbd8f6149	-0.070009775
236	0xbcb36dbb	-0.02190291
237	0x3d2a33e8	0.041553408
238	0xbd0e4fd7	-0.03474411
239	0xbdb986a5	-0.090588845
240	0xbd3c7826	-0.04601302
241	0xbbb77ad6	-0.00559936
242	0xbb5a21ae	-0.0033284235
243	0xbc830bab	-0.015996775
244	0xbca7f38b	-0.020501873
245	0x3d1bea1e	0.03806507
246	0x3d19de5c	0.037565574
247	0x3afa65c7	0.0019103818
248	0x3b2b1a70	0.0026108287
249	0xbd1e7f36	-0.038695537
250	0x3d81ce7d	0.06338213
251	0x3d4af742	0.04955221
252	0x3d99e04e	0.07513486
253	0x3c32cfc3	0.010913792
254	0xbcd8aa25	-0.026448319
255	0xbcd43f4c	-0.025909089

weight f4 [300, 200]
0	0xbdd91dbf	-0.10601377
1	0x80000000	-0.0
2	0x80000000	-0.0
3	0x3e2b35d3	0.16719751
4	0x3ded61f0	0.11590946
5	0x3d335441	0.043781523
6	0xbe1ece38	-0.15508354
7	0x3e0f66fa	0.14004126
8	0xbcb8c6d0	-0.022555739
9	0x00000000	0.0
10	0x3c907f7f	0.01763892
11	0x3de6c2bf	0.112676136
12	0x3ce61972	0.028088305
13	0x80000000	-0.0
14	0x80000000	-0.0
15	0x3e1a1d7f	0.15050314
16	0xbe3f91d0	-0.18707967
17	0xbd6d1b47	-0.05788734
18	0xbde0ead2	-0.109822884
19	0x00000000	0.0
20	0xbde6cca3	-0.112695
21	0x00000000	0.0
22	0x3d10d078	0.03535506
23	0x3d7ed0bd	0.062210787
24	0x3decb3cf	0.11557733
25	0x3da54892	0.08070482
26	0x3d60190f	0.054711398
27	0x3ce9004c	0.028442524
28	0x3e2bb33e	0.16767594
29	0x00000000	0.0
30	0x3d71cf2a	0.059035458
31	0x00000000	0.0
32	0x80000000	-0.0
33	0x00000000	0.0
34	0xbd0b1abf	-0.033961054
35	0xbccde83a	-0.025135148
36	0x3e11e18d	0.14246197
37	0x00000000	0.0
38	0xbcb8e45e	-0.022569831
39	0x3cdd3eff	0.027007578
40	0x00000000	0.0
41	0x3ce11e96	0.027480405
42	0x3e01d9ed	0.12680788
43	0xbd88f776	-0.066878244
44	0xbd6eb7f9	-0.05828092
45	0x3dbedfba	0.09320016
46	0x3c7f798c	0.015592944
47	0xbe0712bf	-0.13190745
48	0x80000000	-0.0
49	0x3e002c8f	0.12516998
50	0x00000000	0.0
51	0x00000000	0.0
52	0xbc9d1f39	-0.019179927
53	0xbe2f67f4	-0.17129499
54	0x00000000	0.0
55	0xbcb805ee	-0.022463765
56	0x3d64599b	0.055749517
57	0x3dccf76d	0.1000813
58	0xbe424cbe	-0.18974587
59	0xbe21f397	-0.15815578
60	0xbd1f7dd9	-0.038938377
61	0x00000000	0.0
62	0xbd96eb73	-0.07369127
63	0x3d40f367	0.047107127
64	0x3e0e0b2b	0.13871448
65	0xbdc90cb0	-0.09816873
66	0xbe269fd2	-0.16271904
67	0x3de4d0b1	0.11172617
68	0x00000000	0.0
69	0x80000000	-0.0
70	0x3dc39af8	0.09551042
71	0xbd8cc403	-0.06873324
72	0xbd89e279	-0.06732649
73	0xbe118bda	-0.14213505
74	0x3c7bd30a	0.01537014
75	0xbd3da756	-0.046302162
76	0xbdfdffdc	-0.12402317
77	0xbdb6de2e	-0.08929096
78	0x3dec6665	0.11542968
79	0x3d87f584	0.06638625
80	0x80000000	-0.0
81	0x00000000	0.0
82	0x3d68357a	0.056691624
83	0x3d07417e	0.033021443
84	0x3c905945	0.017620692
85	0x3d8d2f79	0.0689382
86	0xbda8c535	-0.08240739
87	0x3d854989	0.06508166
88	0x00000000	0.0
89	0xbdd11e36	-0.102108404
90	0x3d430d38	0.04762003
91	0x3d354b58	0.044261307
92	0xbd42bdb6	-0.047544204
93	0xbdcd16c2	-0.10014106
94	0x80000000	-0.0
95	0x3d99e5da	0.07514544
96	0xbca6becb	-0.020354649
97	0xbdba3c0d	-0.09093485
98	0x00000000	0.0
99	0x3e351d4e	0.1768696
100	0x3d6af681	0.05736399
101	0x3cd70845	0.02624906
102	0x3dd401b6	0.10351889
103	0x3d2155ca	0.039388455
104	0x3e4f23a9	0.20228447
105	0xbca9031f	-0.020631371
106	0xbd11d8fd	-0.035607327
107	0x3d9ee400	0.07758331
108	0xbde338d7	-0.11094826
109	0x00000000	0.0
110	0xbdd9ec0b	-0.10640725
111	0x00000000	0.0
112	0xbdafbd67	-0.085810475
113	0xbe0d0066	-0.13769683
114	0xbe1eb308	-0.15497983
115	0x00000000	0.0
116	0x80000000	-0.0
117	0x3d3cc12a	0.046082653
118	0xbdac06b2	-0.083997145
119	0x3d15525d	0.0364555
120	0x3d8416ef	0.06449687
121	0x80000000	-0.0
122	0xbe0cf762	-0.13766244
123	0x00000000	0.0
124	0x00000000	0.0
125	0xbc42133b	-0.011845405
126	0x3ddbbf49	0.10729844
127	0x3dc3639e	0.09540485
128	0xbd148806	-0.036262535
129	0x3bb9f75f	0.005675241
130	0x3de05e35	0.109554686
131	0x3d1ea3d2	0.03873045
132	0xbdfc19d4	-0.12309614
133	0x80000000	-0.0
134	0x3dc29874	0.095017344
135	0x3c8dfbc1	0.01733196
136	0x00000000	0.0
137	0xbca4b4e3	-0.020105785
138	0x3b18334a	0.002322393
139	0x3d1f761b	0.038930994
140	0x80000000	-0.0
141	0x00000000	0.0
142	0x3e4f629b	0.20252459
143	0x00000000	0.0
144	0xbd9322ba	-0.07184358
145	0xbc496633	-0.012292433
146	0x3d065baf	0.03280228
147	0x3d258096	0.040405832
148	0xbd8d8f7b	-0.06912132
149	0x3e0cc835	0.13748248
150	0x3d02bc4f	0.031917866
151	0xbe2b931c	-0.16755337
152	0x00000000	0.0
153	0xbd807619	-0.06272525
154	0x3d52e3c5	0.05148675
155	0x3d9c9997	0.076464824
156	0xbbfc2e52	-0.0076959515
157	0x3bbcdba9	0.00576349
158	0x80000000	-0.0
159	0x80000000	-0.0
160	0xbd34f04d	-0.04417448
161	0x3bf626dd	0.007511957
162	0xbd9782c7	-0.07397991
163	0x80000000	-0.0
164	0x3ccee9ba	0.025257934
165	0x3ce50180	0.027954817
166	0x00000000	0.0
167	0x3e273b5c	0.16331238
168	0x80000000	-0.0
169	0x80000000	-0.0
170	0xbcf24a58	-0.029576465
171	0x3ca4a3d8	0.020097658
172	0x3d869c55	0.06572787
173	0xbd4b75ca	-0.04967288
174	0x3e03b78b	0.12862985
175	0x3cbb2278	0.022843584
176	0xbdfccf1b	-0.1234419
177	0x00000000	0.0
178	0xbd22dac8	-0.039759427
179	0x80000000	-0.0
180	0x3dcadb4d	0.099051096
181	0xbdfcfb26	-0.1235259
182	0xbd5b83c8	-0.053592473
183	0x00000000	0.0
184	0x3c7644f1	0.015031085
185	0x3db4f4f9	0.08835787
186	0x80000000	-0.0
187	0x3db0112a	0.08597024
188	0xbda769ce	-0.081744775
189	0x3d9e4521	0.07728029
190	0xbbff8566	-0.0077978848
191	0x3ce510d6	0.02796213
192	0x00000000	0.0
193	0xbd78c656	-0.060736023
194	0xbd1b82c0	-0.03796649
195	0x3bbb1cb8	0.0057102107
196	0x80000000	-0.0
197	0x80000000	-0.0
198	0x3d66d501	0.05635548
199	0x3da9dc5a	0.08293982
200	0x3e1858e4	0.14877659
201	0x3da4f3f9	0.080543466
202	0xbd0aad4c	-0.033856675
203	0xbe04fa19	-0.1298603
204	0x3d86f3d5	0.06589476
205	0xbdd6f34d	-0.10495625
206	0x80000000	-0.0
207	0xbd953514	-0.072855145
208	0x3d61ac51	0.055095974
209	0x00000000	0.0
210	0xbd4dc98b	-0.050241034
211	0x00000000	0.0
212	0x80000000	-0.0
213	0xbd2b969e	-0.041891687
214	0x3cb70dd5	0.022345463
215	0x3e05b147	0.13055907
216	0x3e267b9a	0.16258088
217	0x80000000	-0.0
218	0xbda3628e	-0.07977782
219	0x00000000	0.0
220	0x00000000	0.0
221	0x3dd19c97	0.10234945
222	0xbc8f592a	-0.017498571
223	0x3d4a83d9	0.049442146
224	0x3d6093e8	0.054828554
225	0xbc1fe041	-0.009758056
226	0x00000000	0.0
227	0x80000000	-0.0
228	0xbe0d82f5	-0.13819487
229	0x3d0826d0	0.03324014
230	0xbcff8eac	-0.031195961
231	0x80000000	-0.0
232	0x3c571a33	0.013128805
233	0x3d883618	0.066509426
234	0x3cb04154	0.021515526
235	0x3dfef6b8	0.124494016
236	0x80000000	-0.0
237	0xbd717391	-0.058948103
238	0xbd860bb6	-0.065452024
239	0x3d416dc6	0.04722383
240	0x80000000	-0.0
241	0x3df3502c	0.11880526
242	0x3db0a194	0.086245686
243	0x3d8df61f	0.069317095
244	0xbd557c97	-0.05212077
245	0x00000000	0.0
246	0x3d479a25	0.048730988
247	0x3ddd1c3c	0.10796401
248	0x3da1f242	0.07907535
249	0xbe12105a	-0.1426405
250	0x3da2fc7a	0.07958312
251	0x3dc2237c	0.09479424
252	0xbcbad63a	-0.02280723
253	0x3e301da7	0.17198811
254	0x3cdfdc84	0.02732683
255	0xbca0052c	-0.019533716

bias f4 [2]
0	0x3c1ca47d	0.009560701
1	0xbc2857a1	-0.010274799

weight f4 [2, 300]
0	0x3e232f01	0.159359
1	0xbe22a053	-0.15881471
2	0x3e16401e	0.14672896
3	0xbd3b10bc	-0.045670256
4	0x3c66fe92	0.01409878
5	0x3e39f620	0.18160295
6	0xbccbd870	-0.024883479
7	0x3c499e2f	0.01230578
8	0xbe2340c1	-0.1594267
9	0x3e3349fc	0.17508692
10	0xbe0ae30d	-0.13563175
11	0x3dfc6c67	0.123253636
12	0xbe0cd4be	-0.1375303
13	0xbe117fdb	-0.14208929
14	0x3e1b18ae	0.15146133
15	0x00000000	0.0
16	0xbd3f4d9f	-0.046704885
17	0x3e1c7e3a	0.15282527
18	0x00000000	0.0
19	0xbdbd146e	-0.09232412
20	0x3e0db644	0.1383906
21	0x3e0bd8e5	0.13656957
22	0xbd4278db	-0.047478538
23	0xbc63923e	-0.013889847
24	0x3cdf68d6	0.02727167
25	0x3e23d975	0.16000922
26	0xbd4d4a07	-0.050119426
27	0x3dc4aa10	0.09602749
28	0x3e2ae366	0.16688308
29	0x3dd0f6c4	0.10203317
30	0x3dfa1fb1	0.12213076
31	0x3e1dce31	0.15410687
32	0xbdc36a8d	-0.09541807
33	0x3deba381	0.11505795
34	0x3e079c68	0.13243258
35	0xbe465da6	-0.19371662
36	0x3d3ef8c8	0.046623975
37	0x3e214532	0.15749052
38	0x3c83e249	0.016099112
39	0xbd2f5570	-0.04280609
40	0xbd9f7f23	-0.07787921
41	0x3de83bf2	0.11339559
42	0x3db07e26	0.08617811
43	0xbd8eb57c	-0.06968209
44	0x3d6cf3e3	0.057849776
45	0xbe064e65	-0.13115843
46	0x3d2c0bfd	0.04200362
47	0xbd538896	-0.05164393
48	0x80000000	-0.0
49	0x3cbc4d02	0.022985939
50	0x80000000	-0.0
51	0x3e0eb838	0.13937461
52	0x3d310507	0.043217685
53	0x00000000	0.0
54	0x3dcae605	0.09907154
55	0xbe135892	-0.14389256
56	0xbdae8808	-0.0852204
57	0x3d8bff36	0.06835787
58	0xbd01ddd4	-0.031705692
59	0x3d389eef	0.045073446
60	0x3e2b4155	0.16724141
61	0x80000000	-0.0
62	0x00000000	0.0
63	0xbdfe0860	-0.12403941
64	0x00000000	0.0
65	0x80000000	-0.0
66	0x00000000	0.0
67	0x00000000	0.0
68	0xbd364d7d	-0.044507492
69	0x3ce05234	0.027382948
70	0x00000000	0.0
71	0x3dd5c99c	0.104388446
72	0xbe04c532	-0.12965849
73	0xbdbf84bc	-0.09351489
74	0x80000000	-0.0
75	0x3e07ca8b	0.13260858
76	0xbdf1947d	-0.117959
77	0xbcffcc36	-0.031225305
78	0xbdf9429c	-0.12170908
79	0xbe322f01	-0.17400743
80	0xbcece71c	-0.028918795
81	0x3e2b1b67	0.16709672
82	0xbe0595d7	-0.1304544
83	0x3dbb6fe0	0.09152198
84	0xbdb5cc15	-0.08876816
85	0xbd8de6a9	-0.069287606
86	0x3dd2a298	0.102849185
87	0xbd0cbcbf	-0.03435969
88	0x3de7f144	0.11325315
89	0xbd0a4779	-0.033759568
90	0xbdc6572f	-0.09684598
91	0xbceafa3f	-0.02868378
92	0x80000000	-0.0
93	0x80000000	-0.0
94	0x80000000	-0.0
95	0x80000000	-0.0
96	0x80000000	-0.0
97	0xbd66ff85	-0.056396026
98	0xbdd00e45	-0.10158972
99	0xbd1f492f	-0.038888153
100	0x3da45747	0.08024459
101	0x3e1e2bf6	0.15446457
102	0xbe03c31b	-0.12867396
103	0x3e25cf09	0.16192259
104	0x3cf4da5b	0.029889276
105	0xbd237823	-0.039909493
106	0xbd3da98e	-0.046304278
107	0xbe53169f	-0.20614098
108	0xbe2e2eb5	-0.17010005
109	0x3dc49225	0.09598187
110	0xbcb4b650	-0.02205959
111	0x3e21890b	0.15774934
112	0x80000000	-0.0
113	0x3e07b4ca	0.1325256
114	0xbdaef4f4	-0.08542815
115	0x3da9c4fe	0.082895264
116	0x3df5cfc9	0.120025225
117	0xbe4b53eb	-0.19856231
118	0x00000000	0.0
119	0x00000000	0.0
120	0x3e1a6a19	0.15079536
121	0x3d803f4c	0.06262073
122	0x3e29f0fd	0.16595836
123	0xbd96a447	-0.07355552
124	0xbe18b7c4	-0.14913851
125	0xbe0ef597	-0.13960873
126	0xbd6f62de	-0.058443896
127	0xbdae1c21	-0.08501459
128	0xbde5b0ff	-0.112154
129	0x80000000	-0.0
130	0xbe2bf3a4	-0.1679216
131	0x00000000	0.0
132	0xbe3c5763	-0.1839271
133	0xbd1743f1	-0.03693003
134	0xbd3af72c	-0.045645878
135	0xbd3935c5	-0.045217294
136	0xbe2d9b70	-0.16953826
137	0x00000000	0.0
138	0x3e10a004	0.14123541
139	0x3e128dee	0.14311954
140	0x3c984aae	0.018590298
141	0xbdc7b2d6	-0.09750907
142	0x3e237fca	0.15966716
143	0xbd39cf6c	-0.04536383
144	0x3c5e0ec4	0.013553325
145	0xbd5326b1	-0.05155057
146	0xbd98e110	-0.07464802
147	0x3cabdb43	0.020978576
148	0x3d39d4b3	0.04536886
149	0xbe1e9f51	-0.15490462
150	0x3d421dfd	0.04739188
151	0x00000000	0.0
152	0xbe37cc71	-0.17949082
153	0x3dbf4512	0.09339346
154	0xbe276d0c	-0.16350192
155	0x3cc8d76a	0.02451678
156	0xbdeb67e7	-0.11494427
157	0x3ded2abb	0.11580416
158	0x3e19b679	0.15011014
159	0xbdcbe700	-0.09956169
160	0x3d3d497f	0.04621267
161	0xbe11ed53	-0.14250688
162	0x80000000	-0.0
163	0x3da4c4d7	0.08045357
164	0xbe0f3650	-0.13985562
165	0xbdb7ec48	-0.08980614
166	0x3e254e5e	0.16143176
167	0xbc8158ab	-0.01578935
168	0xbd9ae612	-0.07563414
169	0x3d9deba4	0.077109605
170	0xbd911b5c	-0.070852965
171	0x3e05dffa	0.13073722
172	0x3e0b88f0	0.13626456
173	0x3dbf0d92	0.0932876
174	0x3d8cae98	0.068692386
175	0x3da0f8b2	0.07859935
176	0xbd6d88ae	-0.057991676
177	0x3dd36f7e	0.10324
178	0xbe056c5b	-0.13029616
179	0x3e2ca9f0	0.16861701
180	0x3e2a1a03	0.16611485
181	0x3ca3f482	0.020014051
182	0xbd988b7b	-0.07448479
183	0xbe3acfb7	-0.182433
184	0xbd8aff52	-0.0678698
185	0xbd2dab9d	-0.04239999
186	0x3dac540a	0.08414467
187	0x3dfc75fa	0.1232719
188	0xbdf4ba7d	-0.11949632
189	0x3d9e0d35	0.07717363
190	0x3c93f5b7	0.018061502
191	0xbe3a3d16	-0.18187365
192	0xbe03c5c4	-0.1286841
193	0x3d139322	0.03602899
194	0x80000000	-0.0
195	0xbd0f28a4	-0.034950867
196	0x3e2ccea0	0.16875696
197	0xbce9edc4	-0.028555758
198	0x00000000	0.0
199	0xbe15af07	-0.14617549
200	0xbdcfc49f	-0.10144924
201	0xbd1c0c1c	-0.038097486
202	0x3e2b37a6	0.16720447
203	0x00000000	0.0
204	0xbe1a795c	-0.15085357
205	0xbcae420d	-0.02127173
206	0x3ce45487	0.027872337
207	0xbe478528	-0.19484389
208	0xbd9a4f07	-0.075346045
209	0x3d8ded0d	0.069299795
210	0xbdce7b87	-0.10082155
211	0x3d5e0818	0.054206938
212	0x00000000	0.0
213	0xbd70331a	-0.058642484
214	0x3dbc389f	0.09190487
215	0x3e349e86	0.17638597
216	0x00000000	0.0
217	0x00000000	0.0
218	0xbdb4bb97	-0.088248424
219	0x3db288f3	0.08717527
220	0x3d3643bb	0.044498187
221	0x3def8c66	0.11696701
222	0x00000000	0.0
223	0x00000000	0.0
224	0x00000000	0.0
225	0x80000000	-0.0
226	0x3e17db87	0.14829837
227	0x3d29db38	0.04146883
228	0xbde70252	-0.112797394
229	0xbc717ecf	-0.014739706
230	0x00000000	0.0
231	0xbd006bb6	-0.03135272
232	0x3e036e0d	0.1283495
233	0xbd626872	-0.055275388
234	0xbd7ff9e3	-0.06249417
235	0x3e15fe0b	0.14647691
236	0xbd42228c	-0.047396228
237	0x3d31dafb	0.043421727
238	0xbcca6369	-0.024705606
239	0x3dd880a2	0.1057141
240	0x3da2e8e7	0.07954579
241	0x3dd2fbd2	0.10301937
242	0xbdf2b087	-0.11850076
243	0x3d93a379	0.07208914
244	0x3df93c75	0.121697344
245	0x3de9063c	0.11378142
246	0xbdfd5f0b	-0.12371644
247	0x3d32f33e	0.043689005
248	0x80000000	-0.0
249	0x80000000	-0.0
250	0x80000000	-0.0
251	0xbdc8dacd	-0.09807358
252	0xbde3b79c	-0.11119005
253	0x3cc7610a	0.024338264
254	0xbdc16f56	-0.09445064
255	0xbd04e642	-0.032446153
