figures/Illu_large_partial_2/theta=0.1_s=0.7_step=100/best_model.pth (torch, 246949 bytes, 5 tensors)

weight f4 [200, 1]
0	0xbee2340c	-0.44180334
1	0xbf85d89b	-1.0456728
2	0x3f79accb	0.97529286
3	0x3f96df5d	1.1786915
4	0x3f851b9c	1.0399051
5	0x3fa4cabc	1.287437
6	0x3fb14b4b	1.3851103
7	0xbebacff3	-0.36486778
8	0xbf3a7b9f	-0.7284488
9	0x3e7ebb9b	0.24876253
10	0xbf883808	-1.0642099
11	0x3ef0fbab	0.47067007
12	0xbf807e1a	-1.0038483
13	0x3f8fe356	1.1241252
14	0x3f7faae7	0.9987015
15	0xbfa88a7e	-1.3167264
16	0xbf83d0f2	-1.029814
17	0x3f00dc2f	0.50335974
18	0x3f86b5a7	1.0524186
19	0xbf7f4b5e	-0.99724376
20	0x3ef2cf45	0.4742376
21	0xbf84236c	-1.032331
22	0xbef19b98	-0.4718902
23	0x3f8393aa	1.0279438
24	0xbf6175c8	-0.88070345
25	0x3f9cab46	1.2239769
26	0x3f74915d	0.95534307
27	0xbfafdf5d	-1.374004
28	0xbf80f6d3	-1.0075325
29	0x3f846eb5	1.0346285
30	0xbf86b9f0	-1.0525494
31	0x3ef4834c	0.47756422
32	0xbfc2dcb8	-1.5223608
33	0x3ef3271e	0.47490782
34	0x3fa07934	1.2536988
35	0x3eb57352	0.35439545
36	0xbf96ac53	-1.1771339
37	0x3f8966fa	1.0734551
38	0xbe5fadcb	-0.2184364
39	0xbf885b5d	-1.0652882
40	0x3f9828bd	1.1887432
41	0xbf323441	-0.69610983
42	0x3fbbb990	1.4666004
43	0x3f9df768	1.2341127
44	0xbebaed19	-0.36509016
45	0xbeb902bd	-0.36134902
46	0x3f8970d1	1.0737554
47	0xbf93957f	-1.1529998
48	0x3f7348b3	0.95032805
49	0xbffaf4e9	-1.9605991
50	0x3efdf25c	0.49598968
51	0xbf1c6466	-0.61090696
52	0x3f39295d	0.7232874
53	0x3f1ef2ee	0.6208943
54	0x3f9a1f43	1.204079
55	0xbf867b78	-1.050643
56	0x3f2412cb	0.64091176
57	0x3e715a33	0.23569565
58	0xbf8086ba	-1.0041115
59	0x3f4003bc	0.750057
60	0xbf5b6cef	-0.85713094
61	0x3f84f839	1.0388252
62	0xbed95a31	-0.42451623
63	0x3f9ebf67	1.2402161
64	0x3f9cb3b2	1.2242339
65	0xbf8a40da	-1.0801041
66	0xbe3082f9	-0.17237462
67	0x3fa1c34e	1.2637727
68	0xbf7fbd76	-0.9989847
69	0xbf5c754c	-0.8611648
70	0xbf6ad9ab	-0.91738385
71	0x3efb690e	0.49103588
72	0xbf86a598	-1.0519285
73	0xbe069e4b	-0.13146321
74	0x3f4133f3	0.75469893
75	0xbf854b8c	-1.041368
76	0xbf7eb3f7	-0.99493355
77	0x3ff484e5	1.9103056
78	0x3f9a0ad6	1.2034557
79	0x3f9a752a	1.2067006
80	0xbece85db	-0.403365
81	0xbf368d03	-0.71308917
82	0x3f894429	1.0723926
83	0x3f978868	1.1838503
84	0x3f99e30c	1.2022414
85	0x3f12aadf	0.5729198
86	0x3f838c35	1.0277163
87	0xbe72d413	-0.23713712
88	0xbf84f268	-1.0386477
89	0xbe844e12	-0.25840813
90	0xbed06c61	-0.40707687
91	0x3f8cac90	1.0990162
92	0xbf8762b3	-1.0576996
93	0xbffdced2	-1.9828742
94	0x3f82b84f	1.0212497
95	0xbf822837	-1.0168523
96	0xbf05438c	-0.52056193
97	0xbebb4703	-0.36577615
98	0x3f8c96c4	1.098351
99	0xbef92ee8	-0.486686
100	0x3f9a905a	1.2075303
101	0xbea32c9a	-0.31869966
102	0xbf84b9a5	-1.0369154
103	0xbffb4a31	-1.9632016
104	0x3f9e614d	1.2373444
105	0xbef8c9e0	-0.48591518
106	0x3f777a29	0.96670777
107	0xbfb49c57	-1.4110211
108	0xbf8850ad	-1.064962
109	0x3f85b3d0	1.04455
110	0xbf912d6f	-1.134199
111	0x3f7f54cb	0.9973876
112	0x3f79a1e3	0.97512645
113	0xbf8ff55f	-1.1246756
114	0x3e8c29d4	0.27375662
115	0xbf91cbd5	-1.139033
116	0x3f855e7b	1.0419458
117	0xbec53828	-0.38519406
118	0xbf870c4f	-1.0550631
119	0xbe8246aa	-0.25444537
120	0xbf913f5e	-1.1347463
121	0x3e76f89a	0.24118271
122	0x3f6fc411	0.9365855
123	0xbf80c68b	-1.006059
124	0xbf8798aa	-1.0593464
125	0xbefc56fd	-0.49285117
126	0xbf799b8e	-0.9750298
127	0x3f846b10	1.0345173
128	0xbf861a9f	-1.0476874
129	0xbf9df10e	-1.2339189
130	0xbf288d28	-0.6584039
131	0x3f74c1e7	0.9560837
132	0xbedb48c0	-0.4282894
133	0x3f83ce44	1.0297322
134	0x3f0b0d4b	0.5431716
135	0xbf859384	-1.0435643
136	0x3fa8bff8	1.3183584
137	0x3f4cf22b	0.8005702
138	0xbf866cca	-1.050195
139	0xbf817aaf	-1.0115565
140	0x3f87f30f	1.0621051
141	0xbef184a0	-0.47171497
142	0xbefbd180	-0.49183273
143	0x3faf677d	1.3703457
144	0xbf843903	-1.0329899
145	0x3f9aebc3	1.2103199
146	0x3efc9272	0.4933048
147	0x3f8e4981	1.1116182
148	0x3f826bcd	1.0189148
149	0xbf913993	-1.1345695
150	0xbf74ab86	-0.95574224
151	0x3f0479f8	0.5174861
152	0x3f9aef6b	1.2104315
153	0xbf92fac2	-1.1482775
154	0xbf7abc4f	-0.97943586
155	0x3f9a2593	1.2042717
156	0xbf98bd7a	-1.1932824
157	0xbf43f884	-0.7655108
158	0x3f9c69a2	1.2219737
159	0xbefd56e8	-0.49480367
160	0x3f8956be	1.0729597
161	0xbf757918	-0.958879
162	0xbf915367	-1.1353577
163	0xbf91e11e	-1.1396825
164	0x3f2b8e6d	0.670142
165	0xbf8a4255	-1.0801493
166	0x3f6ba2a3	0.9204504
167	0xbf318f7c	-0.69359565
168	0x3f741091	0.9533778
169	0x3f9bb303	1.2164005
170	0x3fae4d6e	1.361738
171	0x3f92e96c	1.1477485
172	0x3f875e13	1.0575584
173	0xbf8e7d51	-1.1131994
174	0xbf936b81	-1.1517183
175	0xbf8872ac	-1.0659995
176	0xbf4c06fd	-0.79698163
177	0xbf885d38	-1.0653448
178	0xbf8b9e7a	-1.0907738
179	0x3f79f8a7	0.9764504
180	0xbf853dc8	-1.0409479
181	0xbf783500	-0.9695587
182	0xbef86be9	-0.4851983
183	0x3f85b0f0	1.0444622
184	0x3f86aee2	1.052212
185	0x3f053e26	0.52047956
186	0xbf160cd4	-0.58613324
187	0xbef47d2a	-0.47751743
188	0x3f25a071	0.6469794
189	0x3f0304db	0.51179284
190	0x3efc498d	0.49274865
191	0x3f558565	0.8340667
192	0xbef6bf92	-0.48193032
193	0xbf85e366	-1.0460021
194	0x3f837312	1.0269492
195	0x3f86b718	1.0524626
196	0x3f5a0b57	0.85173553
197	0x3f8911d1	1.0708562
198	0xc002361e	-2.034553
199	0xbf75985b	-0.959356

bias f4 [200]
0	0xbfaef5b8	-1.3668737
1	0x3f8adab6	1.0847995
2	0x3f311be7	0.691832
3	0xbeb320f6	-0.34986085
4	0x3fa6558f	1.299486
5	0xbed501a2	-0.41602808
6	0x3df4d782	0.11955167
7	0xbf33ae38	-0.7018771
8	0x3f24c739	0.6436649
9	0xbd2e5706	-0.04256346
10	0x3fcd4826	1.6037643
11	0x3fc7ac55	1.5599467
12	0x3e2004b2	0.15626791
13	0xbf1c96d3	-0.6116764
14	0x3f2939f6	0.66104066
15	0xbd6b5517	-0.057454195
16	0xbf7652ee	-0.9622029
17	0xbf910fe3	-1.1332973
18	0x3f40b24d	0.75272065
19	0x3f7976c6	0.9744686
20	0xbf3e7a13	-0.7440502
21	0x3f4c9e3d	0.7992895
22	0x3f1aa288	0.60404253
23	0x3f7ec13f	0.9951362
24	0x3f19828e	0.59964836
25	0xbf3e85c8	-0.74422884
26	0x3f22b2d0	0.63554096
27	0xbe6c7808	-0.23092663
28	0xbf7675f2	-0.9627372
29	0x3f99ab67	1.2005433
30	0xbf802a9d	-1.0013005
31	0xbf55ecb0	-0.8356428
32	0xbec69121	-0.387826
33	0xbefbc8f6	-0.4917676
34	0xbf4f0bd9	-0.80877453
35	0x3f1f682c	0.6226833
36	0x3f37fa19	0.71865994
37	0x3fb1dfbc	1.3896403
38	0xbda6fbad	-0.08153472
39	0x3f8fc6f9	1.1232597
40	0xbf36923e	-0.713169
41	0x3f0939ca	0.53603804
42	0x3f04f226	0.5193199
43	0xbf202ff1	-0.6257315
44	0xbf479170	-0.77956295
45	0xbf3d6097	-0.7397551
46	0x3fb9d0e7	1.4516877
47	0x3f712270	0.9419317
48	0x3f05658a	0.5210806
49	0xbf3da18c	-0.74074626
50	0xbf091d18	-0.5356002
51	0xbec70fff	-0.38879392
52	0xbf7fa138	-0.99855375
53	0xbf4ce6b2	-0.80039513
54	0xbf723c37	-0.9462313
55	0x3f96b0c6	1.1772697
56	0xbe8f8a0b	-0.28035006
57	0x3d9a7abc	0.07542941
58	0x3f9dfb81	1.2342378
59	0xbedae664	-0.427539
60	0xbe6568b3	-0.22403221
61	0x3f998600	1.1994019
62	0xbe8e8825	-0.27838245
63	0xbed162c6	-0.4089567
64	0xbecb5f3e	-0.39721102
65	0xbf55e979	-0.83559376
66	0x3f35c9d9	0.7101112
67	0xbe9d22bd	-0.30690566
68	0xbf7d7808	-0.9901128
69	0x3e8ce635	0.27519384
70	0x3f9820c3	1.1884998
71	0xbf5fdf8a	-0.8745047
72	0x3f16adfc	0.5885923
73	0x3f10525f	0.5637569
74	0xbe4bfda1	-0.1992097
75	0xbf8cb7c9	-1.0993587
76	0xbf4fdbc5	-0.81194717
77	0x3eb1369d	0.3461198
78	0xbf7a1e9b	-0.9770295
79	0xbf8b4ef0	-1.0883465
80	0xbf8f5028	-1.1196337
81	0xbe212a58	-0.15738809
82	0x3c0639a6	0.008192455
83	0xbf53fb56	-0.82805383
84	0xbf2d935a	-0.67802966
85	0xbf37b2a0	-0.71756935
86	0x3f8a8d71	1.0824414
87	0x3ea5b83a	0.32367116
88	0x3f45d681	0.7728043
89	0x3dcd5a9f	0.1002705
90	0xbf92c689	-1.1466838
91	0x3fbe0e36	1.4848087
92	0x3fbc4760	1.4709282
93	0xbf28751d	-0.658037
94	0x3f5e968b	0.8694846
95	0x3fbfc62a	1.498235
96	0xbe30024c	-0.17188376
97	0xbf377279	-0.71659046
98	0x3fccc846	1.5998619
99	0x3f7745cb	0.9659087
100	0xbf460acc	-0.77360225
101	0xbefe6db8	-0.49693084
102	0xbf9a7604	-1.2067266
103	0xbf221a74	-0.63321614
104	0xbf825449	-1.0181972
105	0x3f8179ad	1.0115258
106	0x3f35cd99	0.7101684
107	0xbe2394c3	-0.15974717
108	0xbf997b56	-1.1990764
109	0x3f5bbacd	0.8583191
110	0x3fb8faaf	1.4451503
111	0x3f4fb106	0.8112949
112	0x3f0a4e89	0.54026085
113	0xbf12abd7	-0.57293457
114	0xbe511edd	-0.2042193
115	0x3f992dca	1.1967099
116	0x3facd00f	1.3500994
117	0xbf704b31	-0.93864733
118	0xbf6666e4	-0.9000075
119	0xbcce5764	-0.025188155
120	0x3f843ef5	1.0331713
121	0xbec33a0a	-0.38130218
122	0x3f234dce	0.63790596
123	0x3f4ba698	0.79551077
124	0xbfa103c7	-1.2579278
125	0xbf3d8e26	-0.74045026
126	0xbf7b5084	-0.9816973
127	0x3f6b919a	0.92019045
128	0x3f1b69a2	0.6070806
129	0x3f240495	0.6406949
130	0x3f343c58	0.7040458
131	0x3f31097e	0.6915511
132	0xbfa3a445	-1.2784506
133	0x3f8bd9a7	1.0925797
134	0xbfb3a055	-1.4033304
135	0x3f4edfe1	0.8081036
136	0xbe83df79	-0.25756434
137	0xbea8c666	-0.32963866
138	0xbf9a6835	-1.2063051
139	0xbe8ab81a	-0.27093583
140	0x3f8a95bf	1.0826949
141	0x3f27ece8	0.65595865
142	0x3f8a0b2e	1.0784662
143	0x3ec40528	0.38285184
144	0x3f7df6aa	0.99204504
145	0xbf6610e3	-0.8986952
146	0xbf27feca	-0.6562315
147	0x3fd956c3	1.6979603
148	0x3f372690	0.71543217
149	0x3fcac616	1.5841701
150	0xbf4364fc	-0.76325965
151	0xbfa293e6	-1.2701385
152	0xbf861f57	-1.0478314
153	0x3fb9ddb3	1.4520782
154	0xbf78867e	-0.9708022
155	0xbf32e0bd	-0.69874173
156	0x3f1e700b	0.61889714
157	0x3e588476	0.2114428
158	0xbf425656	-0.7591299
159	0x3f4ef7f1	0.8084708
160	0x3fa737d1	1.3063909
161	0xbedd0ee5	-0.43175426
162	0x3f943b13	1.1580528
163	0x3f96ff1d	1.1796604
164	0xbf2508b4	-0.64466405
165	0x3f9927f7	1.1965321
166	0xbf2fcb3d	-0.6866949
167	0x3f975a6b	1.1824468
168	0x3f1b16dc	0.60581756
169	0xbf4925d5	-0.7857335
170	0xbf4cdee1	-0.80027586
171	0x3fe9bbcc	1.8260436
172	0x3fabb9b5	1.3416048
173	0x3f6a4345	0.91508895
174	0x3fa740ca	1.3066647
175	0xbfa9b151	-1.3257238
176	0x3fa78a0f	1.3089007
177	0x3f88c03a	1.0683663
178	0x3f898fd0	1.0747013
179	0x3f3b390d	0.7313393
180	0x3f813ba5	1.0096327
181	0xbf05423e	-0.520542
182	0x3f2b32be	0.668743
183	0x3f88f58a	1.0699933
184	0x3f9236ad	1.1422936
185	0xbfa409e7	-1.2815522
186	0x3ec3eb6a	0.38265544
187	0x3f81c9f5	1.0139757
188	0x3e93e0d3	0.28882465
189	0xbf9e90b0	-1.2387905
190	0xbf8a0af1	-1.0784589
191	0xbf356a48	-0.708653
192	0x3f221d89	0.6332632
193	0xbf0a0563	-0.5391447
194	0x3f850312	1.0391562
195	0x3fa050c1	1.2524644
196	0xbea5d179	-0.32386377
197	0x3fb37b42	1.402199
198	0xbf517070	-0.8181219
199	0xbf6f8853	-0.9356739

bias f4 [300]
0	0x3c949656	0.018138092
1	0xbd1a68f7	-0.03769776
2	0xbc4065e1	-0.01174304
3	0xbde03103	-0.10946848
4	0x3d12939a	0.035785295
5	0xbda58730	-0.080824256
6	0x3d5ff817	0.054679956
7	0x3c42daa2	0.011892946
8	0xbbcca063	-0.0062447055
9	0x3cbf1c4a	0.023328919
10	0x3d566cd2	0.052349873
11	0x3d089cc0	0.033352613
12	0x3cdb29b7	0.02675329
13	0xbcd1322d	-0.025536621
14	0x3a89260b	0.0010463608
15	0xba1304b4	-0.0005608306
16	0x3d5d2259	0.053987835
17	0x3d2fbdc1	0.042905573
18	0xbc8dbf71	-0.0173032
19	0x3d18ae2a	0.03727547
20	0x3d4e79b0	0.05040902
21	0xbd922633	-0.07136192
22	0x3d0c4719	0.03424749
23	0x3c0cf12a	0.00860242
24	0x3c45ba8c	0.012068402
25	0xbd38f3e1	-0.045154456
26	0xbc4d9aaa	-0.012549082
27	0x3c50651d	0.01271942
28	0xbcbcbe8b	-0.023040077
29	0xbd5b6052	-0.053558655
30	0xbd87d6ae	-0.06632744
31	0x3d4ccd7c	0.050000653
32	0x3cbeb943	0.023281699
33	0x3bcab835	0.00618651
34	0x388e5bc3	6.7881796e-05
35	0xbc8a4e21	-0.016882958
36	0xbdaf559b	-0.0856125
37	0x3d2f16a0	0.042746186
38	0xbd67634f	-0.056491192
39	0x3d323713	0.043509554
40	0xbd9113cc	-0.07083854
41	0xbd359726	-0.0443336
42	0xbe009003	-0.12554936
43	0xbd8f9172	-0.07010163
44	0xbdb280af	-0.08715951
45	0xbd165e1c	-0.036710843
46	0xbc083d85	-0.008315449
47	0x3c992570	0.01869461
48	0x3d06ea86	0.032938503
49	0xbb5720d2	-0.003282596
50	0xbdc028fb	-0.093828164
51	0xbd181f17	-0.037139025
52	0x3cd3269a	0.025775243
53	0x3d1b2e06	0.03788569
54	0xbcf09d40	-0.029371858
55	0xbd803010	-0.06259167
56	0x3c4c3354	0.012463409
57	0xbd73d1c4	-0.05952622
58	0x3bbdd2d2	0.005792954
59	0xbda62c66	-0.08113937
60	0xbd84e95e	-0.06489824
61	0xbcf5767d	-0.029963726
62	0x3bfca8e6	0.007710564
63	0x3ca3e280	0.020005465
64	0xbd1e5cc5	-0.03866269
65	0x3d35d7a4	0.044395104
66	0xbc90cddc	-0.017676286
67	0x3ce98965	0.028507898
68	0xbcae1ba4	-0.021253414
69	0x3d14ac92	0.03629739
70	0x3d56e784	0.052466884
71	0xbd8521d2	-0.06500591
72	0xbdec9741	-0.11552287
73	0x3c3338de	0.010938851
74	0xbc4648d2	-0.012102323
75	0x3d1b2d07	0.03788474
76	0xbc125e0c	-0.008933555
77	0xbcdd7a1c	-0.027035765
78	0xbc9e0585	-0.019289741
79	0xbd07f1e1	-0.033189658
80	0xbd040b10	-0.032237113
81	0x3d045015	0.032302935
82	0xbd99f230	-0.07516897
83	0x3d16acb0	0.03678578
84	0x3d8f73b1	0.07004488
85	0xbd9cc27d	-0.07654283
86	0xbdc06db6	-0.09395926
87	0xbd68c9b6	-0.05683299
88	0xbda89717	-0.08231943
89	0xbce56b84	-0.028005369
90	0x3b2dbc30	0.0026509874
91	0x3cba15f6	0.02271555
92	0x3ba16ba1	0.0049261604
93	0x3cbd32ad	0.023095453
94	0xbd804b77	-0.06264394
95	0x3aee4d83	0.0018181059
96	0xbd97e7ec	-0.074172825
97	0xbccd126b	-0.025033196
98	0xbd85536f	-0.06510054
99	0xbae0bf48	-0.001714685
100	0xbd2da360	-0.042392135
101	0x3b2f6c4f	0.0026767438
102	0xbd1b57d0	-0.03792554
103	0x3b9b9bcc	0.004748797
104	0x3c0f856c	0.008759838
105	0x3d54a808	0.05191806
106	0xbd31b593	-0.043386053
107	0xbbdadee5	-0.006679403
108	0xbd2adb04	-0.041712776
109	0xbd35368d	-0.044241477
110	0xbb723ce5	-0.0036962566
111	0x3cbbfb57	0.022946997
112	0x3d647668	0.055776983
113	0xbdd47c19	-0.10375232
114	0xbaf888c8	-0.0018961662
115	0xbd86d620	-0.0658381
116	0x3d190856	0.037361465
117	0xbe01ef4c	-0.12688941
118	0x3c677e19	0.014129185
119	0xbcc077e4	-0.023494668
120	0x3d07262f	0.0329954
121	0x3cdec9e2	0.027195875
122	0xbd836135	-0.06415025
123	0x3d116b24	0.035502568
124	0xbd6cd271	-0.05781788
125	0xbd8a0145	-0.067385234
126	0xbb9ae54b	-0.004727041
127	0xbd3b2d91	-0.045697752
128	0x3d28e20f	0.04123121
129	0xbcb802e6	-0.02246232
130	0xbc6bd8ec	-0.01439498
131	0x3d19314f	0.03740054
132	0x3d598e95	0.053114492
133	0xbd011196	-0.031510912
134	0xbd88b64b	-0.066753946
135	0xbbb7ae66	-0.0056055067
136	0x3d006e7e	0.031355374
137	0xbd362668	-0.04447022
138	0xbd89bdc8	-0.06725651
139	0x3d6b7e43	0.05749346
140	0xbd12b880	-0.035820484
141	0x3ce65a68	0.028119281
142	0xbd1062e0	-0.035250545
143	0x3d512db4	0.051068977
144	0xbc8187f8	-0.015811905
145	0x3c3190b7	0.010837725
146	0xbd196900	-0.03745365
147	0xbd570aff	-0.05250072
148	0x3cef15ec	0.029185258
149	0xbd909777	-0.070601396
150	0xbcfe8ce3	-0.03107304
151	0xbd3ef28a	-0.046618022
152	0x3d5c7cd7	0.053829994
153	0xbd12c6db	-0.035834175
154	0xbd27f337	-0.041003432
155	0x3c66df55	0.014091332
156	0x3d730ca6	0.059338234
157	0xbda6478f	-0.081191175
158	0xbda30b9a	-0.07961197
159	0x3ca77a3e	0.020444032
160	0xbc70a567	-0.0146878725
161	0xbd7e7f36	-0.062133037
162	0xbdbe18e6	-0.09282093
163	0x3c36d710	0.011159673
164	0xbd9d4ded	-0.07680879
165	0x3d46c889	0.04853109
166	0x3a0495ce	0.0005057723
167	0xbd4e06c0	-0.050299406
168	0x3d6c2317	0.05765065
169	0xbb56d4f2	-0.0032780734
170	0x3d603eb5	0.054747302
171	0xbd3f5ba4	-0.046718255
172	0xbcdfe58e	-0.02733114
173	0xbc9df78d	-0.01928308
174	0xbd857777	-0.06516927
175	0xbc9a61e4	-0.018845506
176	0xbdec3036	-0.11532633
177	0xbd85126e	-0.06497656
178	0x3c84ac67	0.01619549
179	0x3d2748d8	0.040840954
180	0xbd952bcf	-0.072837465
181	0x3d5df22c	0.05418603
182	0xbc759003	-0.014987948
183	0xbd02a31b	-0.03189383
184	0xbc8411e4	-0.016121812
185	0xbc010709	-0.0078752125
186	0xbdb25c46	-0.08709006
187	0x3ca2ad6a	0.01985808
188	0xbd5ff740	-0.054679155
189	0xbbdbbfbb	-0.0067062057
190	0xbd84ac11	-0.064781316
191	0x3cc60ff9	0.024177538
192	0xbc61001a	-0.013732934
193	0xbd1fc8c6	-0.03900983
194	0xbd828777	-0.06373494
195	0xbb55ffc9	-0.003265368
196	0x3d6c7ff5	0.057739217
197	0x3cd54998	0.026036069
198	0x3d521531	0.05128974
199	0xbcc02923	-0.023457116
200	0x3cc571f8	0.024102196
201	0x3bf2b949	0.0074073416
202	0xbc8cc53a	-0.017183889
203	0x3d10f8ae	0.03539341
204	0xbc80413c	-0.015656106
205	0xbd0981f4	-0.0335712
206	0x3bb0db9f	0.0053972746
207	0x3d6bb361	0.057544116
208	0xbd01d881	-0.031700615
209	0x3c76170a	0.015020141
210	0xbd4a38ac	-0.049370453
211	0xbb5821e6	-0.003297919
212	0x3d230c13	0.039806437
213	0xbcd7cc1e	-0.026342448
214	0x3cd040ef	0.025421588
215	0x3d119408	0.035541564
216	0xbd7c70c0	-0.061630964
217	0xbd479ad8	-0.048731655
218	0xbc9aa52e	-0.018877592
219	0x3cfe88cc	0.03107109
220	0xbd8e3367	-0.06943398
221	0x3d00aba2	0.03141368
222	0x3d281370	0.041034162
223	0x3d18a6a1	0.037268285
224	0x3d81c8f5	0.06337158
225	0xbc6b018a	-0.014343629
226	0xbc6ed235	-0.014576484
227	0x3d6b17f6	0.057395898
228	0x3d0b2ed1	0.033980194
229	0x3b095266	0.0020953654
230	0xbda5eb01	-0.08101464
231	0xbd18e2a8	-0.03732553
232	0x3c1611f4	0.009159554
233	0xbd251458	-0.040302604
234	0xbd5ef7c6	-0.054435514
235	0xbce5f9ba	-0.02807318
236	0x3cd65ce0	0.026167333
237	0xbd559784	-0.05214645
238	0x3cc7897c	0.02435755
239	0x3d26122e	0.04054468
240	0x3d6ee440	0.058323145
241	0x3cbb945e	0.022897895
242	0xbd2e82b0	-0.042605102
243	0xbd2e6549	-0.04257706
244	0x3d8a8ecf	0.0676552
245	0xbd899da4	-0.06719521
246	0x3b00b77d	0.0019640618
247	0xbd772299	-0.06033573
248	0x3d14c59c	0.036321267
249	0xbd0c9e69	-0.03433076
250	0xbd00d51e	-0.031453244
251	0x3c90f165	0.01769323
252	0xbd5e2f2b	-0.0542442
253	0xbd9d6a1c	-0.076862544
254	0xbc298e42	-0.010348858
255	0x3cae8084	0.021301515

weight f4 [300, 200]
0	0x3e5479e9	0.2074963
1	0x80000000	-0.0
2	0x80000000	-0.0
3	0xbdc69e37	-0.09698146
4	0x00000000	0.0
5	0x80000000	-0.0
6	0x80000000	-0.0
7	0x00000000	0.0
8	0x80000000	-0.0
9	0xbdaddf7b	-0.08489891
10	0x80000000	-0.0
11	0x80000000	-0.0
12	0x80000000	-0.0
13	0x80000000	-0.0
14	0x3d2f81f1	0.04284853
15	0x00000000	0.0
16	0x80000000	-0.0
17	0x3e4194d2	0.18904427
18	0x80000000	-0.0
19	0x80000000	-0.0
20	0x80000000	-0.0
21	0xbd08bc56	-0.033382736
22	0xbddce057	-0.10784977
23	0x80000000	-0.0
24	0x80000000	-0.0
25	0x80000000	-0.0
26	0x80000000	-0.0
27	0x00000000	0.0
28	0x3b7c560c	0.0038503436
29	0x3d99c4bf	0.075082295
30	0x80000000	-0.0
31	0x80000000	-0.0
32	0x00000000	0.0
33	0x80000000	-0.0
34	0xbe0b47e6	-0.13601646
35	0x80000000	-0.0
36	0x3dc04015	0.09387223
37	0x00000000	0.0
38	0x00000000	0.0
39	0x80000000	-0.0
40	0x80000000	-0.0
41	0x80000000	-0.0
42	0x80000000	-0.0
43	0xbdf3aa6b	-0.11897739
44	0x00000000	0.0
45	0x00000000	0.0
46	0x00000000	0.0
47	0x3de9ba8a	0.11412533
48	0xbd935ad2	-0.07195057
49	0x00000000	0.0
50	0x80000000	-0.0
51	0x00000000	0.0
52	0x80000000	-0.0
53	0x80000000	-0.0
54	0x80000000	-0.0
55	0x80000000	-0.0
56	0x80000000	-0.0
57	0x80000000	-0.0
58	0x80000000	-0.0
59	0x80000000	-0.0
60	0x80000000	-0.0
61	0x80000000	-0.0
62	0x00000000	0.0
63	0x80000000	-0.0
64	0xbdd4f2d2	-0.10397877
65	0x80000000	-0.0
66	0x00000000	0.0
67	0x80000000	-0.0
68	0x80000000	-0.0
69	0x3d6f9ca4	0.058498994
70	0x80000000	-0.0
71	0x80000000	-0.0
72	0x80000000	-0.0
73	0x3d3ccb6a	0.04609243
74	0x80000000	-0.0
75	0x80000000	-0.0
76	0x3d0db15a	0.034592964
77	0x80000000	-0.0
78	0x80000000	-0.0
79	0x80000000	-0.0
80	0x00000000	0.0
81	0x00000000	0.0
82	0xbd947b91	-0.07250131
83	0x80000000	-0.0
84	0x80000000	-0.0
85	0x3d9727c9	0.07380635
86	0x80000000	-0.0
87	0x3d5a9a08	0.053369552
88	0x3dbcd698	0.09220618
89	0xbd909011	-0.070587285
90	0x00000000	0.0
91	0x3dfe6032	0.124206915
92	0x80000000	-0.0
93	0x00000000	0.0
94	0x80000000	-0.0
95	0xbce1f8da	-0.027584482
96	0x00000000	0.0
97	0x00000000	0.0
98	0x00000000	0.0
99	0xbe1e4609	-0.15456404
100	0x80000000	-0.0
101	0x00000000	0.0
102	0x80000000	-0.0
103	0x00000000	0.0
104	0x80000000	-0.0
105	0x00000000	0.0
106	0x80000000	-0.0
107	0x00000000	0.0
108	0x80000000	-0.0
109	0x80000000	-0.0
110	0x80000000	-0.0
111	0x80000000	-0.0
112	0x80000000	-0.0
113	0x00000000	0.0
114	0x80000000	-0.0
115	0x80000000	-0.0
116	0x3da873e6	0.08225231
117	0x00000000	0.0
118	0x80000000	-0.0
119	0x00000000	0.0
120	0x80000000	-0.0
121	0x80000000	-0.0
122	0x80000000	-0.0
123	0x80000000	-0.0
124	0x80000000	-0.0
125	0x00000000	0.0
126	0x80000000	-0.0
127	0x80000000	-0.0
128	0x80000000	-0.0
129	0x80000000	-0.0
130	0x3d8f9a51	0.070118554
131	0x80000000	-0.0
132	0x3de94b16	0.11391275
133	0x80000000	-0.0
134	0x3dab3b73	0.083609484
135	0x80000000	-0.0
136	0x80000000	-0.0
137	0x80000000	-0.0
138	0x80000000	-0.0
139	0x80000000	-0.0
140	0x80000000	-0.0
141	0x00000000	0.0
142	0x00000000	0.0
143	0x80000000	-0.0
144	0x3dd939c4	0.10606721
145	0x80000000	-0.0
146	0x80000000	-0.0
147	0x00000000	0.0
148	0x3d7017af	0.058616336
149	0x80000000	-0.0
150	0x80000000	-0.0
151	0x80000000	-0.0
152	0x80000000	-0.0
153	0x3dcf3b85	0.10118774
154	0x3ceab251	0.028649481
155	0x80000000	-0.0
156	0x80000000	-0.0
157	0x80000000	-0.0
158	0x80000000	-0.0
159	0x00000000	0.0
160	0xbccc180e	-0.024913814
161	0x80000000	-0.0
162	0x80000000	-0.0
163	0x80000000	-0.0
164	0x80000000	-0.0
165	0x3dc780b8	0.09741348
166	0x80000000	-0.0
167	0x80000000	-0.0
168	0x3d7422b2	0.0596034
169	0x80000000	-0.0
170	0x80000000	-0.0
171	0x3de8d54f	0.113688104
172	0x00000000	0.0
173	0x80000000	-0.0
174	0x80000000	-0.0
175	0x80000000	-0.0
176	0xbd72394f	-0.059136685
177	0xbc94550e	-0.018106963
178	0x80000000	-0.0
179	0xbd60bc85	-0.054867286
180	0x80000000	-0.0
181	0x80000000	-0.0
182	0x00000000	0.0
183	0x80000000	-0.0
184	0x3dd2f150	0.10299933
185	0x80000000	-0.0
186	0x00000000	0.0
187	0x00000000	0.0
188	0xbd9ee0cd	-0.07757721
189	0x3e73f781	0.23824884
190	0x80000000	-0.0
191	0x80000000	-0.0
192	0xbdf195cd	-0.1179615
193	0x80000000	-0.0
194	0x80000000	-0.0
195	0x3da42f2c	0.0801681
196	0x80000000	-0.0
197	0x00000000	0.0
198	0x00000000	0.0
199	0x80000000	-0.0
200	0x3ea142f4	0.31496394
201	0x80000000	-0.0
202	0x80000000	-0.0
203	0x3cb375e3	0.021906799
204	0xbd409d06	-0.04702475
205	0x80000000	-0.0
206	0x80000000	-0.0
207	0x00000000	0.0
208	0x00000000	0.0
209	0x80000000	-0.0
210	0x80000000	-0.0
211	0x80000000	-0.0
212	0xbd572a43	-0.05253054
213	0x80000000	-0.0
214	0xbd8a6816	-0.06758134
215	0xbd4d5876	-0.05013319
216	0x00000000	0.0
217	0x3e4da11f	0.20080994
218	0x3dbd5a55	0.09245745
219	0xbd489ef4	-0.048979715
220	0x80000000	-0.0
221	0x80000000	-0.0
222	0x00000000	0.0
223	0xbcb2c761	-0.021823587
224	0x3d93e4e0	0.07221389
225	0xbdaa8092	-0.08325304
226	0x80000000	-0.0
227	0x3d89c5a3	0.06727149
228	0x00000000	0.0
229	0x80000000	-0.0
230	0x00000000	0.0
231	0x80000000	-0.0
232	0x00000000	0.0
233	0x80000000	-0.0
234	0x80000000	-0.0
235	0x80000000	-0.0
236	0x00000000	0.0
237	0x3dbd111a	0.092317775
238	0x00000000	0.0
239	0x80000000	-0.0
240	0x80000000	-0.0
241	0x00000000	0.0
242	0x80000000	-0.0
243	0x80000000	-0.0
244	0x00000000	0.0
245	0x00000000	0.0
246	0x3da6c8fb	0.08143803
247	0x3df303ba	0.11865945
248	0xbd570ec5	-0.05250432
249	0x00000000	0.0
250	0x80000000	-0.0
251	0x00000000	0.0
252	0x80000000	-0.0
253	0x3d709505	0.058735866
254	0x80000000	-0.0
255	0x80000000	-0.0

weight f4 [1, 300]
0	0x3d0f27de	0.03495013
1	0x3d0956ad	0.033529926
2	0x3c89e2de	0.016831812
3	0xbe9acc55	-0.30234018
4	0xbc926ace	-0.017873194
5	0x3da7f82c	0.08201632
6	0x3d34c4dd	0.044133056
7	0x3d61a36b	0.05508749
8	0x3cd9458a	0.026522417
9	0xbd0e9b8c	-0.03481631
10	0x3d29100a	0.04127506
11	0x3cd7a434	0.026323415
12	0x3d8c5727	0.068525605
13	0x3ccb1917	0.024792237
14	0x3d4e7af6	0.050410233
15	0x3d843d46	0.064569995
16	0xbda13a44	-0.078724414
17	0x3d85ba7b	0.06529709
18	0x3d879af7	0.06621354
19	0xbcb01391	-0.021493705
20	0xbd638e51	-0.055555645
21	0xbe97350e	-0.29532665
22	0xbceef7e6	-0.029170942
23	0x3cdad061	0.02671069
24	0xbd3923e1	-0.045200232
25	0x3cfeeaf0	0.031117886
26	0x3d8d56d9	0.069013305
27	0xbd253400	-0.040332794
28	0x3d7be073	0.06149335
29	0x3c798c8f	0.015231266
30	0x3c123a2e	0.008925004
31	0xbd3eb441	-0.046558622
32	0xbd01a9ea	-0.031656183
33	0x3d913dd7	0.07091873
34	0x3d834069	0.0640877
35	0x3e21f923	0.15817694
36	0xbe59a2dd	-0.21253534
37	0xbd5099f9	-0.05092809
38	0x3d84a5d3	0.06476941
39	0x3d2a8ef0	0.041640222
40	0xbd9296be	-0.07157658
41	0xbd1fce51	-0.039015118
42	0xbdaed63c	-0.08536956
43	0x3d2c664d	0.04208975
44	0xbc61fd35	-0.013793279
45	0xbd4eb3d4	-0.050464466
46	0xbd8817a5	-0.06645135
47	0xbd0ed67f	-0.03487253
48	0xbd8d56b5	-0.06901304
49	0xbcafc377	-0.02145551
50	0x3b4cf4be	0.0031273807
51	0xbd9ab4bf	-0.07554006
52	0xbcbebf65	-0.023284623
53	0xbe7e8d47	-0.2485858
54	0x3d19b435	0.037525374
55	0xbd52e40c	-0.051487014
56	0x3c636da6	0.013881123
57	0xbd4bd687	-0.049765136
58	0x3b7561ef	0.0037442406
59	0x3e414a7b	0.18876068
60	0x3d61b18e	0.05510097
61	0x3d6b20b5	0.05740424
62	0xbd88b373	-0.06674852
63	0x3d4f43d5	0.0506018
64	0xbd875d31	-0.06609572
65	0xbd055043	-0.032547247
66	0xbcb95a2f	-0.02262601
67	0x3d88dbbb	0.06682535
68	0xbd3b6cb5	-0.045757968
69	0xbd049adb	-0.032374244
70	0xbd34562c	-0.044027492
71	0xbcc80df5	-0.024420718
72	0x3bdd1187	0.006746474
73	0xbd04f344	-0.03245856
74	0xbd9488d3	-0.0725266
75	0x3ca5515c	0.020180397
76	0x3c8c772d	0.017146671
77	0xbd0ff341	-0.035144094
78	0x3b5ac719	0.0033382832
79	0x3c69df5c	0.014274444
80	0xbdb084e3	-0.08619096
81	0x3d4154b8	0.047199935
82	0x3d68e7e6	0.05686178
83	0x3d9a97bf	0.075484745
84	0xbd841f9b	-0.06451341
85	0x3c70620d	0.014671815
86	0xbc266620	-0.010156184
87	0xbcccd4d4	-0.025003828
88	0xbcc1cf59	-0.023658441
89	0xbd474de2	-0.04865826
90	0x3d615335	0.055010993
91	0xbdae4c12	-0.08510603
92	0xbd0f5cea	-0.03500072
93	0x3cf79667	0.030223085
94	0xbd73ae19	-0.059492204
95	0xbd8c71ed	-0.06857667
96	0x3d62ba63	0.055353533
97	0x3ce5fcd0	0.028074652
98	0x3d7c68c2	0.061623342
99	0xbd5d45af	-0.054021534
100	0xbcc30f81	-0.023811104
101	0x3cba3cf0	0.022734135
102	0xbda6b12d	-0.08139262
103	0xbd10bc09	-0.035335574
104	0xbd283f1b	-0.041075807
105	0x3da339dc	0.0797002
106	0xbdaaa5dd	-0.08332417
107	0xbdb4dfd7	-0.088317566
108	0xbec5f896	-0.3866622
109	0xbd354be2	-0.04426182
110	0x3c24f075	0.010067095
111	0x3cef5b35	0.029218296
112	0xbd6fe3a6	-0.05856671
113	0xbe8b4a9f	-0.2720537
114	0xbcb9c433	-0.022676563
115	0xbcfa7ea7	-0.03057797
116	0x3d82040f	0.0634843
117	0xbcc55d2d	-0.024092281
118	0xbe03c926	-0.12869701
119	0x3cd4ef74	0.025993086
120	0x3d09eb82	0.033671863
121	0x3cb255bc	0.021769397
122	0xbd17548e	-0.036945872
123	0x3cf01cb8	0.02931057
124	0xbd0bc30c	-0.034121558
125	0x3d18c868	0.037300497
126	0xbded4920	-0.11586213
127	0xbd22dc12	-0.039760657
128	0x3cb7010b	0.022339365
129	0xbd269d33	-0.04067726
130	0xbcad1bea	-0.021131475
131	0xbd9be079	-0.07611174
132	0xbd834e69	-0.0641144
133	0x3ce511aa	0.027962524
134	0xb9f38f8a	-0.00046455517
135	0x3d276d59	0.040875766
136	0xbd6fc9e1	-0.058542136
137	0x3d4069f5	0.04697605
138	0x3cdde89b	0.027088454
139	0x3d5c1a6e	0.053736143
140	0x3cf6a303	0.030107027
141	0xbd0cc9da	-0.03437219
142	0x3d06de86	0.03292706
143	0xbd841b27	-0.064504914
144	0xbd822b5b	-0.06355926
145	0xbd13cf3c	-0.036086306
146	0x3d460f6c	0.04835455
147	0xb9a281ae	-0.00030995667
148	0xbd4ffd04	-0.050778404
149	0x3cb70877	0.022342904
150	0x3d772e26	0.060346745
151	0x3ca60d6e	0.020270076
152	0xbd4f1761	-0.050559405
153	0xbd673a36	-0.056452
154	0xbd7a6538	-0.061131686
155	0xbd04a5d8	-0.032384723
156	0xbd8662f0	-0.065618396
157	0xbd17bcf8	-0.03704545
158	0x3d027492	0.03184945
159	0xbd1c15f9	-0.038106892
160	0xbd675779	-0.056479905
161	0xbd73d19a	-0.059526064
162	0xbcfad619	-0.030619668
163	0xbd510d6c	-0.05103819
164	0xbd1ddb43	-0.038539182
165	0x3d328a1a	0.043588735
166	0x3d60947d	0.05482911
167	0xbd4f0228	-0.050539166
168	0x3d5ba7c6	0.053626798
169	0xbca74bc2	-0.020421866
170	0xbd68cdca	-0.05683688
171	0xbd0c7127	-0.034287598
172	0xbd30860b	-0.043096583
173	0xbce466f0	-0.027881116
174	0x3d0c549a	0.03426037
175	0xbce0e47a	-0.027452696
176	0xbc9b1045	-0.018928656
177	0xbd811cf5	-0.06304351
178	0x3d2c15e2	0.042013057
179	0xbd5f55ee	-0.05452531
180	0x3d02d674	0.0319428
181	0x3d52f139	0.05149958
182	0x3d21c711	0.039496485
183	0x3d48252c	0.048863575
184	0x3d399a4a	0.045313157
185	0xbcf8c15a	-0.030365635
186	0x3c3aa38e	0.011391534
187	0xbdb4da12	-0.08830656
188	0xbd2504fd	-0.04028796
189	0xbd8e00a7	-0.06933718
190	0xbce8493f	-0.028355239
191	0xbd4a7f5b	-0.049437862
192	0xbd3380c9	-0.04382399
193	0x3d0ca787	0.034339454
194	0x3d2f0e18	0.04273805
195	0xbd609c0e	-0.054836325
196	0x3d00f9d9	0.031488273
197	0xbd52b81a	-0.051445104
198	0xbd2e6a91	-0.0425821
199	0x3d97d49e	0.074136004
200	0x3d87dce6	0.0663393
201	0xbe79aa6d	-0.24381419
202	0x3cf57c98	0.029966637
203	0xbdc38637	-0.09547084
204	0x3d3fdd45	0.04684188
205	0x3ce4610e	0.02787831
206	0xbd4dacdf	-0.05021369
207	0x3d2bbc4b	0.041927617
208	0x3d0d4181	0.034486298
209	0xbd6bc4d2	-0.05756075
210	0x3b51e660	0.0032028183
211	0x3d0a0003	0.033691417
212	0xbdb24c8b	-0.08706006
213	0x3d091a10	0.03347212
214	0x3d5c6321	0.053805474
215	0x3d749a80	0.059717655
216	0xbd7682a0	-0.060183167
217	0xbd0c8ea4	-0.03431572
218	0x3d814370	0.06311691
219	0x3dc0bcd2	0.094110146
220	0x3d738c6c	0.05946009
221	0x3cda88ee	0.026676621
222	0xbd0d5d84	-0.03451301
223	0xbd344d8d	-0.04401927
224	0x3d85cf5e	0.06533693
225	0xbd851ff1	-0.06500233
226	0xbd5d3b50	-0.054011643
227	0xbd83ffb1	-0.06445254
228	0x3d9ba075	0.07598964
229	0x3d401594	0.04689558
230	0x3c8f64b7	0.01750408
231	0xbd8edba7	-0.06975489
232	0x3d740a3d	0.059580076
233	0xbd4ed6c2	-0.050497778
234	0xbda2560b	-0.07926568
235	0xbcddd39b	-0.02707844
236	0xbd2b5701	-0.04183102
237	0x3d157d93	0.03649671
238	0x3d1ada34	0.03780575
239	0xbd8dd9ad	-0.06926284
240	0x3d1e2abb	0.03861497
241	0x3cd23ead	0.025664652
242	0x3f1790f0	0.5920553
243	0x3d887902	0.066637054
244	0xbd8ae37a	-0.06781669
245	0xbd249f17	-0.040190782
246	0xbd24ee1e	-0.04026615
247	0x3d662625	0.05618872
248	0xbd6e8848	-0.058235437
249	0x3d80a955	0.062822975
250	0x3d5522e4	0.052035227
251	0x3d7c7cf1	0.06164259
252	0x3d06174c	0.03273706
253	0x3cf00b64	0.029302306
254	0xbd5e6de3	-0.054304015
255	0x3cc00aea	0.023442704
