figures/TS_partial/theta=0.1_s=0.8_step=100/best_model.pth (torch, 249061 bytes, 6 tensors)

weight f4 [200, 2]
0.032992437 -0.60924876 0.26001316 -0.520691 0.15564978 -0.67430806 -0.8034049 0.44469437
0.8623638 -0.25818247 -0.2968817 0.16599102 -0.4984035 -0.21086717 -0.6608735 0.7920065
0.34657437 0.28348416 -0.065039836 -0.060429983 0.28475168 -0.24421646 0.56685394 0.8289053
-0.47341156 0.27390793 -0.6114332 0.4510616 0.26282895 -0.65686506 -0.71539074 -0.0022078815
0.7121367 -0.5103499 0.78546345 0.082074 -0.41568837 -0.5434459 0.06424086 0.32581303
-0.18200226 0.123132795 0.57570416 0.20686246 -0.15677236 -0.47658408 0.6107249 -0.44180423
0.56331784 0.91581535 0.6933892 -0.03561447 -0.23260216 0.42366362 0.35150984 -0.44581282
0.025873616 0.5121445 0.6137456 -0.16350101 -0.051268183 0.016355675 0.3694959 0.15903166
-0.73608994 -0.2573106 0.38072094 -0.6622114 0.3129393 -0.5023096 -0.41577724 -0.48978534
-0.7315925 0.60650843 0.43103182 0.23633733 0.3133013 0.31837577 -0.29381606 0.73236376
-0.30114496 0.35174218 0.53212595 -0.6488483 0.7949579 0.043693528 0.22468147 0.077483185
0.22683333 -0.36885026 -0.04287753 0.35643375 0.3856842 0.28010374 -0.9020413 -0.44987342
0.25540447 -0.44226474 -0.008022294 0.45398864 0.5820421 -0.47550365 -0.112180635 0.1884031
-0.84256995 -0.14664383 0.35204104 -0.23235735 0.042312894 0.5808157 -0.14624181 0.37195867
-0.69824725 0.17075682 0.70936275 0.6455847 0.6445821 -0.052867603 -0.6469734 -0.18681936
0.5260293 -0.4949397 0.21374197 -0.47820574 -0.5814371 0.5646825 0.49526268 -0.5748672
-0.42954573 0.775937 -0.5497243 -0.053911965 -0.93094444 -0.83838403 0.7711383 0.45554724
-0.33076957 0.6000434 -0.057073575 0.35377136 -0.49463528 -0.6827479 -0.3735918 -0.76788163
0.34407932 -0.5903169 -0.3659949 -0.74039507 -0.7421573 -0.6220276 0.8497028 0.74704313
-0.65452164 -0.524699 0.7390051 0.3006673 0.84308 0.4569254 -0.7337121 -0.5051812
-0.45496005 0.13582116 0.7984135 0.17527525 0.5507029 0.28460184 0.5275278 0.21617371
-0.49935266 -0.7340259 0.34475067 -0.35743958 -0.42937303 0.5334659 0.41077968 -0.41003606
0.2097516 -0.7506946 0.80797696 -0.29960135 -0.1640334 -0.7200869 -0.083257586 0.022516524
0.26630816 0.49184784 0.28666008 0.44910067 0.67512435 -0.6549327 -0.09247367 0.6159844
0.11836553 -0.5983438 -0.26287252 0.019439097 0.7139227 0.025262866 -0.65707743 -0.47675142
-0.44158772 -0.25939402 -0.33288518 0.4457572 -0.57968175 0.39825827 -0.38087323 0.13731232
0.4097322 0.4951415 0.31191188 0.9030308 0.24869071 0.59555036 -0.71970266 0.3191411
-0.60339576 -0.20101082 -0.16311178 0.6918951 -0.8712923 -0.17488286 0.82834446 0.79955167
-0.69287014 -0.45895737 0.3590612 0.72548115 -0.15290515 -0.86065894 0.21252657 -0.012850321
-0.61889434 0.1242094 -0.77468514 0.5187435 -0.68381304 -0.2993762 0.17536351 0.4401258
-0.7782076 -0.77048343 0.8178731 -0.34467566 -0.7945154 -0.8369391 0.7293077 -0.1593962
0.53475785 -0.699621 -0.30928296 0.6475333 -0.7887373 -0.28061533 0.574066 0.7038982
00000000: 1423 073d baf7 1bbf 7220 853e 014c 05bf
00000010: a862 1f3e 749f 2cbf f2ab 4dbf fbae e33e
00000020: e0c3 5c3f 7e30 84be e100 98be 8df9 293e
00000030: be2e ffbe 90ed 57be 012f 29bf f0c0 4a3f
00000040: 3272 b13e d624 913e 9b33 85bd 6e85 77bd
00000050: f9ca 913e e113 7abe 571d 113f 2333 543f
00000060: 0063 f2be a93d 8c3e e386 1cbf 8cf1 e63e
00000070: 8491 863e 4f28 28bf d923 37bf 1bb2 10bb
00000080: 974e 363f 4ba6 02bf 2214 493f 6a16 a83d
00000090: 1bd5 d4be 451f 0bbf b690 833d f7d0 a63e
000000a0: cd5e 3abe 0c2d fc3d 5961 133f c1d3 533e
000000b0: ef88 20be d402 f4be 7858 1c3f 2a34 e2be
000000c0: 9935 103f e072 6a3f f481 313f 7ae0 11bd
000000d0: 432f 6ebe 70ea d83e 19f9 b33e 9441 e4be
000000e0: e8f4 d33c e71b 033f 6f1e 1d3f cf6c 27be
000000f0: 96fe 51bd 56fc 853c 912e bd3e 32d9 223e
00000100: 6470 3cbf 37be 83be dbed c23e b086 29bf
00000110: 9439 a03e 5d97 00bf c1e0 d4be 25c5 fabe
00000120: a549 3bbf 2344 1b3f 34b0 dc3e 6a02 723e
00000130: 0769 a03e 2602 a33e 0f6f 96be 317c 3b3f
00000140: ac2f 9abe 8d17 b43e 6839 083f ec1a 26bf
00000150: 5c82 4b3f fcf7 323d e612 663e 81af 9e3d
00000160: ff46 683e f1d9 bcbe 59a0 2fbd 7c7e b63e
00000170: 6678 c53e c269 8f3e 2eec 66bf cf55 e6be
00000180: 60c4 823e 8670 e2be f16f 03bc 3371 e83e
00000190: b600 153f 3775 f3be f6be e5bd beec 403e
000001a0: aab2 57bf cd29 16be b93e b43e 16ef 6dbe
000001b0: 4950 2d3d 56b0 143f 6ac0 15be 5e71 be3e
000001c0: 55c0 32bf e0da 2e3e cc98 353f 0a45 253f
000001d0: 5503 253f b38b 58bd 0ca0 25bf 934d 3fbe
000001e0: dba9 063f bd68 fdbe 2ddf 5a3e 62d7 f4be
000001f0: 10d9 14bf 088f 103f 1293 fd3e 7f2a 13bf
00000200: 6bed dbbe cfa3 463f bbba 0cbf cbd2 5cbd
00000210: 6052 6ebf 56a0 56bf 5269 453f 7d3d e93e
00000220: a15a a9be 729c 193f fbc5 69bd 8521 b53e
00000230: d640 fdbe 91c8 2ebf 6d47 bfbe e493 44bf
00000240: 2a2b b03e 021f 17bf af63 bbbe 888a 3dbf
00000250: 05fe 3dbf 333d 1fbf 1f86 593f 383e 3f3f
00000260: bb8e 27bf ac52 06bf 702f 3d3f 10f1 993e
00000270: 17d4 573f 20f2 e93e 8ed4 3bbf 8e53 01bf
00000280: 86f0 e8be b414 0b3e d464 4c3f 5b7b 333e
00000290: defa 0c3f 55b7 913e 100c 073f a45c 5d3e
000002a0: 27ab ffbe 1fe9 3bbf 2983 b03e 5202 b7be
000002b0: c8d6 dbbe 3991 083f b751 d23e 3ff0 d1be
000002c0: 20c9 563e 852d 40bf 94d7 4e3f 5965 99be
000002d0: 5ff8 27be 9d57 38bf f482 aabd 9374 b83c
000002e0: 8b59 883e 7bd3 fb3e 1cc5 923e 86f0 e53e
000002f0: f3d4 2c3f aba9 27bf d662 bdbd 27b1 1d3f
00000300: a169 f23d 0f2d 19bf 3a97 86be be3e 9f3c
00000310: a3c3 363f 12f4 ce3c 3a36 28bf c318 f4be
00000320: c917 e2be 4bcf 84be ed6f aabe 4a3a e43e
00000330: 0666 14bf 82e8 cb3e d101 c3be 9a9b 0c3e
00000340: 6bc8 d13e 3083 fd3e eab2 9f3e 072d 673f
00000350: c7a8 7e3e fd75 183f 6f3e 38bf 7666 a33e
00000360: 2578 1abf c8d5 4dbe c606 27be 0a20 313f
00000370: 030d 5fbf 7e14 33be 620e 543f 6baf 4c3f
00000380: f05f 31bf 76fc eabe dfd6 b73e 22b9 393f
00000390: 2b93 1cbe 2554 5cbf 91a0 593e 278a 52bc
000003a0: dc6f 1ebf 7f61 fe3d c451 46bf 60cc 043f
000003b0: 5f0e 2fbf d647 99be 7e92 333e 2b58 e13e
000003c0: 9d38 47bf 673e 45bf 2260 513f 5479 b0be
000003d0: 5c65 4bbf a441 56bf e9b3 3a3f c238 23be
000003e0: e4e5 083f 5d1a 33bf 565a 9ebe bec4 253f
000003f0: b0ea 49bf d0ac 8fbe fdf5 123f ac32 343f

bias f4 [200]
-0.3038276 0.18671913 0.3159993 -0.45815036 0.18785988 0.5088424 0.08465008 -0.56657445
-0.52584904 -0.5632937 -0.4571515 0.3591919 -0.1925781 -0.19467266 0.30924952 -0.2206508
-0.46517873 -0.12949927 0.33097184 0.35021916 0.07773978 -0.06341708 -0.56361514 0.6486999
0.12555346 0.37715882 0.63081425 -0.5753624 -0.2564631 0.6537315 -0.094349004 0.40485746
0.41095024 -0.31134358 0.49165168 -0.3427899 -0.52482784 0.53871137 -0.58813715 0.4142197
-0.17015976 -0.24984752 0.34409496 -0.21672659 0.6893375 0.15851073 -0.40202823 0.13051775
0.19181563 -0.22513661 0.6542428 0.09340953 -0.40484646 -0.38926736 0.54583883 -0.6668427
-0.191276 0.10948252 -0.15984482 0.19874577 -0.31937972 -0.22467847 0.41078535 0.65704745
-0.3645609 0.28477842 0.13370967 0.7046821 -0.28544748 -0.5333091 -0.08525834 0.36556193
-0.21994275 -0.44724146 0.5586603 -0.1841197 0.20771766 -0.09159823 0.3582718 -0.10172565
0.34475228 0.58913445 0.17880589 -0.5196958 0.69523716 0.43298793 0.2820446 0.6919086
-0.3494244 -0.2304021 -0.07195089 0.21613882 -0.05610516 -0.0538767 -0.31350133 0.3038668
0.571937 0.20249178 0.371482 -0.09498175 -0.05155084 0.4058908 -0.25948688 -0.67799824
-0.3339833 -0.092681095 -0.063517995 -0.18515271 -0.06216236 0.32319814 0.17954285 -0.2285283
0.15478452 -0.08067368 -0.4842666 -0.6626517 0.6912236 -0.36017665 0.52956367 -0.54981154
-0.12447853 -0.24970123 0.30485538 0.55054843 -0.13743232 0.4544078 -0.16843185 0.47721583
-0.5194839 0.47195065 0.34085426 0.32096517 -0.07964331 0.53053075 -0.073827825 0.5900353
0.0955139 0.22465691 0.6298711 -0.6461525 -0.3854772 -0.04989321 -0.25742805 -0.09643541
-0.28593147 0.3085331 -0.48766214 -0.40152857 0.056928974 -0.39467552 0.3413557 -0.23145597
-0.3194207 -0.5240526 -0.22962043 0.30807066 0.5300996 -0.18663996 -0.51617634 -0.31339562
0.65834486 -0.20606898 0.3685398 -0.51919204 -0.6858361 -0.5149025 0.12842914 -0.42097068
0.5884774 -0.10875921 0.66202 -0.5097478 0.21114315 -0.55410755 -0.08361887 -0.5282055
-0.13159733 0.59712327 0.58818895 -0.671173 -0.039805725 -0.09802566 0.4559185 0.42051607
0.27075437 0.5530761 0.25512263 0.1862213 -0.051456526 0.27368802 0.39882898 -0.07953683
-0.397566 -0.49258295 -0.28818583 0.56465685 -0.26297718 -0.27851343 -0.090292975 0.20977136
00000000: 4b8f 9bbe 4d33 3f3e a9ca a13e af92 eabe
00000010: 575e 403e 7f43 023f 055d ad3d 060b 11bf
00000020: 0b9e 06bf 0434 10bf c30f eabe 00e8 b73e
00000030: 3233 45be 4558 47be f455 9e3e 49f2 61be
00000040: e82b eebe 759b 04be 2475 a93e ed4f b33e
00000050: 0936 9f3d d0e0 81bd 1549 10bf 3211 263f
00000060: 1691 003e f61a c13e 0b7d 213f f34a 13bf
00000070: 224f 83be f35a 273f 0d3a c1bd 7a49 cf3e
00000080: 1268 d23e 6d68 9fbe c5b9 fb3e 2882 afbe
00000090: 1e5b 06bf fde8 093f 2890 16bf 9b14 d43e
000000a0: 5c3e 2ebe 07d8 7fbe 372d b03e 93ed 5dbe
000000b0: 6c78 303f a350 223e a5d6 cdbe 72a6 053e
000000c0: 516b 443e 368a 66be 757c 273f 7f4d bf3d
000000d0: 0948 cfbe 0d4e c7be 18bc 0b3f 34b6 2abf
000000e0: dbdd 43be 5f38 e03d 5cae 23be 0384 4b3e
000000f0: bd85 a3be 1d12 66be 7552 d23e 4334 283f
00000100: baa7 babe 7ace 913e 30eb 083e 0c66 343f
00000110: 2c26 92be f286 08bf ed9b aebd ef2a bb3e
00000120: ac38 61be d5fc e4be 5d04 0f3f e089 3cbe
00000130: f0b3 543e da97 bbbd 676f b73e 8a55 d0bd
00000140: 5f83 b03e 84d1 163f e418 373e c90a 05bf
00000150: 10fb 313f 98b0 dd3e 2668 903e ec20 313f
00000160: c1e7 b2be 87ee 6bbe fd5a 93bd 7f53 5d3e
00000170: 86ce 65bd d1ad 5cbd 3f83 a0be 6e94 9b3e
00000180: 776a 123f 015a 4f3e e432 be3e cb85 c2bd
00000190: f926 53bd ebd0 cf3e 77db 84be 4b91 2dbf
000001a0: dcff aabe 96cf bdbd b915 82bd ac98 3dbe
000001b0: f59d 7ebd 3a7a a53e 15da 373e 5303 6abe
000001c0: d57f 1e3e 3e38 a5bd cbf1 f7be 8ba3 29bf
000001d0: 08f4 303f 1369 b8be 7c91 073f 73c0 0cbf
000001e0: 99ee febd aeb1 7fbe 0116 9c3e bef0 0c3f
000001f0: 0fbb 0cbe 24a8 e83e 6679 2cbe a255 f43e
00000200: e6fc 04bf 84a3 f13e 7384 ae3e 8c55 a43e
00000210: 081c a3bd ddd0 073f 0b33 97bd 8e0c 173f
00000220: cb9c c33d 760c 663e 3b3f 213f 406a 25bf
00000230: 445d c5be d35c 4cbd 9ccd 83be ee7f c5bd
00000240: 9c65 92be 0df8 9d3e daae f9be 2795 cdbe
00000250: 5b2e 693d e912 cabe 2dc6 ae3e cb02 6dbe
00000260: 1c8b a3be 5028 06bf 9e21 6bbe 70bb 9d3e
00000270: 9bb4 073f 8c1e 3fbe 2224 04bf 6475 a0be
00000280: 4a89 283f bf03 53be 40b1 bc3e c5e9 04bf
00000290: f492 2fbf a6d0 03bf ee82 033e 7889 d7be
000002a0: 74a6 163f 26bd debd 257a 293f d57e 02bf
000002b0: e935 583e fed9 0dbf 5f40 abbd 7a38 07bf
000002c0: 73c1 06be 12dd 183f 8d93 163f fed1 2bbf
000002d0: 540b 23bd adc1 c8bd 266e e93e e24d d73e
000002e0: 51a0 8a3e 6596 0d3f 6f9f 823e ccb0 3e3e
000002f0: 14c4 52bd d620 8c3e 5033 cc3e 35e4 a2bd
00000300: c58d cbbe d533 fcbe 188d 93be 5a8d 103f
00000310: f2a4 86be 5099 8ebe 86eb b8bd 4ece 563e

bias f4 [300]
0.025600139 0.019498678 -0.056190126 -0.04567998 0.031924415 -0.047177862 -0.011405865 0.06279251
-0.064136565 0.06440859 0.025760502 0.012638175 -0.036684316 -0.052930377 0.0104818335 0.03377093
0.05246458 0.028123548 0.0016404826 0.008210331 -0.0250017 0.052408516 -0.07063546 -0.030265339
0.028971627 -0.058108646 0.061818235 0.061390094 0.040106125 0.05687889 0.04082146 -0.017114192
0.05407663 0.018861411 -0.002796188 0.02699641 -0.010981443 0.07088414 -0.0634363 -0.042199433
-0.057009652 0.013345259 0.06873731 0.0419757 -0.0383166 0.048409607 -0.05397402 -0.05039708
-0.060555246 -0.013633812 0.027196823 0.044337463 0.062359877 -0.07145628 0.005908077 0.03670526
-0.0048131966 -0.018953227 0.06419943 -0.0176938 -0.025866954 -0.00051502796 0.041078977 0.058003586
0.026421128 -0.05166258 -0.02057895 -0.036809735 0.0094127245 -0.06215162 0.029769307 0.013607036
0.011549716 0.041828 -0.008460077 0.056418493 0.055387568 -0.030516466 -0.047044594 0.042047136
0.00544292 -0.023953624 -0.07873834 0.0071660103 -0.006376641 0.045963828 -0.052362803 -0.017150097
-0.027132858 -0.017690152 0.039683107 -0.0425141 -0.06495513 0.025498748 0.018128473 -0.008044106
-0.07756292 0.07422658 0.003838049 0.045965746 0.059245363 -0.02927552 -0.07237137 0.013309228
0.031126775 -0.017895456 -0.026505776 -0.016689818 -0.022014659 0.04833027 0.007828873 -0.0800272
0.04892655 -0.032040104 0.0372116 0.046698786 0.040184163 0.011784659 0.055935238 0.0041812053
0.009795987 0.022501722 -0.0722391 0.059794445 -0.019591546 0.015613738 0.02889168 0.031793993
-0.036953915 0.06465408 -0.06769226 -0.015086184 -0.028012896 -0.013375185 -0.013080755 0.054587834
-0.04835992 -0.06336633 -0.04998022 -0.0006762175 -0.014902157 0.04769928 -0.054482892 -0.064805746
-0.068734616 0.021150813 0.039527446 0.00071693974 0.019154826 -0.013629899 0.012439137 0.009654987
-0.011577128 0.06773547 -0.049680103 -0.06379869 0.039428417 0.059204783 -0.07147968 0.07107119
-0.05735396 0.0043735174 0.01919691 0.071506776 -0.002214927 -0.04406866 0.005448952 0.03665536
0.045672856 -0.055186175 -0.023836438 0.05028518 0.028185979 0.032074694 -0.07675437 0.047799103
0.0605475 0.031567022 -0.041936103 0.03988255 -0.04939065 0.0055294437 0.0131734 0.06810962
0.06764861 0.021883667 0.06883497 -0.051774517 -0.06026845 0.04416249 -0.026361236 -0.040913817
0.00084343844 0.012826015 -0.006181843 -0.0046358136 0.016987793 -0.048373345 0.0045083347 0.013000712
0.06127747 0.009911498 0.07499667 0.068746 -0.028193131 -0.04810135 -0.008415085 -0.0583303
-0.049133904 0.017184924 -0.025157625 -0.0029725558 0.030064639 0.022857876 0.04642463 -0.074890226
0.038624406 0.07964445 0.0759334 -0.04205145 0.0023645984 -0.038868364 0.013231582 -0.06384137
-0.046243433 0.005224867 -0.043656547 -0.064645186 -0.037590828 -0.015056718 -0.03490303 0.006084452
0.05568898 -0.056393806 0.007953844 -0.06788743 -0.02190291 0.041553408 -0.03474411 -0.051346783
-0.03083125 0.0019342327 0.0058526 -0.029332047 -0.013718832 0.034312177 0.041832093 -0.007836222
-0.012759068 -0.033048198 0.06170392 0.053627886 0.069212995 -0.0011344481 -0.017332979 -0.027994258
00000000: 62b7 d13c b1bb 9f3c 9e27 66bd ee1a 3bbd
00000010: 2dc3 023d 933d 41bd aadf 3abc 5c99 803d
00000020: 085a 83bd a7e8 833d b007 d33c 5910 4f3c
00000030: 4b42 16bd 86cd 58bd ffbb 2b3c 6353 0a3d
00000040: 19e5 563d 5b63 e63c 7605 d73a a084 063c
00000050: 5dd0 ccbc 50aa 563d 53a9 90bd 04ef f7bc
00000060: e855 ed3c 5503 6ebd 1e35 7d3d 2e74 7b3d
00000070: 5246 243d d7f9 683d 6734 273d 1033 8cbc
00000080: 757f 5d3d 3f83 9a3c 4040 37bb 9327 dd3c
00000090: 83eb 33bc b42b 913d e4ea 81bd 50d9 2cbd
000000a0: f482 69bd 13a6 5a3c 26c6 8c3d b6ee 2b3d
000000b0: def1 1cbd 2749 463d dd13 5dbd 2b6d 4ebd
000000c0: c708 78bd 5a60 5fbc dfcb de3c 339b 353d
000000d0: 126d 7f3d ac57 92bd 8b98 c13b 4158 163d
000000e0: 05b8 9dbb cc43 9bbc fe7a 833d 97f2 90bc
000000f0: efe6 d3bc f102 07ba 6e42 283d 2b95 6d3d
00000100: 1f71 d83c 249c 53bd 3095 a8bc cec5 16bd
00000110: d437 1a3c b292 7ebd c3de f33c 0cf0 5e3c
00000120: 053b 3d3c d653 2b3d 239c 0abc 1417 673d
00000130: 13de 623d abfd f9bc d5b1 40bd 9e39 2c3d
00000140: 865a b23b 643a c4bc 9141 a1bd dad0 ea3b
00000150: 24f3 d0bb 9144 3c3d 617a 56bd 5c7e 8cbc
00000160: ba45 debc f0ea 90bc c18a 223d 4423 2ebd
00000170: 3207 85bd c0e2 d03c 2a82 943c 6dcb 03bc
00000180: 4fd9 9ebd 1b04 983d c787 7b3b 9446 3c3d
00000190: 44ab 723d 37d3 efbc 7137 94bd f30e 5a3c
000001a0: 94fd fe3c 7e99 92bc a422 d9bc 16b9 88bc
000001b0: 1658 b4bc f6f5 453d ac44 003c 4de5 a3bd
000001c0: 3567 483d 7c3c 03bd 316b 183d 3a47 3f3d
000001d0: 2698 243d 7114 413c 591c 653d 7e02 893b
000001e0: 597f 203c 8855 b83c 18f2 93bd 05eb 743d
000001f0: 737e a0bc c4d0 7f3c 3fae ec3c 6b3a 023d
00000200: fd5c 17bd 5c69 843d 3da2 8abd 0b2c 77bc
00000210: 4d7b e5bc 9823 5bbc aa50 56bc 7e97 5f3d
00000220: 0d15 46bd 35c6 81bd 0fb8 4cbd 3044 31ba
00000230: 2d28 74bc 5260 433d 7429 5fbd e0b8 84bd
00000240: bcc4 8cbd 7844 ad3c 88e7 213d 03f1 3b3a
00000250: 95ea 9c3c f14f 5fbc 86cd 4b3c f32f 1e3c
00000260: ffad 3dbc e5b8 8a3d 5d7d 4bbd e3a8 82bd
00000270: b17f 213d b780 723d f063 92bd c68d 913d
00000280: fceb 6abd b94f 8f3b d742 9d3c 2572 923d
00000290: 4f28 11bb 5781 34bd 1f8d b23b ee23 163d
000002a0: 7613 3b3d e60a 62bd a244 c3bc d5f7 4d3d
000002b0: 48e6 e63c c160 033d 6531 9dbd fec8 433d
000002c0: a800 783d 6c4c 013d 31c5 2bbd e25b 233d
000002d0: da4d 4abd 5630 b53b 3fd5 573c 0e7d 8b3d
000002e0: 5b8b 8a3d 6045 b33c 59f9 8c3d 8411 54bd
000002f0: 0ddc 76bd bae3 343d 85f3 d7bc 3f95 27bd
00000300: 321a 5d3a 3524 523c 0f91 cabb 06e8 97bb
00000310: fc29 8b3c 2123 46bd a7ba 933b f000 553c
00000320: 16fe 7a3d d663 223c db97 993d b4ca 8c3d
00000330: 48f5 e6bc ec05 45bd 6ddf 09bc c1eb 6ebd
00000340: a240 49bd 66c7 8c3c 5d17 cebc 36cf 42bb
00000350: 1e4a f63c 7140 bb3c c127 3e3d 0c60 99bd
00000360: a034 1e3d a11c a33d f882 9b3d 243e 2cbd
00000370: 61f7 1a3b 6f34 1fbd 47c9 583c 44bf 82bd
00000380: c169 3dbd 5c35 ab3b 35d1 32bd b264 84bd
00000390: d7f8 19bd 74b0 76bc 7bf6 0ebd 1560 c73b
000003a0: 211a 643d 31fd 66bd d750 023c 9108 8bbd
000003b0: bb6d b3bc e833 2a3d d74f 0ebd 0151 52bd
000003c0: d191 fcbc 1486 fd3a 2bc7 bf3b c349 f0bc
000003d0: f4c4 60bc ed8a 0c3d 2158 2b3d 7f63 00bc
000003e0: 690b 51bc 8c5d 07bd 40bd 7c3d eaa8 5b3d
000003f0: 8bbf 8d3d c3b1 94ba e4fd 8dbc 3754 e5bc

weight f4 [300, 200]
-0.008390152 -0.004852739 -0.0026180986 0.0 -0.0059172055 -0.0029377406 -0.0034069181 0.00838165
-0.0 0.0 0.0 -0.005714463 -0.052603558 0.0065594385 -0.0032001908 0.0
-0.0045011584 -0.007422688 -0.07245403 -0.0040650633 -0.074288815 0.04970032 0.0 -0.0056504835
-0.00627916 -0.006030008 -0.0029644798 0.0 0.0073889825 -0.0055512893 0.059035458 -0.0053140735
0.0024032602 0.050415047 -0.06208732 -0.0041774814 0.0073551685 -0.0052436744 -0.0 -0.003612234
0.0072152168 -0.0077580027 0.05378569 -0.066878244 -0.07792066 0.05588243 0.0 -0.0058922144
-0.0045128698 0.007942456 -0.0056117345 -0.005522528 -0.0 -0.0040289047 -0.0038506964 -0.0
0.006644483 -0.006640434 -0.007155545 -0.0712899 -0.008291729 -0.00824234 -0.0030483175 -0.005432962
0.07312439 -0.05916139 -0.0068507176 0.058787372 0.007895576 -0.0 -0.006237118 -0.0013273495
-0.065882035 -0.07762873 0.00044802311 -0.0074994504 -0.00094730384 -0.0079369275 -0.0059430255 -0.06741753
0.0011711157 -0.0056510726 -0.0060497043 0.0 -0.0027598946 -0.0052419263 -0.06458128 -0.0052484884
-0.008317887 -0.007917019 -0.006515112 -0.003705994 -0.007326118 -0.0077641015 -0.0083880145 0.05257601
-0.004874038 -0.07269282 -0.005992978 -0.0051510604 -0.003061968 -0.0029914165 0.0077071874 0.0
0.00493262 -0.006338933 -0.0068709357 0.0752277 -0.00367279 -0.005200284 -0.0033906111 -0.006687057
-0.0037505776 -0.08308256 -0.06773437 0.0 -0.0008219593 0.007501132 0.00020074163 0.0
-0.005114402 -0.008160538 -0.0016986293 -0.0058025653 -0.0071843723 -0.0028483537 -0.003973086 -0.005154755
-0.0 -0.003109614 -0.0045399014 -0.0048755202 -0.0068222615 -0.0030512828 -0.0060802926 -0.0036344472
-0.0067943134 -0.0033562256 0.0016906556 0.0 -0.0 -0.008052736 -0.0 -0.0047216825
-0.008082404 -0.0030016461 0.0 0.00792646 -0.004564711 0.007854292 -0.0051617 -0.0072438214
-0.008382448 -0.06272525 0.05410516 -0.0055994135 -0.004992385 -0.007921262 -0.0 -0.008089516
0.0013614056 0.05267868 -0.0032550513 -0.0 0.0 0.0 -0.0056300606 0.008192462
-0.0022856041 -0.007521972 -0.004272823 0.0 -0.004502476 -0.0 -0.0030676154 0.0
-0.06640922 -0.00066124403 -0.0047107544 -0.0 -0.0068537416 -0.07854686 -0.076135695 -0.0051879194
-0.0011816969 -0.005661291 0.0027517658 0.05958719 -0.07172557 0.06321169 -0.081682734 -0.0051367413
0.0 -0.060736023 -0.008522438 -0.0027095822 -0.0 0.05156198 0.0066255988 0.054592177
0.09862143 0.08161964 0.0061425385 -0.06588495 0.034084186 -0.108106956 -0.006555403 -0.0035547302
0.0 0.0 -0.0 0.021355279 -0.0035706165 -0.0052122185 0.010669906 0.13659152
0.1259902 0.05396217 -0.019019226 -0.03670941 0.0057072868 0.06395911 -0.0 0.0052386187
0.05060334 0.012435693 -0.03921212 -0.0 -0.05830076 9.522332e-05 -0.0 -0.010301793
-0.030081974 0.08149048 0.004795701 0.15438788 -0.0036607191 -0.073343515 -0.065452024 -0.02292619
-0.010747995 0.11490737 0.07357888 0.069317095 -0.007823264 0.032063894 0.0 0.09002503
0.081914365 -0.055748783 0.073786765 0.016975941 0.08417348 0.004449635 -0.03922485 -0.0
00000000: d976 09bc ba03 9fbb 6894 2bbb 0000 0000
00000010: 1ee5 c1bb 1c87 40bb 9a46 5fbb 3053 093c
00000020: 0000 0080 0000 0000 0000 0000 6440 bbbb
00000030: d476 57bd 8ff0 d63b 4bba 51bb 0000 0000
00000040: 747e 93bb 053a f3bb c762 94bd 3934 85bb
00000050: bc24 98bd 9092 4b3d 0000 0000 b127 b9bb
00000060: 69c1 cdbb 6097 c5bb b847 42bb 0000 0000
00000070: 471f f23b 97e7 b5bb 2acf 713d ae21 aebb
00000080: 0480 1d3b 0280 4e3d 464f 7ebd 41e3 88bb
00000090: a003 f13b 21d3 abbb 0000 0080 3bbb 6cbb
000000a0: a06d ec3b d836 febb 624e 5c3d 76f7 88bd
000000b0: de94 9fbd fae4 643d 0000 0000 7a13 c1bb
000000c0: b2e0 93bb 1321 023c a4e2 b7bb 53f6 b4bb
000000d0: 0000 0080 e704 84bb f75b 7cbb 0000 0080
000000e0: f7b9 d93b ff97 d9bb 1079 eabb 7000 92bd
000000f0: 08da 07bc e10a 07bc 48c6 47bb fd06 b2bb
00000100: 3dc2 953d 3753 72bd fc7b e0bb 07cb 703d
00000110: 725c 013c 0000 0080 bd60 ccbb 75fa adba
00000120: 29ed 86bd d0fb 9ebd a5e4 ea39 f3bd f5bb
00000130: 7c54 78ba e309 02bc b6bd c2bb 3412 8abd
00000140: 1f80 993a a22c b9bb 993c c6bb 0000 0000
00000150: 59df 34bb 77c4 abbb 3143 84bd 83fb abbb
00000160: bf47 08bc 62b6 01bc b87c d5bb 43e0 72bb
00000170: ef0f f0bb 016a febb e26d 09bc f159 573d
00000180: 65b6 9fbb f9df 94bd be60 c4bb 3aca a8bb
00000190: 4cab 48bb a40b 44bb 938c fc3b 0000 0000
000001a0: d1a1 a13b d3b6 cfbb 9625 e1bb fb10 9a3d
000001b0: 31b3 70bb 2567 aabb 0435 5ebb 1a1f dbbb
000001c0: 40cc 75bb 3027 aabd 51b8 8abd 0000 0000
000001d0: c178 57ba 0ecc f53b 2c7e 5239 0000 0000
000001e0: b796 a7bb c7b3 05bc 8ba4 deba 7223 bebb
000001f0: e26a ebbb 72ab 3abb a930 82bb 38e9 a8bb
00000200: 0000 0080 aaca 4bbb 74c3 94bb d4c2 9fbb
00000210: 478d dfbb 08f8 47bb 313d c7bb e82f 6ebb
00000220: d5a2 debb 1ff4 5bbb fd98 dd3a 0000 0000
00000230: 0000 0080 9fef 03bc 0000 0080 58b8 9abb
00000240: 0f6c 04bc 44b7 44bb 0000 0000 fcdd 013c
00000250: 9293 95bb 4aaf 003c 7a23 a9bb 945d edbb
00000260: 8956 09bc 1976 80bd 5f9d 5d3d 497b b7bb
00000270: 2997 a3bb 2ec8 01bc 0000 0080 e489 04bc
00000280: 3171 b23a 99c5 573d b352 55bb 0000 0080
00000290: 0000 0000 0000 0000 5f7c b8bb ad39 063c
000002a0: 13ca 15bb e07a f6bb 0a03 8cbb 0000 0000
000002b0: 8289 93bb 0000 0080 0c0a 49bb 0000 0000
000002c0: 8f01 88bd 5657 2dba ac5c 9abb 0000 0080
000002d0: 5a95 e0bb 2ddd a0bd 08ed 9bbd 6cff a9bb
000002e0: 2be3 9aba 5a82 b9bb f856 343b b311 743d
000002f0: dbe4 92bd 2175 813d 4749 a7bd 1c52 a8bb
00000300: 0000 0000 56c6 78bd b2a1 0bbc 3f93 31bb
00000310: 0000 0080 a832 533d 8d1b d93b 0c9c 5f3d
00000320: 08fa c93d 3328 a73d 5947 c93b b0ee 86bd
00000330: dc9b 0b3d 2e67 ddbd b5ce d6bb 7af6 68bb
00000340: 0000 0000 0000 0000 0000 0080 44f1 ae3c
00000350: 0101 6abb 42cb aabb d4d0 2e3c a6de 0b3e
00000360: 9303 013e 7007 5d3d 35ce 9bbc 9b5c 16bd
00000370: 3104 bb3b fefc 823d 0000 0080 b8a8 ab3b
00000380: 7345 4f3d 14bf 4b3c e39c 20bd 0000 0080
00000390: c7cc 6ebd a1b2 c738 0000 0080 dac8 28bc
000003a0: 796e f6bc 7be4 a63d 4125 9d3b db17 1e3e
000003b0: ade8 6fbb 2035 96bd b60b 86bd b5cf bbbc
000003c0: 5c18 30bc 8e54 eb3d 86b0 963d 1ff6 8d3d
000003d0: 262d 00bc 6e55 033d 0000 0000 0b5f b83d
000003e0: b8c2 a73d d658 64bd 841d 973d 2111 8b3c
000003f0: 2563 ac3d 3ece 913b 3caa 20bd 0000 0080

weight f4 [2, 300]
0.035754398 -0.15330003 0.14823322 -0.045670256 0.013174911 0.18192403 -0.024883479 0.064950466
-0.16506617 0.17612666 -0.13698837 0.12610653 -0.14033996 -0.14405948 0.14931162 0.006252626
-0.05501696 0.13306186 0.002417072 -0.0856945 0.12893017 0.10859921 -0.04527709 -0.15284824
0.02727167 0.16060676 -0.050119426 0.09996004 0.032462057 0.112672664 0.116994314 0.13103363
-0.056240737 0.08612873 -0.068312004 -0.18623486 0.091692194 0.12398062 -0.0060311807 -0.036687896
-0.058041327 0.099548176 0.097403884 -0.1037972 0.029743213 -0.1447526 0.04200362 0.041071236
0.13170564 0.022985939 -0.008999927 0.1383434 0.043217685 0.015759584 0.08367562 -0.11755818
-0.08506946 0.06149834 -0.1603102 0.045038246 0.15778948 0.005068619 0.071834244 -0.11284518
0.0557402 -0.005456056 0.0028133118 0.052480184 -0.17210335 0.027382948 -0.10844861 0.10078965
-0.12147664 0.071285576 -0.111016154 0.10712652 -0.09322445 -0.03252652 -0.11325668 -0.119892605
-0.13771954 0.16077915 -0.12496926 0.095944956 -0.08603845 -0.08124622 0.10780206 -0.039440785
-0.0036326004 -0.04869944 -0.09002663 -0.02868378 -0.120858416 0.0034954571 -0.0551323 -0.011683537
-0.015010172 -0.2016039 -0.07754471 -0.038888153 0.108865686 0.14816593 -0.12575302 0.11054572
0.04076413 -0.034794725 -0.046304278 -0.147203 -0.16168757 0.085628204 -0.02205959 0.15315305
-0.051333297 0.12933606 -0.09246485 0.13217965 0.10378989 -0.1582964 0.077781536 -0.00044742782
0.14439847 0.06722693 0.15865812 -0.12280067 -0.15789416 -0.034821723 -0.057736106 -0.08297642
-0.09505429 -0.06857721 -0.16794057 0.04543016 -0.1818843 -0.03693003 -0.045645878 -0.045217294
-0.13107601 0.10449912 0.10858318 0.14469679 0.1562862 -0.10877789 0.14467084 -0.04536383
0.10069496 -0.04564691 -0.054209728 0.01657048 0.0713044 -0.13328098 0.04739188 0.053264443
-0.065455 0.09448234 -0.1635851 0.02451678 -0.041836027 0.13074005 0.15030687 -0.094520375
0.04621267 -0.14215918 -0.08402842 0.093397126 -0.14548509 -0.100212276 0.03429467 -0.14584664
0.11461277 0.055317692 -0.03962893 0.13471961 0.05492133 0.06871347 -0.042352803 0.08613107
-0.09514643 0.10356471 -0.1415213 0.15568721 0.16711345 0.020014051 -0.096443415 -0.16425994
-0.070707135 -0.15936624 0.05651822 0.13260481 -0.079890326 -0.010058188 0.018061502 -0.1777694
-0.1275209 0.03602899 -0.07726461 -0.034950867 0.10879487 -0.029356578 0.118125595 -0.13251497
-0.060721364 -0.048731104 0.12016939 0.047589142 0.13992734 -0.02127173 0.027872337 -0.190751
-0.14051054 0.096681245 -0.09417518 0.05675773 0.01333601 0.039592993 0.07769221 0.16800746
0.029315934 0.12005896 -0.07693979 0.081970304 0.044498187 0.12033501 0.034476656 0.123452105
0.004735622 -0.012561644 0.11928348 0.04146883 -0.09966021 -0.014739706 0.05811837 -0.17884229
0.09349183 -0.054717164 -0.10610268 0.14409687 -0.047396228 0.043421727 -0.024705606 0.11568125
-0.052994862 0.09008148 -0.10988037 0.10616418 0.11091323 0.09363412 -0.10947816 0.03533173
-0.1269166 -0.0023850312 -0.081416875 -0.099916086 -0.09060527 0.14478616 -0.09537919 -0.029224034
00000000: 3473 123d affa 1cbe 73ca 173e bc10 3bbd
00000010: 95db 573c 4b4a 3a3e 70d8 cbbc c004 853d
00000020: 1b07 29be 8c5a 343e ae46 0cbe 1222 013e
00000030: 47b5 0fbe 5484 13be 25e5 183e d4e2 cc3b
00000040: 7759 61bd 5e41 083e bd67 1e3b 9980 afbd
00000050: 4506 043e 4369 de3d 7874 39bd 4084 1cbe
00000060: d668 df3c 1976 243e 074a 4dbd d9b7 cc3d
00000070: eff6 043d edc0 e63d b79a ef3d ae2d 063e
00000080: b05c 66bd 4264 b03d 2ae7 8bbd 5ab4 3ebe
00000090: 1ec9 bb3d 8de9 fd3d 36a1 c5bb 0c46 16bd
000000a0: bebc 6dbd eadf cb3d b07b c73d a093 d4bd
000000b0: 0aa8 f33c 073a 14be fd0b 2c3d 503a 283d
000000c0: d8dd 063e 024d bc3c 6e74 13bc e4a9 0d3e
000000d0: 0705 313d 3e1a 813c 205e ab3d 58c2 f0bd
000000e0: e638 aebd afe5 7b3d 5b28 24be 067a 383d
000000f0: 9193 213e a816 a63b d51d 933d 601b e7bd
00000100: d64f 643d b7c8 b2bb 8a5f 383b 76f5 563d
00000110: dc3b 30be 3452 e03c 4e1a debd ce6a ce3d
00000120: bfc8 f8bd 2cfe 913d 705c e3bd 2665 db3d
00000130: 76ec bebd 873a 05bd 1ef3 e7bd 418a f5bd
00000140: 5a06 0dbe 4aa3 243e e2ef ffbd ca7e c43d
00000150: ed34 b0bd 6b64 a6bd 54c7 dc3d a98c 21bd
00000160: ec10 6ebb 1079 47bd e25f b8bd 3ffa eabc
00000170: 9e84 f7bd 0a14 653b 68d2 61bd 4e6c 3fbc
00000180: 39ed 75bc 4171 4ebe c3cf 9ebd 2f49 1fbd
00000190: f9f4 de3d cfb8 173e 66c5 00be cb65 e23d
000001a0: 4af8 263d ea84 0ebd 8ea9 3dbd 62bc 16be
000001b0: 6d91 25be d75d af3d 50b6 b4bc 27d4 1c3e
000001c0: dd42 52bd ac70 043e 365e bdbd 1a5a 073e
000001d0: cb8f d43d 7418 22be ed4b 9f3d bf94 eab9
000001e0: 31dd 133e 46ae 893d 4677 223e eb7e fbbd
000001f0: 02af 21be 39a1 0ebd b27c 6cbd 8bef a9bd
00000200: d3ab c2bd 3572 8cbd 9df8 2bbe fa14 3a3d
00000210: e13f 3abe f143 17bd 2cf7 3abd c535 39bd
00000220: ca38 06be a203 d63d dc60 de3d 652b 143e
00000230: 7d09 203e f1c6 debd 9824 143e 6ccf 39bd
00000240: 2939 ce3d 41f8 3abd 050b 5ebd d1be 873c
00000250: 0b08 923d cf7a 08be fd1d 423d d12b 5a3d
00000260: 450d 86bd f57f c13d da82 27be 6ad7 c83c
00000270: 415c 2bbd b8e0 053e 0bea 193e e693 c1bd
00000280: 7f49 3d3d 2d92 11be 1817 acbd fe46 bf3d
00000290: 0bfa 14be 183c cdbd 9178 0c3d d258 15be
000002a0: 1aba ea3d ce94 623d f251 22bd f0f3 093e
000002b0: 30f5 603d a6b9 8c3d 227a 2dbd 7d65 b03d
000002c0: 22dc c2bd bc19 d43d f6ea 10be 786c 1f3e
000002d0: ca1f 2b3e 82f4 a33c 2084 c5bd c233 28be
000002e0: e7ce 90bd e730 23be a67f 673d 8ec9 073e
000002f0: 8a9d a3bd 19cb 24bc b7f5 933c 2e09 36be
00000300: d794 02be 2293 133d e83c 9ebd a428 0fbd
00000310: d8cf de3d 357d f0bc d5eb f13d 01b2 07be
00000320: f7b6 78bd 449a 47bd 5f1b f63d d5ec 423d
00000330: 1d49 0f3e 0d42 aebc 8754 e43c 3b54 43be
00000340: ffe1 0fbe d100 c63d ebde c0bd cb7a 683d
00000350: 487f 5a3c 432c 223d 181d 9f3d 260a 2c3e
00000360: f827 f03c 79e1 f53d 9c92 9dbd 0ce0 a73d
00000370: bb43 363d 3472 f63d 6537 0d3d 75d4 fc3d
00000380: 472d 9b3b 5bcf 4dbc e64a f43d 38db 293d
00000390: a71a ccbd cf7e 71bc 870d 6e3d 6f22 37be
000003a0: a578 bf3d 1b1f 60bd 5d4c d9bd 218e 133e
000003b0: 8c22 42bd fbda 313d 6963 cabc 4bea ec3d
000003c0: 2411 59bd a47c b83d f608 e1bd 9b6c d93d
000003d0: 7a26 e33d 3fc3 bf3d 1636 e0bd 01b8 103d
000003e0: 6df6 01be 2f4e 1cbb e4bd a6bd cea0 ccbd
000003f0: 418f b9bd d342 143e 2a56 c3bd 3e67 efbc

bias f4 [2]
0.009698763 -0.010412863
00000000: 8fe7 1e3c b79a 2abc
