figures/Illu_large_partial_4/theta=0.1_s=0.2_step=100/best_model.pth (torch, 247654 bytes, 5 tensors)

weight f4 [200, 1]
00000000: 378f 083f a228 963f a588 81bf 5a83 87bf
00000010: 1dbf d4bf 3a8d c4bf a50b 9f3f 631e 413f
00000020: 1a47 de3e 301f cc3f 9470 81bf 6b14 7cbf
00000030: 9a37 973f 8b04 16bf c6ee ac3f 6cd3 f93e
00000040: 1c14 9b3f d99e 51bf 8714 20bf b09c 95bf
00000050: ba45 90bf 849a b9bf 30a3 e73e 3d3d cc3e
00000060: e333 cc3f 9359 cd3e 0627 f63e ca8c ea3e
00000070: 4b88 aa3f 3ca3 e1be 3377 983f 7906 863f
00000080: e7dd 8cbf 1e88 ac3f 08a1 903f da7d 74bf
00000090: d260 67bf 6160 8d3f 74aa 903f d9bb 0a3f
000000a0: f722 193f d624 ae3f 8698 8f3f cfe5 83bf
000000b0: 5fe9 7fbf d328 bb3f 96b2 863f 3924 14bf
000000c0: 6e71 03bf 4614 ea3f 0699 2fbf ae56 173f
000000d0: 8cee 8a3f 1ac7 bebf d3ec c4bf 396e fb3e
000000e0: 1ed4 e03e 58a6 db3f b187 833f e5d4 853f
000000f0: dc7f 8dbf b619 aa3f f3cd a0bf fd43 ac3f
00000100: 46e9 a83d 117f 703f 3ba2 f63e 225d 66bf
00000110: cdd9 bbbf 063c af3f fa1e 9a3e 1277 d3bf
00000120: 5b89 6ebf c694 6fbf 969d 6bbf 186e b03f
00000130: ba44 913f ef39 cf3e 2bbf 83bf 4ada 8fbf
00000140: 0745 c23e 725b c03f 9c5d 903f 1f3d 84bf
00000150: 3911 77bf ec0f ed3e a5e2 8e3f 412e 9a3e
00000160: 9e43 9abf 6106 98bf 0eeb 813f fee1 df3e
00000170: bcdf a23e 8372 023f 702c b83f b1d1 7dbf
00000180: 8d47 d4bf d5a6 e83e 0f87 d53f 9c30 a6bf
00000190: 45a3 8cbf 46b4 b73f 7769 b03f d785 dfbe
000001a0: 61fc 52bf 88f5 383f 9a89 f2bf 38d7 80bf
000001b0: b466 cabe 460b 0abf bcfb bf3e 38a7 de3e
000001c0: ea14 b5bf d850 7ebf 749b 04bf 390a 8f3f
000001d0: 313e 963f 7b85 5cbf 8441 fe3e 1b4e c23e
000001e0: 4677 d53e b457 61bf 5055 de3e c49d ec3e
000001f0: fea7 753f f9c0 79bf e550 81bf e094 893f
00000200: 11c2 52bf 80cc 143f f46b 4ebf abf4 be3f
00000210: 3cd4 8fbf 591d dabe ddde f23e 929f d6be
00000220: f4ec 8d3f 71e8 02bf 29dc 833f 8a41 8dbf
00000230: 6835 d1be b503 283f d9e3 c8bf 3b64 693f
00000240: d465 643f 4960 dc3e eb09 953f 0d61 85bf
00000250: dcd8 fa3e 85fa 933f b8a2 91bf f13d d13e
00000260: 9b03 8dbf ca57 343f 6e45 b9bf 684d 04bf
00000270: 4bd8 8abf 7488 8c3f 293e abbd 4ad5 d93e
00000280: e514 24bf 11dd 0fbf 5cfb b5bf d6ea ec3e
00000290: 2d0e 87bf 3064 91bf 993c 093f 903e ba3f
000002a0: 18f5 39bf 9673 c9bf b180 ca3f f119 873f
000002b0: d74e ac3f a5ea 87bf 7f00 80bf bc11 c9bf
000002c0: 79f6 0a3f 934f f43e 3c84 1ebf f16f c13f
000002d0: 3397 583f e271 0bbf b585 8fbf 0f1d 03bf
000002e0: 9b40 05bf 4dff 39bf bdd3 bb3e 9cb9 57bf
000002f0: 6850 133f 7476 90bf 0037 dfbe c5d0 223f
00000300: 2ec3 a73f 0e09 85bf f128 83bd d1ab 7e3f
00000310: 8a07 a0bf caad 033f 5823 793f 0273 a0bf
0.5334353 1.173115 -1.0119826 -1.058696 -1.6620823 -1.5355599 1.2425429 0.7543699
0.4341362 1.5947018 -1.0112481 -0.98468655 1.1813843 -0.5860068 1.3510368 0.48794115
1.2115512 -0.8188301 -0.6253132 -1.1688442 -1.1271279 -1.450028 0.4524169 0.3989047
1.5953335 0.40107402 0.48076648 0.4581054 1.3322843 -0.4406985 1.1911377 1.0470725
-1.1005219 1.347904 1.1299143 -0.95504534 -0.9038211 1.1045038 1.1302018 0.5419288
0.5981898 1.3604991 1.1218421 -1.0304507 -0.9996547 1.4621834 1.052325 -0.5786777
-0.51344955 1.8287437 -0.6859287 0.5911664 1.0854049 -1.4904511 -1.5384773 0.4910753
0.43911833 1.7160139 1.0275785 1.0455595 -1.1054645 1.3289096 -1.2562851 1.3458248
0.082476184 0.9394389 0.48170647 -0.8998586 -1.4675843 1.3690193 0.30101758 -1.6520712
-0.9317834 -0.93586385 -0.9203733 1.3783598 1.1349099 0.40473887 -1.0292715 -1.1238492
0.3794329 1.5027907 1.1278567 -1.0331153 -0.96510655 0.4630121 1.1162916 0.30113414
-1.2051885 -1.1876947 1.0149858 0.43727106 0.3181132 0.5095598 1.4388561 -0.9914809
-1.6584336 0.45439783 1.6681842 -1.2983584 -1.0987326 1.435189 1.3782185 -0.436568
-0.8241635 0.7224965 -1.8948243 -1.006568 -0.3953148 -0.5392345 0.37496746 0.43486953
-1.4147007 -0.9934211 -0.517997 1.1174995 1.1737729 -0.86141175 0.4965936 0.37950215
0.4169256 -0.8802445 0.43424463 0.46214116 0.9595946 -0.9756008 -1.0102812 1.0748558
-0.8232737 0.5812454 -0.80633473 1.4918417 -1.1236644 -0.42600515 0.47435656 -0.41918617
1.1087937 -0.5113593 1.0301563 -1.1035626 -0.40861058 0.65630656 -1.5694534 0.91168565
0.8921788 0.4304221 1.1643652 -1.0420243 0.48993576 1.1560827 -1.1377783 0.4086757
-1.1016725 0.70446455 -1.4474313 -0.5168061 -1.0847257 1.0979142 -0.083614655 0.4254554
-0.6409438 -0.56196696 -1.4217334 0.46272916 -1.0551201 -1.13587 0.5360809 1.4550343
-0.7263961 -1.5738399 1.5820524 1.0554792 1.346156 -1.0618483 -1.0000151 -1.5708537
0.5428234 0.4771696 -0.61920524 1.5112287 0.8460571 -0.54470646 -1.1212679 -0.51216215
-0.52051705 -0.72655183 0.3668498 -0.8426759 0.57544565 -1.1286149 -0.4359665 0.6359981
1.3106439 -1.0393388 -0.06404293 0.9948092 -1.2502301 0.51437056 0.97319555 -1.2535098

bias f4 [200]
00000000: 057f a83f 345e 9ebf 1df1 eb3e eb96 603f
00000010: a727 1ebf 316e d2bd 4ec8 6fbf 8d43 e33e
00000020: 7a91 753f 199f 2c3f d138 243f b1de fd3e
00000030: 7d35 2bbf a431 7b3f 02d3 a23e 1a17 503f
00000040: 44eb 3a3f 0441 e43e 77db 8bbe e4b0 703f
00000050: a116 a83f ec44 5dbf 37b0 88bf 189b f8be
00000060: f6ef f13e 2da4 50bf c816 4a3f 6eb8 98bf
00000070: 9c64 07be ab5d 733f be7c 07bf 9bc6 a4be
00000080: d393 8b3f 865f 563f 5d08 9a3d da3c 063f
00000090: d0b7 c13e 1851 57bf 5a8e 21bf d964 aa3f
000000a0: 1802 4bbf aa19 1b3f 3ef2 f6be 17e3 503f
000000b0: a214 3d3f 3113 3f3f 4a85 2abf c634 a9be
000000c0: fcd9 63bf e842 003f 25cb 3bbe 9b8d 263f
000000d0: 2772 54bf 2767 84be be08 35bf 7bc9 7bbf
000000e0: 5cc3 673f 5127 883e 2b9a 09bf dddb 0dbf
000000f0: 5465 813f 88f3 273e 0d49 343f bcf0 783f
00000100: c4b4 6a3f fc9b 66be 5da0 5a3f 7086 033e
00000110: aed1 69bf ee4e 533f 74ac 4bbd e754 b0be
00000120: d7b2 7f3f cbd6 a43f 5fe6 bd3e 3923 babe
00000130: 311c 1f3f 235f 2a3f 432a 5e3f 3e46 7e3f
00000140: 0fb1 14bf d391 473f 5c48 8abf a75a 083f
00000150: d7e4 ed3e 0e22 a0bf a625 79bf 491f d8be
00000160: 4053 18be 6eeb 5e3f 8d76 55bf 8b60 773f
00000170: 0c74 cebe b9e0 453f bb96 393f 851d ac3f
00000180: b03e 1abf 7959 743f 6307 103f c46c 25bf
00000190: ca30 893f 86b6 643f f8e1 c73d dbc4 893f
000001a0: 6d8d afbc 67f1 a93c 9746 f8be 049f 663f
000001b0: 421b 353f d376 59bf 6988 04bf 0686 86bf
000001c0: 54e2 a5be b9bf 153f 5424 79bf 9bb5 8a3e
000001d0: 3144 a2bf e265 263f d114 6f3f d460 08be
000001e0: 87ab 443f a0b3 943e ec9d 7bbf e1aa 9fbf
000001f0: c52f 70bf 23bc 513f fea2 263f f39e 47bf
00000200: a204 043d 6a61 b83e c81e a13d f7ec 313f
00000210: 10b7 af3f 6180 513f 6cf5 573f bf32 673f
00000220: f783 19bf 9854 29bf cf33 f7be d403 903f
00000230: eaec f53e 39bd 9c3e e0e1 26bf 3c31 84bf
00000240: c2a4 92be 6efe 6f3f 1ef0 98bf 5e90 403f
00000250: 657c 7e3f f8d5 50bf 5d3e ae3f 7d69 40bf
00000260: d547 403f ba3c f1be 5a1c 3ebf 98f6 11bf
00000270: 8847 403f 9715 41bf 4ccb 383f cce3 19bf
00000280: afa8 aabe 69f6 5ebf cfe1 44bf 1cbc 9fbf
00000290: 9a03 173f 05fe b13f aaed 1c3f 96a9 473f
000002a0: 60c3 2bbf e245 30bf cedb 3f3f 7710 913d
000002b0: 4cf9 2b3f 8ac0 953f 2e23 053f e12c 0fbf
000002c0: b0e4 aa3f bec2 8ebe ec11 49bf bc5a 033f
000002d0: d488 48bf 4f0f d03c 5a6a 703f e3f4 25bf
000002e0: 4039 11bf 25f1 fe3d e219 d7be b8cc 133d
000002f0: 0e1f 6d3e 7dba 9f3f 2a5a 5c3f 2c40 593e
00000300: 1eea cabe 7628 dd3e a37b 1f3f 5a8e 0cbf
00000310: e364 85be afcb 853f 7889 f6be 29f0 573f
1.3163763 -1.2372499 0.46082392 0.8773028 -0.61779255 -0.102749236 -0.93665016 0.44387475
0.95925105 0.67430264 0.64149195 0.49583963 -0.6687849 0.9812262 0.3180161 0.8128525
0.73015237 0.44580853 -0.27315876 0.94019914 1.3131906 -0.8643329 -1.0678777 -0.48555827
0.47253388 -0.8150051 0.7894101 -1.1931283 -0.13221973 0.950648 -0.52924716 -0.32182774
1.0904487 0.8373951 0.075211264 0.524366 0.3783555 -0.84108114 -0.63107836 1.3312026
-0.7930007 0.60586035 -0.4823169 0.8159651 0.7385961 0.7463866 -0.6660963 -0.33048075
-0.8900449 0.5010209 -0.18339212 0.6505982 -0.8298668 -0.2585995 -0.70716465 -0.9835431
0.9053247 0.26592496 -0.53750867 -0.5541361 1.0109048 0.16401494 0.70423967 0.9724233
0.91682076 -0.22520441 0.85400945 0.12844253 -0.9133557 0.8254231 -0.04972501 -0.34439775
0.9988226 1.287805 0.37089822 -0.36354998 0.6215239 0.6655142 0.86783236 0.9932593
-0.5808267 0.77956885 -1.0803332 0.53263324 0.46463653 -1.2510393 -0.9732307 -0.4221137
-0.14875507 0.8707799 -0.8338402 0.9663169 -0.40322912 0.77296025 0.7249562 1.3446509
-0.60251904 0.95449024 0.5626127 -0.6461909 1.0718014 0.8934101 0.09759897 1.07632
-0.021429742 0.020744992 -0.48491356 0.9008639 0.7074472 -0.84946936 -0.51770645 -1.0509651
-0.32399237 0.5849567 -0.9732106 0.2709168 -1.267706 0.6499921 0.9339114 -0.13318187
0.7682423 0.29043293 -0.98287845 -1.2474023 -0.9382289 0.819277 0.65092456 -0.7797691
0.03223098 0.3601182 0.07867199 0.69502205 1.3727741 0.81836516 0.8435886 0.9031181
-0.5996699 -0.66144705 -0.48281714 1.1251168 0.48032314 0.30613115 -0.6518841 -1.0327525
-0.28641325 0.93747604 -1.1948278 0.75220287 0.9940856 -0.8157649 1.3612782 -0.7516096
0.75109607 -0.47116643 -0.7426201 -0.570169 0.7510915 -0.7542357 0.72185206 -0.60113215
-0.3333182 -0.8709474 -0.76907057 -1.2479281 0.5898987 1.3905646 0.61300147 0.7799314
-0.67094994 -0.6885663 0.7494477 0.070832185 0.6717727 1.1699383 0.52006805 -0.55927855
1.335104 -0.27882951 -0.7854297 0.51310325 -0.78333783 0.025397925 0.9391228 -0.6482679
-0.5672798 0.124483384 -0.42011935 0.036083907 0.23156378 1.2478787 0.8607508 0.21215886
-0.39631742 0.43194932 0.6229803 -0.5490471 -0.26053533 1.0452784 -0.48151755 0.8435083

bias f4 [300]
00000000: 3594 50bc a37b 513d 1060 4b3d 3e85 27bc
00000010: 809c ddbc bd2f 9ebc 1415 84bd 961e 13bd
00000020: 59d4 033c 3ea4 02bd b38a 6d3d 2aa4 703c
00000030: e53e 94bc 16db b93c c23e 483d 5f56 2e3c
00000040: 56e2 b93c 2504 29bc 2995 e63c 6cfd 073c
00000050: 242c 49bd b690 95bd d2bd ea39 c1e9 263c
00000060: 9b96 09bd 36fb d3bc d40f 0fbd ef57 723d
00000070: 68b9 a2bd 7b78 45bc cb93 973c 251a 8f3c
00000080: 548c 2dbd ad4d 623d 6a2c f1bc b03b a03b
00000090: 3f97 5cbd 9fb2 2dbd 58cc 24bd a740 b43c
000000a0: c163 543d 3de3 4b3c c111 493d 517f 073d
000000b0: e59e 8fbd eab8 3f3d 0cd8 14bd 18d0 a8bc
000000c0: a0cf 96bc 49eb 22bd 71d6 95bd 44cd 283d
000000d0: b5a1 163d 8445 60bd 5eda 183d c0fd 4abc
000000e0: bed5 1a3b a4ab 81bd 6fa8 81bc 7ea8 643d
000000f0: b08f 6f3d 329d b4bc 6316 71bc 6a39 563d
00000100: c3de 383d 86e8 16bd 2692 853d 5d4b 323c
00000110: a273 7f3c 49a0 ebbb e9be 44bd e04c 0b3d
00000120: 1b76 bd3c c078 0ab9 719e 833d 1179 b7bc
00000130: 651d 733b dd03 2a3c 243d 9ebc 7f10 88bd
00000140: bd3b 833d 66b7 4fbd 64ea e03c 8715 38bd
00000150: bf4c 993c 6bbb 083d e122 52bd fd1a 8d3c
00000160: c920 4a3d 04e8 8f3c 2051 00bd e683 3ebd
00000170: 63f2 423a b463 d1bc be96 73bd 0997 e0bc
00000180: 1033 9fbe ac06 bebc 8934 aabc c251 423c
00000190: 7126 7f3d e6aa 223c 2cef 49bb 50ad 8cbd
000001a0: f677 49bd fc46 5abd 1d41 87bc 5719 6bbc
000001b0: 7137 4d3c 18b2 65bc 2748 68bd fafb 803c
000001c0: d478 86bd bd7f 13bd 714d 30bd 0490 49bc
000001d0: 243e 0b3c c5cc 79bb ec17 11bd 07ad 9bbd
000001e0: 989d 5bbd 89c3 f73c b4c6 e03a b7e8 47bc
000001f0: 5389 433d 515b 2e3c 9901 f2bc bc5d 0cbd
00000200: 0e52 19bd 29a1 1b3c 491a 6c3b c9a3 523d
00000210: 1cc4 84bd 1f12 2d3c faad 46bd 33ec 2fbc
00000220: 54f5 663d 4e43 a1bc ac0e a7bc 53ec 1f3c
00000230: e55c 53bd 26e8 1c3d b7ca 4bbc b57a 683e
00000240: 6be4 85bd 5785 5d3d 0ea3 183d a634 9bbc
00000250: 2cc4 f33c e78b c03c a945 efbc ea28 82bd
00000260: 0dac 433d 2b96 323d 9937 4cbc 1078 8fba
00000270: d0fd 8fbc 415a 8abd 7db6 a43c 5b55 68bb
00000280: 5aa1 71bd f0e6 debc c70e 0f3d 0370 a2bd
00000290: 7600 8cbb 5e7b 6ebc fad0 a2bc 83e1 2d3c
000002a0: 7f06 acbc d3cf ddbc 4cd9 8abc 057c 5d3d
000002b0: ecac 1abd f892 4a3d 2e59 68bd 48ae 05bd
000002c0: 79d1 723c 6a29 0dbc 21e6 1c3d 2433 b5bc
000002d0: d412 31bd f9b1 e0ba 8588 42bd 577b 9a3c
000002e0: 1278 543c 9c22 0ebd 1571 e4bc 531d f3bb
000002f0: ec23 85bd c7c8 04bd b874 8bbd fd80 4c3d
00000300: 83ec 8cbd 3ad5 1c3c 3b02 22bd d93e 863c
00000310: f712 10bd 7c43 0e3d 8520 613d f1a2 df3b
00000320: 56c9 e23c af46 85bd 5965 2cbd 3ebf 2ebd
00000330: e710 753c 59f5 823c a176 2f3d 87da 293d
00000340: 572d 8dbd c20f 293d 42aa 463d c6e3 783d
00000350: 00e5 8f3c 21bb 62bd 6498 323d ea4c 373d
00000360: 2079 13bd 042f 6f3d 9b86 c8bc a79f ebbc
00000370: 3735 e3bb d95c a83c c1a6 6e3d fe6c c93c
00000380: 189f b53a f0f5 56bd eac6 0fbd e447 73bc
00000390: 880c 58be 4b7b 743d da9f 1e3d 9c5a 61bc
000003a0: 0e1b 1dbd 40a1 12bd 8a37 37bd 9222 5abd
000003b0: 1c53 6fbd 7cd2 35bd 9456 89bd 3887 90bb
000003c0: d552 8abd b9ad 2bbd ea76 423d 7c12 c03c
000003d0: 218e 303d 1e64 8d3b f6d6 05be 5ba8 473d
000003e0: 6a7e 7cbd 11b3 66bd f095 fd3c f4da 053d
000003f0: 688b c5bc 562e 56bd d90b 2a3d 1aff 053c
-0.012730648 0.0511433 0.04965216 -0.0102246385 -0.027052164 -0.019309873 -0.06449333 -0.03591784
0.008046233 -0.031894915 0.057993602 0.014687577 -0.018096397 0.022687476 0.048887976 0.01064071
0.022690933 -0.01031593 0.028147297 0.008300167 -0.04911436 -0.07302992 0.00044773385 0.010187567
-0.033590894 -0.025876623 -0.034927204 0.05916589 -0.0794552 -0.012052651 0.01850309 0.017468521
-0.042370155 0.05524986 -0.029440124 0.004889928 -0.053855177 -0.042406674 -0.04023394 0.022003485
0.051852945 0.012444315 0.049089197 0.033080403 -0.070127286 0.046807207 -0.03633885 -0.02060704
-0.01840955 -0.039775167 -0.07316292 0.04121138 0.03677531 -0.054753795 0.037317626 -0.0123896
0.0023625935 -0.06331566 -0.015827386 0.05582475 0.05848664 -0.022047613 -0.01471481 0.052300848
0.045134317 -0.036842845 0.06522016 0.010882226 0.015591534 -0.0071907383 -0.04803363 0.03400886
0.023127606 -0.00013205688 0.06426705 -0.022396596 0.0037096378 0.010376898 -0.019316263 -0.066437714
0.064078785 -0.05071201 0.027455516 -0.044942405 0.018713353 0.03338186 -0.051302794 0.017224783
0.049347673 0.017566688 -0.031327367 -0.046512507 0.0007436631 -0.025560237 -0.05946993 -0.02741577
-0.31093645 -0.02319654 -0.020777004 0.011860313 0.06229252 0.009928441 -0.0030812724 -0.06868994
-0.04918667 -0.053290352 -0.01651054 -0.014349303 0.012525425 -0.014019512 -0.056709435 0.015745152
-0.06566015 -0.036010493 -0.043042604 -0.012302402 0.008498702 -0.0038116437 -0.035423204 -0.07601362
-0.05361709 0.030244606 0.0017149062 -0.01220148 0.047738384 0.010641889 -0.029541777 -0.03426908
-0.03743177 0.009498873 0.003602641 0.05142573 -0.064827174 0.010563402 -0.04850576 -0.010737467
0.056386307 -0.019685414 -0.020392738 0.009760934 -0.051602263 0.03830733 -0.012438468 0.22703059
-0.06537708 0.05408224 0.037264876 -0.018946003 0.029756628 0.02350421 -0.029208021 -0.0635546
0.047771502 0.043600243 -0.012464427 -0.0010945816 -0.017577082 -0.06755496 0.020106548 -0.0035451266
-0.058991767 -0.027209729 0.034926202 -0.07931521 -0.004272516 -0.01455578 -0.019875038 0.010612848
-0.020999191 -0.027076637 -0.016949318 0.054073352 -0.037762567 0.049456567 -0.056725673 -0.03263691
0.01482045 -0.008615831 0.038305406 -0.022119112 -0.043230847 -0.0017142884 -0.047493476 0.018857641
0.01296808 -0.034700975 -0.027885953 -0.007419267 -0.06500992 -0.03241804 -0.06809372 0.0499277
-0.068810485 0.009572322 -0.03955291 0.01638739 -0.035174336 0.034732327 0.054962654 0.006824844
0.027683895 -0.065076225 -0.04208884 -0.04266285 0.014957643 0.015986132 0.042837743 0.04146817
-0.068934135 0.041274793 0.048502214 0.060764097 0.01756525 -0.05535424 0.043602362 0.044751085
-0.036004186 0.058394447 -0.024478247 -0.028762652 -0.006933834 0.020552086 0.058264498 0.024588104
0.0013856618 -0.052480638 -0.03510181 -0.014848683 -0.2109853 0.059687894 0.038726665 -0.013754513
-0.03835588 -0.03579831 -0.0447307 -0.053255625 -0.05842887 -0.044390187 -0.067059666 -0.0044106506
-0.0675408 -0.04191372 0.047476687 0.023446314 0.043104295 0.0043149134 -0.13070282 0.04874454
-0.061643995 -0.056323115 0.030955285 0.032679513 -0.024114326 -0.052290283 0.041515205 0.008178497

weight f4 [300, 200]
00000000: 2c9b ddbd 63d3 e1bc 0000 0000 11af a1bd
00000010: cbff 2ebd 6de9 bfbd 0000 0000 0000 0080
00000020: 0000 0080 1035 fc3d d31e 52bd 0000 0000
00000030: 0000 0000 5c4d c5bc de06 a53d 6118 c4bd
00000040: 3306 09bd 0000 0000 ae4f b7bc 5b10 a1bc
00000050: c76d 693d c7c1 ef3b ea4a d33d a68b 6b3d
00000060: f37e e83d 864b 873d c570 93bd a348 0fbb
00000070: 0000 0000 ed34 63bd 0d2f 5a3d e971 5e3d
00000080: 0000 0000 8425 45bc 0000 0000 71f9 babd
00000090: 4ebc 5ebd baae 33bc 9831 983d ee01 bfbc
000000a0: 5eb7 923d ffab d23d 0000 0000 b809 6fbd
000000b0: c8ab 113d 61d8 0e3e 0000 0000 c67e 873d
000000c0: 3be9 2f3d b691 e83d 0c61 34bd 1c97 173d
000000d0: 0000 0000 b243 a33b cddd 11bd 0000 0000
000000e0: 0e8a 99bd f21d bd3d 8a7f 813d d4d4 a03d
000000f0: ed17 e83c 66b9 903d d563 b33c 0cfb 123d
00000100: 0000 0000 d62e c73d 95ec 04bd 0000 0000
00000110: c75e 47bd 31cd 573d af93 113d adab 0cbe
00000120: 83a4 153d 7605 63bd fa80 8fbd 0000 0000
00000130: bc3c bf3d 0000 0080 61b1 af3c 5513 903d
00000140: b29d 89bc 3224 a03d a43e a5bb c479 86bd
00000150: 1cf5 3e3d 4085 dc3c 766e 4dbd 0000 0080
00000160: 8d88 bebd a0e6 863d 5394 19bd 0000 0080
00000170: 0000 0080 4d41 e13c c1d4 d53d cd61 a3bd
00000180: 46b7 09be f12e 69bd 0000 0000 b867 babd
00000190: 0000 0000 4f8e ef3d 0000 0000 b88d 793d
000001a0: 0000 0000 f876 bebc 0cf0 dfbd e699 ce3c
000001b0: b943 803d 97e2 bd3d 4886 47bc 0000 0000
000001c0: 8544 e7bd bde6 8abd ee7d 193e 0f6e 7e3d
000001d0: d48b 033d 81ac 22bd d296 aebd 0000 0080
000001e0: 0000 0080 6f77 98bd 0199 b2bc 7324 db3c
000001f0: 0000 0000 d01b 633d 0000 0000 ee28 643d
00000200: 0000 0000 d61b d93c 4521 87bd 5654 753d
00000210: 0000 0000 cd09 e53c dce9 303d 1c9c 373d
00000220: 8c40 853d 4eec cb3d 7e0c a13d ba5a 4bbd
00000230: 0000 0000 9b0d 2f3d 0418 19bd bb2f c83d
00000240: 396d 183d 25e6 433d 14a2 183d 6caf 233d
00000250: 889c a5bd 17e7 9c3d 3d92 093d 8af4 3e3d
00000260: 9430 123d 4c26 51bd 72c9 483b c53b 913d
00000270: 0b7c 7bbd ac17 2b3d 0000 0000 6849 e53c
00000280: a7ce 1fbd 0430 043c 2019 43bd 8048 db3c
00000290: 0000 0000 128f 713d ab79 203c 78a8 4e3d
000002a0: 0000 0000 4ae5 96bd c953 e73d f717 153d
000002b0: fb50 933d cd82 263d 7fcd 593d 752e 86bd
000002c0: c3ba 40bd 41e9 99bd 2d97 92bc c3ae e33d
000002d0: 0000 0000 0000 0000 c792 2b3d ac49 3f3a
000002e0: 120b d43d 2737 58bd 0000 0080 b46c 7dbd
000002f0: 3b81 f43b 0000 0000 70c1 d8bc d310 6b3d
00000300: fb7b a83d 0000 0000 936d 023d d668 27bd
00000310: 0000 0000 0000 0080 f7b1 843d 22aa 073d
00000320: 97e4 bbbb d252 803d 0000 0080 0ca0 85bd
00000330: 0c6e a2bc a089 903d adaf ac3d 0000 0000
00000340: 8c00 07bd 0000 0080 3a34 253d 0000 0080
00000350: 4f73 c43c ec5e 8a3d 254a 52bd 467e b4ba
00000360: 0000 0080 03b7 92bd 749e 113c c5a9 23bd
00000370: 44a0 bb3c c6d1 b0bc 265f 4ebd 7309 d839
00000380: 6cc6 c9bd 872f 08bd c6cb 713d 159e 33be
00000390: c6c5 573d fe0d 633d 75b6 4bbd 6a68 41bd
000003a0: 0000 0080 cdb7 323c aa48 413d 8f8b a53c
000003b0: b6ca 25bd 86ad c33c dafa 3ebd 9a42 8f3d
000003c0: 0000 0080 c129 8ebd 0000 0080 16aa 87bd
000003d0: 870a 52bd a4f2 82bd d899 a1bc 0000 0080
000003e0: b96e 26be 0000 0080 3615 45bd 0000 0000
000003f0: 6795 28bd c286 5cbd e234 433d 0000 0080
-0.10820612 -0.027566617 0.0 -0.078947194 -0.042724412 -0.09370694 0.0 -0.0
-0.0 0.12314808 -0.051298928 0.0 0.0 -0.02408474 0.080579504 -0.095749624
-0.033453178 0.0 -0.022376861 -0.01966112 0.056989457 0.007316801 0.10317023 0.057506226
0.11352339 0.06606202 -0.071992435 -0.0021863363 0.0 -0.055470396 0.053267527 0.054307852
0.0 -0.01203287 0.0 -0.091296084 -0.0543788 -0.010966951 0.07431334 -0.02331635
0.07163881 0.10286712 0.0 -0.058358878 0.035564214 0.1394973 0.0 0.06615977
0.042947035 0.11355917 -0.044037864 0.037009344 0.0 0.004982435 -0.035611916 0.0
-0.07497035 0.09234227 0.06323154 0.07853094 0.028331721 0.07066612 0.02189819 0.03588395
0.0 0.0972573 -0.032452185 0.0 -0.04867437 0.05268592 0.035541233 -0.13737364
0.036533844 -0.05542513 -0.07007022 0.0 0.09337756 -0.0 0.021446886 0.07034937
-0.016798828 0.07819404 -0.0050428677 -0.06566194 0.046620473 0.026919007 -0.050154172 -0.0
-0.09303389 0.06586957 -0.03749497 -0.0 -0.0 0.027496958 0.1044097 -0.079776384
-0.1344882 -0.056929532 0.0 -0.09101814 0.0 0.11697065 0.0 0.06092617
0.0 -0.023250088 -0.10934457 0.025219869 0.06262917 0.09271734 -0.012178011 0.0
-0.11292366 -0.06782291 0.14989445 0.06211668 0.032115772 -0.039715294 -0.085248604 -0.0
-0.0 -0.07444655 -0.021801474 0.026750779 0.0 0.055446446 0.0 0.055703096
0.0 0.026502531 -0.065981425 0.059894882 0.0 0.027958775 0.043191776 0.044826612
0.06506452 0.09957181 0.07863711 -0.04964707 0.0 0.042737585 -0.03737642 0.09774729
0.037213538 0.047826905 0.037263945 0.039962217 -0.080864966 0.076612644 0.03358673 0.04661993
0.03569086 -0.051061913 0.003063765 0.07091478 -0.061397593 0.041770622 0.0 0.027989104
-0.03901544 0.008068088 -0.047631383 0.02676797 0.0 0.058974333 0.009794633 0.050453633
0.0 -0.07367952 0.112952776 0.036399808 0.0719318 0.040652085 0.053174492 -0.0655183
-0.04705311 -0.07515193 -0.017894352 0.111173175 0.0 0.0 0.041888025 0.000729705
0.10353674 -0.052786972 -0.0 -0.061871246 0.0074616945 0.0 -0.026459426 0.05738909
0.082267724 0.0 0.03184278 -0.040871464 0.0 -0.0 0.064792566 0.033121236
-0.005734037 0.06265797 -0.0 -0.06524667 -0.019827865 0.070575 0.08431945 0.0
-0.032959506 -0.0 0.04033301 -0.0 0.023980765 0.06756386 -0.05134024 -0.0013770543
-0.0 -0.07163813 0.008887876 -0.039956827 0.022903569 -0.021584403 -0.05038371 0.0004120577
-0.09852299 -0.03324845 0.059032224 -0.17540772 0.052678846 0.055433266 -0.04973455 -0.047218718
-0.0 0.010908079 0.04718844 0.020208148 -0.040476523 0.023886453 -0.04662595 0.06995125
-0.0 -0.06941558 -0.0 -0.06624238 -0.05127957 -0.06393936 -0.019726679 -0.0
-0.16253175 -0.0 -0.04811593 0.0 -0.041158106 -0.053839453 0.047657855 -0.0

weight f4 [1, 300]
00000000: 206c 693d 31b7 e6bc 71e4 25bd 3e75 02bd
00000010: cd85 3c3d 42d8 563d cb4a 5f3d 6a95 77bd
00000020: 3093 883c 46a5 643d 4914 843d 9d85 433d
00000030: bf7f 8cbc bf57 273d 539a 633d f871 42bc
00000040: 4634 313d 338b 8c3d 1abe 2d3d 3386 85bd
00000050: b750 eabc 91fe 6cbd 4eb5 973c 5cc1 60bd
00000060: 86d9 4a3d 0b38 053d 8386 7d3d 66d5 1d3d
00000070: c137 c23e e9f4 073d af84 0bbd d9a7 9e3c
00000080: e8c0 08bd 2992 a83c 0fc0 b23c 0f47 8b3d
00000090: bb96 02bd e970 57bd 2bcc 3dbd 347b 8ebd
000000a0: 2d7d 813d fd9a cebc 9aed 9b3c a975 3d3d
000000b0: 04d6 243d beff 51bd 6657 263d 8aff eebc
000000c0: 009e abbe cb12 f53c 166c db3c c146 d3bc
000000d0: b4cb 183d 54d8 4bbd 6486 673d 0a47 e1bc
000000e0: e62f 8dbd d81c 74bd d071 9cbd 27aa 873d
000000f0: 5b4e 6dbd 2083 63bd 4ee7 a93c c46b 843d
00000100: cd63 6a3d 433c 2c3d a723 253d db8a 663d
00000110: 8435 283d e75e 7dbd 90d9 89be 3796 13bd
00000120: 2c9c 3f3d ac9a 943d 58eb 423d 0a1c 3bbd
00000130: bdbb 76bd aa9a 05bd c1d8 423d 3ea9 bebc
00000140: 5abe 68bd 9592 163d e871 883c baea 633d
00000150: 1a18 82bd 4f5e 8e3c d516 6b3d f515 403d
00000160: 3313 d7bc e4b7 5bbd a7a1 833d 8f10 ad3c
00000170: c142 77bd f1b8 88bd 7115 8f3c 6a6e acbe
00000180: 4c5d 82be 60a4 84bd 7ff1 623d 4ac8 623d
00000190: 29b2 44bd e988 82bd c73e 3c3d 797c 613d
000001a0: c38b 173d 12e2 20bd 918e 0c3d aefe 28bd
000001b0: ab10 8f3d f8c6 713d f330 95bd d3db a3bc
000001c0: bbc7 8bbd 500e 743d 31c3 803d a041 f2bc
000001d0: 3af8 443d e4dd 82bd a88a 0ebd 80a9 aa3c
000001e0: 005d e63c 5549 213d 46b1 01ba 07d9 22bd
000001f0: e8c8 34bd 058d 713d 19ad e9bc 9a1a 32bd
00000200: c00c b83c bc05 0bbd d0a0 f13c e868 60bd
00000210: 4881 20bd 2271 3bbd 44f9 5ebd d9aa 983c
00000220: 0475 ecbc 1499 033d 366d 3bbd 22d7 f83c
00000230: 8ceb 1b3d bcf6 88bd d042 883d 3d74 acbe
00000240: eaf2 00bd ab01 20bd caae 6f3d 60c5 30bd
00000250: 1112 553d eebc febc 8f05 0e3d c3b7 2abd
00000260: 7eb4 41bd 6471 43bd ac75 8f3d 95a4 23be
00000270: da8e 3b3d f01e 0fbd 952e 623d f4a2 713d
00000280: eb27 123d 904c 02be 5df0 d03c ea79 61bd
00000290: ed78 8cbd 5ad2 813d a6b5 063d e047 41bc
000002a0: 3ec9 18bd 90f5 863d 9804 5fbd 48d1 64bd
000002b0: 352d 1bbd 8b1c 15bd 33d3 12bd 35b8 c83c
000002c0: b684 08bf c5f8 9cbd fcf8 8abd 29aa 513d
000002d0: b85b 6abd 7bf3 403d c4a1 803d a2a9 693d
000002e0: d033 953d c31d 993c a5ac 953e 4653 c5bc
000002f0: c3a9 523d d293 49bd 33a6 9bbc c6a4 51bd
00000300: 6d41 dfbc 2042 d4bd b9d2 8e3d 5308 4f3d
00000310: 8f57 fe3c d227 0bbd 50fd 34bd 8b6b 3bbd
00000320: 6be8 b23c 78e1 70bd df7f 7f3d b27f 963c
00000330: 04f0 00bd 1f89 913c 134e 24bd 1440 babc
00000340: b95f 363d 70d3 7f3c 3e6d 0c3d 8c18 65bd
00000350: faf1 6cbd f637 f63c b8b9 853d 4641 6fbd
00000360: 5b97 373d 2bc9 453d 00ea a63e 9de8 4d3d
00000370: c887 ca3c c334 18bd 7480 923c 22f0 223d
00000380: 84b3 4b3d 7a80 3a3d 6d65 82bc d8fa bd3c
00000390: 513a a0be 898d 313d 625d 213d 4a5e 5f3d
000003a0: ec15 8bbc 9bad 81bd 4de2 973d a0f6 0fbd
000003b0: 8f9d cfbc dcd0 23bd 3a74 9bbd e1ee 48bd
000003c0: 88fc a0bc d44e 81bd 9378 99bd 09eb e43c
000003d0: 6df0 f43c 679a db3c 9e7a 7cbe 2602 41bd
000003e0: af36 53bd 8ae1 613d f49c 5a3d 78f9 e4bc
000003f0: 98e7 e0bc 10f1 543d 460e f5bc a667 8ebd
0.05698788 -0.028163524 -0.04050106 -0.031850092 0.04602604 0.052452333 0.054514688 -0.060445227
0.016671747 0.05582168 0.064491816 0.047734845 -0.017150758 0.040855166 0.055567097 -0.011867993
0.043262742 0.06862488 0.042417623 -0.06519737 -0.028602941 -0.05785996 0.01851907 -0.054871902
0.049523853 0.03252415 0.06189586 0.03853359 0.37933162 0.03319255 -0.034062084 0.019367145
-0.033387095 0.020577507 0.021820096 0.06800663 -0.03188203 -0.052597914 -0.046337288 -0.06957093
0.063227035 -0.025220389 0.019034196 0.046254788 0.040243164 -0.051269285 0.040610693 -0.029174585
-0.33518982 0.029916188 0.026784938 -0.025790574 0.03730364 -0.049766853 0.05652465 -0.027499694
-0.068939015 -0.05959782 -0.076388955 0.06624251 -0.057936054 -0.055544972 0.020740177 0.06465867
0.057224084 0.042049658 0.040317204 0.056284767 0.04106666 -0.061858084 -0.269238 -0.036031928
0.046779796 0.07256064 0.047587723 -0.045681037 -0.060237635 -0.032618202 0.047569994 -0.02327406
-0.05682216 0.036760885 0.016655877 0.055643775 -0.06352253 0.017378954 0.05739482 0.04689594
-0.026254272 -0.05364217 0.06427317 0.02112606 -0.060366396 -0.066759 0.017466279 -0.3367799
-0.25461805 -0.064766645 0.05540609 0.05536679 -0.04802147 -0.0637377 0.045958307 0.055050347
0.03699852 -0.039278097 0.03431565 -0.041258506 0.06985601 0.059027642 -0.07284727 -0.020002281
-0.06825205 0.059583962 0.0628723 -0.029572308 0.04808829 -0.063899785 -0.0348002 0.020832777
0.028120518 0.039376575 -0.0004947375 -0.039757755 -0.04413691 0.058972377 -0.028524922 -0.0434824
0.022467017 -0.033941016 0.029495627 -0.054787546 -0.039185792 -0.04576219 -0.054436937 0.018636154
-0.028864391 0.03212841 -0.04575845 0.03037602 0.038066432 -0.06687686 0.066533685 -0.33682433
-0.03148166 -0.03906409 0.0585163 -0.04315698 0.052019183 -0.031095948 0.03467327 -0.041679155
-0.04729127 -0.04771556 0.07004866 -0.15980752 0.04579053 -0.034941614 0.055220205 0.058993295
0.0356826 -0.12724519 0.02550524 -0.055047907 -0.06859002 0.063389495 0.032888077 -0.0117969215
-0.037301295 0.06589806 -0.05444774 -0.05586365 -0.03788491 -0.036404174 -0.035845947 0.0245019
-0.533275 -0.076646365 -0.06785771 0.051187668 -0.057216376 0.0471072 0.06280854 0.05704654
0.07285273 0.01869095 0.2923328 -0.02408756 0.05143143 -0.049213238 -0.019000148 -0.05118253
-0.027252877 -0.10364175 0.06973786 0.050545048 0.03104761 -0.033973522 -0.04418689 -0.045756858
0.021839341 -0.058808774 0.062377807 0.018371437 -0.031478897 0.01776558 -0.04011352 -0.022735633
0.044524882 0.0156143755 0.03428387 -0.055931613 -0.057847954 0.030055981 0.06529564 -0.05841186
0.04482208 0.04828755 0.32600403 0.050270665 0.024722949 -0.037159692 0.017883517 0.03977979
0.049731746 0.04553268 -0.015917504 0.0231909 -0.31294492 0.04334787 0.039395697 0.05453328
-0.016978227 -0.06331941 0.0741621 -0.03514731 -0.025343684 -0.039994106 -0.07590528 -0.049055938
-0.019651666 -0.063138634 -0.07493701 0.027944105 0.0298998 0.026807023 -0.2465615 -0.04712119
-0.051565822 0.05514673 0.05337234 -0.027950987 -0.027454183 0.051987708 -0.029914033 -0.06953363
